Industrial Equipment/mlruns/0/ff51099cede44359ba2434e7f0d6c187/artifacts/discriminator_model/data/model.pth (torch, 30142 bytes, 13 tensors)

weight f4 [64, 5]
000000 b7 bd d5 3e d6 7e a8 3c d9 03 ca 3c 7b 1e 2f 3d
       0.41746303 0.020568293 0.024660038 0.042753678
000010 b8 e6 8a bc 8b 5c d2 3e 90 69 84 bd 1f 95 99 be
       -0.016955718 0.4108623 -0.06465447 -0.29996583
000020 98 b4 0b 3e 98 08 0c be c8 80 34 be ac ac 79 3e
       0.1364311 -0.13675153 -0.17627251 0.24382275
000030 e4 da 5e be de 6f 89 be f1 06 bf be 5c fb 92 be
       -0.21763188 -0.2684316 -0.37309983 -0.28707397
000040 6a e0 a9 bd ff 08 d8 be e5 61 36 be c9 c3 dd be
       -0.08294757 -0.42194363 -0.17810781 -0.43313435
000050 3a 97 5a bd 8c bb ad 3e f0 c0 89 3d 1f 4b d5 bd
       -0.053366877 0.3393215 0.06726253 -0.10414719
000060 47 bb 8e 3e 67 db 89 be a8 d4 98 3e d0 5f 37 be
       0.27877256 -0.26925203 0.29849744 -0.17907643
000070 4c 1d d1 3e d4 fa 30 3d cd fe 22 3d 97 cb 56 be
       0.40842664 0.04320796 0.03979378 -0.20976101
000080 3f 9a fb 3d 67 22 48 3d cf 02 c9 3b c9 0d 02 3d
       0.122852795 0.048860934 0.006134368 0.031751428
000090 fe 20 ce be 2d d0 9d be 1f 11 98 3e 32 8c ee 3d
       -0.40259546 -0.30822888 0.29700562 0.11647834
0000a0 71 84 5e 3c 88 2b e4 be 27 84 1f be 76 4e 1a 3e
       0.013581381 -0.44564462 -0.15577756 0.15068993
0000b0 ae 8d 8a 3c bb 26 11 3e 37 6d d3 3e 77 2d a1 be
       0.016913261 0.14174931 0.41294262 -0.3148
0000c0 60 22 fc bd 13 9f 14 3d 57 fc ec be b4 62 ad bd
       -0.12311244 0.036284517 -0.4628627 -0.08466092
0000d0 63 7d d5 be 37 a1 04 bd e1 ec 74 3e 8b f0 9c be
       -0.41697225 -0.03238031 0.23918487 -0.3065227
0000e0 fc 13 3c be 9a 9a 68 be 7e f7 a3 be a9 91 04 3e
       -0.18366998 -0.22715226 -0.3202476 0.1294619
0000f0 56 0d 4f 3d 0d 22 e2 bd d3 ce 55 3d 5b f4 de be
       0.050549828 -0.11041651 0.052199196 -0.43545803
000100 1b 24 ad bd 57 96 84 be 50 cb 4f 3e aa 20 e9 be
       -0.08454152 -0.2589595 0.20292401 -0.45532733
000110 86 1f d0 be 14 43 ba be 8f 73 c1 be 53 c8 a6 3e
       -0.4064905 -0.36379302 -0.37783477 0.3257471
000120 a5 3c 98 3e fe 32 c5 be ea 1e b0 3e 82 a7 42 3e
       0.29733768 -0.38515466 0.34398586 0.19009212
000130 71 3d 7a 3e 9f 0a b4 be d4 89 c3 3d c0 80 9f 3e
       0.244375 -0.35164353 0.09547773 0.31152916
000140 48 00 65 3e cc a3 95 bd f4 11 dd be a3 83 42 3e
       0.22363389 -0.073066324 -0.4317776 0.18995528
000150 96 28 0d 3e b2 15 e5 3d aa bf fc bd d1 2e 8e be
       0.13785014 0.11185779 -0.123412445 -0.27770093
000160 28 63 78 be 68 7d 2d 3e 23 ee bf 3e 2a e0 8a be
       -0.24256575 0.1694237 0.3748637 -0.2712415
000170 12 ae f4 3d dd c9 d0 3e db dc 40 3d 48 52 c5 3d
       0.11947264 0.4077901 0.047085624 0.096348345
000180 03 29 b5 3e 51 18 33 3e c8 9e 23 be d9 92 76 3c
       0.35382852 0.17489745 -0.15978539 0.01504966
000190 b4 8a 2f be f4 30 8e be 9c d4 9f 3e 5f 75 8d 3e
       -0.17142755 -0.27771723 0.31216896 0.2762861
0001a0 40 a1 ab 3e 52 06 44 3e 2f 5b cd be cd 2f 6b 3e
       0.3352146 0.19143036 -0.4010863 0.22967453
0001b0 0a d3 73 3e 6f 25 a9 3e 9a 03 58 3d 43 4a 10 3d
       0.23810974 0.33036372 0.05273781 0.03522707
0001c0 0f e9 c6 be d1 57 97 3d 89 55 2b be d2 b2 80 3e
       -0.38849685 0.073897965 -0.16731848 0.2513643
0001d0 6b 0e ce 3e c2 54 e6 be a8 b6 be be d8 73 8d be
       0.40245375 -0.4498654 -0.3724873 -0.27627444
0001e0 66 37 d5 3d 2f 23 47 be e9 93 3a be 56 c3 bd be
       0.10410957 -0.19447015 -0.18220486 -0.37063092
0001f0 74 4a 11 3e ce 2a 99 be 0e 20 5f be d5 a4 e8 3e
       0.14188558 -0.2991547 -0.21789572 0.45438257
000200 9b d6 d5 3e 56 d6 90 be d3 f6 c0 3e 7d 45 12 be
       0.41765293 -0.28288525 0.37688312 -0.1428432
000210 e3 32 b7 be 71 f5 90 3e 71 18 41 3e 6a 0b c0 be
       -0.3578101 0.28312257 0.1885698 -0.37508708
000220 b9 ae c0 bc c9 b0 18 3e d2 02 e9 be 9f 90 6a bd
       -0.023520814 0.14911188 -0.45509964 -0.057266828
000230 0f 1c 8f be 00 27 ba 3e 26 33 ea be 6e 60 c1 3d
       -0.27951095 0.3635788 -0.45742148 0.09442221
000240 5a 8e 95 bd 3b c7 6d bc 8c 55 e4 be b0 13 6a 3e
       -0.07302542 -0.014512832 -0.44596517 0.22859073
000250 ca a4 4c bd ee a4 32 be 07 1e 34 be de ab 34 3e
       -0.049961843 -0.17445728 -0.1758958 0.17643687
000260 ea d2 45 3a 16 f8 4b be 6d 5d c1 be 4e 9f be bd
       0.0007546382 -0.19918856 -0.3776659 -0.09307729
000270 09 2c ba bd 5a 04 64 3e 75 dc 48 3e bb bf f9 3d
       -0.0909043 0.22267285 0.19615348 0.12194773
000280 53 7a 9d be 6b a9 d9 be 76 f9 06 3d 56 ac 04 be
       -0.30757388 -0.42512068 0.03295275 -0.12956366
000290 36 4a 06 be 44 78 b5 be bb be 3e 3e 37 34 e5 be
       -0.13114247 -0.35443318 0.18627445 -0.447664
0002a0 87 d0 8d be aa 4b 84 3e 77 d3 35 be 2d 14 7a 3e
       -0.27698156 0.25838977 -0.17756449 0.24421759
0002b0 19 d2 1a 3e 75 22 5a 3e c7 c9 e5 3d a1 46 ae bd
       0.15119208 0.21302207 0.112201266 -0.08509565
0002c0 e4 2f d4 3e 8f d4 7d be 61 dd 3c be f1 bb 3e be
       0.41442788 -0.24788116 -0.18443824 -0.18626381
0002d0 b2 9c d1 be db 97 8f be 00 81 9b 3e 2b 35 27 be
       -0.40939862 -0.28045544 0.30371857 -0.16328876
0002e0 84 77 0e 3d 0e be e5 bd bc 53 58 3d e4 a0 d7 3e
       0.034781948 -0.11217891 0.05281423 0.42114937
0002f0 16 53 c9 3c 6d 84 8d 3d a4 39 75 be e9 73 62 be
       0.024575751 0.06910024 -0.2394777 -0.22114529
000300 44 46 a9 3e c0 cf 83 3e fa 40 d1 3d 8b 38 bc 3e
       0.3306142 0.25744438 0.102174714 0.3676189
000310 e7 2f a5 be 62 2e b9 3d b1 9e a4 3e ef 5c 27 be
       -0.3226311 0.0904205 0.32152322 -0.16344045
000320 89 ca 5b be 88 ca 95 be 5f da dd 3d 0f 40 70 be
       -0.2146398 -0.29256082 0.108326666 -0.23461936
000330 a5 a5 c0 3e 84 a0 99 be ad c9 bd 3e 27 90 ce 3d
       0.37626377 -0.30005276 0.3706793 0.10086089
000340 f4 68 26 bc 2a 9d d5 be c6 f4 8b 3d 36 b2 87 3d
       -0.010156859 -0.4172147 0.06833796 0.06625788
000350 32 06 45 3d 5b b0 74 be db 9b 8d be d9 14 8b 3e
       0.04810161 -0.238954 -0.2765797 0.27164343
000360 22 b0 f2 3d fd 38 17 be f3 1f c2 be 57 5b e3 3e
       0.11850001 -0.14767833 -0.37915 0.44405624
000370 62 dd 8e bd b1 0b a6 3e 4d 43 cb 3e b7 b7 17 3e
       -0.06975819 0.32430795 0.39699784 0.14816175
000380 1e 69 2b 3e 87 1d 79 3d f1 43 c0 3e 25 13 8e 3e
       0.16739318 0.060819175 0.37551835 0.2774898
000390 f7 be f3 3d 12 cb f3 3d 88 3f 30 be 3a ad ce be
       0.11901658 0.11903967 -0.17211735 -0.40366536
0003a0 53 0d 71 3e 77 da 75 be b6 2a 1a 3e 9c c0 20 be
       0.23540239 -0.24009119 0.15055355 -0.15698475
0003b0 e1 89 41 bd 88 23 50 be 34 12 f6 3d 86 35 4d be
       -0.047250632 -0.20326054 0.12015191 -0.20039949
0003c0 05 b7 76 be cc 0b bb 3c e7 c7 09 be 3d 9b 89 3d
       -0.24093254 0.022832774 -0.13455163 0.067190625
0003d0 2e 86 b8 be c0 1e 92 3e b4 eb ae bd 4e c7 e1 be
       -0.3603987 0.28539085 -0.085410506 -0.4409737
0003e0 b3 b4 0e 3e b3 a0 d5 3e 19 2d 14 bd bc 24 0a 3e
       0.13936119 0.41724166 -0.03617582 0.13490576
0003f0 35 27 26 bd a8 a3 32 3e 7b 77 ae be 31 f6 45 3d
       -0.040564734 0.17445242 -0.3407553 0.04833049

bias f4 [64]
000000 e6 fb a4 3e 37 d4 7b be 3e 47 36 3e ce c7 e4 be
       0.32223433 -0.24592672 0.17800614 -0.4468369
000010 9c 74 ba be a3 9a 52 be 05 00 28 3e c8 00 33 be
       -0.3641709 -0.20566802 0.16406257 -0.17480767
000020 9e 18 0c 3d 19 f5 3a be 53 e3 01 3e 3f 50 e3 3e
       0.034203164 -0.1825756 0.12684374 0.4439716
000030 50 8e a5 be 38 d8 10 3e ad 7b df be 9f f9 40 3b
       -0.32335138 0.14144981 -0.43649045 0.002944566
000040 6b 5b 97 be 30 17 fd 3d f5 0f 88 be c7 4f 00 3e
       -0.29561934 0.12357938 -0.26574674 0.12530433
000050 ed b8 3f 3e ba 3f 63 3e dc 94 75 bb e1 c3 82 3e
       0.18722887 0.22192279 -0.003747276 0.2554007
000060 b3 39 6c 3e 26 2d d4 be ef 77 2c 3e a7 1b 56 3d
       0.23068886 -0.41440696 0.16842626 0.052272465
000070 9f 39 06 be 75 3f a6 3c 27 d8 7b bd e8 91 a3 be
       -0.13107918 0.02029393 -0.061485436 -0.31947255
000080 1d 62 a5 3e b9 08 e1 3d a8 cc 9f bd 7f 50 17 3d
       0.32301417 0.10987992 -0.07802707 0.036942
000090 8b 0f 1c 3d 77 84 dd 3e f5 c6 bd be 82 19 99 3d
       0.03810076 0.43265125 -0.37065855 0.07475568
0000a0 24 72 a0 be e5 04 90 3e 19 61 e8 3c 5b 4f c9 3e
       -0.31337082 0.28128734 0.028366612 0.39318356
0000b0 aa 50 39 3e 5d 18 8c 3e ad e8 a0 be 95 9b 60 3e
       0.18097177 0.27362338 -0.31427518 0.2193435
0000c0 a8 34 90 bd 94 b3 d6 3e 71 66 d9 bc 98 4a 5a 3e
       -0.070412934 0.41933882 -0.026538106 0.21317518
0000d0 be b5 5e be 7a ae 8f bd 40 4d d9 3e 23 e0 d9 3e
       -0.21749017 -0.07015701 0.4244175 0.42553815
0000e0 85 ed a5 bd 41 51 87 be af 0c 4a 3e d6 e0 26 be
       -0.08101944 -0.2642918 0.19731401 -0.16296706
0000f0 b6 b2 01 3c af 69 e4 3e f9 17 59 3e e5 37 05 be
       0.007916143 0.4461188 0.21200551 -0.13009603

weight f4 [64]
000000 c2 bf 7e 3f 20 92 83 3f 88 08 82 3f 5c 80 7d 3f
       0.9951135 1.0278969 1.0158854 0.99023986
000010 05 c3 83 3f 42 89 82 3f 63 58 85 3f db 5a 81 3f
       1.029389 1.0198138 1.0417598 1.0105852
000020 af e2 82 3f 8f 41 7e 3f 38 f4 79 3f 64 1b 7d 3f
       1.0225428 0.99318784 0.97638273 0.9886992
000030 9e 1a 7e 3f 4a ba 73 3f a4 9c 80 3f 44 d5 81 3f
       0.99259365 0.9520613 1.0047803 1.0143209
000040 c1 56 7b 3f e0 c9 81 3f 1f f9 82 3f 7d 2f 81 3f
       0.9817925 1.0139732 1.0232276 1.0092617
000050 f1 d6 80 3f 2b be 82 3f b4 f1 82 3f 88 ab 83 3f
       1.0065595 1.0214285 1.0230012 1.0286722
000060 53 13 81 3f e4 a6 7c 3f 1a 8b 7d 3f 4d 3e 80 3f
       1.0084022 0.98692155 0.9904038 1.0019013
000070 00 cb 76 3f 57 a6 77 3f 24 db 81 3f 6a 4a 7e 3f
       0.96403503 0.9673819 1.0145001 0.99332297
000080 21 c0 74 3f 3c 3d 7b 3f ca 09 80 3f 53 20 7f 3f
       0.95605665 0.9814031 1.0002987 0.996587
000090 ce 28 80 3f c9 6e 81 3f 2e 72 85 3f 1d b3 7f 3f
       1.0012453 1.0111934 1.042547 0.9988268
0000a0 19 e9 81 3f 9e 43 7f 3f e5 03 79 3f d1 84 7c 3f
       1.0149261 0.9971255 0.9727157 0.9864016
0000b0 ff a4 7e 3f 36 0d 7d 3f ce 2b 7b 3f fd d0 80 3f
       0.99470514 0.98848283 0.98113716 1.0063778
0000c0 95 55 81 3f 0a 86 7d 3f f7 37 83 3f c7 44 7e 3f
       1.0104243 0.9903265 1.0251454 0.99323696
0000d0 0a e2 81 3f 55 f1 7d 3f dd 04 81 3f 8f 17 81 3f
       1.0147107 0.9919637 1.0079609 1.0085315
0000e0 1b f6 75 3f 5b c4 7e 3f be 7c 78 3f 7d bb 78 3f
       0.9607865 0.99518365 0.9706534 0.97161084
0000f0 e8 d9 83 3f a0 48 7e 3f 17 17 80 3f 02 f9 7d 3f
       1.0300875 0.99329567 1.0007046 0.9920808

bias f4 [64]
000000 45 68 32 bc 61 bf 9c bb c4 2a c8 3a fa 80 03 bd
       -0.010889118 -0.0047835563 0.0015271534 -0.032105424
000010 bf 12 18 3a fe 36 92 bc 5e 99 50 3b a9 08 f8 bc
       0.0005801133 -0.017848488 0.0031829695 -0.030277567
000020 e1 4c 47 ba b8 6d f2 bc 16 06 c1 bc 4b b9 20 3c
       -0.00076027034 -0.029593334 -0.023562472 0.009809802
000030 6b 86 17 bc 95 23 28 bd 99 f9 71 3c 68 fa d1 bb
       -0.009248356 -0.04104956 0.014768981 -0.0064080246
000040 0d bc 3b bc 99 ae c1 bb 96 32 8e bc 7d 33 a6 bc
       -0.011458409 -0.0059107062 -0.017358106 -0.020288223
000050 36 6c 5c bc 95 30 af 3b 46 55 3f b9 89 bf 8d bc
       -0.013453534 0.0053463676 -0.00018246946 -0.017303245
000060 5d ba c3 3b f6 48 86 bc 89 42 2f bc 5f c8 80 3c
       0.005973144 -0.016392212 -0.010697016 0.015720544
000070 2d f1 10 bd d2 e9 23 bd 6d c3 ce 3a 98 05 49 bc
       -0.035386253 -0.04001791 0.0015774794 -0.0122694
000080 21 ec 63 bc 0f fe 2f bd ea b9 4c ba bd 78 e9 bb
       -0.013911278 -0.0429669 -0.0007809686 -0.007124989
000090 45 72 b2 bc 7e 9c b7 3b 1c 50 63 3b 16 3a 96 bc
       -0.021783004 0.005603372 0.00346852 -0.018338244
0000a0 11 33 76 3c 26 0b 2c 3c 95 0f 84 bc 03 32 d2 bc
       0.015026824 0.010500705 -0.016120711 -0.025658613
0000b0 4a f2 13 bb 1c c8 af bc 9b 16 c7 bc 01 91 ae bb
       -0.0022574835 -0.021457724 -0.024302771 -0.0053273444
0000c0 db fb d9 bc 0f af 5a bc b3 22 b0 bc 48 90 c4 bc
       -0.026609352 -0.013347401 -0.02150092 -0.02399458
0000d0 cb bf 89 bc d9 50 9d bc 8e 7d 01 bc 05 91 d6 3c
       -0.016815087 -0.01920359 -0.00790347 0.026192198
0000e0 f4 34 f3 bc 7d 76 4d bc 33 de de bc 89 94 b3 bc
       -0.029688336 -0.012540457 -0.027205562 -0.021921413
0000f0 a2 31 40 3b 43 35 a8 bb fb d0 8f 3c 4f 6e eb bb
       0.0029326458 -0.0051333024 0.017555704 -0.0071847807

running_mean f4 [64]
000000 8d b7 9d 3e 5b 69 70 be 83 db 4d 3e 15 4a d1 be
       0.308041 -0.2347769 0.20103268 -0.40876833
000010 27 1f ba be cc 2b 30 be 71 f1 19 3e 30 5b 1e be
       -0.36351892 -0.17204207 0.15033509 -0.15464473
000020 18 0a 25 3d 2e 1d 21 be 3d e7 2f 3e cb 38 ed 3e
       0.04029283 -0.15733787 0.17178054 0.46332392
000030 39 af ac be 80 2b 3b 3e 62 3f e5 be 4f 7e f2 3c
       -0.33727434 0.18278313 -0.4477492 0.029601244
000040 10 22 89 be aa f7 0a 3e bb 44 92 be bd 5c e6 3d
       -0.267838 0.13571039 -0.28568062 0.11248157
000050 16 84 2b 3e 3d fc 46 3e 9b 1d d9 3c bc 66 91 3e
       0.16749606 0.19432159 0.026503375 0.28398693
000060 0f 23 6e 3e 4a 07 e0 be b1 2d 3e 3e 6a b4 3a 3d
       0.23255561 -0.4375556 0.18572117 0.045582213
000070 be b3 a1 bd 5a ca ae bb b9 83 63 bd 1c 44 aa be
       -0.07895611 -0.005334181 -0.055545542 -0.33255088
000080 85 5d a4 3e 12 8f 1e 3e cc 43 9d bd 89 06 82 3d
       0.321026 0.15484264 -0.07678947 0.06348903
000090 f3 25 a6 3c 19 44 cf 3e 4f 0e c7 be 59 5e 62 3d
       0.020281767 0.40481642 -0.38878104 0.05526576
0000a0 5a c1 a5 be c8 47 94 3e 3f 37 a6 3c 51 c9 c8 3e
       -0.32374078 0.28961015 0.020290015 0.39216092
0000b0 40 f8 23 3e 08 4a 84 3e 06 e7 ac be d5 f7 76 3e
       0.16012669 0.2583773 -0.33770007 0.24117978
0000c0 46 94 4f bd c7 b1 e3 3e 30 fc 8b bc e0 90 53 3e
       -0.050678514 0.4447157 -0.017088026 0.20660734
0000d0 e1 f3 7d be e0 26 a3 bd e3 bb dd 3e c6 a4 d0 3e
       -0.24800064 -0.07966399 0.4330741 0.40750712
0000e0 92 ce 18 bd 28 6f 6f be 52 60 4d 3e 9a 50 37 be
       -0.037306376 -0.23382246 0.20056275 -0.17901841
0000f0 c6 cc 92 bc c8 3d e4 3e d8 93 58 3e 38 6b 27 be
       -0.01791991 0.44578385 0.21150148 -0.16349494

running_var f4 [64]
000000 3a 33 79 3d 40 9f c6 3d c2 87 f2 3d 34 f3 2f 3e
       0.06083987 0.09698343 0.118423 0.17182618
000010 d9 f8 93 3d f7 96 02 3e e1 25 af 3c 9f b4 0b 3e
       0.07225198 0.12752901 0.021380367 0.1364312
000020 34 9a ba 3d f6 01 eb 3d 42 fa 31 3e 04 b0 df 3d
       0.09111443 0.114749834 0.17380622 0.10922244
000030 0e c1 9f 3d 33 e7 52 3e 51 c6 40 3e 15 5a fe 3d
       0.07800494 0.20596008 0.18825652 0.124195255
000040 52 d4 dc 3d 39 ff 93 3d 55 fa f6 3d 7f fe 9a 3d
       0.107826844 0.07226414 0.12059466 0.075680725
000050 40 69 15 3e be 4c 0e 3e d6 26 88 3d af 57 76 3e
       0.14590931 0.13896462 0.06648032 0.24056886
000060 0f 3c b3 3d 60 9c 69 3e da d5 0d 3e a1 42 fc 3d
       0.0875169 0.22813559 0.13851109 0.12317396
000070 0e 08 15 3e b9 8b d1 3d 49 7a b0 3d d3 d0 33 3d
       0.14553854 0.10231728 0.08617074 0.043900322
000080 aa 01 f8 3d 66 10 30 3e a4 18 71 3d 82 10 d8 3d
       0.121096924 0.17193756 0.05886139 0.105500236
000090 dd 98 09 3e c1 6d 92 3d 6c 8d e2 3d f6 ec e6 3d
       0.13437219 0.0714984 0.1106213 0.112756655
0000a0 f4 0a ff 3d 61 59 12 3e 6d fb 66 3d 73 58 2e 3e
       0.12453261 0.14291908 0.056392122 0.17025928
0000b0 f8 51 e9 3d b5 a2 c0 3d 14 d0 f5 3d 6e a7 38 3d
       0.113925874 0.09406034 0.120025784 0.04508155
0000c0 d3 8c 99 3d 8c b6 37 3e 09 02 78 3d 6d 6f 02 3e
       0.07497563 0.1794073 0.060548816 0.12737818
0000d0 0e 23 d3 3d b9 51 29 3e ee 12 12 3e 7f 0c bf 3d
       0.103094205 0.16535081 0.14265034 0.09328555
0000e0 a0 64 1b 3e f8 39 3c 3e fa 04 28 3e dc 47 f8 3d
       0.15175104 0.18381488 0.16408148 0.12123081
0000f0 bb de f8 3d 40 3e 17 3e e5 08 e0 3d ed 97 b0 3d
       0.121518575 0.1476984 0.109391965 0.086227275

weight f4 [64, 64]
000000 27 8e f5 3d 7b 00 71 3d f1 e2 91 3c cb bf a8 bd
       0.11990004 0.05883835 0.01780841 -0.082397066
000010 d1 81 8e 3d 17 42 75 bd 95 ba ab bd 77 2e 5e bc
       0.06958354 -0.05987748 -0.08385197 -0.013560883
000020 11 9f e2 bd c8 3d a8 3d a2 33 98 bd f4 8a f8 bc
       -0.11065496 0.08214909 -0.07431723 -0.030339696
000030 d8 b7 11 3b 9c 2d bf 3d 81 4b 03 3e b7 e5 66 3d
       0.0022234824 0.09334871 0.12821771 0.056371417
000040 4c 33 12 bd 46 bc d5 3d 7b fd e1 bd fb 09 f3 3d
       -0.03569345 0.10436301 -0.11034676 0.11867138
000050 1e 18 98 bd ce 31 d6 3c b7 90 9a bd db 30 e3 3d
       -0.07426475 0.026146796 -0.075471334 0.11093303
000060 c6 3e 13 bd f8 01 0a 3d 04 39 b6 3d ce 24 00 3d
       -0.035948537 0.033693284 0.088975936 0.0312851
000070 cc e4 74 bd 83 af cb 3d 16 b3 3e bd cb 55 f7 bd
       -0.05978851 0.099455856 -0.04655751 -0.120769106
000080 40 27 8b 3d e0 fe d8 3d e0 49 d0 bd a1 7b 91 3d
       0.06794596 0.105954885 -0.101703405 0.071036585
000090 4d 2e 73 bd af ad d5 3d 6b 6c 43 3d 94 ff ce bd
       -0.059370328 0.10433518 0.047710817 -0.101073414
0000a0 96 8c ad 3d 48 53 d9 bd 82 2f 71 bd 8a f0 60 ba
       0.0847408 -0.10611588 -0.058883198 -0.0008580765
0000b0 cc b3 87 3d 00 eb e1 bd 46 25 7b bd 2d 99 61 bd
       0.066260904 -0.11031151 -0.061314844 -0.05507772
0000c0 d1 ee 0d 3e 3d 49 3c bc ed ee c5 bc 21 bb d8 3c
       0.13860632 -0.011492071 -0.02416178 0.026456418
0000d0 f3 e7 8e bd a4 db d3 bd 2b 13 a5 3a b3 e1 ff bd
       -0.069778346 -0.103446275 0.0012594213 -0.124942206
0000e0 0f 3a e0 3d 12 9e 6f 3d 63 20 ca 3d 74 cd 0b be
       0.10948574 0.058500357 0.098694585 -0.13652593
0000f0 51 87 50 3d 12 85 0d 3d 3c 74 9d bc b1 b8 cd 3c
       0.050910298 0.034550734 -0.019220464 0.025112482
000100 14 e1 20 3d eb a5 4c bb 89 48 d1 3d ed 0e 88 bc
       0.03927715 -0.0031226825 0.10218913 -0.01660868
000110 c0 e9 6e bc 76 d1 07 3e ef 12 96 3d 72 3b bb 3c
       -0.0145820975 0.13263497 0.0732783 0.022855494
000120 9b de 95 3d bc bb 38 bd d3 4d 33 bd b1 97 67 bd
       0.07317849 -0.045100912 -0.04377539 -0.05654115
000130 ea 05 59 bd 4c b6 01 bd 6a 70 80 3d ac da 7d bd
       -0.052984156 -0.031667992 0.06271441 -0.06197612
000140 0f e0 bb 3d 50 df 88 3d 1d 96 f0 3d 42 f2 b3 bd
       0.09173595 0.066832185 0.11747382 -0.087864414
000150 2a f3 d6 3c a2 0e 09 be 86 7d 88 bd 91 11 a1 bd
       0.026238997 -0.13384488 -0.06664567 -0.07864679
000160 ec a0 32 bd 77 58 ca 3d 83 5b a1 bd 17 f0 ae bd
       -0.0436105 0.098801546 -0.078787826 -0.08541887
000170 28 ed d3 3d 5c a4 09 be 3b a9 e3 bd 4a ba ea 3c
       0.10347968 -0.13441604 -0.111162625 0.028653283
000180 9f 1c aa 3d 69 fb 3b 3d 18 9c 04 bd bc 6b 3f 3c
       0.0830624 0.04589406 -0.032375425 0.011683401
000190 11 58 37 3d 5d ff 08 bb f9 6b 1a 3d b2 b6 c6 3d
       0.04476172 -0.0020904162 0.037700627 0.09702815
0001a0 1c 40 94 3d 74 b0 9f bc 19 71 7d bd 04 70 e2 3d
       0.072387904 -0.01949332 -0.061875436 0.110565215
0001b0 ed 63 1d 3d 1e 03 e4 3c b3 ff 48 3c fe 7c bf bc
       0.038425375 0.027833518 0.012267995 -0.02337503
0001c0 f0 31 62 3d fe d5 e9 bd ba bc a9 bd 6c d7 1e 3d
       0.055223405 -0.11417769 -0.0828795 0.03877966
0001d0 fb c9 35 bd 22 dc 95 bd dd 4c 9f 3d 0b c9 83 3d
       -0.044382077 -0.073173776 0.077783324 0.0643483
0001e0 fd 76 e0 bc 76 d0 26 bc ba ae 99 3d 10 e6 7d 3c
       -0.027400488 -0.010181537 0.075040296 0.015496746
0001f0 aa e4 be bd 86 59 b5 3d 1a 37 cc bd 77 e2 09 3e
       -0.09320958 0.08854966 -0.09971447 0.13465296
000200 e8 94 dc bd 95 7e c1 3d e2 d5 a0 3d 5b 6b 8e bc
       -0.10770589 0.09447972 0.07853295 -0.017385175
000210 e6 8a da 3d 0e 44 ca bc bb 70 e4 3d 04 b8 6d 3d
       0.10671024 -0.024690654 0.11154314 0.05803682
000220 28 ae 55 3b c6 12 29 3b a8 46 92 3d 5d 60 0b bc
       0.0032605026 0.0025798543 0.07142383 -0.0085068615
000230 9f 78 cc 3d 6a 30 ae bc a7 2f b6 3c 49 09 0a be
       0.09983944 -0.02126332 0.02223952 -0.13480105
000240 d1 88 b8 bd ea f5 bc bd e1 12 a1 bb 9e df fd bb
       -0.09010471 -0.09226592 -0.0049155806 -0.0077476045
000250 c4 04 1c 3e 01 5a 70 bc 60 85 39 bd 7f 45 f3 bd
       0.15236193 -0.014669896 -0.045293212 -0.1187849
000260 84 18 02 bd db 77 54 bd a7 06 bc 3d 6c 3d c7 3d
       -0.03176166 -0.051872116 0.09180956 0.09728512
000270 d7 c9 16 3c 4c a7 8e 3d 84 84 0d 3d 44 cc 2e 3e
       0.009203396 0.06965503 0.034550205 0.17070109
000280 be f4 c5 3c a4 4f 8b bd 0e 51 96 bd 54 d3 59 bd
       0.024164554 -0.068022996 -0.07339679 -0.053180054
000290 96 31 c2 3c c6 94 23 bd b5 d4 19 3e 5d 3d ce 3c
       0.023705285 -0.039936803 0.15022548 0.025175745
0002a0 bb 61 fe 3d d4 74 e6 3b ad 04 93 3d f4 57 14 bc
       0.12420984 0.00703297 0.07178626 -0.009054173
0002b0 07 d7 c7 bd a2 da c6 bd b8 bf 0f bd 84 d2 85 bd
       -0.0975781 -0.0970967 -0.035094947 -0.06534293
0002c0 55 9e 2a bc a9 70 4a bc ff 2f c5 3d 46 58 5f 3d
       -0.010413726 -0.012355962 0.09628295 0.054527543
0002d0 1e 2d e9 3c 15 a7 53 bd 3b dc 22 be a7 c2 e1 3d
       0.028463896 -0.051673014 -0.15904324 0.11023455
0002e0 1b 1f f6 3d 4f c6 af bd 78 66 a8 3d d4 cc a0 bd
       0.12017652 -0.08582746 0.08222669 -0.07851568
0002f0 ab 73 a1 b9 d0 02 88 bd 8a 98 8c 3d 92 e7 0d 3d
       -0.00030794492 -0.066411614 0.06865032 0.03464467
000300 1f 70 74 bc e5 cb 15 be b5 82 53 3c 21 2b 35 bd
       -0.01491931 -0.14628561 0.012909581 -0.044230584
000310 c5 f3 6d 3c 6e a6 45 3c f1 dc 57 bb ee d0 dc bd
       0.014523451 0.012063606 -0.0032938088 -0.10782038
000320 5f f7 aa 3d a3 ed 22 bc a3 c2 a8 3c 1b 06 ed bc
       0.083479635 -0.009944352 0.020600623 -0.028933575
000330 f6 a7 11 be d8 26 c6 bc 54 68 c3 3d 69 55 99 bc
       -0.14224228 -0.024188444 0.095413834 -0.018717485
000340 da 3d 25 bd 5c 2e 27 be 48 c0 03 be 1c 33 a3 3d
       -0.04034219 -0.16326278 -0.12866318 0.07968733
000350 99 5c 7d 3d af b9 3f bd 68 55 86 bd 81 45 01 be
       0.061855886 -0.04680794 -0.06559259 -0.1262417
000360 02 40 b0 bc 29 fd 8e bd a4 63 7f 3d 75 d1 71 bd
       -0.021514896 -0.0698188 0.062350884 -0.059037644
000370 aa 0f c1 3d a9 65 80 bd 9b fb 92 3d 9f 32 7c 3c
       0.09426816 -0.0626939 0.07176896 0.015392928
000380 96 6e 98 3d 34 5e 7a 3c 86 72 94 bd 7c 1b e8 bd
       0.074429676 0.015281249 -0.07248406 -0.11333367
000390 a3 3a ad 3d de 65 b0 bd bc 20 ff 3c 12 c0 cc 3d
       0.0845845 -0.086131796 0.031143539 0.09997572
0003a0 c8 be 04 bc db 13 ca 3d 7e 23 31 bd c6 9d 31 bd
       -0.008102126 0.098670684 -0.04324674 -0.043363355
0003b0 6c 9c 7e bd 5e 95 24 3d c8 be ea 3d 7d 92 8d 3d
       -0.062160894 0.04018151 0.1146217 0.06912706
0003c0 03 77 13 3e 47 13 a4 bd 49 84 51 3c 2f e3 9f 3d
       0.14400868 -0.08011489 0.012787887 0.07807004
0003d0 c1 a3 b3 3c 07 9c cb bd 8b de 82 3d 5a f3 c9 bd
       0.02192867 -0.09941869 0.06390103 -0.09860869
0003e0 e1 62 ba 3c f2 2f 0c 3d de 3e aa 3d 53 cd 94 3c
       0.022752227 0.03422541 0.08312772 0.018164312
0003f0 33 cc 10 3a 95 26 be bd 0d 34 55 bc 64 c4 3e 3c
       0.0005523592 -0.09284703 -0.013012898 0.011643503

bias f4 [64]
000000 4c 7a 78 3d 21 05 f4 bd e0 01 e9 3d 07 54 5d 3d
       0.060663506 -0.11915041 0.11377311 0.054035213
000010 85 6b fc 3a c6 ae da 3c 3b a7 85 bd 85 db 17 bc
       0.0019258118 0.026694667 -0.06526037 -0.009268646
000020 a4 0e f5 3d 6e d4 89 3d ee 6e 1c 3d 8f 08 ae 3d
       0.11965683 0.06729971 0.03819173 0.08497726
000030 52 3e dd bc 8a f5 0c b9 ba 11 fe bb 21 e0 eb 3c
       -0.027007256 -0.00013442911 -0.007753578 0.028793396
000040 a4 7a 25 3d 4e 51 f2 3d 33 31 d5 bd b0 e4 90 bd
       0.040400162 0.11831914 -0.10409775 -0.07074869
000050 4c 49 ef 3d b0 32 e5 3d dc 26 dc 3d d6 16 b4 bd
       0.11683902 0.111913085 0.10749599 -0.08793418
000060 48 6a 3a bd 18 a4 6d bd 57 76 da bd f2 34 a1 bc
       -0.045511514 -0.05801782 -0.10667103 -0.019678567
000070 fa 2e 62 3d 21 5d a4 3d 64 a7 23 bc 2f 13 b9 bd
       0.05522058 0.080255754 -0.0099886395 -0.09036862
000080 3b 87 42 3d 3e 52 c5 bd c9 12 8e 3d 18 e2 ef bc
       0.047492247 -0.09634827 0.06937177 -0.029282615
000090 52 a8 0d 3d 0b ea cd bd e3 9f 81 bd b9 0d 00 bd
       0.03458435 -0.10054406 -0.06329324 -0.031263087
0000a0 17 c0 52 3c a0 94 fd 3d c0 bd ad 3d 4c 57 81 bc
       0.012863181 0.123818636 0.084834576 -0.015788697
0000b0 55 b8 8d 3d 43 f3 2e bd 20 e3 79 bd b2 5f 40 3c
       0.06919924 -0.04271246 -0.06100762 0.011741566
0000c0 3d e7 dd 3d c4 c5 bf 3d f0 1c 8e bd a3 40 73 3d
       0.10835121 0.09363893 -0.06939113 0.059387814
0000d0 f1 ef f6 bd fc 2a 12 bd 38 b7 8a 3d 31 19 ec bc
       -0.12057484 -0.035685524 0.067732275 -0.028820606
0000e0 4d bf 18 3d 28 77 8f bd aa 36 ed 3d 96 c5 ac 3d
       0.037291814 -0.07005149 0.11582692 0.08436124
0000f0 cb 47 44 bd 71 82 71 3d 6c f5 d8 3d 7b 60 1c 3c
       -0.04792003 0.05896229 0.105936855 0.009544487

weight f4 [64]
000000 3e 68 70 3f f8 a5 6e 3f bc e7 71 3f 0d 5c 6e 3f
       0.9390906 0.93222 0.94494224 0.9310921
000010 a7 59 7e 3f 88 33 6a 3f 81 d7 6b 3f ab ad 69 3f
       0.9935555 0.9148488 0.9212571 0.9128062
000020 51 07 7c 3f 1a ef 76 3f 6c 19 6d 3f 09 c5 6a 3f
       0.98448664 0.9645859 0.92616916 0.917069
000030 10 d1 6f 3f 97 8b 7e 3f ad 43 71 3f 9e 18 6d 3f
       0.9367838 0.9943175 0.9424389 0.9261569
000040 37 d9 6e 3f d9 d7 70 3f dc 14 80 3f 88 19 7a 3f
       0.93300194 0.9407936 1.0006366 0.9769521
000050 47 e2 6b 3f 05 f5 74 3f d3 b3 68 3f 87 14 70 3f
       0.92142147 0.9568637 0.9089939 0.9378132
000060 c4 43 6f 3f b1 8d 75 3f 0c 19 83 3f 30 b5 71 3f
       0.9346278 0.9591933 1.0242019 0.94417095
000070 67 a0 76 3f 8f 9d 6e 3f 57 54 74 3f 41 47 70 3f
       0.96338505 0.93209165 0.9544119 0.93858725
000080 82 a6 6e 3f e6 e4 6e 3f da c5 68 3f 30 b3 73 3f
       0.9322282 0.9331802 0.909269 0.95195293
000090 b7 b3 7d 3f a8 95 6e 3f ff 15 71 3f 1d fc 67 3f
       0.9910235 0.9319711 0.9417419 0.9061907
0000a0 be 79 7c 3f 2e 2c 7d 3f a7 cc 76 3f a2 20 76 3f
       0.98623264 0.9889554 0.96406025 0.96143544
0000b0 ec 00 82 3f a3 53 82 3f 01 5e 69 3f c2 8d 6f 3f
       1.0156531 1.0181774 0.91159064 0.9357568
0000c0 7f de 7c 3f b8 17 73 3f 4e 03 6d 3f 72 dc 6d 3f
       0.98777 0.94958067 0.9258317 0.929145
0000d0 d5 28 74 3f 99 7e 78 3f 94 50 80 3f 11 b4 7e 3f
       0.95374805 0.9706817 1.002459 0.9949351
0000e0 2b 21 6f 3f ed 21 82 3f ad 05 81 3f 6c a3 80 3f
       0.93409985 1.0166603 1.0079857 1.0049872
0000f0 0c ae 70 3f a0 53 79 3f dd 52 6d 3f 42 c8 7e 3f
       0.94015574 0.97393227 0.92704564 0.9952432

bias f4 [64]
000000 6d 1d 28 bd c4 e2 99 bd f4 86 a0 bd e6 4c 0b bd
       -0.041043688 -0.07513955 -0.0783824 -0.034008883
000010 99 34 ef bc d0 a6 1c bd a9 61 44 bd a2 56 0c bd
       -0.029199885 -0.038245022 -0.0479447 -0.034262307
000020 0f cf 31 bc 89 0c 5a 3a d6 9f 69 bd 22 f1 ea bd
       -0.010852589 0.0008317908 -0.057037197 -0.11471774
000030 f3 66 04 3b f6 18 8e bc 5b 1c 9a bd 6e ee 97 bd
       0.0020202964 -0.017345887 -0.075249396 -0.07418524
000040 1e dd 80 bd 1d b9 61 bd 11 35 fb bc 76 da d7 3c
       -0.06292175 -0.05510818 -0.030664952 0.026349287
000050 52 02 ed bd 85 b7 02 bd 6e 58 47 bd c8 88 99 bd
       -0.11572708 -0.0319133 -0.048668317 -0.07496792
000060 ee ce 84 bd 97 64 ee bc b6 07 a1 bd eb 9f 8c bd
       -0.06484781 -0.0291007 -0.07862799 -0.068664394
000070 74 4d 61 bc 03 47 a0 bd 7a f9 df bc c8 e2 37 bd
       -0.013751376 -0.078260444 -0.02734064 -0.04489401
000080 86 22 01 bd d9 86 82 bd b8 9f a8 bd 13 7f 38 bd
       -0.031527065 -0.063733764 -0.08233589 -0.045043062
000090 83 8e fb bc 7e 2a 84 bd 9f c1 a5 bd 3b 5e ab bd
       -0.030707603 -0.06453417 -0.08093571 -0.083675824
0000a0 88 7d 6f bc 82 05 45 bd 1b 38 a7 bc 7e 76 a6 bc
       -0.014617331 -0.048100956 -0.020412495 -0.020320173
0000b0 bd b2 c2 bc 91 09 98 3c 9d de 9f bd 7d dc 03 bd
       -0.02376687 0.01855925 -0.07806132 -0.032192696
0000c0 3c 0e 97 bb f0 74 55 bd 8b 28 99 bd 75 eb 71 bd
       -0.004609851 -0.052113473 -0.07478436 -0.05906244
0000d0 e2 44 fe bc 8e f6 ad bc 53 08 8a bd 7c d5 96 3c
       -0.031038705 -0.02123573 -0.06739869 0.018412344
0000e0 32 77 ba bd 96 42 85 3c a9 5e 45 3c cd e4 c8 3c
       -0.09104766 0.016267102 0.0120464945 0.024523163
0000f0 b9 a5 db bb 9d cb ef bc 2c 4c ce bd d1 c1 66 bd
       -0.0067031053 -0.029271895 -0.100731224 -0.05633718

running_mean f4 [64]
000000 58 31 06 3e f6 26 aa 3b 84 2d a5 3e e9 ee f2 bd
       0.1310476 0.005192633 0.32261288 -0.11861975
000010 2f a3 82 3e 19 5d 30 3e 08 26 0d bf 82 98 bd 3b
       0.25515124 0.17223014 -0.55136156 0.0057860026
000020 7e fc 74 be 1d 61 9d 3e ab 29 4d 3e 0b 47 42 bd
       -0.23924443 0.30738154 0.20035426 -0.047431033
000030 97 8f 01 bc 59 f6 6e be 98 d6 79 be 16 cc c9 bd
       -0.00790777 -0.23336162 -0.24398267 -0.098533794
000040 e7 55 03 be 29 16 be 3e 40 15 9b be ce e3 97 3e
       -0.12825738 0.37126282 -0.3028965 0.2966599
000050 ea ec 87 3d f5 18 a2 3e 87 69 9f be a8 42 d8 be
       0.06636985 0.31659666 -0.31135198 -0.42238355
000060 2a 3f be be 9e ac 52 bf f4 fb 05 bf bc 9c f9 bd
       -0.37157565 -0.8229464 -0.52337575 -0.12188098
000070 9e cb 82 3e bd 4a 84 3e 5e 55 03 bf 33 52 52 3e
       0.25545973 0.2583827 -0.51302135 0.20539169
000080 d6 5f 8e 3e 02 11 e5 be 30 76 47 be 67 ac 09 3e
       0.27807492 -0.44739538 -0.19478679 0.13444673
000090 94 df 16 bd 27 e7 8c be ff 50 c5 bc e3 79 7b be
       -0.036834314 -0.27520105 -0.024086474 -0.24558215
0000a0 fe 1b 10 3d fa eb d6 bc bf 4e d2 bb b5 4a e2 bd
       0.035182945 -0.02623557 -0.0064180787 -0.110494055
0000b0 65 bf 21 be 60 8b 09 bf 37 9b ae be 13 25 f0 3e
       -0.15795667 -0.53728294 -0.34102795 0.46903285
0000c0 d4 ef 7f 3e d5 62 83 be f1 c7 20 bf 4d 38 05 3d
       0.24993831 -0.2566134 -0.62805086 0.032524396
0000d0 2d 29 b9 3d ce ac 9f be 76 03 94 be d2 d5 8f 3e
       0.09041057 -0.31186527 -0.2890889 0.2809282
0000e0 0b 03 ca 3d ca 1a cc 3c c2 dc 2a 3e 02 41 37 3e
       0.09863862 0.024915118 0.16685775 0.17895892
0000f0 59 c4 c8 3d 15 de 8d bd 65 97 05 3f cd 3f e1 be
       0.09803075 -0.069271244 0.52184135 -0.4399399

running_var f4 [64]
000000 f9 29 c2 3e ba 29 2f 3e a4 c1 b8 3e b2 fb 27 3e
       0.37922648 0.17105761 0.36085236 0.16404608
000010 81 b0 86 3e 5e 1c 90 3e e0 b1 a3 3e c1 15 27 3e
       0.26306537 0.28146642 0.31971645 0.16316892
000020 ab ba 8c 3e ca 35 0d 3e a2 d6 98 3e d1 1b db 3d
       0.27486166 0.1379005 0.29851252 0.10698665
000030 9e bd 60 3e fa 07 b3 3e c2 31 44 3e 6f 3a 84 3e
       0.21947333 0.34967023 0.19159606 0.2582583
000040 f3 a2 07 3e fb 8f cb 3e 15 41 9c 3e 9e 7f 26 3e
       0.13245754 0.39758286 0.30518404 0.1625962
000050 31 1f 00 3f e6 42 15 3e 90 c4 6d 3e f3 f3 6e 3e
       0.50047594 0.14576301 0.23219514 0.23335247
000060 cb 5e 8e 3e 59 8e cf 3e 94 f4 da 3e 92 e4 4c 3e
       0.27806696 0.4053829 0.42764723 0.20009068
000070 4e 57 cc 3e 26 9c 93 3e 4b d2 62 3e 7f 35 62 3e
       0.39910358 0.2883007 0.22150533 0.2209072
000080 12 aa f8 3e e5 cb 95 3e e2 dc 8d 3e 9b f7 6c 3e
       0.48567253 0.29257122 0.27707583 0.23141329
000090 a8 9f 49 3e 97 ad 85 3e 67 19 97 3e 61 ad 7f 3e
       0.1968981 0.26109 0.29511568 0.24968483
0000a0 38 03 b4 3e 91 49 76 3e 1a 38 58 3e b5 d8 9d 3e
       0.35158706 0.24051501 0.21115151 0.30829397
0000b0 ab 5f 2f 3e d2 ef 92 3e 9c 6a 9b 3e 00 66 b0 3e
       0.17126338 0.28698593 0.30354774 0.3445282
0000c0 b4 35 ab 3e 20 f8 56 3e 8c e5 ae 3e 2e 9d 0e 3e
       0.3343941 0.2099309 0.34159505 0.13927147
0000d0 c6 af b9 3e e5 b6 19 3e a3 11 b0 3e ee 36 88 3e
       0.36266917 0.15011175 0.34388456 0.26604408
0000e0 84 cd 4f 3e b1 a5 3d 3e a9 8a 7a 3e b2 99 87 3e
       0.20293242 0.18520238 0.24466957 0.26484448
0000f0 b2 b4 6d 3e ca de 51 3e 99 1d 9b 3e 1d df d4 3e
       0.23213461 0.20495144 0.3029602 0.41576472

weight f4 [1, 64]
000000 d4 1b a0 3c 2f d4 f0 3b b6 06 17 3c 63 2a 9c bc
       0.01954452 0.007349513 0.009217909 -0.01906318
000010 aa d0 30 bc 01 77 95 bc 16 d3 05 bd de 2a 8b bc
       -0.010791937 -0.018245222 -0.03267201 -0.016988214
000020 d0 a2 8b bb 1a 84 c7 3b 66 60 13 3c 28 7e 7b 3b
       -0.004261352 0.006088746 0.008995151 0.0038374756
000030 b8 3f 0f bc 57 f5 69 bc e0 d7 86 3c c6 f7 b1 3c
       -0.008743219 -0.014279685 0.01646036 0.021724593
000040 80 2a 69 3c fc d2 ab 3c 65 d4 4b bc 2e 92 4f bc
       0.014231324 0.020974629 -0.0124407755 -0.012669129
000050 d7 6e 18 3d 87 8e 7e bc 50 2c 30 3c 6b d2 6c 3c
       0.03721508 -0.015536911 0.010752752 0.014454464
000060 5d e8 d9 3c 00 0f 9e bc b7 2a ca bc 0c b0 26 3c
       0.026600057 -0.019294262 -0.024678571 0.010173809
000070 44 41 f1 38 bd e3 0e 3c 16 cb 1d 3c d7 a4 9b bc
       0.00011503932 0.008721289 0.009630939 -0.0189995
000080 22 a8 7a 3c d5 cf d1 3c 95 cb 8c 3b 4f e0 0a 3c
       0.015298875 0.025611797 0.00429673 0.008476331
000090 50 49 4f bc af f4 96 3c 11 34 23 3c eb f8 2e 3c
       -0.012651756 0.018427221 0.009961144 0.010679464
0000a0 f6 01 89 3c 59 2f 37 bc aa c7 21 b9 c8 a2 62 3c
       0.016724568 -0.011180722 -0.00015428537 0.013832755
0000b0 cb 24 6f bc 5a 00 0e bc 3b 78 fa 3b 52 a8 b0 bc
       -0.0145961745 -0.008667076 0.007643727 -0.021564636
0000c0 8f 75 7c 3c 88 2e 68 3c 4d 48 0f bd 4f cc 13 3c
       0.0154088875 0.01417125 -0.03498106 0.009020879
0000d0 1a 68 56 3b e8 87 d8 bb ae 89 40 bc fd 4e 2a bc
       0.0032715858 -0.006607998 -0.011751575 -0.010394809
0000e0 73 99 9c 3c 8c 2d 07 bb d9 53 f0 bb 22 2c 13 bc
       0.019116139 -0.0020626513 -0.007334214 -0.00898269
0000f0 0b fe 08 bc 64 92 12 3c d5 5a 92 bc f5 82 51 bc
       -0.00836135 0.008946035 -0.017865578 -0.01278757
