Industrial Equipment/mlruns/0/ab8a2fd96f434fc18c30e80986494e04/artifacts/discriminator_model/data/model.pth (torch, 30142 bytes, 13 tensors)

weight f4 [64, 5]
000000 f1 69 92 3d ff 16 9b bd ce a2 b4 3d b0 73 64 be
       0.07149113 -0.075727455 0.08820115 -0.22309756
000010 04 c5 3b 3b b6 25 e4 bd 87 42 87 be 54 8f 99 3e
       0.0028651366 -0.11140005 -0.26417944 0.29992163
000020 1e ea b9 3e dd 18 d6 3e 06 c6 88 be 71 c2 61 3e
       0.3631143 0.41815844 -0.2671358 0.2204683
000030 59 78 14 be 5e e9 f7 bd 18 4c 43 be 39 f6 c5 be
       -0.14499034 -0.12105058 -0.19071996 -0.38664415
000040 e9 89 95 3e b0 70 d1 3e 8a 11 8f be 4a 92 94 bc
       0.2920678 0.40906286 -0.2794307 -0.018136162
000050 85 0d 8d be 30 e8 b0 be ef c6 10 be 23 07 d4 3e
       -0.27549377 -0.34552145 -0.14138387 0.41411695
000060 72 11 77 be 60 34 9e 3e db 7f e5 3e ff c8 9f 3e
       -0.24127749 0.30899334 0.44824108 0.31208035
000070 a7 ca 6c be f2 39 d4 be b6 9c 6c 3e ce fa 6c be
       -0.2312418 -0.4145046 0.23106655 -0.2314255
000080 52 8c 18 be 2a ed 1d be 43 a1 ca be 56 98 81 3e
       -0.14897278 -0.15422502 -0.39576158 0.25311536
000090 26 f7 fd 3d 6e 2a 03 be f5 ea 5d be 4f b6 63 be
       0.124006554 -0.12809154 -0.2167166 -0.22237514
0000a0 fa b9 62 3c 2d 57 eb bd 82 10 1f bd 2f 23 a6 3d
       0.013838286 -0.11491237 -0.038834102 0.081121795
0000b0 87 f3 cf 3e 79 ab 0f be 3c be 99 3e 64 c1 af 3e
       0.40615484 -0.14030255 0.3002795 0.34327233
0000c0 ea 78 0e 3e e2 8b 8c 3e 1e 43 d0 3e 21 e6 ce 3e
       0.13913313 0.27450472 0.40676206 0.4040995
0000d0 91 f5 9f 3e bc 06 80 be 23 70 4c be 43 d5 e2 3e
       0.3124204 -0.25005138 -0.19964652 0.4430333
0000e0 55 fb 17 be b4 43 df be 0d 5d 4c be a4 f3 81 be
       -0.1484197 -0.4360634 -0.19957371 -0.25381196
0000f0 dc 04 e4 3d a8 c9 41 3c 64 64 39 3e fb cc 65 3d
       0.11133739 0.011827864 0.18104702 0.056103688
000100 12 21 0a bd aa e4 fb bd d5 21 b2 be b2 6c b0 be
       -0.033722945 -0.122994736 -0.34791437 -0.34457928
000110 48 43 15 3e 2b 18 95 be fa 9a 94 3e c8 c0 95 3e
       0.14576447 -0.2912 0.29024488 0.29248643
000120 2a 7a 3c 3e 72 80 83 3e 86 33 e9 bd bf 5f 39 3e
       0.18405977 0.25683933 -0.113867804 0.1810293
000130 2c 51 32 3d 13 c8 53 3e 1c 3c e2 3e 96 84 41 be
       0.043534443 0.20681791 0.44186485 -0.18898234
000140 41 94 27 be e0 5c d2 3e a7 ff 97 be 6a 64 3e be
       -0.16365148 0.41086483 -0.29687235 -0.18592992
000150 43 04 60 3e ee 44 cd be 3a 00 4d be 43 85 0b 3e
       0.21876626 -0.40091652 -0.20019618 0.13625054
000160 dc 19 5b be f3 57 b9 be c0 2e 00 3e 98 55 83 3e
       -0.21396583 -0.36199912 0.12517834 0.2565124
000170 33 1e 4e 3e 21 aa 74 bc 4a 64 29 3d ae 69 9d 3e
       0.20128708 -0.01493314 0.04135541 0.3074469
000180 07 06 8b be c6 74 45 be 46 3f ef 3d 91 da 90 bd
       -0.27153036 -0.19282827 0.1168199 -0.07072938
000190 1f 73 21 be 22 d3 c5 3d ff cf 1f 3d f3 16 bb be
       -0.15766571 0.09659411 0.03901672 -0.36540946
0001a0 b2 8e 34 3d a8 8d 39 3e 76 08 8c 3e a3 48 d4 3e
       0.044081397 0.18120444 0.27350205 0.41461667
0001b0 28 21 9b be f8 1e 7e 3e 1a 37 26 bc 3f 5c b0 be
       -0.30298734 0.24816501 -0.010144973 -0.34445378
0001c0 6e 2b 96 3e d7 15 76 be b3 2a d8 3d 52 f0 4c be
       0.2933001 -0.24031769 0.10555019 -0.2001355
0001d0 f4 c9 a9 be 6f f0 9d be ce 5e a2 3e bd d3 57 3e
       -0.3316189 -0.308475 0.31712955 0.21076865
0001e0 14 bc 8c be 59 c3 29 be 58 b0 ad be 32 c6 48 be
       -0.27487242 -0.16578425 -0.33923602 -0.19606856
0001f0 a0 94 a9 be ef 1a 5a 3e 06 3a 6f be 4a ef ab be
       -0.33121204 0.21299337 -0.23361978 -0.33581
000200 55 8a 27 3d e9 e4 a2 be fb 54 93 3e 30 c4 05 be
       0.040903408 -0.3181527 0.28775772 -0.13063121
000210 ad d3 35 bd 45 d2 10 3e 29 ba 9c be 10 eb 9f be
       -0.044391323 0.14142711 -0.3061078 -0.31234026
000220 dd ed 2b be 22 4b 95 3e 65 12 9c be 38 36 21 3e
       -0.16789956 0.29158884 -0.30482784 0.15743339
000230 d0 45 bc be 1c 86 9e bd 4a 14 b1 3e 65 94 b1 be
       -0.36772013 -0.07740423 0.34585792 -0.3468353
000240 ad c3 c1 be e2 90 e4 be 09 5a 7f 3e c0 84 b8 be
       -0.378446 -0.44641787 0.2493669 -0.3603878
000250 d8 83 a1 be 3d 58 da be f5 97 29 3e c9 d5 c1 3c
       -0.315459 -0.42645445 0.16561873 0.023661511
000260 ce eb ac 3e fe 94 9a be 34 28 9c be a3 35 ce be
       0.33773655 -0.30191797 -0.30499423 -0.40275297
000270 13 b6 dc be 64 5c d5 be f9 b5 0a 3e ae 71 8d 3e
       -0.43107662 -0.4167205 0.1354598 0.27625793
000280 d4 d4 97 bd 1a 83 81 3c 96 4c 8d 3d 99 23 b1 3e
       -0.074136406 0.015809584 0.06899373 0.3459747
000290 28 0c 22 3e 94 52 a8 bb fd fa ed bd 93 91 22 3e
       0.1582495 -0.005136797 -0.11620138 0.15875845
0002a0 c3 7f 9f 3e d6 ba e5 3b 7d dd 4d 3c 0a 6f c0 be
       0.31152162 0.007010798 0.012565014 -0.37584716
0002b0 0d 8e bc 3e 8d b1 8c bd ab 57 2a be 46 a6 d3 be
       0.36827126 -0.068698026 -0.16635005 -0.41337794
0002c0 24 2e 18 bc 32 ff d8 3d 30 7b c5 3e 5c 26 6e 3e
       -0.0092883445 0.1059555 0.38570547 0.2325682
0002d0 fc d6 9e be 9c e9 63 3d bb e5 91 bd 10 70 07 be
       -0.31023395 0.05564271 -0.07123896 -0.13226342
0002e0 cd ba 67 be c1 66 92 3e 1e eb 0d bc 60 93 ed be
       -0.22629853 0.2859402 -0.008662013 -0.464015
0002f0 b2 cc 04 bc c6 7a 84 be 38 e2 9f be 45 d8 c2 be
       -0.008105444 -0.2587492 -0.3122728 -0.38055626
000300 fb a1 e9 3e 01 cf 87 be d1 15 38 be 44 cf c9 be
       0.45631394 -0.2652512 -0.17977072 -0.39415944
000310 62 96 88 be dc 9d d2 be ca d3 43 3d 17 41 37 be
       -0.26677233 -0.41136062 0.0478094 -0.17895924
000320 1d 71 e8 be 20 fd ec 3d 6a 00 86 be a1 d4 09 be
       -0.453988 0.11571717 -0.2617219 -0.13460018
000330 61 fc a5 3d d9 1a 9f be 1b 14 24 be fb a7 a5 be
       0.08104778 -0.3107517 -0.16023295 -0.3235472
000340 bd 78 c0 be 4b 55 cb be dd 2c 59 3e dc 96 95 3e
       -0.37592116 -0.3971351 0.2120852 0.2921666
000350 54 e9 7b bd 23 66 a8 be 7e 29 7f bd 5e c8 48 3e
       -0.061501816 -0.32890424 -0.06229543 0.19607684
000360 0a be e6 be cb 0b 91 3e c3 2f f4 bd fd e1 dd 3e
       -0.45066863 0.2832931 -0.11923172 0.43336478
000370 e5 b9 87 3e cd 46 a9 3e cf 71 a8 be c6 54 8e be
       0.26509014 0.3306183 -0.3289933 -0.27799052
000380 2e fa 14 bd 42 9b 27 be fb 0b b7 3e 43 b0 a2 be
       -0.036371402 -0.1636782 0.35751328 -0.31775102
000390 2e 59 20 3e ce bb 9e 3e 28 4c 84 3e 0d 87 4f 3c
       0.1565902 0.3100266 0.25839353 0.012666476
0003a0 e8 79 3a bd bc 96 a3 3e ac 76 57 be 4c 85 a6 be
       -0.045526415 0.3195094 -0.21041363 -0.32523572
0003b0 b5 7a 5f 3e 04 33 06 3e c4 a7 c9 bb 22 46 91 3e
       0.21824153 0.13105398 -0.0061540324 0.2837382
0003c0 bf c0 74 3e 42 46 80 3d 7f 1a c4 3e 69 8b a4 bd
       0.23901652 0.062634006 0.38301465 -0.08034403
0003d0 1c e4 4c be 87 62 7e be 10 41 62 3e de 05 22 3e
       -0.20008892 -0.24842273 0.22095132 0.1582255
0003e0 23 07 8c 3e 96 20 c3 3e 1e c8 08 3e b1 6e cc be
       0.27349195 0.381108 0.13357589 -0.399282
0003f0 42 71 3d be 7d 72 11 be 2d dc 11 3e 71 85 50 3d
       -0.18500236 -0.1420383 0.14244147 0.05090851

bias f4 [64]
000000 50 7b 0c be 97 d0 49 3e 53 65 22 ba 5f c2 a5 3e
       -0.13718915 0.19708477 -0.0006194908 0.32374856
000010 0a 86 a4 3d 9e 14 a4 be 09 45 15 3e eb 5a c2 be
       0.080333784 -0.3204698 0.14577116 -0.3795999
000020 54 67 b5 3e e3 f1 b7 3e 17 87 6a 3e 11 fb dc 3e
       0.35430396 0.35926732 0.22903095 0.43160298
000030 f3 6a 82 3d f7 15 05 3e 5f 57 05 3e 85 83 de 3d
       0.06368055 0.1299666 0.1302161 0.10864929
000040 8f 7c d9 be 2e cb 7d 3e 98 d7 a2 3e 61 d4 31 3e
       -0.42477843 0.24784538 0.3180511 0.17366172
000050 b2 23 3e be 8a 71 41 be 7a ec db be 6f 05 08 be
       -0.18568304 -0.18890968 -0.42953855 -0.13283323
000060 52 bd af 3e 6b 2a 90 be 62 a3 67 be 5d 9e b7 3d
       0.34324127 -0.28157362 -0.2262092 0.08965752
000070 cc 76 db 3e 43 2a 13 bd f9 8a b6 be 15 f9 2f be
       0.42864072 -0.035928976 -0.35652903 -0.17184861
000080 d8 cd 3b 3e 20 fd aa 3e 0a 3b b8 3e d0 d2 e3 be
       0.18340242 0.33396244 0.35982543 -0.44496775
000090 76 de 2b be 3c 03 6d 3e c2 04 d2 be 2a d0 4c 3d
       -0.16784081 0.23145765 -0.41019255 0.05000321
0000a0 1e 26 4d 3e e1 c6 0d be 54 51 bf 3e e6 38 21 bd
       0.20034072 -0.13845398 0.37366736 -0.039360903
0000b0 4b eb 84 3e ad 00 a4 3d 73 77 65 bd d3 4e eb bd
       0.25960764 0.080079414 -0.05602212 -0.11489644
0000c0 22 fe a9 3d 68 3f ae 3e 7f 3e 9a 3e 98 26 73 be
       0.08300425 0.3403275 0.30125806 -0.23745191
0000d0 be fc de be 54 23 82 bd 1d 8b e0 be 96 04 e2 be
       -0.43552202 -0.063543946 -0.43856135 -0.44144124
0000e0 cb 6d db be 6e c3 ce be cd b6 8e be f3 28 2f 3d
       -0.42857203 -0.40383476 -0.2787384 0.04276366
0000f0 52 74 a0 be e4 1f bc 3e ef f3 c0 bd 35 4c d6 3e
       -0.31338745 0.3674308 -0.09421527 0.41855016

weight f4 [64]
000000 74 85 7f 3f 03 7e 7a 3f 38 ff 81 3f fa ec 7c 3f
       0.9981301 0.9784853 1.0156012 0.987991
000010 e2 7f 7a 3f 2d f3 83 3f c7 42 7b 3f 54 ec 7c 3f
       0.97851384 1.0308586 0.9814877 0.9879811
000020 1f 4b 7a 3f 7d bf 82 3f 94 e2 80 3f 98 73 7f 3f
       0.97770876 1.0214688 1.0069146 0.9978576
000030 e1 6b 81 3f 5c f0 7e 3f ac 1e 79 3f f2 f3 76 3f
       1.0111047 0.9958551 0.97312427 0.9646598
000040 29 aa 83 3f ab 68 82 3f a2 4b 82 3f e9 ec 78 3f
       1.0286304 1.0188192 1.0179331 0.97236496
000050 2a a7 83 3f f5 6b 81 3f 0d 58 80 3f bb fe 79 3f
       1.028539 1.0111071 1.0026871 0.9765431
000060 fe 4c 7b 3f 5d 47 7b 3f b0 54 80 3f 58 92 7f 3f
       0.98164356 0.98155767 1.0025845 0.9983268
000070 bd 01 80 3f 3a 51 80 3f 39 33 81 3f 60 66 78 3f
       1.000053 1.0024788 1.0093757 0.9703121
000080 0b 37 7d 3f 3d 30 80 3f 18 a5 80 3f 72 03 80 3f
       0.98912114 1.0014721 1.0050383 1.0001051
000090 c1 3c 7e 3f b1 8d 7f 3f 73 f0 7f 3f bd 4f 7c 3f
       0.99311453 0.9982558 0.9997627 0.9855917
0000a0 9b 26 83 3f 33 2d 7f 3f 5c 44 81 3f b9 21 82 3f
       1.0246156 0.99678344 1.0098987 1.0166541
0000b0 7a 6d 82 3f fe 40 7b 3f b5 88 81 3f 51 9f 80 3f
       1.018966 0.98146045 1.0119845 1.004862
0000c0 d2 37 84 3f d8 d9 80 3f 08 67 76 3f 6a af 81 3f
       1.0329535 1.0066481 0.96250963 1.0131657
0000d0 7d e8 80 3f 4b b7 82 3f 40 92 7f 3f 38 39 81 3f
       1.007095 1.0212187 0.99832535 1.0095587
0000e0 6c ef 77 3f 90 1d 83 3f 6c 49 7c 3f d5 a2 84 3f
       0.96849704 1.0243397 0.9854953 1.0362192
0000f0 79 11 80 3f 0c 82 82 3f dc 4d 7c 3f 0b 26 7b 3f
       1.0005332 1.0195937 0.98556304 0.98104924

bias f4 [64]
000000 a0 9f b2 bc 0a 31 ce bc 85 da 90 bb 72 00 e2 bc
       -0.02180463 -0.025169868 -0.004420581 -0.027588103
000010 b0 7d 00 bd 73 14 a1 3c 6b 5e 40 bc f3 dd 83 bc
       -0.031369865 0.019663071 -0.011741261 -0.016097045
000020 32 62 da 3a 03 1d 9d 3a b9 0a 52 bb 79 93 78 bc
       0.0016661345 0.0011986796 -0.0032049848 -0.015171879
000030 1f 3e 36 3c 8c 64 f5 bc 6b 79 50 bc 56 ce 14 3c
       0.011123209 -0.029955171 -0.012724261 0.009082397
000040 8e 01 9b 3c 8a d6 a6 3c 33 b0 12 bd 38 c4 b5 bc
       0.01892164 0.020365972 -0.035812568 -0.022188291
000050 e0 1f 66 3b 1a d0 45 3c e9 38 17 3b 52 81 49 bd
       0.0035114214 0.012073541 0.0023074693 -0.049195595
000060 b4 b5 d4 bc ea fb 42 bc c8 0a bf 39 79 62 3d 3c
       -0.025965549 -0.011900881 0.00036438392 0.011559122
000070 9e c3 1f 3c 9c 8b 8d bc 05 91 9d bc 8a 14 2c bd
       0.009751229 -0.017278485 -0.01923419 -0.042011775
000080 52 3e f1 bc c8 20 9d bc 42 85 9c bc 2a ae 76 bc
       -0.029448662 -0.01918067 -0.019106511 -0.015056172
000090 73 16 af bc ea 29 98 bc 96 42 10 bc f6 b9 d1 3b
       -0.02137301 -0.018574674 -0.008804938 0.006400342
0000a0 de fd 2e 3c 0e e6 63 bc ff cd ed bc ea d5 12 3b
       0.010680644 -0.01390983 -0.02902889 0.0022405335
0000b0 b5 ac ec 3a d8 37 b9 bc e2 6c 40 3c 4a df 50 bc
       0.0018056842 -0.022609636 0.01174471 -0.012748549
0000c0 cf 1e 01 3c 50 4f 4a bc 89 79 45 bc a0 bb 82 3b
       0.0078808805 -0.012348011 -0.012052902 0.003989652
0000d0 13 3b 95 3b 54 eb 6a 3c d1 29 06 bb 2d d9 f0 ba
       0.0045541613 0.014338333 -0.0020471702 -0.001837527
0000e0 7d 81 86 bc e6 98 6d 3c a2 bc 51 bb 5c bd 7a 3b
       -0.016419167 0.014501786 -0.0032003303 0.003825984
0000f0 b8 59 83 3a fd c9 86 bc 28 26 b7 bc 38 01 d8 bc
       0.0010021245 -0.016453737 -0.022357062 -0.026367769

running_mean f4 [64]
000000 21 c8 02 be 6b b3 84 3d 7c 4e e8 3c 28 cf 89 3e
       -0.12771656 0.06479534 0.028357737 0.2691586
000010 d5 73 0f 3d da 02 7d be a7 1f 64 3e a9 1c 95 be
       0.035022575 -0.24708119 0.222777 -0.29123428
000020 a9 4e a0 3e 76 7a 90 3e cd 66 96 3e ca f6 10 3f
       0.31310013 0.2821843 0.29375306 0.5662657
000030 33 0c 51 3d bf 95 1d 3e 84 a1 13 3e c0 4e ac 3d
       0.051037025 0.15389155 0.14417082 0.08413458
000040 2b d3 c3 be 3a 43 63 3e c0 fb a2 3e f6 16 5a 3e
       -0.38247046 0.22193614 0.31832695 0.21297821
000050 ea b7 34 be 89 af 50 be 59 78 f5 be b0 b8 35 be
       -0.17648283 -0.20379461 -0.4794338 -0.17746234
000060 24 99 c8 3e 82 52 51 be 11 94 3a be 40 02 96 3c
       0.39179337 -0.2044163 -0.18220545 0.01831162
000070 a1 e8 cb 3e d9 9f 20 3d d6 98 a9 be 7d 8b 62 be
       0.3982592 0.039214943 -0.33124417 -0.22123523
000080 97 cc 00 3e e1 3a 8f 3e 28 9e 9e 3e 7e 3c 0e bf
       0.12578045 0.2797461 0.3098004 -0.55561054
000090 b7 0b 23 be c2 1d b1 3e 9e 33 fb be 30 ba 66 3d
       -0.15922438 0.34593016 -0.49062818 0.056329906
0000a0 ad c7 48 3e c1 7c 9a bd 0d a4 e8 3e 35 c4 df bd
       0.1960742 -0.07543326 0.4543766 -0.109260954
0000b0 67 31 c1 3e 46 3c b1 3d db 71 ed bc 87 80 36 be
       0.37733003 0.08654074 -0.028984955 -0.17822467
0000c0 6f ee af 3d eb 95 80 3e 94 aa a1 3e 98 50 50 be
       0.085903995 0.25114378 0.31575453 -0.20343244
0000d0 05 0b f6 be 6d e3 9c bd eb 40 d3 be 66 17 dd be
       -0.48055282 -0.076605655 -0.41260466 -0.43181914
0000e0 6b 9e 01 bf db 04 cb be 62 83 a9 be fd 3e 2b 3d
       -0.5063235 -0.39652142 -0.3310805 0.041808117
0000f0 a7 87 7d be 4c c1 a3 3e 0a 60 1c be dc c0 c2 3e
       -0.24758779 0.3198341 -0.15271011 0.38037765

running_var f4 [64]
000000 a7 35 c5 3c 6b 80 28 3e aa 75 9c 3d 05 9e 3e 3e
       0.024073435 0.16455238 0.0763963 0.18614967
000010 16 cd 2d 3e 69 de 56 3e d3 f1 d8 3d fe cb 85 3d
       0.16972765 0.2098328 0.10592999 0.06533049
000020 10 93 7c 3d 0a a5 ec 3d 04 31 41 3e a8 b2 3b 3e
       0.061663687 0.11554916 0.18866354 0.1832987
000030 a7 ea 9c 3c 24 ba 09 3e 52 df e2 3d 62 4e f6 3d
       0.01915486 0.13449913 0.11077751 0.12026669
000040 bd 6b 14 3e 3b 9d 2a 3e f2 0e 42 3d d6 75 b2 3d
       0.14494224 0.16661541 0.047377534 0.08713882
000050 e6 98 8a 3d fb 3b 21 3e 2f 90 c9 3d 7b 68 0a 3e
       0.06767444 0.15745537 0.09841954 0.13516419
000060 70 08 14 3e a2 7d e3 3d d4 12 a0 3d 99 a0 fc 3d
       0.14456344 0.11107947 0.07816091 0.12335319
000070 9c 0f 57 3e 37 82 88 3e 44 ba e1 3d 1d 60 60 3e
       0.21002048 0.26661846 0.110218555 0.21911664
000080 d8 ee 61 3d 82 6a 57 3d d4 86 f3 3d c3 91 08 3e
       0.05515942 0.05259181 0.11890951 0.13336854
000090 6d d4 93 3d 05 df 02 3e 01 07 61 3e f2 01 2c 3e
       0.072182514 0.12780388 0.21975328 0.16797617
0000a0 ee d4 01 3e de aa 56 3e c3 e5 ba 3d dd e5 3b 3e
       0.12678882 0.20963618 0.09125855 0.18349405
0000b0 86 9a 0f 3e 39 cb 0d 3e 12 02 a8 3d 6f e1 b8 3d
       0.1402379 0.13847055 0.0820352 0.09027373
0000c0 00 3d b8 3d 40 cc f8 3d 77 53 bd 3d af 1d 0f 3e
       0.0899601 0.121483326 0.09244435 0.13976167
0000d0 6c fc 14 3e 69 ec 52 3e 7a 7a a3 3d 70 13 9f 3d
       0.14549416 0.20597996 0.07982345 0.07767379
0000e0 57 c5 43 3e b4 3f 1d 3e 4f b9 ff 3d 4e 3a 2a 3e
       0.19118248 0.15356332 0.12486517 0.16623804
0000f0 dd 91 e0 3d 9c 03 fc 3d 6a ca 67 3e 35 19 86 3e
       0.10965321 0.12305376 0.22635809 0.26191106

weight f4 [64, 64]
000000 69 f8 a8 bd ee 10 cb 3d 5c 5a 05 3e c2 9f 4f 3d
       -0.082505055 0.099153385 0.1302275 0.050689466
000010 15 56 d0 3c f2 b0 8c 3d 75 9d 6f bd 5c 9b 4a bd
       0.025431672 0.06869687 -0.058499772 -0.04946457
000020 ab 70 ca bc a1 f2 93 bd 50 a2 42 bc 81 d2 a5 bc
       -0.024711927 -0.07224012 -0.011879519 -0.020241978
000030 93 16 b9 bd 58 2d 9e bd 62 bb 8c 3c 53 2b 24 bd
       -0.09037509 -0.077234924 0.017179195 -0.04008038
000040 93 33 ac bc 30 2f ac 3c c1 02 2b 3d 86 d7 5c bc
       -0.021020686 0.021018595 0.041750673 -0.013479119
000050 32 dc 98 3c ec 40 bd 3d db 79 d0 3d 41 bb a9 bd
       0.018659685 0.092408985 0.10179492 -0.08287669
000060 6c 12 01 be d6 1b 16 3d cf 34 6e 3d 44 16 93 bd
       -0.12604684 0.03664764 0.05815583 -0.07181981
000070 dd 9c dd bd d3 3f ee 3d db 89 a6 3d c8 73 27 bd
       -0.10820935 0.11633267 0.081317626 -0.040881902
000080 87 4f 9a bc 0a e2 23 3c c4 20 a6 3d f2 e1 8c bc
       -0.01883675 0.010002622 0.08111718 -0.017197583
000090 38 1b ac bd 97 21 b9 3d 8b 05 e9 3d 7f 4b b7 3d
       -0.08403629 0.0903961 0.1137801 0.089499466
0000a0 06 75 07 3d e6 96 9a 3d 88 65 f4 3c 5f 50 1f bd
       0.033070587 0.07548313 0.02983357 -0.038895007
0000b0 8f 90 c5 bd 6d f5 9d 3d 9f ee 0e be 3a 45 d7 bd
       -0.09646713 0.07712827 -0.13958214 -0.10511251
0000c0 fa bc f6 bd c4 34 0e be f6 94 4c 3d b7 67 e9 3d
       -0.12047763 -0.13887316 0.049946748 0.11396735
0000d0 08 24 8b 3d 9a 32 c5 3d fa 2b ea bc 3f 0a 6b bc
       0.06793982 0.09628792 -0.028585423 -0.014345705
0000e0 24 34 87 bc 5a cb 6b bc 7a d3 d4 bc 90 35 b0 bd
       -0.016504355 -0.0143917445 -0.025979746 -0.08603966
0000f0 12 0c 36 3c 5f b0 10 3d 65 24 11 3d e3 4b 97 3d
       0.011111276 0.03532445 0.0354351 0.07387521
000100 a8 2e 08 bd 6e c6 2b bd a5 b0 1e 3d 05 d5 53 bd
       -0.03324762 -0.041937284 0.03874268 -0.051716823
000110 38 3d 97 3d f1 0e 3a bd 54 32 cc bd f6 13 77 3c
       0.073847234 -0.045424405 -0.09970537 0.015080443
000120 0f 4c 4a bd a7 6e 18 bd 71 7f b7 3d 20 89 5d 3d
       -0.04938894 -0.0372149 0.089598544 0.05408585
000130 ed ec ca bd ac 71 03 3d ff 1c 9d bd 02 4e 25 bb
       -0.09908471 0.032090828 -0.07671546 -0.0025223498
000140 00 88 4b bd 03 0e 14 be e1 ce f3 3d 90 13 97 bd
       -0.049690247 -0.1445847 0.119046934 -0.07376778
000150 30 07 25 bd 59 0f c4 bb e0 5a c7 3d 90 b9 54 bc
       -0.040290058 -0.005983275 0.0973413 -0.012983695
000160 2e ee 66 bd 8e 3b a1 bd ec 68 af 3d ba e8 56 3c
       -0.05637949 -0.07872687 0.08564934 0.01311701
000170 a0 90 13 3d 4e d6 24 bd 41 05 f6 bd 10 75 bd bd
       0.036026597 -0.04024344 -0.12012721 -0.092508435
000180 2a 8c e3 bd 33 bd d3 3d f1 96 1d 3d 51 2c ce bd
       -0.111107185 0.10338821 0.038474027 -0.100670464
000190 d0 6a 05 be 37 f1 f2 3d b1 e6 f0 bb 0b 58 d5 bd
       -0.13029027 0.11862414 -0.0073517193 -0.104171835
0001a0 b7 5a be bd a6 ed a2 bd 10 7e b6 bc cf d2 a0 3d
       -0.09294646 -0.07955484 -0.022276908 0.078527085
0001b0 56 1f 01 bd cc 42 6a bd a4 24 f0 3d c3 83 a9 bd
       -0.031524025 -0.05719261 0.11725739 -0.08277085
0001c0 66 f8 ba 3c 52 87 b0 bd c8 f9 3a 3d 0d 41 1c bd
       0.022823524 -0.0861956 0.045648366 -0.038147975
0001d0 10 e2 22 3e b1 4f e1 ba af c1 99 3d b4 a8 9a 3d
       0.15906549 -0.0017189888 0.07507645 0.07551709
0001e0 24 2a e7 bd 0e 47 cd bc 9b 7c 8b 3d dc b9 cd bd
       -0.112873346 -0.025058296 0.06810876 -0.100452155
0001f0 11 a5 19 3d 63 75 54 3d ed 63 d8 3c b1 8c 7b bd
       0.037510935 0.05186976 0.026414836 -0.06141347
000200 ef 3a b5 bd dd 76 92 3d 2a bf 1c 3d 65 5e be 3d
       -0.08849131 0.071515776 0.038268246 0.09295348
000210 49 b6 36 3c 4f 0c 42 3d 81 40 ce 3d d4 7a 89 3d
       0.011151859 0.04737502 0.10070897 0.06712881
000220 e8 4c 00 3e 2d 11 0a be dc 25 e5 3d bb b6 0d 3c
       0.12529337 -0.13483115 0.11188862 0.008649523
000230 6c 01 e4 3d 80 a9 8d bc 25 02 b6 3d ad a8 4d bd
       0.11133084 -0.017292738 0.08887128 -0.05020969
000240 12 01 79 bd 6e 5e 6f bd 05 ce 70 3d 46 6d a3 3d
       -0.060792036 -0.058439665 0.058790226 0.07979827
000250 ef 88 17 3d eb f3 e5 3d 71 1d 8b 3d 6d 72 2c 3d
       0.036995824 0.11228164 0.06792725 0.042101312
000260 00 c8 8d 3d 12 6d cc bd 12 c3 25 bd 8e 6b 8a 3d
       0.069229126 -0.09981741 -0.040469237 0.06758796
000270 ed 4d 9a 3d a0 0c dc 3b fc d2 0b 3d 5c db 7a 3d
       0.075343944 0.006715372 0.034136757 0.061244354
000280 fc 04 14 bd 5c 45 6f 3d 6d 58 e8 3c 59 82 43 be
       -0.036137566 0.058415756 0.028362477 -0.19092692
000290 ac 63 a3 3d b6 84 80 3c 5e 87 b0 3c 77 85 25 bd
       0.07977995 0.015688282 0.021548923 -0.040410485
0002a0 bb e2 24 3a 19 f8 66 bc 8c 90 ef bc 7f b0 6a 3b
       0.0006289889 -0.014097237 -0.02924373 0.0035810766
0002b0 72 5e f9 3d 1f a4 48 bd 01 8b 44 bc 33 24 9d bd
       0.12176217 -0.048984643 -0.011996032 -0.0767292
0002c0 4f 9e 99 3c 29 d1 70 bd e1 db 28 3d b2 01 19 3c
       0.018752245 -0.05879322 0.041225318 0.009338783
0002d0 32 1e e6 bd f6 b9 a5 bd 91 3d e8 3c 1d 1e cd bd
       -0.11236228 -0.0809211 0.02834967 -0.10015509
0002e0 6c b6 33 bc 66 75 03 be af dd a5 3d ad 53 b1 bd
       -0.010968786 -0.12837753 0.080989234 -0.08658538
0002f0 87 cf 55 3d 6f 19 4c bd 22 c5 0f bd 71 a1 9c 3d
       0.052199867 -0.049828943 -0.03510011 0.0764798
000300 1e 04 6a bd f2 19 0f 3e c9 84 2e 3d bd a3 99 bc
       -0.057132833 0.13974741 0.042607103 -0.018754834
000310 1d 17 a9 3d 62 53 08 bd 7e e4 97 3d 62 cf c9 3d
       0.08256362 -0.033282645 0.07416628 0.09854008
000320 42 8b f9 3d 5b fe 58 3d d9 19 ab bd 59 e5 8d 3d
       0.121847644 0.052976947 -0.083545394 0.0692851
000330 66 e0 16 3d be 0b 3d 3d 26 56 66 3d 32 9d 25 3d
       0.036835097 0.046153776 0.0562345 0.040433116
000340 6e 8a 99 3d 29 1f 6f 3d a4 3e a1 bd c0 be a2 3d
       0.074971065 0.058379326 -0.07873276 0.07946539
000350 3e 24 be 3d 01 c1 09 be 12 44 ca 3b 22 b4 c2 bd
       0.092842564 -0.13452531 0.0061726654 -0.09507014
000360 3f fd 84 bd 26 f1 14 bd d0 54 bb bc 2f cb 02 3e
       -0.06493615 -0.03636279 -0.02286759 0.12772821
000370 90 81 8e 3d 33 dd c1 bc b6 47 ba bc 36 04 79 3d
       0.06958306 -0.023665046 -0.022739273 0.06079503
000380 31 da 6b bd 05 15 03 3e dc f9 10 3e 63 30 0b 3e
       -0.05758113 0.12800987 0.14157814 0.13592677
000390 bb ad 22 3c af d6 64 3d 25 a5 dc 3d 86 cf b3 3d
       0.009929116 0.0558688 0.10773686 0.08779816
0003a0 fc 5c 1b bd e5 11 dd 3d 42 9a de 3d 96 bb 81 bc
       -0.037930474 0.10794429 0.10869266 -0.015836518
0003b0 35 2b 05 3e 17 31 36 bd c7 fa 7e bd 37 05 82 3d
       0.13004763 -0.04448041 -0.06225088 0.06348651
0003c0 56 4f 9e bd 9a a0 92 bd 8e 95 ac 3d 78 81 59 3d
       -0.07729976 -0.071595386 0.08426963 0.053101987
0003d0 0f b9 d1 bd bc 3c a0 3b fb 63 1b bc 18 40 c4 3d
       -0.10240375 0.0048900526 -0.009484286 0.095825374
0003e0 d4 c2 56 bd 16 ec be 3d 2e 74 17 bd b1 ce 09 bd
       -0.052431896 0.093223736 -0.036976032 -0.033644382
0003f0 21 77 ab bd a1 2e 2b bc 57 39 d2 bb e3 21 fa 3d
       -0.083723314 -0.010448129 -0.006415527 0.12213495

bias f4 [64]
000000 94 b8 9d 3a fb 19 d4 bc 68 15 6b 3d 92 ba 63 3d
       0.0012033158 -0.025891295 0.05739346 0.05559785
000010 94 15 ca 3d 62 c0 8c bc 40 2e a1 3d d1 f7 42 3d
       0.09867397 -0.017181579 0.078701496 0.047599617
000020 ef 55 60 3d 49 20 11 bd 2a 41 5f 3d 0e b2 b8 3d
       0.054769453 -0.03543118 0.054505505 0.09018336
000030 1b c4 ed bd 25 91 e2 bd 3a c2 8f ba e7 6d b0 3c
       -0.1160967 -0.1106284 -0.0010967918 0.02153678
000040 8f 2f e4 bd bd 95 a9 3d f6 39 8d 3d 60 7c 7a 3c
       -0.111418836 0.082805134 0.06895821 0.015288442
000050 81 c6 2a bd 65 3d ab bc 83 31 35 3d 78 8f a5 bd
       -0.041693214 -0.020903299 0.04423667 -0.08084005
000060 95 c1 b5 3d b3 f5 97 bd 29 c1 cf 3d 02 e4 5f 3d
       0.088748135 -0.0741991 0.10144264 0.054660805
000070 6f 4d d8 bd bf 60 f9 3c 57 dd 46 bc 32 1d 15 bd
       -0.10561644 0.03044164 -0.0121377325 -0.036404796
000080 9a 02 bb 3d 27 6a 95 bd 9b f3 d3 3d e0 c2 e1 3b
       0.091313556 -0.072956376 0.103491984 0.006889686
000090 d3 34 d9 3c d8 64 17 3d 5e f1 b7 bc e8 a1 d4 bd
       0.026514446 0.036961406 -0.02245396 -0.10382444
0000a0 4f a9 e2 3d 16 eb a4 bd a2 eb 99 3d 2d b1 92 3d
       0.11067449 -0.080526516 0.075156465 0.071627
0000b0 2e d5 cd ba ed a3 95 bd 62 22 c0 bd bb 51 53 bd
       -0.0015703791 -0.07306657 -0.09381558 -0.051591616
0000c0 ab 43 e7 bd b5 e9 88 3d e4 da 34 b9 90 0d c3 bb
       -0.112922035 0.06685201 -0.00017247681 -0.0059525445
0000d0 97 c3 b8 bd 46 c8 16 bd 7b e9 b7 3d 02 3d 0a bd
       -0.09021681 -0.03681209 0.0898008 -0.033749588
0000e0 c1 62 92 bb 8c 5d ba bd 2c 0a a2 bd f4 bd 93 bd
       -0.004467339 -0.09099874 -0.079120964 -0.07213965
0000f0 85 52 ba 3d 8c 33 f7 3d 22 d3 94 3d 2b 13 ca 3b
       0.090977706 0.12070379 0.07266833 0.006166836

weight f4 [64]
000000 5c 59 6d 3f 6a 03 74 3f 94 c5 6d 3f 05 c7 69 3f
       0.92714477 0.9531771 0.92879605 0.91319305
000010 d2 c3 81 3f 68 c9 77 3f 63 58 80 3f 70 8c 74 3f
       1.0137885 0.96791697 1.0026973 0.9552679
000020 bb f3 76 3f 55 f7 7b 3f 2d f0 7d 3f 48 bd 72 3f
       0.96465653 0.98424274 0.99194604 0.9482007
000030 1d 1a 6c 3f 68 7d 6e 3f 7f 51 7c 3f d3 61 69 3f
       0.92227346 0.93160105 0.98561853 0.9116489
000040 21 a6 73 3f 28 76 69 3f 04 9d 7d 3f cb ea 7f 3f
       0.9517537 0.9119592 0.9906771 0.9996764
000050 22 2e 77 3f 84 4b 79 3f 9f b5 72 3f c8 63 6d 3f
       0.9655477 0.9738085 0.9480838 0.9273038
000060 87 4b 75 3f ad b7 6a 3f 32 38 7b 3f ca 86 6a 3f
       0.9581837 0.91686517 0.9813262 0.9161192
000070 be 2a 6a 3f 0a ca 74 3f 8b c6 71 3f 3f 75 72 3f
       0.9147147 0.9562079 0.9444358 0.94710153
000080 e3 79 74 3f eb 34 76 3f 48 78 7a 3f 61 b6 75 3f
       0.95498484 0.96174496 0.97839785 0.95981413
000090 eb c0 73 3f d8 00 69 3f 37 24 70 3f 2f 90 6a 3f
       0.95216244 0.9101691 0.9380526 0.91626257
0000a0 77 93 6d 3f 62 99 6d 3f 2b e2 7c 3f 81 70 74 3f
       0.9280314 0.9281217 0.98782605 0.9548417
0000b0 64 10 75 3f 07 e3 6a 3f 06 27 6c 3f 82 e7 82 3f
       0.95728135 0.91752666 0.92247045 1.02269
0000c0 8e d2 6f 3f 55 fa 7c 3f f9 df 77 3f 41 13 78 3f
       0.93680656 0.98819476 0.9682613 0.9690438
0000d0 46 e2 6d 3f 24 6a 6c 3f 88 5d 77 3f 45 51 80 3f
       0.9292339 0.9234946 0.9662709 1.0024801
0000e0 37 e1 7c 3f 7d f6 75 3f e4 db 72 3f 7d d5 7f 3f
       0.9878115 0.96079236 0.94866776 0.9993513
0000f0 21 63 6d 3f 19 90 79 3f ac 0e 78 3f a9 d6 6f 3f
       0.92729384 0.974855 0.9689739 0.9368692

bias f4 [64]
000000 7b e0 fd bc b3 66 c4 3b f5 7d 08 bd 75 fe 27 bd
       -0.03099083 0.005993688 -0.033323247 -0.041014154
000010 1f 81 89 3d cd 59 ca bc 41 d8 eb 3b 21 00 06 bd
       0.06714081 -0.024701023 0.0071974103 -0.032714967
000020 03 b5 93 bd 14 05 79 bc e4 9c 04 bd 1d b5 a2 bc
       -0.072122596 -0.015198965 -0.032376185 -0.019861752
000030 e7 91 6e 3c ef d3 a7 bb e7 ef 5c bc ac 97 0f bd
       0.014561153 -0.0051217 -0.013484932 -0.035056755
000040 53 6d 29 bd 14 66 41 bd d1 32 5d bc 0c 55 06 3c
       -0.041364025 -0.04721649 -0.013500885 0.008198988
000050 dc 17 07 bc 25 11 06 bd 27 04 01 bd 09 03 a8 bd
       -0.008245435 -0.032731194 -0.0314981 -0.08203704
000060 ff 07 b0 bc cf 14 36 bd b0 c9 22 bd 27 b0 94 bc
       -0.021488188 -0.04445344 -0.039743125 -0.018150402
000070 30 3d b4 bd 90 15 85 bd 89 e3 c6 bd 9b 2c 99 bd
       -0.08800733 -0.06498253 -0.09711368 -0.07479211
000080 18 6b cb bd c4 2d 11 bc da a6 e0 3b 60 a8 bc bc
       -0.09932536 -0.008861009 0.0068558278 -0.023029506
000090 e7 fe 27 bd 90 85 56 bd 34 fc cb bd 41 f7 ae bc
       -0.04101458 -0.05237347 -0.09960213 -0.021358134
0000a0 1b 06 02 bd 05 76 6a bd 23 3c 79 bd 05 c8 87 bd
       -0.031744104 -0.05724146 -0.060848366 -0.066299476
0000b0 aa 79 14 bd 6f fa bc bd 3a c8 8b bd d4 63 5b 3b
       -0.03624884 -0.09227454 -0.068252996 0.003347625
0000c0 a2 49 7c bd d6 ea b7 bc 8c de 7a bc ee f5 76 bd
       -0.06159366 -0.022450846 -0.015311848 -0.06029313
0000d0 92 65 db bc 99 a7 3b bc 6a 1b 10 bd 1f 4c 85 3d
       -0.026781831 -0.011453533 -0.035182394 0.065086596
0000e0 c6 92 80 3c 57 8e d7 bc 17 5a a9 bd 53 a2 9e bc
       0.015694987 -0.02631299 -0.082691364 -0.019364512
0000f0 71 01 a0 bc 72 07 d0 3c fe 87 b9 bc 57 5d 05 bd
       -0.019531937 0.025394175 -0.022647854 -0.03255972

running_mean f4 [64]
000000 bd ef 1c 3d db 8a b1 be 89 6d 7c 3e 23 92 32 3f
       0.03831457 -0.3467625 0.2465116 0.69754237
000010 d4 04 3d 3d 0e e8 ff bd d4 ef 40 be ac b5 b3 3e
       0.046147183 -0.12495433 -0.18841487 0.35099542
000020 20 25 dd 3c eb 14 5c be ae f1 5f bc 4b 16 81 3e
       0.026995242 -0.21492355 -0.013668461 0.2521232
000030 bf 43 8e bd 34 d6 91 be 6e 50 06 3c cb e8 d3 3e
       -0.06946515 -0.28483737 0.008197887 0.41388544
000040 b6 ef 87 be 2a 39 e7 3e bf 97 9a 3e 3a 3d f2 be
       -0.26550072 0.451608 0.30193898 -0.47312337
000050 3d c4 e3 be d5 eb f1 be 4c 56 31 3e 31 18 19 bf
       -0.44485655 -0.47250238 0.17318076 -0.5980254
000060 1b 35 21 3f 9f 83 1b bd 97 15 76 3e 52 da c3 3e
       0.6297166 -0.03796732 0.24031673 0.38252503
000070 1f 6c 46 be c7 e1 d1 3d 96 f0 93 be 5a d6 8d 3e
       -0.19377182 0.10248142 -0.2889449 0.277026
000080 d4 0f e1 be c5 cb 05 be 0e dc 59 3e 20 f2 a1 3e
       -0.43957388 -0.13066013 0.2127535 0.3163004
000090 df 43 2e be b2 88 ad 3e b5 92 09 be f2 76 b9 be
       -0.17018078 0.33893353 -0.1343487 -0.3622356
0000a0 a8 40 16 3d 25 6f 08 bf 31 88 5f be 2d af c7 be
       0.036682755 -0.53294593 -0.21829297 -0.39000836
0000b0 c4 4e bd 3d 23 3c 08 3e a2 8c 97 3e 83 bb a8 be
       0.09243539 0.1330419 0.29599482 -0.3295556
0000c0 48 f0 98 be 61 d5 94 be c1 ad b9 bd ea 51 8d 3d
       -0.2987082 -0.29069045 -0.09066344 0.069003895
0000d0 7e ea 89 be 62 6c 35 be c1 e1 7d 3d 76 a6 0a 3f
       -0.26936716 -0.17717126 0.061982874 0.5416025
0000e0 82 8e d5 bc 0d 02 f2 be 0a 00 b1 be a8 a8 10 bf
       -0.02606893 -0.4726719 -0.34570342 -0.5650735
0000f0 ef 5b 07 bf 62 25 0a 3f 9d ae 0d be 51 48 3a bd
       -0.52874655 0.5396329 -0.13836141 -0.045479123

running_var f4 [64]
000000 dc 79 04 3e 2e f9 ba 3e ee 99 aa 3e 55 32 bc 3e
       0.1293711 0.36518234 0.33320564 0.3675715
000010 01 23 45 3e ae 74 6c 3e dd 56 cd 3e 58 da 1b 3e
       0.19251634 0.23091385 0.40105334 0.1522001
000020 14 fe 1c 3e 46 28 61 3e f3 9c 35 3e c7 ba 9b 3e
       0.15331298 0.2198802 0.17735653 0.30415937
000030 ee 5c 04 3f 17 a7 8e 3e db 57 6e 3e fa fd 31 3e
       0.517043 0.27861854 0.23275702 0.1738204
000040 a9 e7 31 3e a3 a9 0b 3e 87 82 99 3e 5b 7a 34 3e
       0.17373528 0.1363893 0.29982397 0.176248
000050 a2 00 61 3e 2e 13 a8 3e be 61 9a 3e 67 a5 9f 3e
       0.21972898 0.32827133 0.30152696 0.3118088
000060 a8 e9 82 3e 10 5f 1b 3e 63 b4 19 3e 79 62 51 3e
       0.2556889 0.15172982 0.15010218 0.2044772
000070 3e 37 21 3e 29 e0 1d 3e bf 12 c0 3e 42 8d ce 3e
       0.1574373 0.15417542 0.37514302 0.40342146
000080 72 2a 5c 3e c4 87 2c 3e 0e 41 90 3e 15 1d 99 3e
       0.21500567 0.16848665 0.28174633 0.29905
000090 fb 2b 65 3e d9 52 c3 3e 31 97 82 3e 33 3f 08 3e
       0.22380058 0.38149145 0.25505975 0.13305359
0000a0 a0 82 75 3e 2b 5a 5f 3e af 46 b1 3e 26 c9 68 3e
       0.2397561 0.2181174 0.3462424 0.22732982
0000b0 29 97 55 3e 14 0e 6c 3e ad 05 b0 3e 64 c0 ce 3e
       0.20858444 0.23052245 0.3437933 0.40381157
0000c0 07 7a 40 3e 64 7f ab 3e fc 6b 56 3e d9 21 74 3e
       0.1879655 0.3349563 0.2093963 0.23841037
0000d0 9a f5 dd 3e 5a f2 c7 3e 33 8c f6 3d 3a dd d5 3e
       0.43351442 0.39052087 0.1203846 0.41770345
0000e0 0d 3e 8a 3e 32 48 8c 3e d9 9d 4a 3e 9f 1d 25 3e
       0.27000466 0.2739883 0.19786777 0.16124581
0000f0 5c ce 64 3e 6b 11 5c 3e 3f 35 71 3e 6d 02 9e 3e
       0.22344345 0.2149102 0.23555468 0.30861226

weight f4 [1, 64]
000000 54 69 6b 3b 3c 07 9e bc 3a b3 e6 3c f2 31 94 bc
       0.0035920935 -0.019290559 0.028161634 -0.018090222
000010 62 5a 49 bc a5 b1 1e 3c 13 8a 47 bc 4a 1e 9d ba
       -0.012289615 0.009685908 -0.012178916 -0.0011987176
000020 10 ff 63 3c 3e 9e 07 3c 92 73 0f 3c d1 5b e6 bb
       0.013915792 0.008277474 0.008755581 -0.0070299883
000030 20 c8 86 3c 78 ca 96 bc 4a d0 32 bc 11 00 4c bc
       0.016452849 -0.018407091 -0.010913918 -0.012451188
000040 09 c1 4e 3b b6 0a 67 3c b8 31 a0 ba 1e 0b 8e 3b
       0.0031548163 0.014101675 -0.0012221849 0.0043348214
000050 3f 13 72 bc 25 8a e7 bb 37 85 37 bc 8d f9 a1 ba
       -0.014775096 -0.0070660287 -0.0112011945 -0.0012357697
000060 65 55 1a bb 41 c8 79 3c 47 30 5d 3c a0 ae 34 ba
       -0.0023549434 0.015245498 0.01350028 -0.0006892476
000070 82 4b 37 3c 2a 4c 20 3c 38 8a e2 3b 56 1d 09 3c
       0.011187436 0.009783784 0.0069134496 0.008368811
000080 d5 bc 26 3c 65 05 3c 3c 5c cd 47 3b b2 ac b5 b6
       0.010176857 0.0114758955 0.0030487394 -5.4143247e-06
000090 7f 9d 30 3c 41 12 3f bc 3b d5 3e 3c 8b a0 ec bb
       0.0107797375 -0.011662067 0.011647518 -0.0072212867
0000a0 9a 78 31 3c 1e 73 81 3c 42 b4 83 bc 77 a6 26 bc
       0.010831976 0.015801962 -0.016077165 -0.010171524
0000b0 24 f9 3b bc a8 4f 83 3c 0c 29 99 bc ef 13 a4 bc
       -0.011472974 0.016029194 -0.01869633 -0.020029036
0000c0 63 8d 55 3b 7b c2 43 bc fc 60 72 3b 5b 44 29 3c
       0.0032585494 -0.011948223 0.0036984077 0.010331239
0000d0 36 0b a9 3c d9 18 b7 bc 0f ba a8 ba 31 9c 13 bc
       0.020635229 -0.022350715 -0.0012872833 -0.009009407
0000e0 a0 1e bd 3b b4 1a 60 bc a5 de e4 3b 58 37 67 bc
       0.005771473 -0.0136782415 0.006984549 -0.014112316
0000f0 09 7e 6c bc 48 92 47 bc 8d 12 84 3b 50 da 20 3b
       -0.014434346 -0.012180872 0.0040305317 0.0024544187
