Industrial Equipment/mlruns/0/c1b414023def427b92d2057a148ba735/artifacts/generator_model/data/model.pth (torch, 49844 bytes, 6 tensors)

weight f4 [64, 100]
0.048538215 0.016499622 -0.040112227 0.04798693 -0.0067420593 0.14281528 0.08999065 0.022724729
-0.07951323 -0.06891838 -0.04647761 0.06820105 -0.020484952 0.020969748 0.004025851 -0.13856788
0.10944264 0.056983374 -0.09320241 0.0047952146 -0.023249768 0.0907125 -0.10032606 -0.014024273
-0.120564535 0.1100727 -0.00308597 -0.04150389 -0.13100922 -0.14068554 0.10326421 0.08332393
-0.059998266 0.025850285 0.013894635 0.048322305 0.07245057 0.06570259 0.01979714 -0.06387551
0.042683814 -0.06864456 0.04213223 0.00089999964 0.046378847 -0.05694162 -0.05635258 0.020468777
0.15540965 0.10830571 0.058506195 0.00040690228 0.09860263 0.050673507 0.038902942 -0.118156046
-0.06478606 0.0005175618 0.019541439 0.06863397 -0.07466515 0.15543868 0.028317679 -0.022935167
-0.024509097 -0.1325911 -0.09795455 -0.057774313 -0.06767147 0.12661561 -0.09821625 0.15325412
-0.10930679 -0.014826177 -0.088542886 0.017176056 0.116391666 0.051276404 -0.10232157 -0.089840405
0.03829658 -0.064149335 -0.090141475 -0.20950295 -0.05735989 0.10317184 0.039134238 -0.055446256
0.008482996 -0.0030656909 0.034676332 -0.052322265 -0.07038459 -0.004436336 -0.18903023 -0.1604549
-0.086980715 -0.06761273 -0.020051392 -0.014756715 -0.042593922 0.060635127 -0.03629709 -0.07203186
0.05532711 -0.030221108 -0.033229396 -0.039239183 0.0061987187 -0.059011977 -0.052199326 0.1096075
-0.11805372 -0.0066600842 0.15019912 0.010676332 0.15477093 -0.06922038 -0.038512584 -0.05249321
0.105070285 -0.013057949 0.06353329 0.08795382 -0.07115391 0.020559998 -0.17592281 -0.05882113
-0.043873377 -0.08708561 -0.08147475 -0.06604336 -0.014168457 0.068340644 0.14069705 -0.012755802
-0.15671991 0.08405305 0.016602501 -0.022280479 -0.0507332 -0.10083354 -0.07910243 0.031730317
0.042088874 -0.0039243107 0.14929307 -0.08639295 0.05321328 0.030971536 0.057352915 0.0041414625
-0.024057554 -0.016235126 -0.041679867 0.11655715 0.09250114 0.008779947 0.08304479 0.044843834
-0.07291814 -0.011380043 0.028128637 -0.104763724 -0.030181149 -0.14230286 -0.07269996 -0.011334908
-0.17292745 0.24377197 -0.085124396 -0.06787195 -0.054189883 0.11115522 0.020933269 -0.100359455
-0.09368828 0.040294655 0.008343108 0.027364966 -0.03406996 0.025816046 0.009790146 -0.023965787
-0.10019358 0.09069962 -0.01617451 0.066179626 0.061074644 -0.07824178 -0.04759843 0.12672919
0.035331026 -0.10567887 -0.15411106 -0.22744547 -0.09202942 0.040093668 0.11518106 -0.043329254
0.0041567655 -0.18944937 -0.15082824 -0.008734728 -0.0046215495 0.23254415 -0.03297972 0.07716405
0.08139239 0.080385596 -0.14411706 -0.24613097 0.16366193 -0.15452556 -0.05101097 0.04643712
-0.23688167 0.028139673 0.11075264 -0.17005685 -0.041666985 0.07562577 0.15712914 -0.11980617
0.15164228 -0.082784586 0.12713398 -0.004613617 -0.22807916 -0.14595608 0.016242608 0.19330133
0.103558294 -0.054103132 -0.07561735 -0.0838596 0.2881642 -0.013662701 -0.046121858 -0.08680064
-0.104589045 -0.017742157 0.024701087 -0.17920992 0.053012542 -0.18863355 0.12081924 0.12914796
-0.035972953 0.06904304 -0.100503705 -0.09709711 0.044501524 -0.05942211 0.040802922 -0.21505353
00000000: 02d0 463d 372a 873c b84c 24bd f18d 443d
00000010: 7eec dcbb 2b3e 123e 054d b83d 3629 ba3c
00000020: d5d7 a2bd 1425 8dbd 4e5f 3ebd feac 8b3d
00000030: 0fd0 a7bc c0c8 ab3c 49eb 833b bde4 0dbe
00000040: 7623 e03d 6667 693d e8e0 bebd 2d21 9d3b
00000050: 4c76 bebc 7ac7 b93d c077 cdbd 10c6 65bc
00000060: 8aea f6bd cc6d e13d fc3d 4abb fcff 29bd
00000070: 4827 06be df0f 10be 307c d33d bda5 aa3d
00000080: bec0 75bd fac3 d33c 53a6 633c 9ced 453d
00000090: f760 943d 148f 863d 9d2d a23c 2ad1 82bd
000000a0: 39d5 2e3d 8595 8cbd d892 2c3d f4ed 6b3a
000000b0: bff7 3d3d 9e3b 69bd f7d1 66bd 23ae a73c
000000c0: b523 1f3e 62cf dd3d 31a4 6f3d 8055 d539
000000d0: 2df0 c93d 068f 4f3d b158 1f3d ccfb f1bd
000000e0: 8eae 84bd fcac 073a 5e15 a03c f88f 8c3d
000000f0: 0bea 98bd 512b 1f3e 7afa e73c 88e2 bbbc
00000100: 4dc7 c8bc f6c5 07be 659c c8bd c2a4 6cbd
00000110: 5797 8abd 86a7 013e 9a25 c9bd a6ee 1c3e
00000120: 3ddc dfbd 7ee9 72bc f955 b5bd cdb4 8c3c
00000130: c15e ee3d 3507 523d f98d d1bd 3ffe b7bd
00000140: e0dc 1c3d ba60 83bd 189c b8bd f187 56be
00000150: 34f2 6abd c24b d33d 394b 203d 9d1b 63bd
00000160: 44fc 0a3c c2e9 48bb c508 0e3d df4f 56bd
00000170: cc25 90bd af5e 91bb 2491 41be 4a4e 24be
00000180: f222 b2bd 8b78 8abd d142 a4bc 26c6 71bc
00000190: f776 2ebd 8a5c 783d 42ac 14bd 7185 93bd
000001a0: ae9e 623d 4292 f7bc 8c1b 08bd 44b9 20bd
000001b0: 9f1e cb3b 8bb6 71bd f6ce 55bd e679 e03d
000001c0: 26c6 f1bd d63c dabb cccd 193e c8eb 2e3c
000001d0: 457c 1e3e 6ac3 8dbd 5fbf 1dbd 1f03 57bd
000001e0: 172f d73d 02f1 55bc be1d 823d 2221 b43d
000001f0: 24b9 91bd 716d a83c 1c25 34be 6dee 70bd
00000200: 92b4 33bd f159 b2bd 3cdc a6bd be41 87bd
00000210: d122 68bc 2ef6 8b3d e312 103e b6fd 50bc
00000220: 2f7b 20be 0124 ac3d f801 883c 8d85 b6bc
00000230: 9ecd 4fbd d181 cebd 7400 a2bd a6f7 013d
00000240: 6265 2c3d 8197 80bb 48e0 183e c9ee b0bd
00000250: 2bf6 593d 05b8 fd3c e4ea 6a3d 1bb5 873b
00000260: 5914 c5bc 87ff 84bc 82b8 2abd 84b5 ee3d
00000270: 3d71 bd3d c4d9 0f3c 6313 aa3d 2bae 373d
00000280: 1b56 95bd 5c73 3abc 076e e63c 5d8e d6bd
00000290: 753e f7bc d7b7 11be b7e3 94bd 0db6 39bc
000002a0: e513 31be 5c9f 793e b355 aebd 7300 8bbd
000002b0: 36f6 5dbd 59a5 e33d 3f7c ab3c 4289 cdbd
000002c0: a4df bfbd 020c 253d 88b1 083c 7e2c e03c
000002d0: f18c 0bbd 2c7c d33c d966 203c e653 c4bc
000002e0: 4b32 cdbd b9c0 b93d 6880 84bc 2f89 873d
000002f0: 6829 7a3d 3a3d a0bd 92f6 42bd 4cc5 013e
00000300: 44b7 103d 2a6e d8bd 4acf 1dbe 77e7 68be
00000310: ec79 bcbd 4239 243d 0ce4 eb3d 047a 31bd
00000320: 7a35 883b 04ff 41be b872 1abe 1b1c 0fbc
00000330: 5e70 97bb 0e20 6e3e be15 07bd 2f08 9e3d
00000340: 0eb1 a63d 34a1 a43d 6c93 13be c209 7cbe
00000350: fe96 273e f33b 1ebe e1f0 50bd d934 3e3d
00000360: 1c91 72be 2c85 e63c 48d2 e23d 6223 2ebe
00000370: 00ab 2abd afe1 9a3d 76e6 203e f05c f5bd
00000380: 1d48 1b3e f78a a9bd 692f 023e d32d 97bb
00000390: 958d 69be 8375 15be 380f 853c c9f0 453e
000003a0: 5f16 d43d 3f9b 5dbd 45dd 9abd 95be abbd
000003b0: 428a 933e 85d9 5fbc 46ea 3cbd 89c4 b1bd
000003c0: c832 d6bd 0058 91bc ef59 ca3c ce82 37be
000003d0: ae23 593d 2729 41be 1470 f73d 5d3f 043e
000003e0: 6058 13bd 7066 8d3d e3d4 cdbd d9da c6bd
000003f0: 3b47 363d 9964 73bd f720 273d fe36 5cbe

bias f4 [64]
0.08847854 0.07867687 0.122863784 -0.07522364 0.17117678 0.17224447 0.13345726 0.113074355
0.13285366 0.13493718 0.23665741 0.023227222 0.16822469 -0.06198317 0.063923605 0.18092474
0.27048057 0.13389821 0.052820392 0.1995979 0.08251826 0.05199296 0.02135865 0.0716195
0.17430188 0.085105635 0.12949787 0.094080135 0.014000273 -0.008278596 0.13142346 0.05807782
0.111467995 0.15862764 0.116061874 0.123710565 0.121858284 0.09093777 0.13917878 0.05997519
0.112781145 0.03824933 0.1560358 0.04977258 0.068858825 0.020611336 0.12423398 0.030913886
0.03865636 0.1158691 0.0863808 0.12707187 0.2697172 0.043417 0.008860999 0.02241871
0.13878308 0.11885387 0.06361445 0.07667594 0.19385405 0.1461138 -0.0024360013 0.072463565
00000000: 3d34 b53d 5721 a13d 02a0 fb3d da0e 9abd
00000010: f748 2f3e db60 303e 05a9 083e 8793 e73d
00000020: ca0a 083e f92c 0a3e 5256 723e 0447 be3c
00000030: 1843 2c3e 11e2 7dbd 61ea 823d 5644 393e
00000040: 6e7c 8a3e 9d1c 093e 325a 583d 6463 4c3e
00000050: 55ff a83d 92f6 543d 56f8 ae3c 3fad 923d
00000060: 317c 323e dd4b ae3d 179b 043e 16ad c03d
00000070: 6761 653c f3a2 07bc df93 063e 02e3 6d3d
00000080: 5549 e43d 496f 223e d9b1 ed3d f75b fd3d
00000090: d690 f93d 953d ba3d e284 0e3e 8ba8 753d
000000a0: cdf9 e63d 54ab 1c3d d9c7 1f3e 55de 4b3d
000000b0: db05 8d3d 1bd9 a83c 636e fe3d 1e3f fd3c
000000c0: 2256 1e3d c74c ed3d 6be8 b03d 211f 023e
000000d0: 5f18 8a3e 06d6 313d b92d 113c 71a7 b73c
000000e0: 271d 0e3e a869 f33d 4b48 823d 4608 9d3d
000000f0: ad81 463e db9e 153e 52a5 1fbb c767 943d

weight f4 [64, 64]
0.00043800546 0.101592146 0.015119002 -0.03818355 0.004327727 0.042266537 0.07313465 0.24119799
0.21426079 0.082257226 0.17284998 0.039006814 -0.069961905 -0.09537914 0.07162952 0.13350296
0.24843395 0.13769144 0.027480666 0.1691943 0.17658445 -0.14671254 0.023515675 0.06236957
0.018862588 0.11009778 0.124217026 0.0076687867 0.18316302 0.009276611 0.051347632 -0.031757154
0.078599125 0.07915204 0.1585699 0.07744273 -0.13231707 0.036878325 -0.013369068 0.19190495
0.16122329 -0.10952826 -0.120375566 0.08236465 0.29694313 0.06572262 0.13591756 0.06440266
0.014842805 0.033708926 0.05939426 -0.15534249 0.042612772 0.054480866 -0.04612414 0.014881716
0.031214343 -0.03181192 0.0848565 0.19656347 0.130418 0.10998549 -0.11627439 -0.15497799
0.1839755 0.03091046 -0.11473543 0.07508237 0.04198983 -0.07340934 -0.11766786 0.049735952
0.1495587 0.03678814 0.08033111 0.04672005 0.012848265 0.05115969 0.18546107 -0.07128064
-0.1314164 0.16524854 0.1617562 0.042920217 0.06915276 0.19627692 -0.064298406 0.03989044
0.094331495 -0.120597064 0.017285073 -0.013555643 0.05724458 0.054360263 0.13080478 0.22939658
-0.0014261418 -0.051378246 0.1087574 0.048632737 0.19825916 0.20098305 -0.039213337 -0.025928902
0.106555484 0.14745204 0.092368335 -0.045154132 0.11599639 0.05606549 0.084716946 0.19664814
0.06678103 -0.10283762 0.025128266 0.21740475 -0.0049162363 0.11369036 -0.012141185 0.048543118
0.15084289 0.14684927 0.013758193 -0.040677156 -0.005293017 0.059628475 0.076531924 0.0923632
0.095426396 0.10015559 0.17728461 0.025473882 0.02976173 0.018659528 -0.023242803 0.028337423
0.13641743 0.21564804 0.120966196 -0.04724326 -0.03592893 0.048893277 -0.01160722 0.09063508
0.2360026 -0.0084688105 0.049532536 -0.024848921 0.11921972 -0.055178575 0.044246588 -0.028134732
-0.014456533 0.18752457 0.17172167 -0.050429437 0.010174337 -0.062483363 0.04444939 0.12930547
0.020766154 0.20412788 0.15371385 0.058695782 -0.010073089 0.06987768 0.09721984 0.10685261
0.02915949 -0.11912196 -0.07380952 0.13482432 0.12773949 0.04646101 0.050873972 -0.04022558
-0.06009621 0.19693595 0.17546694 -0.13900237 -0.023259781 0.16799428 0.13514261 -0.04134044
-0.03535461 -0.06643037 0.16446738 0.07436143 0.24970551 0.004681043 0.060643695 0.036810745
0.08642236 0.12856686 -0.13093805 -0.035777304 0.314506 -0.024347037 0.014749113 0.0076177036
0.058641344 -0.061714694 0.16749647 -0.033118457 -0.05480463 0.047543984 0.092775054 0.002680966
0.054370977 0.034506395 0.08439949 0.033285078 0.23524638 0.1270287 0.15735742 0.13243861
0.077677935 -0.07892305 0.17089818 0.16155052 0.123554245 0.1365536 0.08169631 0.30709398
-0.06764583 0.03612672 0.16601418 0.10493225 0.15658064 0.25711343 0.054542623 0.2103615
0.029347869 -0.018512318 0.028032873 0.17939305 0.19656086 0.11281362 0.008365592 0.25731575
0.006656705 -0.06398423 0.13897264 0.27734542 -0.025073364 0.20264031 0.27001405 0.09447985
0.0553608 0.21778877 0.0023338413 -0.010019531 0.1037921 0.16794425 0.11946252 0.06357121
00000000: 19a4 e539 8b0f d03d b1b5 773c 5b66 1cbd
00000010: 9bcf 8d3b ad1f 2d3d 9fc7 953d 9bfc 763e
00000020: 2e67 5b3e 7a76 a83d 96ff 303e 9cc5 1f3d
00000030: 3048 8fbd 2356 c3bd 7fb2 923d 00b5 083e
00000040: 7865 7e3e fcfe 0c3e 221f e13c 4541 2d3e
00000050: 8ed2 343e d03b 16be f2a3 c03c 3c77 7f3d
00000060: b785 9a3c f27a e13d 7f65 fe3d 724a fb3b
00000070: 168f 3b3e edfc 173c e551 523d ca13 02bd
00000080: 94f8 a03d 771a a23d 2660 223e 4b9a 9e3d
00000090: 207e 07be ba0d 173d ef09 5bbc bb82 443e
000000a0: b817 253e 5a50 e0bd 7787 f6bd ccae a83d
000000b0: ee08 983e 9599 863d f92d 0b3e 8be5 833d
000000c0: 3d2f 733c 5f12 0a3d 6547 733d 1a12 1fbe
000000d0: bb8a 2e3d 5427 5f3d abec 3cbd 71d2 733c
000000e0: 39b5 ff3c 374d 02bd 3fc9 ad3d ef47 493e
000000f0: 4c8c 053e 1340 e13d 4421 eebd 8db2 1ebe
00000100: 1364 3c3e ef37 fd3c 69fa eabd c9c4 993d
00000110: 87fd 2b3d a357 96bd d9fb f0bd edb7 4b3d
00000120: ea25 193e 29af 163d a384 a43d 865d 3f3d
00000130: 8781 523c d38c 513d 82e9 3d3e 96fb 91bd
00000140: 0592 06be ea36 293e 6ba3 253e 1ccd 2f3d
00000150: f69f 8d3d d1fc 483e e2ae 83bd 2864 233d
00000160: df30 c13d 98fb f6bd 6d99 8d3c 7d18 5ebc
00000170: 4b79 6a3d dea8 5e3d b0f1 053e f0e6 6a3e
00000180: 61ed baba ff71 52bd 33bc de3d 1f33 473d
00000190: 7304 4b3e 80ce 4d3e 2a9e 20bd d968 d4bc
000001a0: c339 da3d abfd 163e 9c2b bd3d 8af3 38bd
000001b0: 848f ed3d eda4 653d 1480 ad3d 215e 493e
000001c0: 7ec4 883d 889c d2bd cbd9 cd3c 5a9f 5e3e
000001d0: 6118 a1bb 7ed6 e83d d2eb 46bc 26d5 463d
000001e0: 8f76 1a3e a85f 163e 0b6a 613c 179d 26bd
000001f0: 0b71 adbb fd3c 743d c5bc 9c3d eb28 bd3d
00000200: ea6e c33d 601e cd3d 198a 353e 9aae d03c
00000210: dfce f33c dedb 983c b167 bebc e223 e83c
00000220: 03b1 0b3e d7d2 5c3e 20bd f73d 2682 41bd
00000230: 372a 13bd 5144 483d 362c 3ebc e39e b93d
00000240: aaaa 713e c4c0 0abc a1e2 4a3d f78f cbbc
00000250: 7829 f43d ee02 62bd e93b 353d cf7a e6bc
00000260: 18db 6cbc 7106 403e ced7 2f3e 198f 4ebd
00000270: 43b2 263c 8eee 7fbd 9010 363d a768 043e
00000280: c81d aa3c e606 513e 2a67 1d3e fd6a 703d
00000290: 9909 25bc 071c 8f3d 321b c73d 8bd5 da3d
000002a0: e2df ee3c 37f6 f3bd 7229 97bd 630f 0a3e
000002b0: 24ce 023e e64d 3e3d 3a61 503d 94c3 24bd
000002c0: 7227 76bd 94a9 493e 9bad 333e a356 0ebe
000002d0: 4c8b bebc b106 2c3e d362 0a3e 9854 29bd
000002e0: ffcf 10bd a50c 88bd 236a 283e ce4a 983d
000002f0: cdb2 7f3e 6f63 993b 8665 783d ddc6 163d
00000300: 35fe b03d 08a7 033e a014 06be 398b 12bd
00000310: ee06 a13e 7073 c7bc 43a6 713c ee9d f93b
00000320: e831 703d 8cc8 7cbd 3284 2b3e 38a7 07bd
00000330: d27a 60bd 7bbd 423d d900 be3d 25b3 2f3b
00000340: 1ab4 5e3d 9456 0d3d a4d9 ac3d ef55 083d
00000350: 6de4 703e d013 023e 4e22 213e fd9d 073e
00000360: 9c15 9f3d 68a2 a1bd efff 2e3e 806d 253e
00000370: 020a fd3d b5d4 0b3e 6550 a73d 6c3b 9d3e
00000380: e689 8abd 9df9 133d 9fff 293e b8e6 d63d
00000390: ad56 203e 5fa4 833e 1668 5f3d 0169 573e
000003a0: f16a f03c 25a7 97bc 32a5 e53c d0b2 373e
000003b0: 4047 493e d40a e73d d60f 093c e4be 833e
000003c0: 7d20 da3b 2a0a 83bd d84e 0e3e 3800 8e3e
000003d0: a866 cdbc f180 4f3e 483f 8a3e a77e c13d
000003e0: 02c2 623d 0504 5f3e 5cf3 183b f528 24bc
000003f0: f490 d43d 94f9 2b3e c4a8 f43d 9f31 823d

bias f4 [64]
0.03714528 -0.044594713 0.002872335 0.14994307 -0.022768347 0.053218305 0.06220721 -0.07362555
0.10635719 0.17778648 0.10291135 -0.07277178 0.119942956 0.098943256 0.10756509 0.0049536536
0.01572734 0.12763748 -0.09426566 -0.057045538 0.15688 0.0468607 0.077224106 -0.107267395
0.08077139 0.010971636 0.032838304 0.10486073 -0.061462786 0.03503668 0.11718032 0.066331774
0.04717355 -0.030129004 -0.018948033 0.122213975 -0.077436626 -0.010840974 0.029862862 0.18841858
0.10169396 0.053719215 0.017480671 0.07952603 -0.08599642 -0.012104115 -0.0076579684 -0.05309716
-0.011675724 0.15049249 -0.004209581 0.09007119 0.09323955 0.04953999 0.15972236 -0.015723996
0.00057469966 0.08610475 -0.0058784266 0.19017597 0.12850522 0.09581701 0.01036405 0.05691866
00000000: a625 183d f2a8 36bd c93d 3c3b ad8a 193e
00000010: af84 babc 70fb 593d fdcc 7e3d fec8 96bd
00000020: ccd1 d93d a90d 363e 30c3 d23d 5f09 95bd
00000030: a7a4 f53d c3a2 ca3d 164b dc3d 4252 a23b
00000040: 9fd6 803c 66b3 023e 5b0e c1bd 95a8 69bd
00000050: 27a5 203e 01f1 3f3d ac27 9e3d 02af dbbd
00000060: 786b a53d 60c2 333c 7581 063d 39c1 d63d
00000070: 67c0 7bbd 9f82 0f3d 3cfc ef3d f4d8 873d
00000080: 0d39 413d 1ad1 f6bc e838 9bbc 524b fa3d
00000090: 1897 9ebd 579e 31bc f6a2 f43c cdf0 403e
000000a0: ec44 d03d ae08 5c3d a033 8f3c 8bde a23d
000000b0: e41e b0bd 5750 46bc b2ef fabb 687c 59bd
000000c0: 894b 3fbc b41a 1a3e 86f0 89bb 3e77 b83d
000000d0: 61f4 be3d 72ea 4a3d 428e 233e 9ccf 80bc
000000e0: 71a7 163a b057 b03d d19f c0bb 7dbd 423e
000000f0: df96 033e b53b c43d facd 293c 8a23 693d

weight f4 [5, 64]
-0.11745073 -0.017260026 -0.19460551 -0.26364627 0.052989677 0.041691333 0.07538294 0.05805594
0.03988425 -0.020722976 0.032158956 -0.04186108 -0.0809081 -0.04831326 -0.07430131 -0.055739373
0.18713851 0.06476932 -0.03284494 -0.055096895 -0.03370934 0.0790177 0.07703824 0.055308186
-0.33344215 -0.16678597 -0.07760372 -0.007380572 0.054493427 -0.032123312 0.30790365 -0.13156602
-0.023833198 -0.11061875 -0.03231452 -0.0068532485 0.050428756 -0.14382564 0.04574643 -0.14613931
-0.025746016 0.096613176 -0.23439682 -0.23660143 0.15875451 -0.12494157 -0.0597666 -0.07503981
0.1656608 -0.04249524 -0.029657666 0.07196384 0.11361477 0.12870148 -0.08522391 0.0064966977
-0.22737177 0.08919467 -0.15069748 0.12927547 -0.012728519 0.24246038 -0.040643226 0.12500048
0.11336277 -0.124981776 -0.078577764 0.025246069 0.1971314 0.005276949 -0.048405524 -0.06421263
0.0118023185 0.24223973 0.029574947 -0.12697683 -0.15469274 0.19130798 0.05391228 -0.12332024
0.15743741 -0.08447189 -0.009834836 -0.014344458 0.03864552 -0.090157256 -0.061978824 0.01923355
0.09393302 -0.13949835 0.039933164 -0.115360916 0.06965855 -0.0913223 -0.022321507 -0.0045022825
0.15430215 -0.020814428 0.14685951 0.16893974 -0.16008782 -0.13129374 0.019186512 -0.0055207917
0.10638241 0.1891555 0.020904297 -0.08146503 -0.02715452 0.016595164 -0.1211508 0.21426399
0.037620865 0.15231788 -0.010286431 -0.12446502 -0.005740937 0.13364348 0.12210185 -0.15675761
0.023127189 0.007846333 0.1751074 -0.106842116 -0.20744066 0.046490062 0.13995357 -0.028468661
0.09251911 -0.25327015 0.19662838 -0.22102405 0.055008225 -0.07140092 -0.18740937 0.0893168
0.034662716 0.10460413 0.08465991 -0.1565754 0.096179575 -0.043892674 -0.0996227 -0.0052574617
-0.054948088 0.116877906 0.006737879 -0.07890108 -0.004624645 -0.02045098 0.10179138 0.06045174
-0.08617839 0.018824799 -0.024337174 0.10051176 -0.113940716 0.1389112 0.06107718 -0.07692903
0.149 0.12968528 -0.150073 -0.05762175 -0.056594122 -0.34972885 -0.19362712 0.17154114
0.09699639 -0.109368 0.0467234 0.01711481 -0.17190486 -0.09229183 -0.013486002 0.089495115
-0.13368385 0.0881778 0.089750834 0.105145715 0.0028005538 -0.13890705 -0.13708656 -0.033646762
0.1777818 -0.080099456 0.1382012 0.13428405 0.06455274 0.043780606 -0.12745266 0.037819818
0.015062285 0.08419714 0.06811457 0.011497496 -0.098261714 -0.1610792 0.066597804 0.058769032
0.08711217 0.021323115 -0.1150454 -0.07920706 0.016787447 -0.005740804 0.09284812 0.0808206
-0.09009529 -0.056356713 -0.038833044 0.09101698 -0.1671248 -0.10715384 -0.19748017 0.088760264
0.014964077 0.050448988 0.1961861 0.032706454 0.019220302 0.17900023 -0.11723417 -0.09469273
0.030769639 0.18502502 -0.12543473 -0.09269254 0.11332793 0.13385762 -0.15731023 0.11003667
0.03592746 -0.01773948 -0.040110152 0.09161869 -0.09729699 -0.026180267 0.0985415 0.07777751
0.031044148 0.1290124 0.021057557 -0.08277479 -0.09363818 -0.062205937 0.08340281 0.0105117755
0.10731749 -0.14210859 0.08858578 -0.120596714 0.029621921 -0.16210927 0.10931251 -0.15250732
00000000: 028a f0bd e664 8dbc ab46 47be a5fc 86be
00000010: b40b 593d 88c4 2a3d 5f62 9a3d 11cc 6d3d
00000020: ab5d 233d 3bc3 a9bc 1cb9 033d 8676 2bbd
00000030: 25b3 a5bd 20e4 45bd 492b 98bd f84e 64bd
00000040: 3da1 3f3e c7a5 843d 6a88 06bd 48ad 61bd
00000050: ce12 0abd 08d4 a13d 3ac6 9d3d d68a 623d
00000060: eeb8 aabe f1c9 2abe b3ee 9ebd bad8 f1bb
00000070: 8034 5f3d bc93 03bd 8ca5 9d3e 3eb9 06be
00000080: d73d c3bc 158c e2bd 3b5c 04bd 3791 e0bb
00000090: 628e 4e3d 0747 13be 9c60 3b3d 8ba5 15be
000000a0: 4fe9 d2bc 21dd c53d b805 70be a547 72be
000000b0: 8b90 223e 5ee1 ffbd d3cd 74bd 79ae 99bd
000000c0: fca2 293e 7d0f 2ebd a2f4 f2bc c761 933d
000000d0: dcae e83d 52ca 033e e089 aebd 40e2 d43b
000000e0: 25d4 68be b2ab b63d 7150 1abe ca60 043e
000000f0: 478b 50bc 8947 783e 8379 26bd 2000 003e
00000100: bd2a e83d 72f6 ffbd 61ed a0bd d8d0 ce3c
00000110: d0dc 493e 42ea ac3b df44 46bd e981 83bd
00000120: 835e 413c b10d 783e 2947 f23c 3706 02be
00000130: c667 1ebe 3de6 433e 1fd3 5c3d 528f fcbd
00000140: 4637 213e 99ff acbd 4b22 21bc 0405 6bbc
00000150: c44a 1e3d 5ea4 b8bd 82dd 7dbd ae8f 9d3c
00000160: f55f c03d a8d8 0ebe f590 233d 5842 ecbd
00000170: 24a9 8e3d 3007 bbbd 98db b6bc e287 93bb
00000180: 6201 1e3e 0583 aabc 5762 163e 8afe 2c3e
00000190: 10ee 23be de71 06be 082d 9d3c c2e7 b4bb
000001a0: 05df d93d fbb1 413e 7d3f ab3c 23d7 a6bd
000001b0: 2873 debc 95f2 873c e91d f8bd 0568 5b3e
000001c0: 5618 1a3d 38f9 1b3e 6b88 28bc 84e7 febd
000001d0: 781e bcbb d6d9 083e 8910 fa3d 1185 20be
000001e0: 3b75 bd3c e88d 003c 5b4f 333e 0ad0 dabd
000001f0: 536b 54be 5d6c 3e3d fd4f 0f3e 1c37 e9bc
00000200: a97a bd3d a0ac 81be f358 493e 2154 62be
00000210: 4e50 613d a53a 92bd 3ee8 3fbe baeb b63d
00000220: 7efa 0d3d b13a d63d 2d62 ad3d 4d55 20be
00000230: ccf9 c43d cec8 33bd fc06 ccbd c946 acbb
00000240: 3f11 61bd af5d ef3d 6dc9 dc3b e496 a1bd
00000250: 568a 97bb d088 a7bc 0078 d03d 3e9c 773d
00000260: 4c7e b0bd 7736 9a3c c15e c7bc 1cd9 cd3d
00000270: c059 e9bd bd3e 0e3e 112c 7a3d f88c 9dbd
00000280: 7593 183e 38cc 043e bdac 19be c904 6cbd
00000290: 3dcf 67bd a90f b3be 3046 46be 7ba8 2f3e
000002a0: 0ba6 c63d 54fc dfbd 0961 3f3d 5c34 8c3c
000002b0: d407 30be 8003 bdbd 64f4 5cbc 3749 b73d
000002c0: 6be4 08be 9096 b43d 49cf b73d a356 d73d
000002d0: 7f89 373b a63d 0ebe 6b60 0cbe 30d1 09bd
000002e0: 6f0c 363e 2f0b a4bd 9e84 0d3e c281 093e
000002f0: 3a34 843d 4b53 333d f382 02be f4e8 1a3d
00000300: cdc7 763c 8d6f ac3d a77f 8b3d fe5f 3c3c
00000310: 703d c9bd f2f1 24be 6e64 883d ccb7 703d
00000320: de67 b23d d0ad ae3c ec9c ebbd 5037 a2bd
00000330: d485 893c 5b1d bcbb 2827 be3d 4585 a53d
00000340: e183 b8bd 4cd6 66bd 660f 1fbd 1c67 ba3d
00000350: c322 2bbe 7973 dbbd 3e38 4abe f1c7 b53d
00000360: e32b 753c 99a3 4e3d 02e5 483e 34f7 053d
00000370: e573 9d3c d64b 373e 7818 f0bd 43ee c1bd
00000380: 9c10 fc3c 3377 3d3e f671 00be 96d5 bdbd
00000390: 7918 e83d f911 093e ef15 21be e85a e13d
000003a0: ac28 133d 6352 91bc 8b4a 24bd 94a2 bb3d
000003b0: a543 c7bd 0078 d6bc 20d0 c93d d149 9f3d
000003c0: 4c50 fe3c d41b 043e e680 ac3c d485 a9bd
000003d0: 60c5 bfbd a7cb 7ebd 18cf aa3d 9539 2c3c
000003e0: 46c9 db3d ea84 11be 766c b53d 69fb f6bd
000003f0: aca9 f23c f9ff 25be 3ddf df3d e12a 1cbe

bias f4 [5]
-0.015605859 0.11016557 0.12201892 -0.0057927 -0.12216898
00000000: b8af 7fbc 7d9e e13d 0ee5 f93d b1d0 bdbb
00000010: bb33 fabd
