Industrial Equipment/mlruns/0/1443f16e63954206976bb01f51d297e0/artifacts/generator_model/data/model.pth (torch, 55038 bytes, 14 tensors)

weight f4 [64, 100]
0.04884112 -0.047562733 -0.03674671 -0.037406906 0.0036289839 0.025892507 -0.056574017 0.044375867
-0.08282997 0.028343953 0.06232646 0.05437517 -0.053685088 -0.006523507 -0.090962976 0.09030895
0.051531922 -0.017472476 -0.096819974 0.020727456 -0.024371555 -0.08363629 -0.031151734 -0.02291561
-0.046527453 0.07279716 0.0140584875 -0.07715387 -0.05112369 0.0126130795 0.052321993 -0.09482798
0.008089283 0.11977276 0.11189905 0.08165922 -0.0006602374 0.088361494 -0.056317177 0.07579051
-0.02524578 -0.043359425 0.05061284 -0.10520841 -0.07141964 -0.036797233 -0.08164575 0.06944551
-0.077851325 0.012431785 0.0120978365 -0.0401066 0.060214896 0.074455336 0.00031471145 -0.07598428
-0.01887887 -0.024324501 0.06241693 -0.035171386 0.0042356 -0.019504134 -0.05174131 -0.088539794
-0.11301406 -0.06726011 -0.09331022 -0.100619905 -0.0007017463 -0.08877501 -0.063586704 -0.08506852
-0.013157415 -0.035525426 0.021016642 -0.08049119 0.01856975 0.030141983 0.04745137 -0.0427735
0.08166013 0.04706101 -0.030849066 -0.07974377 0.002888002 0.07100995 -0.09584775 -0.06764042
-0.053113796 0.08630072 0.06148555 0.043024328 -0.06619326 0.09665758 -0.08538509 -0.026963394
-0.09739635 0.06258473 -0.09412667 -0.000718983 -0.030885141 -0.093655564 0.06408925 -0.058493666
0.057288222 0.03637613 0.09605281 -0.09396291 0.09596325 -0.010032015 0.048650023 -0.0689944
0.002998491 -0.08766555 0.0655363 -0.050277505 0.024405872 -0.006734302 -0.08445563 0.047479425
0.06678342 0.020097364 0.07484685 0.066374384 0.0056493976 -0.06502306 0.0026741296 -0.049908858
-0.024962308 0.02578743 -0.09589338 0.029027209 -0.07452247 0.096249975 0.072569676 0.042637706
-0.033831626 0.0845767 -0.039570726 0.029075898 0.09908873 -0.015189141 -0.041189402 -0.005561626
0.002580481 -0.031135622 0.085078426 -0.007260948 0.10187897 -0.079755835 0.0861037 0.074742936
0.05141085 -0.03648969 0.029005416 0.1002833 0.03075023 0.046873618 -0.078046426 -0.015816145
0.06275741 -0.05205145 -0.044660755 0.074327596 0.010346489 -0.051322587 -0.09731222 -0.06496791
-0.07981327 0.047638606 0.006403076 0.035714637 0.10036504 -0.008714886 -0.04807986 0.09602868
0.04946481 -0.0027877677 0.033281505 -0.0227331 -0.03792855 0.016618194 0.010389361 0.06309593
-0.065585375 -0.09460861 0.035409566 0.037575822 -0.0019124113 -0.0041539655 0.04600404 -0.0889264
0.03796402 -0.06628629 0.07439041 -0.083327554 -0.038940858 -0.087189145 -0.103006266 -0.0047438233
-0.083398595 0.021191815 0.07633195 0.039641753 -0.04864521 -0.07043755 0.013944846 0.028555624
-0.09421668 -0.08670717 -0.08531043 0.052244145 0.034355655 -0.079667985 -0.02160707 -0.016095579
0.09435839 0.0028602043 -0.0374434 0.0119882515 0.049806137 -0.05995764 0.080022894 -0.056469057
0.025459155 0.03274172 0.08251774 0.012619416 -0.07988004 0.04881088 0.050219364 -0.060435783
0.036698025 0.08205957 -0.065587685 -0.09006436 0.084791824 -0.061959106 0.01361806 -0.012517919
0.0452978 -0.034333315 0.10210466 0.0967242 0.08567754 -0.05543047 -0.06877039 0.007140853
-0.079062834 0.022984179 -0.07442844 -0.08549959 0.0010292401 -0.02481644 -0.102800325 -0.011080138
00000000: a00d 483d 24d1 42bd b883 16bd fc37 19bd
00000010: 3fd4 6d3b 861c d43c 28ba 67bd 78c3 353d
00000020: c2a2 a9bd 9431 e83c 084a 7f3d 80b8 5e3d
00000030: e5e4 5bbd 25c3 d5bb cc4a babd e6f3 b83d
00000040: 2313 533d 7022 8fbc 8d49 c6bd a0cc a93c
00000050: dba6 c7bc 8149 abbd ec31 ffbc 84b9 bbbc
00000060: 9293 3ebd ad16 953d 9255 663c d902 9ebd
00000070: 1367 51bd 17a7 4e3c 964f 563d 2c35 c2bd
00000080: e988 043c 6c4b f53d 542b e53d f33c a73d
00000090: c813 2dba dff6 b43d d7ac 66bd 0e38 9b3d
000000a0: 3dd0 cebc a799 31bd 694f 4f3d 8277 d7bd
000000b0: 7644 92bd b2b8 16bd e335 a7bd 7339 8e3d
000000c0: 8470 9fbd b0ae 4b3c 0136 463c d146 24bd
000000d0: e5a3 763d 0a7c 983d dbff a439 a59d 9bbd
000000e0: dca7 9abc 2d44 c7bc e5a8 7f3d df0f 10bd
000000f0: caca 8a3b 22c7 9fbc b2ee 53bd 5a54 b5bd
00000100: ea73 e7bd abbf 89bd 6e19 bfbd cf11 cebd
00000110: 66f5 37ba accf b5bd bf39 82bd 6738 aebd
00000120: 3392 57bc 1c83 11bd 182b ac3c 91d8 a4bd
00000130: 971f 983c 52ec f63c 5e5c 423d 4433 2fbd
00000140: 6d3d a73d 0cc3 403d 2eb7 fcbc b450 a3bd
00000150: a244 3d3b aa6d 913d d34b c4bd 0f87 8abd
00000160: da8d 59bd 6fbe b03d 46d8 7b3d 473a 303d
00000170: 5590 87bd 69f4 c53d 61de aebd 56e2 dcbc
00000180: bd77 c7bd 6c2c 803d 7cc5 c0bd 227a 3cba
00000190: d602 fdbc 7dce bfbd 3a41 833d 0e97 6fbd
000001a0: 0ea7 6a3d 23ff 143d 56b7 c43d a06f c0bd
000001b0: 6188 c43d 525d 24bc 3f45 473d f04c 8dbd
000001c0: 5582 443b ff89 b3bd e537 863d c9ef 4dbd
000001d0: d3ee c73c 6bab dcbb 13f7 acbd c979 423d
000001e0: bfc5 883d 3aa3 a43c 4e49 993d 4bef 873d
000001f0: 951e b93b cf2a 85bd 7340 2f3b 3b6d 4cbd
00000200: c17d ccbc 2940 d33c c063 c4bd 78ca ed3c
00000210: 3d9f 98bd b51e c53d 699f 943d e0a4 2e3d
00000220: 0893 0abd 8d36 ad3d ea14 22bd 9430 ee3c
00000230: 08ef ca3d e0db 78bc 38b6 28bd 4d3e b6bb
00000240: 4a1d 293b 2210 ffbc 993d ae3d 3fed edbb
00000250: eca5 d03d 0757 a3bd 2357 b03d d312 993d
00000260: 2f94 523d 3776 15bd c49c ed3c 5561 cd3d
00000270: e8e7 fb3c 8dfe 3f3d ced6 9fbd dc90 81bc
00000280: f586 803d e733 55bd 32ee 36bd 1139 983d
00000290: 5284 293c a237 52bd a14b c7bd e50d 85bd
000002a0: 2475 a3bd b320 433d e5d0 d13b 8349 123d
000002b0: 308c cd3d e2c8 0ebc 63ef 44bd afaa c43d
000002c0: 9d9b 4a3d fbb2 36bb 3052 083d c43a babc
000002d0: f85a 1bbd e122 883c 2338 2a3c 7038 813d
000002e0: a051 86bd 29c2 c1bd 9f09 113d 1be9 193d
000002f0: e0a9 faba fd1d 88bb bb6e 3c3d 0b1f b6bd
00000300: 2980 1b3d 1bc1 87bd 005a 983d a3a7 aabd
00000310: 7380 1fbd 3990 b2bd f3f4 d2bd 1372 9bbb
00000320: e2cc aabd 759a ad3c ed53 9c3d 645f 223d
00000330: 3340 47bd 9041 90bd ec78 643c 7ced e93c
00000340: adf4 c0bd 8793 b1bd 3cb7 aebd f5fd 553d
00000350: 84b8 0c3d f828 a3bd 4f01 b1bc e0da 83bc
00000360: f93e c13d 4472 3b3b 405e 19bd 5f6a 443c
00000370: 8501 4c3d 2496 75bd 0be3 a33d 194c 67bd
00000380: b88f d03c 2f1c 063d 10ff a83d abc1 4e3c
00000390: 2598 a3bd ebed 473d d2b2 4d3d 838b 77bd
000003a0: ab50 163d d90e a83d d652 86bd aa73 b8bd
000003b0: 56a7 ad3d d5c8 7dbd 491e 5f3c f517 4dbc
000003c0: 308a 393d 17a1 0cbd 3f1c d13d 5617 c63d
000003d0: b577 af3d 0f0b 63bd 7dd7 8cbd d1fd e93b
000003e0: b2eb a1bd 5149 bc3c f06d 98bd 691a afbd
000003f0: 91e7 863a d94b cbbc fa88 d2bd 7889 35bc

bias f4 [64]
0.04927206 0.016969409 0.0028359797 0.043400254 -0.008231325 0.07924909 -0.060478278 -0.07593531
0.01645425 0.004906887 -0.016000358 0.013410773 -0.035913724 0.026304757 -0.048619643 -0.0048495843
0.08279752 -0.09457279 0.0036189575 0.04506028 -0.05755998 -0.02425826 -0.006280515 0.020805005
0.026817305 -0.06369499 0.0059887446 -0.079111345 -0.060315464 0.045286324 0.055229623 -0.040137682
-0.071705826 0.07859243 0.019308552 0.07899656 -0.045879144 -0.014366452 -0.096208096 0.0016439928
0.004061897 0.08801767 0.025068844 0.07609906 -0.07275675 -0.034604277 0.0052126762 -0.025330186
-0.05347728 -0.05058721 0.0102501465 -0.0604949 -0.07545113 0.045882385 0.060709547 0.06893048
0.08341008 -0.009691338 -0.06630091 0.059429415 -0.054352812 0.03702305 -0.07592406 0.071062386
00000000: 80d1 493d 6e03 8b3c d8db 393b 77c4 313d
00000010: aedc 06bc 594d a23d 12b8 77bd f983 9bbd
00000020: 10cb 863c f4c9 a03b 2f13 83bc dcb8 5b3c
00000030: 451a 13bd 137d d73c 6425 47bd 43e9 9ebb
00000040: bf91 a93d 61af c1bd 082c 6d3b 2191 383d
00000050: 03c4 6bbd 42b9 c6bc c7cc cdbb 426f aa3c
00000060: f7af db3c 8572 82bd 3b3d c43b 2105 a2bd
00000070: 590d 77bd 277e 393d 7538 623d 6967 24bd
00000080: 81da 92bd 11f5 a03d f82c 9e3c f3c8 a13d
00000090: c5eb 3bbd 4461 6bbc c008 c5bd 3f7b d73a
000000a0: a919 853b 9c42 b43d 2d5d cd3c d3d9 9b3d
000000b0: 7e01 95bd 37bd 0dbd 19cf aa3b 4081 cfbc
000000c0: fe0a 5bbd 8934 4fbd 3bf0 273c 80c9 77bd
000000d0: 1f86 9abd 2bef 3b3d 93aa 783d 6c2b 8d3d
000000e0: e7d2 aa3d 6bc8 1ebc c6c8 87bd 426c 733d
000000f0: 0ea1 5ebd 7ba5 173d 137e 9bbd 2889 913d

weight f4 [64]
1.0023192 0.9947772 1.0002252 1.0005553 0.99764156 1.0511872 0.99783325 1.0033777
0.9809061 1.0096819 1.0101142 0.98820263 1.0130075 0.9879365 0.99891996 0.99050623
1.0110539 0.99059284 0.9938606 0.9952217 1.0118701 1.0397066 0.9748187 1.005535
0.997428 0.99041164 0.99590665 0.99057907 0.98732424 0.9936443 1.0232266 0.97671676
0.9898901 1.0070901 1.0248684 0.9902022 1.0138937 1.0003928 0.9852264 1.0019039
0.99087536 1.0023358 1.0034937 1.0110891 1.0045186 0.9954264 1.019135 0.99669266
1.0000231 1.0313793 0.9911001 0.99991477 1.001672 0.98524785 0.99046123 1.0051547
0.995222 0.9994497 0.98766965 0.9959998 1.0049312 0.9684119 1.016448 1.007845
00000000: ff4b 803f b8a9 7e3f 6107 803f 3212 803f
00000010: 7065 7f3f 4d8d 863f 0072 7f3f ae6e 803f
00000020: aa1c 7b3f 423d 813f 6c4b 813f d9fa 7c3f
00000030: 3baa 813f 68e9 7c3f 38b9 7f3f d191 7d3f
00000040: 376a 813f 7e97 7d3f a66d 7e3f d9c6 7e3f
00000050: f684 813f 1b15 853f b88d 793f 5fb5 803f
00000060: 7157 7f3f 9e8b 7d3f bdf3 7e3f 9796 7d3f
00000070: 48c1 7c3f 795f 7e3f 17f9 823f 1c0a 7a3f
00000080: 7069 7d3f 54e8 803f e32e 833f e47d 7d3f
00000090: 45c7 813f df0c 803f cc37 7c3f 633e 803f
000000a0: 02aa 7d3f 8a4c 803f 7b72 803f 5e6b 813f
000000b0: 1194 803f 44d4 7e3f 0473 823f 4027 7f3f
000000c0: c200 803f 3d04 843f bcb8 7d3f 6afa 7f3f
000000d0: ca36 803f 3439 7c3f de8e 7d3f e9a8 803f
000000e0: dec6 7e3f efdb 7f3f ebd7 7c3f d8f9 7e3f
000000f0: 96a1 803f d8e9 773f f81a 823f 1101 813f

bias f4 [64]
0.0004590533 -0.0003147385 0.0025710333 -0.0006657631 0.002516715 0.0036398948 0.0053745266 -0.0057022856
-0.011757651 0.0043415576 0.0012297042 -0.011169778 0.013876384 -0.0055487687 -0.0029649693 -0.010624007
0.010707089 0.0052381284 -0.008147443 0.0038821215 0.013115113 0.018026302 -0.012857065 -0.0027315537
0.0034780276 -0.0047059665 -0.006345293 0.008685004 -0.0071184174 0.0092382515 0.024928503 -0.017090106
-0.0011065439 -0.007147905 0.0019851082 -0.01368243 -0.002323819 -0.0132919755 -0.0053009917 -0.009989112
-0.0010385921 0.006522544 -0.002040673 0.006672928 0.008612994 0.0015040056 0.016111258 -0.0034238896
0.006942397 0.019802926 -0.0070329052 -0.0024059757 0.0007853988 -0.009556009 -0.010701177 0.008240956
0.0018219484 0.008904468 -0.014045028 0.0060218396 0.009098045 -0.023324857 0.02485478 0.010343984
00000000: 17ad f039 7d03 a5b9 c87e 283b 9b86 2eba
00000010: 79ef 243b 4d8b 6e3b cc1c b03b 3dda babb
00000020: 2aa3 40bc a043 8e3b 072e a13a 7201 37bc
00000030: c659 633c 72d2 b5bb ee4f 42bb 5110 2ebc
00000040: c96c 2f3c 9ba4 ab3b da7c 05bc 316b 7e3b
00000050: c5e0 563c e5ab 933c 70a6 52bc de03 33bb
00000060: 9fef 633b 8234 9abb 2dec cfbb 8c4b 0e3c
00000070: 9d41 e9bb 095c 173c dc36 cc3c 8d00 8cbc
00000080: 7409 91ba f938 eabb 9718 023b 452c 60bc
00000090: 374b 18bb 96c6 59bc f1b3 adbb 5fa9 23bc
000000a0: 5e21 88ba 11bb d53b d0bc 05bb 94a8 da3b
000000b0: 841d 0d3c 0e22 c53a c2fb 833c 5663 60bb
000000c0: 0c7d e33b bf39 a23c 4974 e6bb 93ad 1dbb
000000d0: 39e3 4d3a cf90 1cbc fd53 2fbc 1305 073c
000000e0: 72ce ee3a 0ce4 113c 1e1d 66bc da52 c53b
000000f0: f70f 153c c513 bfbc 409c cb3c d079 293c

running_mean f4 [64]
0.04499661 0.01631558 -0.024039302 0.07544804 -0.044846807 0.12763883 -0.078223646 -0.11257458
0.025626093 -0.017158672 -0.03620945 0.013431298 -0.018464662 0.02264854 -0.04368956 -0.01268548
0.047638908 -0.10454436 0.009272716 0.015960198 -0.07247109 0.0037101726 -0.0072983378 -0.0039991722
0.04903707 -0.072203346 0.0074245357 -0.092484325 -0.044342935 0.0627424 0.058131106 -0.026181268
-0.04328424 0.08694589 0.0073037865 0.09482804 -0.07652011 -0.03603175 -0.10990274 0.004503204
-0.022208177 0.08529387 0.03311369 0.07908363 -0.038808804 -0.020575387 0.0060775387 -0.020603955
-0.06654982 -0.027241187 0.006099057 -0.06621459 -0.07419013 0.040384553 0.06628624 0.06661425
0.079590425 -0.0057765716 -0.0629212 0.06831606 -0.010525603 0.07089375 -0.07633675 0.054154247
00000000: 5e4e 383d 40a8 853c 12ee c4bc 8184 9a3d
00000010: 49b1 37bd c1b3 023e b833 a0bd 808d e6bd
00000020: d0ed d13c 5890 8cbc 5c50 14bd f20e 5c3c
00000030: 3443 97bc 6e89 b93c d3f3 32bd c2d6 4fbc
00000040: 0421 433d 5a1b d6bd 97ec 173c f6be 823c
00000050: b96b 94bd 5e26 733b e526 efbb 7d0b 83bb
00000060: 18db 483d 59df 93bd 8549 f33b 6c68 bdbd
00000070: f0a0 35bd 167f 803d e21a 6e3d 197a d6bc
00000080: d14a 31bd b010 b23d 9a54 ef3b 3435 c23d
00000090: 93b6 9cbd 0796 13bd b014 e1bd 9d8f 933b
000000a0: eced b5bc 8dae ae3d 38a2 073d 99f6 a13d
000000b0: fbf5 1ebd b78d a8bc 1726 c73b a0c9 a8bc
000000c0: 464b 88bd e928 dfbc 99da c73b 849b 87bd
000000d0: fff0 97bd 466a 253d 15c1 873d 0d6d 883d
000000e0: 4e00 a33d 6549 bdbb d5dc 80bd 4ae9 8b3d
000000f0: 9473 2cbc be30 913d 7156 9cbd d8d0 5d3d

running_var f4 [64]
0.38011193 0.3454331 0.3261146 0.3323478 0.28496772 0.3670391 0.36611718 0.35022298
0.349108 0.3382032 0.32662886 0.3235534 0.4029028 0.35847226 0.34237933 0.3926092
0.42162257 0.34643742 0.25966114 0.34198847 0.343082 0.37538242 0.40376034 0.36370364
0.32763225 0.33003125 0.3760507 0.35089824 0.33723196 0.4215909 0.28754157 0.33795163
0.33700845 0.34482864 0.3873489 0.3732298 0.30618402 0.37446174 0.36591628 0.41329008
0.35771587 0.33706373 0.35771704 0.36720118 0.35592887 0.33889842 0.32055643 0.32240352
0.34227058 0.38072407 0.3544647 0.31846514 0.40885508 0.2909216 0.3172759 0.31897324
0.3866815 0.38673818 0.38499412 0.34311813 0.38275054 0.36770058 0.3220505 0.33562157
00000000: 089e c23e 9bdc b03e 7ef8 a63e 7e29 aa3e
00000010: 4ae7 913e 8dec bb3e b673 bb3e 6d50 b33e
00000020: 49be b23e f828 ad3e e63b a73e cba8 a53e
00000030: 4749 ce3e ad89 b73e 584c af3e 1304 c93e
00000040: eade d73e 3f60 b13e 4ef2 843e 1d19 af3e
00000050: 72a8 af3e 2032 c03e adb9 ce3e 5d37 ba3e
00000060: 6abf a73e dbf9 a83e b889 c03e efa8 b33e
00000070: aba9 ac3e c3da d73e a638 933e ff07 ad3e
00000080: 5f8c ac3e 618d b03e 9852 c63e fa17 bf3e
00000090: 27c4 9c3e 73b9 bf3e 6159 bb3e c29a d33e
000000a0: 8926 b73e 9e93 ac3e b026 b73e cb01 bc3e
000000b0: 4f3c b63e 1884 ad3e f91f a43e 1312 a53e
000000c0: 173e af3e 44ee c23e 667c b53e dd0d a33e
000000d0: 7455 d13e adf3 943e fd71 a23e 7650 a33e
000000e0: 1efb c53e 8c02 c63e f31d c53e 2ead af3e
000000f0: e1f7 c33e 4043 bc3e cee3 a43e 97d6 ab3e

weight f4 [64, 64]
-0.05296438 -0.1035235 -0.04385458 -0.029296646 0.0639531 0.061524406 -0.028460814 0.026226256
-0.05839007 -0.05137806 0.04248354 -0.110763974 0.01869334 0.07397719 0.0884576 0.059511326
-0.04233521 -0.023389386 -0.11183036 0.058488596 0.08859965 -0.07384585 0.0691516 0.031319883
0.11326568 -0.10383076 0.029294223 -0.12304215 0.0084669255 0.042604245 -0.087402724 -0.030513436
0.053385094 0.05261103 -0.016672274 0.02953275 0.10555732 -0.08717274 -0.021840729 -0.123964995
-0.054014716 -0.024829207 0.08909261 -0.09959638 -0.12744544 0.02515003 -0.058583077 0.117500365
-0.028160641 -0.01521998 -0.09566799 -0.040070713 -0.07383441 0.013889864 0.003094892 -0.045266263
0.122497246 0.074044116 -0.05927479 -0.10641321 -0.038127948 -0.117383815 -0.08223859 -0.10939329
-0.015460004 0.092317104 0.003284431 -0.11136723 -0.08175474 -0.10418547 0.103763975 0.035214216
0.0845618 0.0145724015 0.034946688 -0.008182926 0.0149507895 0.029056855 -0.019421548 -0.120514855
0.064226866 0.021994753 0.064004734 0.033548933 -0.1018656 0.025445271 0.06889172 -0.107222594
-0.09219046 -0.09960352 -0.101496264 -0.08549997 -0.009521213 0.070083685 -0.10704913 -0.041535538
-0.062183294 -0.1014005 -0.13005438 -0.09868735 -0.11085273 -0.04787177 -0.12230936 0.094684765
0.035236396 0.04557663 -0.10236199 -0.071008086 0.004334432 -0.015886681 -0.122025244 0.012712806
0.016180545 0.1010579 -0.11066592 0.026103597 0.047688995 0.096750274 0.113785304 0.037883807
0.12339841 0.10913808 0.017167803 0.0894983 0.02889795 0.033040904 -0.07402278 -0.121446446
0.040375542 -0.020258136 -0.07560162 0.0010652487 0.046944726 -0.006224514 0.040491514 -0.021128947
-0.09149271 -0.068252444 -0.020036273 0.08591641 0.05564188 -0.009999963 0.09658132 -0.077251166
0.10264166 0.023677386 -0.09782383 0.0030144297 0.03458614 0.08432951 0.013518229 0.12078813
0.0746343 -0.025339019 0.035140075 -0.09024103 0.01962945 -0.099204004 -0.042751964 0.11846089
-0.07467025 0.085406855 0.059904642 -0.029646743 0.12394536 -0.097259685 -0.014229963 -0.10642998
0.0810648 -0.10972329 -0.13166879 -0.05876474 -0.05339036 -0.070699185 -0.0571107 0.002675655
-0.09976868 0.07945542 -0.10461507 -0.03179953 -0.11192665 0.10615979 0.091621995 0.038713623
0.038438022 0.05550321 0.12346583 0.033705603 0.04030625 0.017636847 -0.097293034 0.023308251
-0.044283584 -0.051504817 0.104685135 -0.037607852 -0.068828344 -0.12780422 0.026292583 0.028584402
0.06653306 -0.03807082 -0.007882309 -0.03504723 0.045966856 -0.08622303 -0.12698244 0.043959655
0.09651403 0.06043069 0.0329257 0.014703632 0.053303372 0.044966217 -0.10458301 -0.044153202
-0.12043189 0.09377775 0.018612597 -0.101912074 -0.0766913 -0.08252673 0.04665131 0.09863326
0.025501113 0.0016616114 -0.026401345 0.12724191 -0.06051391 0.1426116 0.033917215 -0.020032879
0.11675593 0.029662162 0.0141277425 0.024084255 0.019136248 0.09400504 -0.021652548 0.0843316
0.10868302 0.067782976 0.08395857 -0.10848531 -0.053731456 -0.051944327 0.044979997 -0.1376295
-0.08874819 0.11242675 -0.021445747 -0.0044533582 -0.11051832 0.05760191 -0.08946865 0.09063227
00000000: 2df1 58bd 2104 d4bd dca0 33bd 85ff efbc
00000010: d8f9 823d 0401 7c3d a726 e9bc 72d8 d63c
00000020: 6d2a 6fbd cd71 52bd 3803 2e3d 39d8 e2bd
00000030: c622 993c 5a81 973d 4229 b53d 26c2 733d
00000040: af67 2dbd 199b bfbc 5107 e5bd bd91 6f3d
00000050: bc73 b53d 7e3c 97bd 5b9f 8d3d 4749 003d
00000060: d6f7 e73d 39a5 d4bd 70fa ef3c 86fd fbbd
00000070: dcb8 0a3c ca81 2e3d 3300 b3bd 50f7 f9bc
00000080: 54aa 5a3d aa7e 573d 4b94 88bc aaee f13c
00000090: 702e d83d 9f87 b2bd 54eb b2bc 5ce1 fdbd
000000a0: 893e 5dbd 9f66 cbbc 3076 b63d 30f9 cbbd
000000b0: 0f81 02be 7007 ce3c cff4 6fbd 08a4 f03d
000000c0: 25b1 e6bc 395d 79bc 94ed c3bd 3021 24bd
000000d0: 7f36 97bd 5092 633c acd3 4a3b 1e69 39bd
000000e0: d6df fa3d 71a4 973d 1fca 72bd 2bef d9bd
000000f0: 0d2c 1cbd ed66 f0bd b56c a8bd 9709 e0bd
00000100: f54b 7dbc c010 bd3d 9c3f 573b 8114 e4bd
00000110: 076f a7bd 315f d5bd 3582 d43d c83c 103d
00000120: bd2e ad3d 15c1 6e3c 4224 0f3d ae11 06bc
00000130: 28f4 743c a408 ee3c f019 9fbc 7ed0 f6bd
00000140: 6089 833d 572e b43c ea14 833d 9b6a 093d
00000150: e99e d0bd 9a72 d03c 1a17 8d3d 8597 dbbd
00000160: 5ace bcbd eefc cbbd 46dd cfbd 9c1a afbd
00000170: ddfe 1bbc 0988 8f3d 933c dbbd 2b21 2abd
00000180: e9b3 7ebd 11ab cfbd fa2c 05be 981c cabd
00000190: c206 e3bd 3015 44bd 547d fabd 16ea c13d
000001a0: 0a54 103d 8fae 3a3d 2aa3 d1bd b06c 91bd
000001b0: da07 8e3b c924 82bc 5fe8 f9bd 6049 503c
000001c0: 108d 843c 72f7 ce3d d0a4 e2bd 36d7 d53c
000001d0: 8955 433d 0225 c63d 4508 e93d 0d2c 1b3d
000001e0: 4eb8 fc3d c983 df3d 7ea3 8c3c e24a b73d
000001f0: 65bb ec3c e655 073d 4199 97bd eab8 f8bd
00000200: d360 253d 64f4 a5bc 06d5 9abd d19f 8b3a
00000210: 1d49 403d 02f7 cbbb 6eda 253d 9d16 adbc
00000220: 8860 bbbd f0c7 8bbd 1c23 a4bc f1f4 af3d
00000230: bde8 633d e3d6 23bc 6dcc c53d dc35 9ebd
00000240: ca35 d23d 14f7 c13c dc57 c8bd bd8d 453b
00000250: 32aa 0d3d f3b4 ac3d 907b 5d3c c45f f73d
00000260: ded9 983d c693 cfbc 0aef 0f3d 4ad0 b8bd
00000270: f1cd a03c 782b cbbd af1c 2fbd a09b f23d
00000280: b7ec 98bd cae9 ae3d 925e 753d badd f2bc
00000290: 11d7 fd3d 1630 c7bd ca24 69bc f6f7 d9bd
000002a0: 4d05 a63d 9bb6 e0bd 2fd4 06be 4cb3 70bd
000002b0: daaf 5abd bcca 90bd e9ec 69bd 0b5a 2f3b
000002c0: 8653 ccbd 86b9 a23d 6d40 d6bd 3940 02bd
000002d0: cd39 e5bd 4e6a d93d 50a4 bb3d 2d92 1e3d
000002e0: 3071 1d3d 5557 633d a7db fc3d e30e 0a3d
000002f0: 2b18 253d 267b 903c 9241 c7bd f2f0 be3c
00000300: b462 35bd b7f6 52bd 2965 d63d b10a 1abd
00000310: e0f5 8cbd 1cdf 02be 8b63 d73c d629 ea3c
00000320: 7c42 883d 26f0 1bbd cd24 01bc af8d 0fbd
00000330: be47 3c3d b395 b0bd af07 02be 0a0f 343d
00000340: 26a9 c53d 2c86 773d 19dd 063d 81e7 703c
00000350: a354 5a3d 7f2e 383d 9e2f d6bd fdd9 34bd
00000360: ffa4 f6bd 8d0e c03d 7279 983c 47b7 d0bd
00000370: 5410 9dbd c603 a9bd 7215 3f3d 3c00 ca3d
00000380: b6e7 d03c 6dca d93a a247 d8bc b44b 023e
00000390: 6fdd 77bd c608 123e c7ec 0a3d fe1b a4bc
000003a0: bc1d ef3d 10fe f23c 0c78 673c 584c c53c
000003b0: 9fc3 9c3c b785 c03d af60 b1bc 0cb6 ac3d
000003c0: 3495 de3d cdd1 8a3d 79f2 ab3d 8c2d debd
000003d0: 8415 5cbd 93c3 54bd f23c 383d bfee 0cbe
000003e0: 9cc1 b5bd ff3f e63d feae afbc 7aed 91bb
000003f0: 6e57 e2bd fbef 6b3d 573b b7bd 699d b93d

bias f4 [64]
-0.124751456 0.09079825 0.08573258 -0.01830821 -0.04750447 0.030122744 -0.061816532 -0.11864236
0.11457822 0.043191962 -0.015265806 0.08874574 0.11730872 0.07386783 -0.0737861 0.015321805
0.052882597 0.016815204 0.024226448 0.08198828 -0.09647645 -0.015757674 0.01002897 -0.118622266
-0.058711108 -0.12415764 -0.11868555 -0.04020278 0.035914678 0.08414599 0.121389404 -0.054505296
-0.08478013 -0.06363454 -0.108299255 0.0732156 0.047553703 -0.05510041 -0.04989026 -0.06933541
-0.114035815 -0.06508019 -0.10596351 0.05215688 -0.094885044 0.10945048 0.021504499 -0.12414967
-0.02755127 0.057213064 0.052426986 0.047995247 -0.036473416 0.05417875 0.0504051 -0.10490666
-0.005454725 0.020377992 0.05647881 -0.021460243 -0.102498256 -0.012838795 -0.024321813 -0.044040393
00000000: b17d ffbd 6ff4 b93d 9094 af3d 19fb 95bc
00000010: 0c94 42bd f9c3 f63c 5533 7dbd c4fa f2bd
00000020: fca7 ea3d 0eea 303d 6e1d 7abc 54c0 b53d
00000030: 8e3f f03d 0448 973d 2b1d 97bd 4f08 7b3c
00000040: 6c9b 583d 0ac0 893c 8b76 c63c 79e9 a73d
00000050: 7295 c5bd 3d16 81bc 8d50 243c 3bf0 f2bd
00000060: 0f7b 70bd 5c46 febd 6911 f3bd acab 24bd
00000070: 451b 133d bc54 ac3d 029b f83d f240 5fbd
00000080: 34a1 adbd d352 82bd 00cc ddbd 0ff2 953d
00000090: acc7 423d f8b0 61bd bb59 4cbd b9ff 8dbd
000000a0: 9c8b e9bd c348 85bd 6603 d9bd 74a2 553d
000000b0: 1753 c2bd 9327 e03d 342a b03c 2f42 febd
000000c0: 33b3 e1bc 3f58 6a3d aebd 563d aa96 443d
000000d0: 2665 15bd 89ea 5d3d 9475 4e3d 4ed9 d6bd
000000e0: 8dbd b2bb bfef a63c 5356 673d 64cd afbc
000000f0: 9bea d1bd cf59 52bc 8a3e c7bc b363 34bd

weight f4 [64]
0.98615986 0.9755451 0.9875121 0.99283487 1.0055413 0.98397535 0.99736315 1.0097018
0.9825613 0.957848 0.9794641 0.9810578 0.98309606 1.0208452 0.9927416 1.0182953
0.9923799 0.979343 0.99111277 0.99221855 0.9791235 0.9970179 0.97765386 0.982191
1.002325 1.0129645 0.9883054 0.9766539 1.0051532 0.98862964 0.9861696 1.0058806
0.97171664 1.0151271 0.98090994 0.9971074 0.9950224 0.99211925 0.9994597 0.99152386
0.9824498 0.9869895 1.0094177 0.99345994 1.0042387 0.97591525 1.0098296 0.95937395
0.98199767 0.99048626 0.9816788 1.0116667 0.9873594 0.99294543 0.97219795 0.97307837
0.9939436 0.9877662 1.0036039 0.9820003 0.9770605 0.9856093 0.9737401 0.9369645
00000000: f974 7c3f 53bd 793f 98cd 7c3f 6d2a 7e3f
00000010: 94b5 803f cfe5 7b3f 3153 7f3f e93d 813f
00000020: 2389 7b3f 8735 753f 29be 7a3f 9b26 7b3f
00000030: 2fac 7b3f 0eab 823f 5024 7e3f 8057 823f
00000040: 9c0c 7e3f 39b6 7a3f 91b9 7d3f 0902 7e3f
00000050: d6a7 7a3f 913c 7f3f 8647 7a3f df70 7b3f
00000060: 304c 803f d2a8 813f 9501 7d3f fd05 7a3f
00000070: dca8 803f d516 7d3f 9c75 7c3f b2c0 803f
00000080: 6cc2 783f afef 813f ea1c 7b3f 6e42 7f3f
00000090: cab9 7e3f 87fb 7d3f 97dc 7f3f 82d4 7d3f
000000a0: d581 7b3f 58ab 7c3f 9934 813f 6453 7e3f
000000b0: e58a 803f 95d5 793f 1942 813f 8899 753f
000000c0: 3364 7b3f 8290 7d3f 4d4f 7b3f 4b7e 813f
000000d0: 96c3 7c3f ac31 7e3f f7e1 783f aa1b 793f
000000e0: 1673 7e3f 3fde 7c3f 1876 803f 5f64 7b3f
000000f0: a320 7a3f e450 7c3f 0847 793f e8dc 6f3f

bias f4 [64]
-0.02157326 -0.011019675 -0.022505308 -0.011462734 0.004188151 -0.0072912914 0.01127515 0.00918692
-0.026751703 -0.019972436 -0.018022679 0.009326335 -0.0145816365 0.032791838 -0.040679112 -0.006966164
-0.0064479117 -0.002447778 0.01177655 -0.010375823 -0.017841367 0.0053442316 -0.027257938 0.002854294
0.0004684616 0.011818456 -0.027245147 -0.028857468 0.008516962 0.0041106488 -0.0012300315 -0.02742528
-0.036377452 0.00704688 -0.017517868 -0.0015445934 -0.010075555 -0.010128519 -0.00053666235 -0.026553148
-0.0034887716 -0.006467089 0.0007060437 -0.016937226 -0.015572742 -0.02312082 -0.0032723655 -0.036973123
0.00018011479 -0.03209463 -0.043842193 0.012361812 -0.015963206 0.014408955 -0.023103861 -0.0069532194
0.009828962 -0.0066942456 -0.046962574 -0.017554611 -0.02521685 -0.0076512415 -0.03747293 -0.039544303
00000000: 68ba b0bc de8b 34bc 0d5d b8bc 31ce 3bbc
00000010: c23c 893b c9eb eebb 68bb 383c bc84 163c
00000020: 6326 dbbc 3c9d a3bc 4ca4 93bc 7ccd 183c
00000030: d1e7 6ebc bc50 063d 249f 26bd 6b44 e4bb
00000040: 0149 d3bb e66a 20bb 6ef2 403c 5bff 29bc
00000050: 0f28 92bc aa1e af3b 0a4c dfbc 1b0f 3b3b
00000060: da9b f539 33a2 413c 3731 dfbc 7f66 ecbc
00000070: ba8a 0b3c 9fb2 863b 0239 a1ba fbaa e0bc
00000080: 8600 15bd 84e9 e63b a281 8fbc f473 caba
00000090: f113 25bc 16f2 25bc cdae 0cba fd85 d9bc
000000a0: e0a3 64bb e0e9 d3bb ca15 393a f0bf 8abc
000000b0: d024 7fbc e067 bdbc 2f75 56bb 2171 17bd
000000c0: 32dd 3c39 a975 03bd df93 33bd 3389 4a3c
000000d0: 45c5 82bc 8a13 6c3c 4f44 bdbc d5d7 e3bb
000000e0: a809 213c 675b dbbb d45b 40bd b0ce 8fbc
000000f0: 9193 cebc 44b7 fabb 377d 19bd 35f9 21bd

running_mean f4 [64]
-0.5014762 -0.19900674 0.08313442 0.060749862 -0.098657236 -0.41932654 0.13868976 -0.0018907976
0.12199569 0.51728797 -0.3618121 0.24017437 0.31695202 0.3555493 0.007696546 0.13944454
-0.06959048 -0.22219892 0.46343148 0.19170777 0.092907205 -0.15288897 0.28417283 -0.29613262
0.068030424 -0.52821875 -0.084378906 -0.07221726 0.18720096 0.28296262 0.08487045 0.10018396
0.117836624 0.0512476 0.38753238 -0.12456659 0.14545365 0.0670041 -0.17153078 0.127363
0.10128939 -0.26711285 -0.038310766 0.43729606 -0.4021207 -0.19898412 -0.08968199 0.11051039
-0.57536703 0.3358722 0.27954945 0.19976322 -0.13849564 0.10456758 -0.34794387 0.19949931
-0.12221135 -0.07983204 -0.024438914 -0.2812213 -0.30424196 0.019169683 0.0482786 0.021020805
00000000: bf60 00bf 6cc8 4bbe 6142 aa3d d9d4 783d
00000010: ce0c cabd f8b1 d6be b004 0e3e a4d4 f7ba
00000020: e0d8 f93d fc6c 043f 703f b9be 45f0 753e
00000030: 8947 a23e 8f0a b63e 4f33 fc3b 8dca 0e3e
00000040: 7485 8ebd 1d88 63be e446 ed3e 0b4f 443e
00000050: 2246 be3d ed8e 1cbe 1a7f 913e b29e 97be
00000060: 8953 8b3d 5839 07bf d9ce acbd a5e6 93bd
00000070: 9cb1 3f3e 7ae0 903e 8fd0 ad3d 3f2d cd3d
00000080: 5454 f13d 01e9 513d a56a c63e c51c ffbd
00000090: cdf1 143e 7239 893d c4a5 2fbe 726b 023e
000000a0: d070 cf3d 04c3 88be c0eb 1cbd 45e5 df3e
000000b0: c4e2 cdbe 7ec2 4bbe 31ab b7bd 4553 e23d
000000c0: 414b 13bf 71f7 ab3e 1b21 8f3e bb8e 4c3e
000000d0: cdd1 0dbe 8727 d63d b325 b2be 8c49 4c3e
000000e0: f249 fabd fb7e a3bd 1e34 c8bc 3dfc 8fbe
000000f0: 9ac5 9bbe bd09 9d3c c8bf 453d d333 ac3c

running_var f4 [64]
0.1245787 0.15195662 0.1264077 0.1301225 0.097216494 0.12695134 0.14387612 0.101318166
0.14053701 0.11799269 0.11845645 0.12726599 0.09227962 0.13498901 0.15203047 0.10479855
0.08307525 0.15318912 0.12508222 0.09829014 0.084173314 0.12840822 0.08329181 0.14158764
0.11200698 0.11782072 0.13337384 0.09962354 0.12200188 0.124942385 0.11696412 0.124558374
0.08725882 0.12266861 0.11263394 0.12329525 0.092999704 0.13693118 0.1323971 0.12374088
0.09836209 0.10726365 0.118423045 0.1423953 0.11281579 0.104517326 0.12831847 0.11671101
0.11640187 0.12890956 0.11020169 0.11133193 0.11363815 0.12109649 0.13573296 0.13939916
0.09136112 0.124733575 0.12691042 0.12737758 0.13056235 0.10966711 0.11757959 0.09072114
00000000: 1e23 ff3d 849a 1b3e 0571 013e d53e 053e
00000010: 7119 c73d 88ff 013e 4354 133e e67f cf3d
00000020: efe8 0f3e 27a6 f13d 4c99 f23d 0452 023e
00000030: 19fd bc3d 8f3a 0a3e e0ad 1b3e 9fa0 d63d
00000040: 5b23 aa3d 9cdd 1c3e 8e15 003e 574c c93d
00000050: 0f63 ac3d 727d 033e e594 aa3d 5afc 103e
00000060: ea63 e53d fd4b f13d 2793 083e 6d07 cc3d
00000070: 1fdc f93d cbe1 ff3d e28a ef3d 7618 ff3d
00000080: c1b4 b23d ae39 fb3d a0ac e63d 3882 fc3d
00000090: a176 be3d b037 0c3e 1b93 073e dc6b fd3d
000000a0: 1072 c93d 0bad db3d c887 f23d 13d0 113e
000000b0: f70b e73d 2e0d d63d eb65 033e 2f06 ef3d
000000c0: 1b64 ee3d de00 043e 6cb1 e13d ff01 e43d
000000d0: 1ebb e83d 7001 f83d 95fd 0a3e a7be 0e3e
000000e0: 8a1b bb3d 5174 ff3d cef4 013e 456f 023e
000000f0: 23b2 053e 2699 e03d 91cd f03d 01cc b93d

weight f4 [5, 64]
0.0393628 0.062281996 -0.050247155 0.08404771 -0.040016428 -0.016875846 0.009167574 -0.062829584
0.063992865 -0.103764206 -0.026663689 -0.04177357 0.11471157 -0.00953324 0.038031485 -0.1275122
0.01817959 -0.0563325 0.030713812 -0.002086628 0.0003252123 0.0607742 0.08033374 -0.072479814
0.06697874 -0.14527917 0.06991675 0.021307278 -0.00035099173 -0.042533156 0.07815112 0.09345967
-0.033021834 -0.04885371 0.091407105 -0.07369932 -0.058100116 -0.12135494 -0.059308965 -0.0026837364
0.017481051 0.03147765 -0.050858222 -0.062446915 0.05299715 0.078700356 -0.08593359 0.07419194
-0.100940436 0.050416708 -0.03812953 -0.062294073 -0.0361082 -0.09141792 0.00043186083 -0.069532014
0.01984522 0.06920876 0.08991281 0.050070975 -0.037635133 -0.045301843 0.039823957 0.029922271
-0.09600132 0.034384854 0.021545224 0.048536975 0.012718605 0.015041572 -0.010868375 0.055844903
-0.015535743 0.018307807 0.055469785 -0.08176315 0.06450999 -0.027570248 -0.096501 -0.08585895
0.10598613 -0.0243564 -0.033826075 0.067144625 -0.09576208 -0.11223224 0.07501545 0.058420725
0.03232389 -0.08442885 -0.07488104 -0.0056570647 0.094478376 0.0509265 -0.053585988 -0.12527932
-0.001064472 0.090488955 -0.002394866 -0.109033875 0.08498987 -0.090607904 -0.0008655736 -0.039865762
0.097040005 -0.0018927413 -0.08433954 -0.10907625 0.11200101 0.013656341 0.12708363 0.041948784
-0.056248132 -0.068929836 0.057132166 0.059847567 -0.02483099 -0.002175906 -0.05044589 -0.013622183
0.13423206 0.024818193 -0.12905201 0.09169704 -0.0473025 0.07723632 0.00680861 -0.040160995
0.121170945 -0.067830846 0.05852031 -0.016573148 -0.082743645 0.05897044 0.0063894456 -0.012872436
0.0011439534 0.031451236 -0.07303285 -0.022033256 0.114592165 -0.0011258143 0.067399494 -0.10287775
0.049862303 0.076861694 -0.002240024 0.030155424 0.087058336 0.117633365 0.0678494 -0.018820412
-0.07629331 0.05670139 -0.11049455 -0.06892084 -0.0990965 0.028570922 -0.05086017 -0.09260329
0.06136814 0.05598526 -0.053142987 -0.075247 0.034358002 0.00017063293 -0.08091528 0.06923057
0.030067367 -0.100019775 -0.089255504 -0.029664466 -0.05071053 0.01748697 0.076953925 -0.091699846
0.0071801688 0.07185065 -0.12674953 0.061060272 -0.059664875 0.074347444 -0.04991872 0.11809732
0.026794259 0.095599756 -0.09092754 -0.11995681 0.011009221 0.058590826 0.04820331 -0.06210766
0.013888577 -0.091170214 -0.09119368 -0.119744554 -0.013494168 0.06615154 -0.095253244 0.028066797
0.056588143 0.084877245 -0.07094434 -0.094489455 -0.08710032 0.06372567 0.08071726 0.018072713
0.029539252 -0.011509075 -0.0010471459 0.09763256 0.0029185452 -0.046078984 0.055526324 -0.016634414
-0.11241087 -0.031438965 -0.060803182 0.12648165 -0.07718382 -0.016706774 -0.10375892 0.059051707
-1.0340826e-05 0.13583492 -0.038176626 0.02824848 0.006157527 -0.0974295 0.06364936 0.004296656
-0.06509853 0.005101203 0.10177882 -0.08936932 0.09282946 -0.021244433 0.13922004 0.016701479
-0.0054665273 -0.10267932 0.07756605 0.0120174475 -0.05385945 0.018837344 -0.03401592 0.09330805
0.06503467 -0.09758442 0.14127082 0.015718734 -0.10316904 0.06419703 0.03921022 -0.082130976
00000000: e33a 213d 681b 7f3d f6cf 4dbd 3521 ac3d
00000010: 44e8 23bd 373f 8abc 9833 163c ccac 80bd
00000020: b10e 833d 5482 d4bd cf6d dabc c31a 2bbd
00000030: e6ed ea3d 4f31 1cbc e7c6 1b3d 8f92 02be
00000040: 5ded 943c e8bc 66bd 889b fb3c cfbf 08bb
00000050: 4281 aa39 5eee 783d 0486 a43d 4c70 94bd
00000060: 262c 893d 10c4 14be 8330 8f3d 9a8c ae3c
00000070: 5005 b8b9 3f37 2ebd b20d a03d c967 bf3d
00000080: e741 07bd d41a 48bd a633 bb3d abef 96bd
00000090: 63fa 6dbd f088 f8bd f5ed 72bd a0e1 2fbb
000000a0: 6c34 8f3c b5ee 003d b650 50bd 56c8 7fbd
000000b0: 8a13 593d a72d a13d f3fd afbd f2f1 973d
000000c0: dcb9 cebd c081 4e3d b62d 1cbd 1228 7fbd
000000d0: 31e6 13bd 5239 bbbd 616b e239 cd66 8ebd
000000e0: 7192 a23c 53bd 8d3d 3524 b83d 3917 4d3d
000000f0: 4c27 1abd 6d8e 39bd 721e 233d 8d1f f53c
00000100: 579c c4bd 22d7 0c3d 9c7f b03c b5ce 463d
00000110: b261 503c ed70 763c 4511 32bc a0bd 643d
00000120: a189 7ebc 41fa 953c 4934 633d 7073 a7bd
00000130: d01d 843d 00db e1bc 51a2 c5bd d1d6 afbd
00000140: 420f d93d 1387 c7bc 368d 0abd 1f83 893d
00000150: e91e c4bd 04da e5bd b3a1 993d 924a 6f3d
00000160: 0e66 043d 08e9 acbd 3b5b 99bd e65e b9bb
00000170: e17d c13d 4e98 503d fb7c 5bbd 3949 00be
00000180: c185 8bba 4652 b93d 2ff3 1cbb 274d dfbd
00000190: 2b0f ae3d a390 b9bd a9e7 62ba 484a 23bd
000001a0: e9bc c63d dc15 f8ba 35ba acbd 5e63 dfbd
000001b0: c960 e53d d8be 5f3c 3622 023e 7dd2 2b3d
000001c0: 7164 66bd 162b 8dbd 6b03 6a3d b922 753d
000001d0: 5c6a cbbc a599 0ebb 59a0 4ebd 942f 5fbc
000001e0: 2174 093e 864f cb3c 3626 04be a8cb bb3d
000001f0: 44c0 41bd 132e 9e3d c31a df3b db7f 24bd
00000200: 7928 f83d e6ea 8abd feb2 6f3d 69c4 87bc
00000210: 8075 a9bd fd8a 713d 8e5e d13b e9e6 52bc
00000220: b5f0 953a 03d3 003d 3f92 95bd 167f b4bc
00000230: 4caf ea3d 0f90 93ba bf08 8a3d 92b1 d2bd
00000240: 6a3c 4c3d aa69 9d3d 5ecd 12bb 8208 f73c
00000250: a44b b23d c3e9 f03d a0f4 8a3d 442d 9abc
00000260: ab3f 9cbd b73f 683d f74a e2bd 5f26 8dbd
00000270: 1bf3 cabd 910d ea3c c152 50bd cba6 bdbd
00000280: 295d 7b3d cd50 653d 76ac 59bd 191b 9abd
00000290: faba 0c3d eeeb 3239 e9b6 a5bd c2c8 8d3d
000002a0: d74f f63c 2bd7 ccbd 97cb b6bd e502 f3bc
000002b0: d8b5 4fbd d640 8f3c 059a 9d3d 21cd bbbd
000002c0: 9f47 eb3b 6f26 933d a1ca 01be 561a 7a3d
000002d0: 2863 74bd 7943 983d 9277 4cbd 02dd f13d
000002e0: a27f db3c cec9 c33d 3838 babd eaab f5bd
000002f0: 0560 343c effc 6f3d d670 453d 9a64 7ebd
00000300: ea8c 633c 73b7 babd c1c3 babd a23c f5bd
00000310: a516 5dbc 757a 873d 2214 c3bd 57ec e53c
00000320: f8c8 673d 1fd4 ad3d 444b 91bd b083 c1bd
00000330: a761 b2bd 9b82 823d 174f a53d 3a0d 943c
00000340: 4dfc f13c 8f90 3cbc 6340 89ba 94f3 c73d
00000350: 1045 3f3b 51bd 3cbd 926f 633d e544 88bc
00000360: ac37 e6bd 25c6 00bd c20c 79bd 6884 013e
00000370: 8d12 9ebd a5dc 88bc 8f7f d4bd 34e0 713d
00000380: 827d 2db7 4f18 0b3e 185f 1cbd 5b69 e73c
00000390: 15c5 c93b 1e89 c7bd 985a 823d f7ca 8c3b
000003a0: 6152 85bd fe27 a73b 6a71 d03d 4307 b7bd
000003b0: 5f1d be3d ce08 aebc b38f 0e3e 8ad1 883c
000003c0: 8e20 b3bb 8949 d2bd f3da 9e3d d4e4 443c
000003d0: ba9b 5cbd c650 9a3c 4754 0bbd 4a18 bf3d
000003e0: e630 853d 57da c7bd 4ca9 103e 93c4 803c
000003f0: 4a4a d3bd bc79 833d e59a 203d 4934 a8bd

bias f4 [5]
-0.15247938 0.1803042 -0.027769232 -0.093242146 -0.072075434
00000000: 8e23 1cbe aaa1 383e 4d7c e3bc bdf5 bebd
00000010: 499c 93bd
