Industrial Equipment/mlruns/0/ab8a2fd96f434fc18c30e80986494e04/artifacts/generator_model/data/model.pth (torch, 55038 bytes, 14 tensors)

weight f4 [64, 100]
0.0066621196 -0.06923035 -0.0074004736 0.071377374 -0.08646604 -0.038236298 0.08223358 0.06995913
-0.027793946 -0.07299067 -0.08498617 0.0014712105 0.023570655 0.036265776 0.035688937 0.054826226
0.0076936893 0.054985005 -0.047206193 -0.032330766 -0.054513216 -0.10578939 0.01575097 -0.016656129
-0.0712474 -0.075995915 -0.010899233 -0.0013423682 -0.024365766 -0.104747 0.038043026 -0.08483374
-0.0698587 -0.115586594 0.037934646 0.05241841 -0.05050771 -0.07552726 -0.07178059 -0.044120774
0.054619644 -0.023199368 -0.053536106 0.06663606 0.03309938 -0.069185846 0.09510274 0.095213935
-0.014966622 0.010879964 -0.02719443 0.10046521 0.0966881 -0.07848371 -0.085998915 -0.050441038
-0.079388574 0.04469284 -0.0735178 -0.074907176 -0.010895681 0.086366564 -0.061817843 0.03790489
-0.008582943 0.04340008 0.05740756 0.019016623 0.03571287 0.10153432 -0.087346815 0.018559271
0.060075812 -0.0037341674 0.027790138 -0.017501565 -0.06120466 0.0150549505 -0.020270607 0.049376
-0.055147097 -0.052383665 -0.109272294 0.067322284 -0.08570298 0.034977518 -0.071386635 0.01220058
-0.051804274 -0.072362 0.025204077 -0.053720634 0.06790025 0.060289096 0.02092334 0.06222922
-0.048378214 -0.053292077 -0.04783703 -0.030579932 0.0903581 0.013591114 0.04307388 0.0067975353
-0.03966902 0.03439836 -0.09760949 0.012322784 0.057246152 0.030390922 0.05366437 0.07027517
0.09898279 -0.007366514 0.03296822 -0.0035896036 -0.04781241 -0.034267478 0.045185164 -0.035509676
-0.003512517 0.0561393 0.056988094 -0.07687044 -0.07226107 -0.027292175 0.038481455 0.08745783
0.012398338 -0.027250905 -0.09162115 -0.059965543 0.021093203 -0.040376015 0.0883577 0.08454347
-0.029125256 -0.08034597 -0.083067566 0.05753276 0.03885601 -0.08036313 0.023439307 -0.025537968
0.023652537 0.021313922 0.07458261 0.022479713 0.04150108 -0.053460106 0.05268518 -0.07502117
0.030965453 -0.03141064 0.0924233 0.008074536 0.08088481 -0.05848122 0.056905225 0.07143446
-0.05849284 -0.1001703 -0.013007826 -0.10620943 0.0151092885 0.05279775 0.0095513845 -0.05258123
-0.009402376 0.016754983 0.070922226 -0.092573516 -0.04365726 0.019203492 0.052331746 0.03954353
-0.024693983 0.03628594 -0.028269533 0.006452566 0.07544268 0.036271017 0.003355934 0.09341292
0.11531671 0.025673768 -0.014682048 -0.004905932 -0.06294839 0.07262116 -0.08898245 0.05260339
-0.044582285 0.044204555 0.07627302 -0.08473649 -0.038139902 0.06852521 0.0592505 -0.0057732975
-0.0045744074 0.01428315 0.023721961 0.08739389 -0.09362985 9.0642774e-05 -0.027448704 -0.05704045
-0.07984726 0.044569477 -0.08836871 -0.04791194 -0.073450096 -0.03395303 0.0254655 -0.08149384
0.03412714 -0.022239113 -0.08757724 -0.08164824 -0.07196245 0.052671526 0.03780942 0.08062885
-0.099606276 -0.07238926 0.091780886 -0.0031064954 0.0714112 0.03028335 -0.06849225 0.038157865
0.05425121 0.08503427 0.02230011 -0.03766336 -0.056093793 -0.067064986 0.034455646 -0.008883018
-0.039540492 -0.01819206 -0.06988461 -0.025221812 0.02337948 0.04313984 0.03296959 -0.09518352
0.051637918 0.021621417 -0.068099685 0.079975255 -0.015961546 -0.08381033 0.07885529 -0.07165091
00000000: e94d da3b a4c8 8dbd ac7f f2bb 4d2e 923d
00000010: 1b15 b1bd aa9d 1cbd 146a a83d bb46 8f3d
00000020: 21b0 e3bc 227c 95bd 3b0d aebd a2d5 c03a
00000030: 3f17 c13c 6c8b 143d 902e 123d 7791 603d
00000040: 581b fc3b f537 613d 485b 41bd 446d 04bd
00000050: 4049 5fbd 1ca8 d8bd 2e08 813c 6f72 88bc
00000060: 28ea 91bd bfa3 9bbd b292 32bc 67f2 afba
00000070: b79a c7bc 9885 d6bd 01d3 1b3d 50bd adbd
00000080: 1412 8fbd aab8 ecbd 5c61 1b3d b0b4 563d
00000090: 2ce1 4ebd 09ae 9abd b401 93bd fcb7 34bd
000000a0: d9b8 5f3d 9a0c bebc ad48 5bbd 7d78 883d
000000b0: 3793 073d 4fb1 8dbd 3ac5 c23d 86ff c23d
000000c0: 9036 75bc e041 323c dac6 debc b4c0 cd3d
000000d0: 6904 c63d 11bc a0bd 3320 b0bd 439b 4ebd
000000e0: 7a96 a2bd d70f 373d 8090 96bd ef68 99bd
000000f0: cc83 32bc f4e0 b03d b534 7dbd 2842 1b3d
00000100: 799f 0cbc 48c4 313d 3124 6b3d c0c8 9b3c
00000110: a947 123d 3af1 cf3d e3e2 b2bd 9d09 983c
00000120: 0e12 763d efb8 74bb 25a8 e33c 715f 8fbc
00000130: bdb1 7abd 0aa9 763c 8b0e a6bc 7d3e 4a3d
00000140: ece1 61bd 4190 56bd 27ca dfbd 44e0 893d
00000150: 0b85 afbd 9644 0f3d 2833 92bd f1e4 473c
00000160: b830 54bd 8732 94bd c878 ce3c 2b0a 5cbd
00000170: 490f 8b3d b3f1 763d 6d67 ab3c 11e4 7e3d
00000180: 3c28 46bd cb48 5abd c3f0 43bd c482 fabc
00000190: ab0d b93d 44ad 5e3c 3d6e 303d dcbd de3b
000001a0: fb7b 22bd 4be5 0c3d 7ce7 c7bd 81e5 493c
000001b0: f17a 6a3d 62f6 f83c 2ccf 5b3d 6eec 8f3d
000001c0: 7db7 ca3d cc62 f1bb af09 073d 8e3f 6bbb
000001d0: f2d6 43bd 0e5c 0cbd 1414 393d 9872 11bd
000001e0: 4232 66bb 53f2 653d 596c 693d 406e 9dbd
000001f0: 9dfd 93bd d793 dfbc bb9e 1d3d 171d b33d
00000200: 6622 4b3c 4a3d dfbc dfa3 bbbd 6e9e 75bd
00000210: a7cb ac3c 5261 25bd e2f4 b43d 2025 ad3d
00000220: 1798 eebc 6e8c a4bd 541f aabd 79a7 6b3d
00000230: 7b27 1f3d 6d95 a4bd ca03 c03c 0035 d1bc
00000240: f7c2 c13c 899a ae3c c4be 983d 6027 b83c
00000250: 09fd 293d fcf8 5abd 6acc 573d b3a4 99bd
00000260: 43ab fd3c 71a8 00bd 6d48 bd3d 0f4b 043c
00000270: efa6 a53d 018a 6fbd 7415 693d 3b4c 923d
00000280: 3096 6fbd 1626 cdbd c71e 55bc 5484 d9bd
00000290: f38c 773c 7442 583d 697d 1c3c 6a5f 57bd
000002a0: 6c0c 1abc bf41 893c ac3f 913d 2f97 bdbd
000002b0: f4d1 32bd a450 9d3c d059 563d 66f8 213d
000002c0: 094b cabc 91a0 143d 8295 e7bc 0c70 d33b
000002d0: b181 9a3d eb90 143d 3bef 5b3b 464f bf3d
000002e0: 2b2b ec3d cb51 d23c f98c 70bc f1c1 a0bb
000002f0: 16eb 80bd 67ba 943d 6e3c b6bd a776 573d
00000300: ea9b 36bd d60f 353d 0735 9c3d 538a adbd
00000310: 9638 1cbd f256 8c3d a7b0 723d ee2d bdbb
00000320: e9e4 95bb e003 6a3c 8f54 c23c 91fb b23d
00000330: 02c1 bfbd 7817 be38 1bdc e0bc 3fa3 69bd
00000340: f686 a3bd 7c8e 363d a7fa b4bd 4f3f 44bd
00000350: 016d 96bd 5512 0bbd 069d d03c 3ee6 a6bd
00000360: e6c8 0b3d cd2e b6bc b25b b3bd 3137 a7bd
00000370: 0d61 93bd 19be 573d 0dde 1a3d bd20 a53d
00000380: 60fe cbbd d240 94bd 9ef7 bb3d 5896 4bbb
00000390: 0940 923d ca14 f83c aa45 8cbd 6c4b 1c3d
000003a0: 8436 5e3d 7326 ae3d b8ae b63c e544 1abd
000003b0: 9bc2 65bd 5e59 89bd 5d21 0d3d 148a 11bc
000003c0: 36f5 21bd 8407 95bc aa1f 8fbd f99d cebc
000003d0: 5386 bf3c 67b3 303d 1f0b 073d 94ef c2bd
000003e0: 4882 533d 661f b13c d977 8bbd 11ca a33d
000003f0: cac1 82bc c0a4 abbd e27e a13d b6bd 92bd

bias f4 [64]
-0.055501793 0.026654838 -0.06512718 0.06221544 -0.06115125 0.05310899 -0.022721805 -0.003305418
-0.076028235 -0.014380034 0.05066413 0.009921128 -0.033551842 0.072999656 -0.01164967 0.00831887
-0.01588307 0.034582373 -0.061548002 0.05263512 0.092254005 0.01449836 -0.056692217 0.08303771
0.07631787 -0.04813692 -0.029050084 -0.042059977 0.06875519 -0.054350812 -0.07080681 -0.08404839
0.091449045 0.05312853 0.05359841 0.06428788 0.08106392 0.09215155 0.07340905 -0.061216082
0.09269355 0.047758423 -0.027646892 -0.05550017 -0.017834587 0.0214392 -0.08865217 -0.04375797
-0.09684125 -0.038412027 0.06464837 0.03010325 -0.055987448 0.0031609542 0.007538532 -0.023951534
0.07037285 -0.042911682 -0.029889742 0.05198504 -0.094843164 -0.0734165 -0.0005641053 0.09688167
00000000: d955 63bd 3f5b da3c 6661 85bd 9ed5 7e3d
00000010: bc79 7abd d088 593d 1423 babc b69f 58bb
00000020: b1b4 9bbd 3c9a 6bbc 3185 4f3d 3a8c 223c
00000030: a86d 09bd d880 953d 42de 3ebc df4b 083c
00000040: 361d 82bc 3fa6 0d3d c219 7cbd ec97 573d
00000050: abef bc3d 888a 6d3c 1936 68bd ad0f aa3d
00000060: 8b4c 9c3d 382b 45bd 71fa edbc 1547 2cbd
00000070: 85cf 8c3d f59e 5ebd 2903 91bd 9021 acbd
00000080: a349 bb3d 4d9d 593d 028a 5b3d 5da9 833d
00000090: d704 a63d f4b9 bc3d 7c57 963d b7bd 7abd
000000a0: 1ed6 bd3d 569e 433d bc7b e2bc 2554 63bd
000000b0: d719 92bc 43a1 af3c 458f b5bd 8f3b 33bd
000000c0: b554 c6bd ee55 1dbd 5d66 843d 179b f63c
000000d0: 1853 65bd 0328 4f3b ca05 f73b 0236 c4bc
000000e0: a41f 903d 29c4 2fbd 55db f4bc 44ee 543d
000000f0: 223d c2bd 645b 96bd 77e0 13ba e669 c63d

weight f4 [64]
0.9921876 1.0127978 1.0069357 0.9970129 1.0107003 0.98446506 1.0140071 1.0078217
1.0105941 1.0015645 0.98307544 0.98299986 1.0030265 0.9941354 1.0103284 1.0030465
0.9942674 0.98083246 1.0125675 1.0013026 0.98950565 0.9858108 1.0072426 0.9888085
0.9838339 1.0043126 0.981899 1.0130872 1.0139403 0.9960229 1.0262158 0.9642022
1.0222428 1.0163623 1.0003645 0.9983454 0.996292 1.0162683 1.0058832 1.0067066
1.0072052 0.9843435 1.0023692 0.9947162 1.0075974 1.0082242 1.0062444 0.99849623
0.9871749 0.99520296 1.0000849 1.009246 0.99370027 1.0010448 0.9957916 0.9976967
1.0030082 1.0239891 1.0049858 0.99873054 1.0122133 0.9907118 1.0116417 0.9971685
00000000: 0200 7e3f 5ca3 813f 45e3 803f 3d3c 7f3f
00000010: a15e 813f e705 7c3f fcca 813f 4d00 813f
00000020: 265b 813f 4433 803f d5aa 7b3f e1a5 7b3f
00000030: 2c63 803f a87f 7e3f 7152 813f d463 803f
00000040: 4f88 7e3f d617 7b3f d09b 813f af2a 803f
00000050: 3e50 7d3f 195e 7c3f 53ed 803f 8e22 7d3f
00000060: 8adc 7b3f 518d 803f bc5d 7b3f d7ac 813f
00000070: ccc8 813f 5bfb 7e3f 0a5b 833f f5d5 763f
00000080: dad8 823f 2918 823f f20b 803f 9093 7f3f
00000090: fe0c 7f3f 1415 823f c8c0 803f c3db 803f
000000a0: 1aec 803f f0fd 7b3f a24d 803f b9a5 7e3f
000000b0: f4f8 803f 7e0d 813f 9ecc 803f 739d 7f3f
000000c0: 7fb7 7c3f 9fc5 7e3f c802 803f f92e 813f
000000d0: 2463 7e3f 3c22 803f 33ec 7e3f 0d69 7f3f
000000e0: 9362 803f 1312 833f 60a3 803f ceac 7f3f
000000f0: 3590 813f 4a9f 7d3f 7a7d 813f 6f46 7f3f

bias f4 [64]
-0.0014021856 0.008346369 0.0071551735 -0.0086620655 -0.0034053787 -0.012693544 0.009118916 0.014623627
0.004394093 -0.017769516 0.0042694923 -0.0070581296 0.0039079473 -0.016233405 0.010394577 0.002169132
-0.007486692 -0.009782186 0.0119103715 -0.000578889 0.0012917167 -0.006800832 0.009955938 -0.009539459
-0.013886847 -0.008533521 -0.0019291227 -0.008272332 0.0048767566 -0.0074442644 0.013810719 -0.016109997
0.004287332 0.02123491 0.0056610405 0.007913117 -0.0038937083 0.019789547 0.004165237 0.0041969568
0.015972642 -0.015231378 -0.00076922146 -0.00794575 0.010550398 0.008218669 0.0024487576 0.0013457381
-0.003335087 -0.002210862 -0.0015377945 0.000992795 -0.0042591346 0.0023728097 -0.0024630313 0.0002618337
0.00016794761 0.0050943443 -0.0032634258 0.00084173866 0.00048717667 -0.0020394446 0.01653485 0.0010592404
00000000: 8bc9 b7ba 35bf 083c f275 ea3b 56eb 0dbc
00000010: c62c 5fbb 95f8 4fbc 8167 153c f097 6f3c
00000020: 53fc 8f3b 6091 91bc 19e7 8b3b e247 e7bb
00000030: 3d0e 803b ebfb 84bc 044e 2a3c ff27 0e3b
00000040: ed52 f5bb 7645 20bc b823 433c 95c0 17ba
00000050: d24e a93a 84d9 debb 3b1e 233c 644b 1cbc
00000060: a885 63bc 2ed0 0bbc 9eda fcba ad88 07bc
00000070: 33cd 9f3b 04ef f3bb 5b46 623c 1df9 83bc
00000080: bf7c 8c3b d5f4 ad3c 4080 b93b 05a6 013c
00000090: 962d 7fbb b01d a23c 8a7c 883b a086 893b
000000a0: 0fd9 823c 088d 79bc 94a5 49ba e42e 02bc
000000b0: 94db 2c3c 99a7 063c 567b 203b 7a63 b03a
000000c0: 7a91 5abb 1ce4 10bb d28f c9ba ac20 823a
000000d0: 3690 8bbb 2481 1b3b cf6a 21bb b946 8939
000000e0: 181b 3039 75ee a63b 33df 55bb 20a8 5c3a
000000f0: bf6b ff39 34a8 05bb 1874 873c 36d6 8a3a

running_mean f4 [64]
-0.0815086 0.047627524 -0.06792758 0.05203135 -0.057419296 0.046617795 -0.021021161 -0.01238183
-0.103991 -0.007814916 0.04874667 -0.0016112861 -0.03931931 0.08436895 0.0020405333 0.01993881
-0.030039892 0.03978837 -0.07828321 0.06413356 0.10235508 0.019188656 -0.05467655 0.060817555
0.05272234 -0.05803173 -0.019419122 -0.026041972 0.05974647 -0.038103573 -0.090374656 -0.11993185
0.116932705 0.06795784 0.03636521 0.06835109 0.09110686 0.1135557 0.07584293 -0.061606176
0.09915366 0.050706264 -0.043368228 -0.052090794 -0.021494495 0.038796645 -0.09235963 -0.05287173
-0.0795814 -0.047118455 0.06558913 0.041688517 -0.07129708 -0.023607131 -0.019862054 0.0029198395
0.061268024 -0.08832207 -0.039186344 0.044819936 -0.102503896 -0.06650371 0.0054207863 0.09695335
00000000: fbed a6bd 1415 433d 9d1d 8bbd d31e 553d
00000010: 7f30 6bbd 4df2 3e3d 9234 acbc 29dd 4abc
00000020: 3cf9 d4bd 220a 00bc 97aa 473d ca31 d3ba
00000030: 490d 21bd a1c9 ac3d 78ba 053b b756 a33c
00000040: 3816 f6bc 21f9 223d f352 a0bd 7558 833d
00000050: 8a9f d13d 8731 9d3c 85f4 5fbd d41b 793d
00000060: 61f3 573d aeb2 6dbd da14 9fbc f955 d5bc
00000070: b7b8 743d 7e12 1cbd 5916 b9bd d49e f5bd
00000080: 6a7a ef3d 7b2d 8b3d b0f3 143d a8fb 8b3d
00000090: 3c96 ba3d e48f e83d 8a53 9b3d c256 7cbd
000000a0: 1311 cb3d 5fb1 4f3d e2a2 31bd 285d 55bd
000000b0: 3915 b0bc 3be9 1e3d 0c27 bdbd 0790 58bd
000000c0: 93fb a2bd 48ff 40bd 9853 863d 94c1 2a3d
000000d0: 3404 92bd be63 c1bc bfb5 a2bc c75a 3f3b
000000e0: 2ef4 7a3d 34e2 b4bd dc81 20bd 1c95 373d
000000f0: 90ed d1bd 1933 88bd daa0 b13b 7a8f c63d

running_var f4 [64]
0.33552432 0.31496677 0.34715864 0.34459764 0.30623403 0.3588828 0.38135698 0.34532896
0.3782598 0.36258066 0.30674648 0.31429672 0.37434202 0.37480256 0.42776394 0.32824108
0.32755148 0.3881015 0.33878005 0.385815 0.32771915 0.35586295 0.31946114 0.2736148
0.30084866 0.34688115 0.31550792 0.38760754 0.342787 0.31523743 0.32884738 0.37667704
0.25741482 0.32104212 0.3537069 0.3158565 0.35965943 0.30769867 0.2950255 0.32652006
0.35028157 0.35092387 0.36367568 0.39560077 0.3388008 0.3451315 0.3542707 0.36196008
0.33960027 0.296735 0.34860516 0.3771725 0.3850601 0.3396555 0.2846393 0.32431677
0.356734 0.40258354 0.37230626 0.3130993 0.33899024 0.31670928 0.29200882 0.32961336
00000000: d8c9 ab3e 5343 a13e c7be b13e 1a6f b03e
00000010: b5ca 9c3e 7dbf b73e 3941 c33e f5ce b03e
00000020: 45ab c13e 2ca4 b93e e00d 9d3e 80eb a03e
00000030: c2a9 bf3e 1fe6 bf3e e003 db3e 370f a83e
00000040: d4b4 a73e 3db5 c63e 9474 ad3e 8b89 c53e
00000050: ceca a73e ab33 b63e 6990 a33e 3d17 8c3e
00000060: d608 9a3e 689a b13e 418a a13e 7f74 c63e
00000070: c781 af3e cd66 a13e af5e a83e d0db c03e
00000080: e0cb 833e a25f a43e 1219 b53e f1b7 a13e
00000090: 4825 b83e ae8a 9d3e 950d 973e a32d a73e
000000a0: 1b58 b33e 4bac b33e b333 ba3e 2f8c ca3e
000000b0: 4c77 ad3e 13b5 b03e f862 b53e d552 b93e
000000c0: 16e0 ad3e a6ed 973e 607c b23e c11c c13e
000000d0: 9926 c53e 53e7 ad3e 3ebc 913e d90c a63e
000000e0: d7a5 b63e 6e1f ce3e ed9e be3e 8d4e a03e
000000f0: 2190 ad3e b827 a23e 2e82 953e 15c3 a83e

weight f4 [64, 64]
0.035737645 0.053883288 -0.06047125 0.013771746 0.107378125 0.06985593 -0.097446285 0.058809068
-0.020304047 0.03402779 0.027405739 -0.12667184 0.11429533 0.03978925 0.0012381454 0.039476834
0.033035792 -0.09731907 0.049076602 0.02885784 0.058219828 -0.035521515 -0.039582856 -0.099481955
0.122684136 -0.07555101 -0.003437069 -0.10119764 0.026890686 -0.10162965 0.00024075177 0.043167192
0.10807916 -0.014617013 0.032394703 -0.11103733 -0.02126186 0.054539047 0.1270813 0.031909656
0.12132942 -0.030925676 -0.111880064 -0.07052944 -0.063327104 -0.020718846 -0.07781296 -0.118378565
0.098207064 0.09388667 -0.12846293 -0.10970554 -0.0058039296 -0.06740321 0.105745636 0.13175768
-0.05723623 -0.048255052 0.0035535286 0.007053147 0.0852971 -0.10247407 0.073866986 -0.045331333
-0.037226025 0.04403214 0.047040574 -0.07918213 0.05420872 -0.053582754 -0.07564417 -0.04275868
0.0008245062 -0.102941684 0.048729327 0.08677002 0.042958062 0.11647184 0.056218073 -0.00889586
-0.08225298 0.08826574 -0.104269534 0.060573675 -0.11519369 -0.10128258 -0.050475128 -0.009046162
-0.12486768 0.03716527 0.069518216 0.020796897 0.047792096 -0.059734326 -0.073378876 0.1083992
0.11634846 -0.089346685 0.027622014 0.0009004579 -0.0776971 0.081854194 -0.023238268 -0.12782668
-0.1174131 -0.025354048 -0.07537785 -0.009942871 -0.12406195 0.03369759 -0.074646115 -0.06260082
0.12580147 0.08614197 0.023349281 -0.015191134 -0.10811268 -0.08356796 -0.09112373 -0.026862085
-0.12166831 -0.03397648 -0.08481326 -0.045332447 -0.086538434 0.022805443 0.091731936 0.044084314
-0.09720412 0.020160533 -0.10698385 -0.0013003715 -0.089051865 0.047062337 -0.10613055 -0.07048155
0.02086683 0.0061857905 -0.06917976 0.081514895 0.047104374 -0.050030038 -0.080664694 -0.10627197
-0.1130402 0.062251426 0.11232479 -0.080114424 0.07332438 -0.10744979 -0.0025910903 -0.0052762274
0.042670637 0.056560945 -0.11487689 -0.030571783 0.09625905 0.048132032 0.13187641 0.06124831
0.031335663 -0.06341336 -0.01638725 -0.040537007 -0.018114254 -0.051880643 0.10899634 0.11404574
-0.06610553 0.0071005053 0.013258107 -0.040029787 0.11738446 -0.042125084 -0.038594205 0.0016838087
0.07051127 0.065130465 -0.026005559 -0.0013425833 -0.025409289 0.021568913 -0.01464275 -0.019567288
0.030904785 -0.053954966 -0.058472615 0.08885145 -0.09996029 0.03425244 0.07420158 0.09820118
-0.0006154389 -0.09002146 0.10955396 0.004521763 0.08807681 -0.008742899 0.05584726 0.008093978
0.12473817 -0.016358647 -0.103477634 -0.07929114 0.043959137 0.117052525 -0.103512354 -0.043062225
0.040195283 -0.007924275 0.078773394 -0.07796469 -0.062088497 -0.041022375 0.09890594 0.03703316
0.028774593 -0.022163855 -0.03426294 0.12974337 0.09703094 0.09999511 -0.03416734 0.03936018
-0.10159902 -0.12902465 -0.040288765 0.07187391 -0.040014494 -0.015011447 0.09997354 -0.013589402
0.027097585 0.021137273 -0.093767166 -0.0807151 -0.057784144 -0.049659044 -0.12807876 -0.015421879
-0.0481898 -0.004329544 0.09251232 -0.12305827 -0.0030497317 0.08407209 -0.044586707 -0.040264204
0.1320409 0.04662901 -0.029847493 0.0100022005 0.055202384 0.08796291 -0.05923201 -0.07654552
00000000: a361 123d b9b4 5c3d b4b0 77bd e4a2 613c
00000010: 10e9 db3d a010 8f3d eb91 c7bd c7e1 703d
00000020: ac54 a6bc b960 0b3d 0082 e03c 43b6 01be
00000030: ac13 ea3d 0dfa 223d 4449 a23a 76b2 213d
00000040: 8a50 073d 384f c7bd 8c04 493d 4767 ec3c
00000050: ea77 6e3d 027f 11bd a221 22bd 32bd cbbd
00000060: d241 fb3d 7dba 9abd 7340 61bb b540 cfbd
00000070: db49 dc3c 3523 d0bd 5072 7c39 15d0 303d
00000080: 9b58 dd3d 327c 6fbc 4fb0 043d 8a67 e3bd
00000090: 5a2d aebc 5664 5f3d 9a21 023e b3b3 023d
000000a0: 8f7b f83d d857 fdbc 6021 e5bd bd71 90bd
000000b0: a4b1 81bd 92ba a9bc 675c 9fbd 7670 f2bd
000000c0: c920 c93d a847 c03d c98b 03be 4cad e0bd
000000d0: e42e bebb b20a 8abd 2b91 d83d 7ceb 063e
000000e0: 8970 6abd 17a7 45bd 51e2 683b 161e e73b
000000f0: 3fb0 ae3d eddd d1bd 9347 973d 59ad 39bd
00000100: 517a 18bd 0c5b 343d 9ead 403d 3e2a a2bd
00000110: f609 5e3d 9779 5bbd 55eb 9abd ba23 2fbd
00000120: ad23 583a 17d3 d2bd 6798 473d 7bb4 b13d
00000130: cbf4 2f3d ca88 ee3d ec44 663d f1bf 11bc
00000140: 4074 a8bd abc4 b43d 448b d5bd 1a1c 783d
00000150: abea ebbd 3e6d cfbd 02bf 4ebd 5a36 14bc
00000160: a0ba ffbd 9c3a 183d 915f 8e3d 415e aa3c
00000170: a5c1 433d fbab 74bd aa47 96bd 6600 de3d
00000180: 1a48 ee3d 65fb b6bd 9047 e23c b50c 6c3a
00000190: a81f 9fbd 2ca3 a73d 2e5e bebc ffe4 02be
000001a0: 4876 f0bd 4bb3 cfbc b45f 9abd 6ce7 22bc
000001b0: 3114 febd 7c06 0a3d 10e0 98bd dc34 80bd
000001c0: 1ad2 003e 336b b03d fe46 bf3c 3ce4 78bc
000001d0: 2e6a ddbd ae25 abbd 149f babd e00d dcbc
000001e0: 3c2d f9bd ec2a 0bbd 93b2 adbd 84ae 39bd
000001f0: 103b b1bd 7bd2 ba3c f4dd bb3d c191 343d
00000200: f412 c7bd b427 a53c 591a dbbd 3a71 aaba
00000210: d360 b6bd 70c4 403d f95a d9bd a258 90bd
00000220: eaf0 aa3c 2cb2 ca3b 1eae 8dbd 48f1 a63d
00000230: 84f0 403d 4cec 4cbd 8833 a5bd 1ea5 d9bd
00000240: 9f81 e7bd 5afb 7e3d 8a0a e63d 0813 a4bd
00000250: 182b 963d a30e dcbd 48cf 29bb 34e4 acbb
00000260: 68c7 2e3d 73ac 673d 9344 ebbd ad71 fabc
00000270: 7723 c53d 1826 453d 9c0a 073e 82df 7a3d
00000280: d359 003d ddde 81bd 8e3e 86bc 220a 26bd
00000290: 5864 94bc cc80 54bd 7939 df3d d090 e93d
000002a0: 5662 87bd 5bab e83b 8838 593c 46f6 23bd
000002b0: 4467 f03d 5a8b 2cbd f514 1ebd 3fb3 dc3a
000002c0: 3668 903d 1f63 853d 9c09 d5bc 9ff9 afba
000002d0: 2427 d0bc 4ab1 b03c 25e8 6fbc 944b a0bc
000002e0: 082c fd3c e2ff 5cbd fb80 6fbd c0f7 b53d
000002f0: fbb7 ccbd 494c 0c3d fff6 973d b31d c93d
00000300: 6855 21ba 2c5d b8bd d45d e03d 4c2b 943b
00000310: 9d61 b43d 603e 0fbc 19c0 643d 9b9c 043c
00000320: ba76 ff3d 9202 86bc 15ec d3bd 6563 a2bd
00000330: 7f0e 343d 3cb9 ef3d 49fe d3bd 0462 30bd
00000340: cfa3 243d d1d4 01bc f253 a13d f4ab 9fbd
00000350: 8250 7ebd 1407 28bd 338f ca3d 15b0 173d
00000360: b2b8 eb3c f990 b5bc 4c57 0cbd 72db 043e
00000370: 28b8 c63d 3cca cc3d 0df3 0bbd 2438 213d
00000380: 2613 d0bd 0a1f 04be d505 25bd a132 933d
00000390: 3de6 23bd 92f2 75bc edbe cc3d 15a6 5ebc
000003a0: c1fb dd3c 1328 ad3c 0009 c0bd f54d a5bd
000003b0: 11af 6cbd 4867 4bbd 1427 03be 0cac 7cbc
000003c0: ab62 45bd d9de 8dbb 1977 bd3d f905 fcbd
000003d0: 02de 47bb fd2d ac3d 8da0 36bd 14ec 24bd
000003e0: bb35 073e 10fe 3e3d bb82 f4bc 45e0 233c
000003f0: e51b 623d e625 b43d 449d 72bd e6c3 9cbd

bias f4 [64]
0.03341311 -0.06209878 -0.0016009163 -0.047915015 0.08467327 0.09322874 -0.07526431 0.08658554
-0.10398017 0.087742485 -0.017466083 0.07295818 0.0886975 -0.07477044 0.049998507 -0.037491407
-0.12390714 -0.020929793 -0.12255888 0.029567353 -0.103711866 0.10742142 0.12179169 -0.026061391
0.085740246 -0.08545754 -0.0004966835 0.088532664 -0.04044324 -0.08229292 0.0044405786 -0.044409372
-0.05414474 0.11731671 -0.096954525 0.0029698971 -0.02134871 0.123062156 0.035436437 -0.009129949
-0.017094374 -0.050911333 -0.041773945 -0.071960494 -0.064161845 -0.022206191 0.042430393 -0.06067922
-0.05403161 0.103246875 0.11788266 0.10134812 -0.11925684 -0.10996133 -0.025425676 0.029944733
0.11777251 0.03162572 0.080397494 0.02935579 -0.049822196 -0.028016776 -0.05788537 0.055322316
00000000: 2fdc 083d 4a5b 7ebd d6d5 d1ba 8942 44bd
00000010: 2e69 ad3d b6ee be3d 2d24 9abd c253 b13d
00000020: 8ef3 d4bd 55b2 b33d 0815 8fbc 196b 953d
00000030: 09a7 b53d 3f21 99bd 3ccb 4c3d 9790 19bd
00000040: 07c3 fdbd f574 abbc 2600 fbbd 3c37 f23c
00000050: e366 d4bd c3ff db3d ec6d f93d b37e d5bc
00000060: 9598 af3d 5d04 afbd de33 02ba 9d50 b53d
00000070: d0a7 25bd 3189 a8bd 4682 913b 9ae6 35bd
00000080: e0c6 5dbd be43 f03d 1890 c6bd 9ba2 423b
00000090: 7de3 aebc 0308 fc3d cc25 113d c895 15bc
000000a0: 8009 8cbc 6788 50bd 281b 2bbd 0660 93bd
000000b0: 4967 83bd c2e9 b5bc 7ecb 2d3d c68a 78bd
000000c0: 4050 5dbd 1973 d33d 776c f13d 9a8f cf3d
000000d0: ee3c f4bd 6833 e1bd 8249 d0bc a84e f53c
000000e0: b732 f13d f989 013d 71a7 a43d 8e7b f03c
000000f0: 5c12 4cbd 7083 e5bc 3619 6dbd a799 623d

weight f4 [64]
1.0084416 0.9812954 0.9843226 0.9648764 0.945669 1.0085275 0.9978794 0.9751444
0.99460626 1.0153995 1.0015343 0.9606179 0.9926973 1.0203247 0.9745829 1.0328218
0.99558944 0.97033083 0.9874667 1.0488292 1.0218095 0.99710786 0.9827251 0.98255736
0.9642342 0.97042936 0.9785478 0.9527679 1.010142 0.97871983 1.0272553 1.0010854
0.98546267 1.0241898 0.97326875 0.98477757 0.9875745 0.9907175 0.957238 0.9780344
1.0429931 1.0035844 0.99356794 1.0060589 0.9641675 0.9728338 0.96359843 0.9869018
0.96095294 0.9851813 0.95651 1.0088238 1.0251893 0.97104466 1.0308661 0.9746994
1.0064883 1.0078416 0.9783628 0.98212445 0.9986997 0.9937613 1.0086143 0.9806689
00000000: 9d14 813f 2d36 7b3f 91fc 7b3f 2402 773f
00000010: 5d17 723f 6e17 813f 0675 7f3f 10a3 793f
00000020: 849e 7e3f 9cf8 813f 4732 803f 0eeb 753f
00000030: 6921 7e3f 009a 823f 447e 793f 8133 843f
00000040: f3de 7e3f 9a67 783f 9eca 7c3f 0940 863f
00000050: a7ca 823f 7642 7f3f df93 7b3f e188 7b3f
00000060: 0dd8 763f 0f6e 783f 1c82 7a3f 99e8 733f
00000070: 554c 813f 628d 7a3f 1a7d 833f 9123 803f
00000080: 4847 7c3f a718 833f 2428 793f 621a 7c3f
00000090: afd1 7c3f a99f 7d3f 8d0d 753f 7660 7a3f
000000a0: cc80 853f 7475 803f 785a 7e3f 8ac6 803f
000000b0: aed3 763f a30b 793f 63ae 763f 99a5 7c3f
000000c0: 0301 763f d734 7c3f d7dd 743f 2321 813f
000000d0: 6739 833f 6296 783f 6cf3 833f e685 793f
000000e0: 9cd4 803f f400 813f fc75 7a3f 826c 7b3f
000000f0: c9aa 7f3f 2467 7e3f 461a 813f 1e0d 7b3f

bias f4 [64]
0.031434618 0.00010974517 -0.030985605 -0.04386335 -0.06099857 -0.012655513 0.019051611 -0.031050913
0.0003768787 0.020552732 0.0055996217 -0.011477073 -0.014123429 0.03744037 -0.013443527 0.02959024
-0.0013113345 -0.042282935 -0.025484772 0.013350632 0.0019643917 0.0064141564 -0.016961226 -0.039061807
-0.031990692 -0.02652881 -0.024507372 -0.053044822 0.018873574 -0.01012698 0.043450132 -0.0008099397
-0.01656075 0.0014728777 0.016217545 -0.012687909 -0.01621612 0.011203013 -0.03228434 -0.012107015
0.05755808 -0.0008587574 -0.017364247 -0.017534554 -0.029872043 -0.032009065 0.002433542 -0.036522634
-0.03722616 -0.020074017 -0.027332552 0.021145405 0.030402366 -0.032999445 0.026898377 -0.029422943
0.015231882 0.01966924 -0.02405384 -0.013667514 -0.02635818 -0.016896114 0.015436542 -0.009444223
00000000: 96c1 003d fd26 e638 86d5 fdbc 0eaa 33bd
00000010: a3d9 79bd 1259 4fbc 2012 9c3c 7c5e febc
00000020: ce97 c539 345e a83c 087d b73b 550a 3cbc
00000030: f465 67bc 135b 193d 3d42 5cbc 3b67 f23c
00000040: 16e1 abba df30 2dbd 71c5 d0bc 9cbc 5a3c
00000050: 06bd 003b d82d d23b 45f2 8abc 46ff 1fbd
00000060: ac08 03bd f252 d9bc afc3 c8bc 8745 59bd
00000070: c19c 9a3c a2eb 25bc c4f8 313d 2252 54ba
00000080: 69aa 87bc 930d c13a a8da 843c f3e0 4fbc
00000090: abd7 84bc d88c 373c 963c 04bd 805c 46bc
000000a0: 05c2 6b3d 3c1e 61ba 773f 8ebc a0a4 8fbc
000000b0: 37b6 f4bc f01b 03bd 0f7c 1f3b c298 15bd
000000c0: 757a 18bd 4472 a4bc 84e8 dfbc 2139 ad3c
000000d0: 620e f93c 6d2a 07bd fc59 dc3c 6208 f1bc
000000e0: 258f 793c 6321 a13c 8f0c c5bc b5ed 5fbc
000000f0: 1ced d7bc b869 8abc 8de9 7c3c f1bb 1abc

running_mean f4 [64]
0.024196777 -0.4863916 -0.052478652 -0.04563821 0.2872272 -0.07565615 -0.15848789 0.5507736
-0.19112983 0.26483706 -0.61884505 0.05427779 -0.007288754 -0.39496753 -0.12177703 0.16474494
0.15647455 0.2730173 0.018957436 -0.09580474 -0.30873072 -0.13654028 -0.0941669 -0.5953608
-0.12247083 -0.3758375 0.18752863 0.078150146 -0.040753566 0.34614524 0.050186057 0.34779432
-0.048163805 0.2685946 -0.05405206 0.11437027 -0.32527086 -0.045712564 -0.2997436 -0.17241865
-0.43437487 -0.12257784 0.018117895 -0.36842155 -0.13516162 0.02789033 -0.16617514 -0.37277764
-0.22580959 -0.2114668 0.33419278 -0.060844403 -0.17435655 -0.3961007 -0.0754767 -0.05501076
-0.03045242 -0.108789794 0.046098053 -0.22556642 0.032275766 0.000885093 -0.3332028 -0.20891474
00000000: 5238 c63c 5208 f9be dbf3 56bd 22ef 3abd
00000010: 720f 933e 9df1 9abd a64a 22be 80ff 0c3f
00000020: 8ab7 43be b998 873e a16c 1ebf 6352 5e3d
00000030: 80d6 eebb 2f39 cabe 3c66 f9bd e6b2 283e
00000040: dd3a 203e ecc8 8b3e a04c 9b3c 4735 c4bd
00000050: f411 9ebe 37d1 0bbe 93da c0bd 9169 18bf
00000060: fdd1 fabd c66d c0be 8107 403e 2f0d a03d
00000070: 36ed 26bd f339 b13e e58f 4d3d 1912 b23e
00000080: 6947 45bd 3b85 893e b165 5dbd f63a ea3d
00000090: e789 a6be 193d 3bbd fe77 99be 848e 30be
000000a0: 6266 debe 170a fbbd fb6b 943c c0a1 bcbe
000000b0: cf67 0abe 437a e43c d129 2abe b6dc bebe
000000c0: a13a 67be c18a 58be 511b ab3e fb37 79bd
000000d0: 868a 32be b6cd cabe 8793 9abd f652 61bd
000000e0: 5a77 f9bc 2fcd debd 50d1 3c3d e2fa 66be
000000f0: 9833 043d 9605 683a 8f99 aabe bfed 55be

running_var f4 [64]
0.12496489 0.13166076 0.088125505 0.12519376 0.09266028 0.12203089 0.12873687 0.11235254
0.13086145 0.12995458 0.10213892 0.13527706 0.17236988 0.122780725 0.124241054 0.11514772
0.110264026 0.15112963 0.10027062 0.15246215 0.12719795 0.13429475 0.12677458 0.13397004
0.14906898 0.14541222 0.117107525 0.12597832 0.14076346 0.14829487 0.1323814 0.12802851
0.12551743 0.105617 0.14639777 0.10218552 0.10603188 0.118855745 0.10763368 0.10204697
0.12394147 0.13119519 0.13725235 0.13607995 0.12440928 0.10699391 0.12501563 0.1565328
0.12659475 0.13716024 0.10527062 0.1355976 0.14255755 0.10348615 0.14393607 0.13727126
0.10888551 0.1379819 0.121141165 0.12649946 0.13671583 0.15239511 0.11400894 0.11395694
00000000: 98ed ff3d 14d2 063e 257b b43d cb32 003e
00000010: acc4 bd3d 55eb f93d 99d3 033e 1719 e63d
00000020: 8b00 063e d012 053e 362e d13d 1286 0a3e
00000030: bb81 303e 7674 fb3d 1872 fe3d 91d2 eb3d
00000040: 1bd2 e13d bac1 1a3e af5a cd3d 0a1f 1c3e
00000050: 2e40 023e 9084 093e 32d1 013e 712f 093e
00000060: 8aa5 183e f1e6 143e 12d6 ef3d 7600 013e
00000070: 4c24 103e 9cda 173e fd8e 073e e819 033e
00000080: a487 003e ba4d d83d 4ce9 153e a446 d13d
00000090: 3e27 d93d a46a f33d 0c6f dc3d 00fe d03d
000000a0: 07d5 fd3d 0858 063e e18b 0c3e 8b58 0b3e
000000b0: 4bca fe3d a01f db3d 1904 003e 224a 203e
000000c0: 0ea2 013e bc73 0c3e 1f98 d73d 19da 0a3e
000000d0: 9bfa 113e 8cf0 d33d fa63 133e d690 0c3e
000000e0: 5eff de3d 214b 0d3e dc18 f83d 1389 013e
000000f0: 3cff 0b3e 770d 1c3e 857d e93d 4262 e93d

weight f4 [5, 64]
0.11763889 -0.06507549 -0.106832005 -0.08246328 -0.035618 0.058716845 0.024426691 -0.07622282
-0.05525646 0.007377405 -0.075495556 0.014355164 -0.0016781304 0.062195834 -0.01325288 0.117536515
-0.028527362 -0.042238332 -0.07843899 0.088928685 0.020387413 0.04536357 -0.0686501 -0.026704496
0.0021624784 -0.068827905 -0.07374075 -0.050576337 0.07605111 -0.006550525 0.0821659 -0.02323796
-0.07871538 0.0011351974 0.022260051 0.072449975 -0.07817839 0.014208037 -0.029914815 0.08987996
0.10774484 0.09051855 0.016548498 0.114335425 0.09968735 -0.050085157 -0.020804038 -0.04658403
0.048531834 0.08758051 -0.008221409 0.023273645 0.065122694 -0.075678274 -0.082928345 -0.030729678
0.06261884 -0.0851909 0.09204505 -0.10926762 -0.016991103 -0.06555171 0.083911456 -0.04789041
0.08095947 0.012748661 -0.028798608 -0.04838481 -0.069411434 -0.012929349 0.07976063 0.009825548
0.053278387 -0.014362776 -0.034162134 -0.07729944 0.070521615 -0.01980187 0.0076545747 0.1091212
0.096701436 -0.06785383 0.04523609 -0.008772074 -0.020815656 -0.020264333 0.069864616 -0.06998211
0.038771484 -0.07776118 -0.04315904 -0.08355465 -0.016096659 -0.0205181 0.1386241 0.011507512
-0.07323137 0.12002845 0.05755804 -0.056952532 0.04047543 0.019219214 -0.011587153 -0.022480298
0.0355746 -0.046101734 0.020827357 -0.09518166 -0.091921896 -0.0020747518 0.098165706 -0.10492989
-0.06134077 -0.10042766 0.028405191 0.03847614 -0.06203342 0.060245488 0.13847521 -0.08359266
-0.025510324 -0.02515732 -0.057774257 -0.11290391 -0.07125398 0.00919953 0.0958649 0.061631776
0.032649778 0.092186324 0.019728992 0.059241056 0.08197772 0.014060925 -0.0052549765 0.0071043125
-0.121734396 -0.06024049 -0.091205776 0.07612898 0.09247951 -0.08801864 -0.008279582 -0.044067718
-0.043939542 0.043910623 0.094626985 0.08390541 -0.040133912 -0.10348982 0.002033408 0.038813215
0.0478623 0.03204425 -0.057086017 0.002704187 -0.06653438 0.04975533 -0.028252931 -0.08333597
-0.07963307 0.04149072 0.006803226 -0.0916361 0.089381106 0.04349489 0.07912356 0.07192617
-0.04119047 -0.12161579 0.118057504 -0.04281421 0.05412154 -0.0027310594 -0.03863154 0.005849749
0.05589263 0.059096713 0.1031238 -0.08848284 -0.10617762 0.026801981 -0.14386748 0.0884898
-0.09694773 -0.13087408 0.03618156 -0.028780993 -0.022516472 0.028397413 -0.025317179 0.035051804
-0.048245095 0.0052064504 -0.021163648 -0.023399264 -0.053542934 0.05175845 -0.044527825 -0.093634546
0.058252573 0.037045542 -0.12169186 0.08635743 -0.035758052 -0.012432874 -0.09137642 0.0684864
-0.0459152 -0.03479656 -0.05629597 0.008516441 0.09979111 0.0031264753 -0.11343782 -0.059287887
-0.09675058 -0.055990186 0.003309486 -0.034288704 0.07269048 -0.099588625 -0.048168678 0.04088994
0.01480519 0.035575848 -0.012866257 -0.03849708 0.08649549 0.025164375 -0.06430592 -0.011979464
-0.029718004 -0.001111112 0.077590354 0.10677463 -0.023783531 0.045005545 -0.07496933 -0.0035466333
0.010614969 -0.06476227 -0.08398096 0.12154843 -0.114902906 0.059843984 0.057424568 -0.02880277
-0.056142714 -0.13042988 -0.09353946 -0.025951639 0.062992185 0.027741257 -0.003318016 0.089726806
00000000: a9ec f03d 4c46 85bd bdca dabd 82e2 a8bd
00000010: 2ee4 11bd 1381 703d 7c1a c83c b61a 9cbd
00000020: 9954 62bd 29be f13b 6a9d 9abd ec31 6b3c
00000030: b6f4 dbba 0fc1 7e3d 9c22 59bc fcb6 f03d
00000040: 37b2 e9bc 1a02 2dbd 9fa4 a0bd 3e20 b63d
00000050: 8103 a73c 27cf 393d 6c98 8cbd 63c3 dabc
00000060: 5eb8 0d3b a5f5 8cbd 6405 97bd 2229 4fbd
00000070: afc0 9b3d c9a5 d6bb 9846 a83d 895d bebc
00000080: 8735 a1bd e7ca 943a b65a b63c a760 943d
00000090: fe1b a0bd d4c8 683c ea0f f5bc fc12 b83d
000000a0: 54a9 dc3d ca61 b93d b790 873c b128 ea3d
000000b0: e228 cc3d 1826 4dbd 3b6d aabc e5ce 3ebd
000000c0: 51c9 463d 695d b33d 17b3 06bc 5fa8 be3c
000000d0: 0c5f 853d 36fd 9abd 56d6 a9bd cebc fbbc
000000e0: 4e3e 803d 9178 aebd 1d82 bc3d b4c7 dfbd
000000f0: ed30 8bbc fa3f 86bd c5d9 ab3d bc28 44bd
00000100: 14ce a53d c3df 503c 0feb ebbc 272f 46bd
00000110: 9527 8ebd 9fd5 53bc 8b59 a33d 56fb 203c
00000120: 703a 5a3d d951 6bbc 98ed 0bbd 2b4f 9ebd
00000130: a36d 903d 8837 a2bc 3ad3 fa3b f07a df3d
00000140: 670b c63d f3f6 8abd 7a49 393d bfb8 0fbc
00000150: 9885 aabc 6301 a6bc 2e15 8f3d c852 8fbd
00000160: d9ce 1e3d 4141 9fbd 89c7 30bd b31e abbd
00000170: 24dd 83bc 9315 a8bc 7af3 0d3e 018a 3c3c
00000180: 54fa 95bd 7ad1 f53d fbc1 6b3d 0f47 69bd
00000190: 91c9 253d 9d71 9d3c 0bd8 3dbc 9a28 b8bc
000001a0: acb6 113d 2cd5 3cbd 229e aa3c 9aee c2bd
000001b0: 8c41 bcbd 8ff8 07bb 1a0b c93d 7be5 d6bd
000001c0: 7640 7bbd 04ad cdbd 01b2 e83c 2899 1d3d
000001d0: c116 7ebd f9c3 763d 72cc 0d3e a132 abbd
000001e0: 07fb d0bc b916 cebc b3a4 6cbd 2a3a e7bd
000001f0: 9bed 91bd a0b9 163c d154 c43d 9a71 7c3d
00000200: c6bb 053d 2fcc bc3d b29e a13c c0a6 723d
00000210: efe3 a73d cb5f 663c f031 acbb 4bcb e83b
00000220: e24f f9bd bbbe 76bd 18ca babd 83e9 9b3d
00000230: e665 bd3d 1e43 b4bd 15a7 07bc 5a80 34bd
00000240: f3f9 33bd a0db 333d cbcb c13d 99d6 ab3d
00000250: 7563 24bd 79f2 d3bd ed42 053b 9bfa 1e3d
00000260: 420b 443d d540 033d 07d3 69bd bb38 313b
00000270: 2d43 88bd 3fcc 4b3d b172 e7bc 0dac aabd
00000280: aa16 a3bd 2cf2 293d 99ed de3b b5ab bbbd
00000290: 710d b73d b327 323d 880b a23d 074e 933d
000002a0: 57b7 28bd b311 f9bd 22c8 f13d f45d 2fbd
000002b0: 8cae 5d3d 93fb 32bb 1b3c 1ebd 40af bf3b
000002c0: acef 643d 650f 723d 9232 d33d 7e36 b5bd
000002d0: a773 d9bd d48f db3c ff51 13be 243a b53d
000002e0: 888c c6bd db03 06be 1e33 143d 1ec6 ebbc
000002f0: 7774 b8bc b1a1 e83c f965 cfbc 7b92 0f3d
00000300: a69c 45bd df9a aa3b 635f adbc d0af bfbc
00000310: d64f 5bbd ab00 543d cf62 36bd 78c3 bfbd
00000320: 409a 6e3d 11bd 173d 9539 f9bd 2adc b03d
00000330: 0977 12bd 41b3 4bbc 8f23 bbbd 9942 8c3d
00000340: 9411 3cbd d686 0ebd 9a96 66bd 8b88 0b3c
00000350: 485f cc3d 8de5 4c3b 1652 e8bd dbd7 72bd
00000360: 2b25 c6bd f755 65bd f6e3 583b 5072 0cbd
00000370: bfde 943d 1ff5 cbbd 854c 45bd 367c 273d
00000380: 7891 723c fbb7 113d fecc 52bc 1daf 1dbd
00000390: 8c24 b13d 8525 ce3c d2b2 83bd 8445 44bc
000003a0: 2c73 f3bc bba2 91ba b1e7 9e3d a8ac da3d
000003b0: aed5 c2bc bc57 383d 8589 99bd a26e 68bb
000003c0: 68ea 2d3c 15a2 84bd 36fe abbd 62ee f83d
000003d0: 3752 ebbd f71e 753d 0636 6b3d c9f3 ebbc
000003e0: e7f5 65bd 698f 05be 9e91 bfbd 8898 d4bc
000003f0: 0c02 813d a241 e33c 1273 59bb b0c2 b73d

bias f4 [5]
0.12304687 0.07740772 -0.10914684 0.09254256 -0.06636206
00000000: ffff fb3d f087 9e3d 6188 dfbd f486 bd3d
00000010: d5e8 87bd
