Industrial Equipment/mlruns/0/ce1f42318a724873889b9e947e154a4d/artifacts/discriminator_model/data/model.pth (torch, 30142 bytes, 13 tensors)

weight f4 [64, 5]
000000 b6 22 8e be ba 87 4b 3e a6 e6 45 bd 99 e6 3e 3e
       -0.27760857 0.19875994 -0.048315667 0.18642654
000010 f3 28 ac 3e 9b 5a 91 3e 37 d3 d9 be 27 01 c7 bc
       0.33624992 0.2838944 -0.42543957 -0.024292542
000020 e5 6a f9 bc 4b 6c c1 be 14 bc 26 be a9 40 c6 3e
       -0.03044648 -0.37777933 -0.16282684 0.38721207
000030 a3 88 cc 3e ec ee 24 be 0d 56 98 bc 7d 60 26 be
       0.39947996 -0.16106766 -0.01859572 -0.16247745
000040 db 67 38 bd 8a f9 bd bc 15 9d 02 3d 9f c1 d2 3c
       -0.04502092 -0.023190279 0.031888086 0.025727091
000050 51 f8 60 bd 6b 6c 4d be 47 93 cc be 03 42 25 3e
       -0.054924313 -0.2006089 -0.39956114 0.16138463
000060 2d 04 d5 3e 39 2e 85 3e 2b 8e 25 3c 27 86 a8 bd
       0.41604748 0.26011828 0.010104696 -0.082287125
000070 3d 11 d9 be ea 64 46 3c 7f 4d bf be 5c 35 09 3e
       -0.42395964 0.012109021 -0.37363812 0.13399261
000080 a8 5f a2 be 8e 31 e0 3d 5a c6 dd bc 2e 8a 8a 3e
       -0.31713605 0.10946952 -0.02707212 0.27058548
000090 98 36 1d be 1b ed 67 3d d2 97 d0 3e 4a 49 57 be
       -0.15352857 0.056622606 0.4074083 -0.21024051
0000a0 fa 45 ac 3e 76 11 07 3e 48 b8 a3 be 53 de a6 3e
       0.33647138 0.13190255 -0.31976533 0.32591495
0000b0 de 75 de 3e 79 a2 56 3e 01 b7 c2 be 25 a5 b4 3d
       0.434493 0.20960416 -0.38030246 0.08820561
0000c0 f1 26 88 3e e2 fd a1 3e 08 c7 97 3e 2a df 6c be
       0.2659221 0.3163901 0.29644036 -0.23132005
0000d0 8f 3a 75 3e 73 4e ce 3e 08 10 b9 be 8c 98 e2 bd
       0.2394812 0.40294227 -0.36145043 -0.11064252
0000e0 32 70 2e be 9a 62 53 3d f8 62 1c 3e ad be 57 be
       -0.17034987 0.051607706 0.15272129 -0.21068831
0000f0 d6 67 d8 3d a8 ae 7c 3e cb 77 c1 bc 5c 99 d1 3e
       0.1056668 0.24676001 -0.023616692 0.40937316
000100 6e 65 00 3e a4 f5 cb 3e ab 70 05 3e c2 69 71 3e
       0.12538692 0.39835846 0.1303126 0.235755
000110 10 66 df be 09 0b c2 be 6f eb cc 3c 6f 1a 4a be
       -0.43632555 -0.37899044 0.025014607 -0.19736646
000120 4a b3 68 3d 79 10 ce bd 7c c0 e3 bc 32 a2 e3 3e
       0.05681161 -0.10061736 -0.027801745 0.44459683
000130 36 d4 4b 3e 55 26 37 bd c3 8f 76 be dd 9b 2f 3e
       0.19905171 -0.04471429 -0.24078278 0.17149301
000140 2a e2 6e 3d 5b f9 b0 be 9c 01 ae 3e d6 89 d5 be
       0.058321156 -0.34565243 0.33985603 -0.41706723
000150 bb 2d 17 bb 9d e7 b5 be 8b 74 11 3d db 6b 79 be
       -0.002306803 -0.3552827 0.035511535 -0.2435755
000160 67 30 dd 3c 1d a5 27 3e 37 63 c9 3d 71 dc 1f 3e
       0.02700062 0.1637158 0.09833377 0.15611435
000170 72 8a bf 3e 4d d3 b2 3b 82 d8 de be 3b be 88 be
       0.37410313 0.005457318 -0.43524557 -0.26707634
000180 6c 3a aa be 7b e8 e3 3e cb 96 37 be 0e e6 14 be
       -0.33247697 0.44513306 -0.17928617 -0.14540884
000190 65 6f 80 be 91 c6 87 be 5c a3 08 be 20 fe 18 3e
       -0.25084987 -0.26518682 -0.13343567 0.14940691
0001a0 c8 ee 2b be 68 f4 81 bd 89 ec 80 3e 0d f8 a9 3e
       -0.16790307 -0.06345445 0.25180462 0.3319706
0001b0 c1 8e a8 be f3 8a 0d bd aa 95 89 bc 98 cf 84 3d
       -0.32921413 -0.03455634 -0.016794998 0.06484908
0001c0 84 81 91 be ea 6b b2 be d6 76 8c be 8d dc 60 3e
       -0.28419125 -0.34847957 -0.27434415 0.21959133
0001d0 a4 80 35 be 60 e1 65 be dd bb 30 3e e8 11 96 3e
       -0.17724854 -0.22449255 0.17259164 0.29310536
0001e0 23 a2 9c be a7 bf a3 be 83 43 31 3d 63 d4 60 be
       -0.3059245 -0.31982157 0.043277275 -0.21956019
0001f0 c7 b3 3e be a1 76 ea bd a5 1b 64 3e 28 0c 0e 3e
       -0.18623267 -0.11448408 0.2227617 0.13871825
000200 79 9b 92 3e 56 ac ba be b2 38 3a be 4b 87 97 3c
       0.2863424 -0.36459607 -0.1818569 0.01849713
000210 56 da 68 3e 98 96 52 be fd e4 3d be 62 d9 80 be
       0.22739539 -0.2056526 -0.18544383 -0.2516585
000220 1c 6c 58 be d3 50 27 bb 18 19 07 3e 5a 9d 88 3e
       -0.2113499 -0.0025530353 0.13193166 0.2668255
000230 f6 49 e9 bd db 8f 54 3e 8d 58 be bd 64 cd 66 be
       -0.1139106 0.20758002 -0.092942335 -0.22539288
000240 64 8f ce bd 0e be a1 bd 18 84 5a 3e cd 79 ce be
       -0.10085943 -0.07897578 0.21339452 -0.40327302
000250 b9 b8 26 3d a7 57 1e 3e bf 06 d4 3e 5f 9f 4e 3e
       0.04070351 0.15463124 0.41411397 0.20177983
000260 72 4c e7 bd 87 53 4f 3e 6c 91 26 bd c3 24 87 be
       -0.11293878 0.20246707 -0.04066603 -0.26395234
000270 34 c2 2e be a3 24 80 be 54 1b c2 be 09 e8 87 3e
       -0.1706627 -0.25027952 -0.37911475 0.26544216
000280 d9 b8 8b 3e 61 35 09 be d3 21 da be a4 eb e4 3d
       0.27289465 -0.13399269 -0.4260393 0.111777574
000290 80 01 90 be 30 3e 56 be 4f 75 bb be 9f 72 f6 bd
       -0.28126144 -0.2092216 -0.36612937 -0.12033581
0002a0 83 6b b1 be 3a 65 ec bd 9b fd 73 be a5 93 7a 3e
       -0.34652337 -0.11542745 -0.23827212 0.24470384
0002b0 d3 e4 a3 3e e4 c1 d6 3e c5 a6 85 be 92 1a c7 be
       0.32010517 0.41944802 -0.26103798 -0.3888746
0002c0 1e d8 86 3d 8d 88 0e bd 21 e8 ab 3e c6 b3 a7 3d
       0.0658419 -0.034798194 0.33575538 0.08188586
0002d0 08 ba e3 3d 13 2c b9 3e 0b 41 de be 1a 5e 52 be
       0.11119467 0.36166438 -0.43409 -0.2054371
0002e0 9d d7 83 3e a6 df 85 3e 13 b5 4f 3d db 70 47 3e
       0.25750437 0.26147193 0.050709795 0.19476645
0002f0 70 cb ae bd 30 1e 3d 3e 2a 15 32 3b 66 55 db 3e
       -0.085348964 0.18468547 0.002717326 0.4283859
000300 41 12 b8 be ff 37 65 3e fd eb 85 bd fb 07 9b 3e
       -0.35951427 0.22384642 -0.06539152 0.30279526
000310 4e 76 b0 be e3 04 74 be c9 47 1e 3e 44 59 83 3c
       -0.3446526 -0.23829989 0.15457071 0.016033776
000320 f1 4e 83 3e c6 40 02 3e f5 01 90 3e 1f 56 cc 3d
       0.25646165 0.12720022 0.28126493 0.09977364
000330 2d 60 a8 bd d2 91 e6 bd ac 52 77 3e 97 fe a7 3b
       -0.08221469 -0.11258282 0.2415263 0.005126785
000340 9d 78 99 bd 77 7c d2 bb ce 15 63 3e 13 4c df 3e
       -0.07493708 -0.006423529 0.22176287 0.43612728
000350 c8 78 28 3d 85 d8 e1 3e 92 a4 c9 3d 97 a3 e7 bd
       0.04113081 0.44110504 0.098458424 -0.11310499
000360 6f df fd 3d 9b 07 be be da 90 97 3e 49 97 e5 3e
       0.12396132 -0.37115178 0.296027 0.44841984
000370 08 d6 90 be 00 ae c1 be f6 3f b8 3e 00 52 ea 3e
       -0.28288293 -0.37828064 0.35986298 0.45765686
000380 ad 0c c3 be 5b bc d1 3e d3 75 d0 3d 01 32 c6 be
       -0.38095608 0.40964016 0.10178723 -0.38710025
000390 46 9a 65 3e b6 cb 5a bb a7 5e b4 be 5b d3 3d be
       0.22422132 -0.0033385581 -0.35228464 -0.18537657
0003a0 b9 6c dc 3b 5a 31 08 3e f9 ec d3 be f2 50 8e 3d
       0.006726828 0.13300076 -0.41391733 0.06949033
0003b0 90 fb ae bd bc c4 54 3e 1a 6e 83 be 0d 4a db be
       -0.085440755 0.20778173 -0.25669938 -0.42829934
0003c0 31 85 6e 3e 0b 53 11 be 15 88 9f be 75 d2 f3 bd
       0.23292996 -0.14191835 -0.3115851 -0.11905376
0003d0 2b b5 f8 bd 4b 81 f6 3d 9e 86 ad 3d d6 f9 a7 3e
       -0.1214393 0.120363794 0.08472942 0.32807797
0003e0 21 da b8 be 53 ac b8 3e f8 9d 14 be bd 4c 49 be
       -0.3610392 0.36068973 -0.14513385 -0.1965818
0003f0 b9 15 f9 3d a2 48 97 be 60 8a c4 be 33 4f e2 be
       0.121623464 -0.29547602 -0.38386822 -0.4420105

bias f4 [64]
000000 a7 ff 97 be c2 a5 ba 3e 10 0b e4 be 20 41 78 3d
       -0.29687235 0.36454588 -0.4453969 0.060608983
000010 49 71 cb 3e 91 a4 c0 be 6d d1 22 3e 3a 06 d6 3e
       0.39734867 -0.37625554 0.15900202 0.41801625
000020 a6 68 a1 3e 23 f2 bd 3e ae 62 0c be 11 b8 95 be
       0.31525153 0.37098798 -0.13709518 -0.29241994
000030 8d 8e a3 be c1 e7 ec bd 54 56 bb 3e 44 6b 56 be
       -0.31944695 -0.11567641 0.365893 -0.20939356
000040 68 d6 cf be 38 fc d8 3e 3f d0 43 3e b9 fa 8f be
       -0.40593266 0.42379928 0.19122408 -0.28120974
000050 52 6b c2 3e 3d 3b 59 be fe 4e d1 bd fb 0d 55 3e
       0.37972504 -0.21214004 -0.10220145 0.20806114
000060 d0 70 9d b9 6c 27 67 be 6a c5 b6 3e 53 e8 18 be
       -0.00030029425 -0.22573632 0.3569749 -0.14932375
000070 6c de c9 bd 29 01 6d be 3d 07 a4 3e 3b d4 e2 3c
       -0.09856877 -0.23144974 0.32036772 0.02768909
000080 6f 4e bf 3e 69 09 d0 be 54 a2 e3 3d 22 11 30 bd
       0.37364528 -0.4063218 0.11114946 -0.04298509
000090 bc 6c b6 be be 56 94 be e7 ca dd be 0f 52 c5 be
       -0.35629833 -0.2897243 -0.43318865 -0.38539168
0000a0 70 84 7b 3d 34 f2 e1 3e ef f7 99 3c 8b e7 c5 be
       0.0614056 0.441301 0.018794982 -0.38653216
0000b0 6f c5 fc 3d d3 72 9e be b5 cb 64 be ca 99 7a 3e
       0.12342345 -0.3094698 -0.22343333 0.24472728
0000c0 29 e1 d1 be 42 97 86 be f5 79 ad be 0b 2d c6 3e
       -0.40992096 -0.26287276 -0.33882108 0.3870624
0000d0 6b cc 18 be 9f df 81 be c8 b4 a2 bd 3a b8 bc 3e
       -0.1492173 -0.25365922 -0.079446375 0.36859304
0000e0 5e b8 c3 3e 57 e5 ab bd 1e 71 86 3e 64 97 6c be
       0.38226599 -0.083933525 0.26258177 -0.23104626
0000f0 4a 6a 30 3e 2a 64 df be 44 c5 cc bc 2e 8b 08 3e
       0.17228046 -0.43631107 -0.024996407 0.13334343

weight f4 [64]
000000 39 15 81 3f bf fa 7c 3f 16 a5 80 3f 86 26 80 3f
       1.0084602 0.9882011 1.005038 1.0011756
000010 2d aa 7e 3f 15 53 7d 3f ae 29 80 3f 54 ab 80 3f
       0.9947842 0.989549 1.001272 1.0052285
000020 c8 d6 7e 3f d7 c9 84 3f aa 01 83 3f 39 ce 7c 3f
       0.9954648 1.0374097 1.0234883 0.9875217
000030 aa e0 80 3f 8a 69 7e 3f ce e9 7a 3f 99 71 80 3f
       1.0068562 0.9937979 0.9801301 1.0034667
000040 9f 14 7f 3f 05 6e 7e 3f be 26 80 3f 11 11 7a 3f
       0.9964084 0.99386626 1.0011823 0.9768229
000050 3b e5 81 3f 73 75 7f 3f b5 92 82 3f 96 6d 7c 3f
       1.014808 0.9978859 1.0201021 0.98604715
000060 03 df 75 3f ee e9 82 3f a3 d6 7d 3f 6a 4b 7b 3f
       0.96043414 1.022764 0.99155635 0.9816195
000070 61 3b 82 3f cf 35 84 3f 0c ea 7c 3f c8 55 81 3f
       1.0174371 1.0328921 0.9879463 1.0104303
000080 56 9c 83 3f 41 1a 7b 3f 17 fa 79 3f dc 5e 74 3f
       1.0282085 0.98086935 0.9764723 0.95457244
000090 0b 2a 7f 3f 94 d4 82 3f c6 a8 7c 3f f5 da 80 3f
       0.9967353 1.0221124 0.9869503 1.006682
0000a0 0a a7 80 3f 1b 5a 80 3f 6d 28 82 3f 96 c1 80 3f
       1.0050976 1.0027498 1.0168587 1.0059078
0000b0 6e 3b 80 3f b2 43 82 3f 0c c7 80 3f cf c7 7d 3f
       1.0018137 1.0176909 1.0060744 0.9913301
0000c0 51 5e 7b 3f 26 7f 79 3f 79 f8 80 3f 87 9d 7e 3f
       0.9819079 0.9745964 1.0075828 0.9945912
0000d0 ea 2b 77 3f 4d ac 79 3f ab 6d 82 3f ba 46 81 3f
       0.9655138 0.97528535 1.0189718 1.0099709
0000e0 e0 51 83 3f 4d 3d 80 3f d8 a4 7e 3f 02 36 80 3f
       1.0259361 1.0018708 0.9947028 1.0016482
0000f0 ae 06 83 3f 9b e1 7c 3f 55 e8 81 3f 31 5b 82 3f
       1.0236413 0.98781747 1.0149027 1.018408

bias f4 [64]
000000 0e c4 09 3c f7 3f 8d bc f3 4b 19 bd 86 21 15 bc
       0.0084085595 -0.017242415 -0.037425946 -0.009102231
000010 d8 c1 59 bc eb f2 14 bd 32 73 a9 bc c8 a6 25 bc
       -0.013290845 -0.036364477 -0.020684812 -0.0101105645
000020 96 4c 2c bc aa a0 27 bc ac 2b d8 3a d1 37 75 bc
       -0.010516306 -0.010231176 0.0016492507 -0.014966921
000030 b9 4d 3e bd 5e a4 cb bc 9d ec 94 bb 1c d6 6e bc
       -0.04646084 -0.02485865 -0.004544808 -0.014577415
000040 cc 9c f6 bc a9 38 03 bc aa cf cb bc 9d bc 70 bc
       -0.030104063 -0.008009114 -0.024879295 -0.014693406
000050 46 ec 1d bc bf 22 9a 3b 2a 3d 00 bd 35 4a 7c bc
       -0.0096388515 0.004703849 -0.03130833 -0.015398552
000060 9a af 16 bd d4 97 32 bb c6 37 8a 3b 02 f7 44 bc
       -0.03678856 -0.002725114 0.0042180745 -0.012021782
000070 a2 76 a1 3b 70 b9 35 3b 40 9c d0 bc 84 45 b8 bc
       0.004927472 0.0027728938 -0.02546513 -0.022494085
000080 f9 46 20 3a 36 ed e3 bc 55 ad d5 3b 93 de 8d bc
       0.00061140914 -0.027823072 0.006520907 -0.017318046
000090 32 15 52 bc 08 02 20 3b 59 78 ba bc d8 0e 7d bc
       -0.012822436 0.0024415273 -0.022762464 -0.015445434
0000a0 bf e3 03 3c f9 87 9f bb 04 cb 54 bb 26 08 7b bb
       0.008049904 -0.004868504 -0.003246964 -0.0038304417
0000b0 a9 9d 40 bc e8 6f 1c bb ee 79 f0 bb 21 e9 35 bc
       -0.011756339 -0.0023870412 -0.007338754 -0.011102946
0000c0 53 d9 f9 bc 3c 3d 85 bd 79 68 ba bc db d9 fb bc
       -0.030499136 -0.0650582 -0.022754895 -0.03074353
0000d0 aa 7b d2 bc 5b 66 de bb cb e2 ec b9 9a 60 8c bc
       -0.025693733 -0.006787104 -0.00045182402 -0.017135907
0000e0 14 49 fa 3b 99 8c 5a bb 6c 8a 1a bc b5 6a 83 bc
       0.007638106 -0.0033347963 -0.009432416 -0.016042093
0000f0 6f 1d 55 bc 8a 0c 21 bc 18 c7 bc bb 20 4b 9d bb
       -0.013007506 -0.00982965 -0.0057610385 -0.0048002154

running_mean f4 [64]
000000 75 a2 42 be ea 72 65 3e 13 3b c3 be 6d 08 ab 3d
       -0.19007285 0.22407117 -0.38131008 0.083512165
000010 08 be e7 3e 89 9f c8 be cc e8 4f 3e 46 f2 9e 3e
       0.4526217 -0.39184216 0.20303649 0.31044215
000020 6e 57 ab 3e 5d 9d ba 3e 0a 1c 8e be 85 31 ab be
       0.3346514 0.36448184 -0.27755767 -0.33436218
000030 62 09 a1 be 0d 8c 55 be a6 2d b3 3e aa 6b 5d be
       -0.3145247 -0.20854206 0.34995764 -0.21623102
000040 29 88 d1 be 99 2a 00 3f 52 24 ea 3d b8 e2 8b be
       -0.40924194 0.50065 0.11432709 -0.2732141
000050 11 c1 b5 3e 50 0d 2c be 06 03 0d be 63 19 53 3e
       0.3549886 -0.16801953 -0.13770685 0.20615153
000060 ac 29 f4 ba 81 45 8c be ae c9 ba 3e 67 0e ab bd
       -0.0018628142 -0.27396777 0.36481994 -0.083523564
000070 aa 15 a1 bd b8 fc 40 be f2 3b 82 3e 42 87 ee 3d
       -0.0786546 -0.18846405 0.2543636 0.11646892
000080 e8 f4 82 3e 71 99 d1 be 24 9f cc 3d af 7a 7c 3c
       0.25577474 -0.4093738 0.09991291 0.015410109
000090 14 6a 99 be ef 11 8f be f7 b2 df be ba e6 ec be
       -0.29963744 -0.2794337 -0.43691227 -0.4626978
0000a0 e3 0f a4 3c 77 e9 f3 3e 05 a8 74 3c c2 e0 99 be
       0.020027107 0.47639057 0.014932637 -0.3005429
0000b0 38 31 57 3d e9 da c3 be 6d 91 8a be 65 5e 29 3e
       0.052537173 -0.38252953 -0.27064076 0.16539915
0000c0 18 c3 f4 be 89 28 38 be 7e 16 c6 be 26 91 ec 3e
       -0.47805095 -0.17984213 -0.38689035 0.4620449
0000d0 21 97 ff bd 2a 3b c9 be 2b aa 16 be 84 1a 86 3e
       -0.124799974 -0.3930295 -0.14713351 0.26192105
0000e0 10 1f 8d 3e 57 f5 c8 bc 41 d4 6c 3e 00 bf 67 be
       0.2756276 -0.02453105 0.23127843 -0.22631454
0000f0 3b 4b 1a 3e 87 9b e1 be c1 63 85 3c 0b 27 32 3e
       0.1506776 -0.4406397 0.016282918 0.17397706

running_var f4 [64]
000000 a6 c4 d7 3d 78 0c 1c 3e 6a 25 e3 3d a1 d5 36 3c
       0.105355546 0.15239131 0.110911205 0.011159332
000010 09 df 09 3e 50 d5 c3 3d ba 74 cb 3d 71 27 e9 3d
       0.13463987 0.095621705 0.09934373 0.11384476
000020 64 bc 27 3e f1 49 f4 3d 4a 1c 41 3e 55 00 1f 3d
       0.16380459 0.11928166 0.18858448 0.038818676
000030 b8 32 b1 3d b7 29 59 3e 98 38 9e 3c b0 e0 e5 3d
       0.08652252 0.21207319 0.019314095 0.11224496
000040 3e 13 1b 3e 4b 6b a8 3d 1b 63 03 3e 56 9b 19 3e
       0.15144059 0.082235895 0.12830774 0.15000662
000050 a1 17 84 3d bb 9d b7 3d 68 9e cc 3d 91 8f 96 3d
       0.06449819 0.089656316 0.09991151 0.07351602
000060 14 ad b4 3d 4a f0 d7 3d ec 0f 4b 3d 46 cc 98 3d
       0.088220745 0.105438784 0.04957573 0.07460837
000070 e9 a2 2d 3d 5d 34 b8 3d be 17 bc 3d a5 f5 0c 3e
       0.04239169 0.089943625 0.09184216 0.13765581
000080 44 71 05 3e 88 a4 d7 3d 1b df 27 3e 6a a8 d9 3d
       0.13031489 0.10529429 0.16393702 0.106278256
000090 e6 3e 26 3e 94 37 49 3d da 10 0b 3e 36 24 bc 3d
       0.16234931 0.04912527 0.13580647 0.09186594
0000a0 d5 30 7c 3d bb 9f d1 3c 1d 05 17 3e 8a bf 28 3e
       0.061570007 0.02558886 0.14748044 0.16479316
0000b0 d3 27 83 3e b6 12 03 3e b0 8c e5 3d bf 10 e0 3d
       0.2561632 0.12800106 0.11208475 0.10940694
0000c0 6a d0 92 3d 45 fe 0a 3e f3 74 cd 3d be 04 24 3e
       0.07168658 0.13573559 0.10032072 0.16017434
0000d0 54 b8 0d 3e 50 8c 60 3e 19 4a 90 3d 60 db 16 3e
       0.13839847 0.21928525 0.07045383 0.14732122
0000e0 8e 25 48 3e 46 df 66 3d 95 2c 34 3e a5 25 02 3e
       0.19545576 0.056365274 0.17595132 0.12709673
0000f0 f9 52 f4 3d a1 a4 fa 3d ec 2c b4 3d cc b8 35 3e
       0.11929888 0.12238432 0.08797631 0.17746276

weight f4 [64, 64]
000000 6f e7 9c 3d 5f 9d 98 3d df 1e 7f bc de f0 78 3d
       0.0766133 0.07451891 -0.015571325 0.060776584
000010 d3 a9 2b 3c 0b 46 71 bd 0d 86 ac bc 7a 52 c3 bd
       0.010477501 -0.05890469 -0.021060014 -0.095372155
000020 d0 c7 9e bd a2 76 06 bc 6d 55 2a bd 8b e5 54 3c
       -0.07752955 -0.008206995 -0.041585375 0.01299418
000030 90 a7 5a 3d fc 57 bd 3d 5d c7 f3 3d 3c 3b 5a 3d
       0.053382456 0.09245297 0.1190326 0.053279147
000040 02 c4 75 3d f9 1d b7 37 db 79 86 3d 03 55 fa 3d
       0.06000138 2.1829257e-05 0.06566211 0.12223246
000050 5c e1 07 be 1d a8 a2 bc 04 24 db 3d ff 7e 5a bd
       -0.13269562 -0.019855553 0.10700229 -0.05334377
000060 10 ea 44 bd 95 c5 87 bd 1c eb 8c 3d d4 3f b1 3d
       -0.048074782 -0.06629483 0.06880781 0.086547524
000070 47 c4 27 bc 62 50 aa 3c 23 c7 a6 bb cf d8 09 3e
       -0.010239667 0.020790283 -0.005089657 0.13461612
000080 95 ba a8 3d 65 ac 12 bd d1 02 3b 3d 2c da 2b 3d
       0.08238713 -0.03580894 0.045656983 0.04195611
000090 02 cd 5e 3d 46 88 d5 3d 57 7e ab bd c6 26 5f bd
       0.05439473 0.10426383 -0.08373707 -0.054480337
0000a0 23 42 be bb ad d7 e3 bd 38 e2 8f bd 76 37 c7 bd
       -0.005806224 -0.11125121 -0.0702557 -0.09727375
0000b0 3c 47 b2 bd fb 31 a0 bd 16 fd ed bd a7 5d 0f be
       -0.08704993 -0.07822033 -0.11620538 -0.1400057
0000c0 4a 19 cc bd 17 7a 18 bd c2 23 34 bd 07 8c a1 bc
       -0.09965761 -0.03722581 -0.043979414 -0.01972009
0000d0 0f 9a 4c bc 85 cd 48 bd 79 a0 8b bd 9a ff f1 bd
       -0.012487902 -0.049024124 -0.06817717 -0.1181633
0000e0 ac 6a 8f 3c dc 7f 96 bc 4a f3 33 bd c3 9e 11 3e
       0.01750692 -0.018371515 -0.04393319 0.14220719
0000f0 0b a7 7a 3d 12 fc 5b 39 da ea 00 bd b9 ca cc 3c
       0.06119446 0.00020979371 -0.031473972 0.02499901
000100 70 52 e8 bc d0 db 3c 3d 7f d7 bc bd ee 33 1b bd
       -0.028359622 0.046108067 -0.0922079 -0.03789132
000110 2d 6a aa 3d 34 52 80 bd 0c 9a 0a 3d 27 b5 e4 3b
       0.08321033 -0.06265679 0.033838317 0.006979603
000120 b8 f0 87 3d 80 ba dc bc dd 78 2d bc 47 63 88 3d
       0.0663771 -0.026944399 -0.010587898 0.06659561
000130 38 5c f9 3c d2 c2 db 3c d2 34 59 bd ed 59 da 3d
       0.030439481 0.026826296 -0.05302889 0.10661683
000140 87 76 a7 3c eb fd 01 bd e6 51 15 be b1 78 3a bc
       0.02044226 -0.031736296 -0.14582023 -0.011381314
000150 bb 59 7b bc a4 53 41 3d dd 1e a7 bc d5 45 e2 3d
       -0.015341218 0.047198907 -0.020400459 0.11048476
000160 77 c3 7d 3c d0 15 b1 3b 22 30 7f 3d fe 3f ef 3c
       0.015488497 0.0054042116 0.062301762 0.029205319
000170 55 23 b6 3d 95 79 ce ba c6 30 b0 3d 4d cd 82 bc
       0.08893458 -0.0015752787 0.08603053 -0.015967036
000180 c4 1b 51 3d 91 fc 99 bd 40 ac e3 bd 3e 33 2c bd
       0.05105187 -0.07518876 -0.111168385 -0.042041056
000190 a9 80 92 3d 5d 69 12 3d 3f 77 d1 bc bb 39 2c 3d
       0.07153446 0.035745014 -0.025569556 0.042047244
0001a0 b3 f9 20 be 87 59 2b bc a4 d9 1d be 07 03 f7 bb
       -0.15720253 -0.010458357 -0.15415055 -0.0075382027
0001b0 d8 8a a4 bd b3 eb a0 bc d0 78 9c 3d 4d 37 b3 bc
       -0.08034295 -0.01964364 0.07640231 -0.021876955
0001c0 41 a6 04 3d 52 a3 c2 3d 1b bc ba 3d d6 f1 07 bb
       0.032385115 0.09503807 0.091179095 -0.002074351
0001d0 5a 63 88 3c 9f ca b0 3d 56 60 d4 3c 4e f3 a2 3d
       0.016648937 0.08632397 0.025924843 0.07956563
0001e0 8c 95 cc bd 5c 37 a1 bd 55 3a 57 be 12 f8 43 3c
       -0.09989461 -0.07871887 -0.21018346 0.011961
0001f0 14 34 3b 3a c3 11 ac bc 90 c7 83 bc 66 31 50 3d
       0.0007141244 -0.021004563 -0.01608637 0.05082836
000200 6f 2b cd bb 61 b3 0f be f3 f6 a6 bc 85 4f c5 bc
       -0.006261281 -0.14033271 -0.020381426 -0.02408577
000210 47 88 de bc b0 c9 66 3d 53 da 85 bb 82 30 05 bd
       -0.027164591 0.056344688 -0.004084864 -0.032516964
000220 bd 39 1b bd b3 e4 c2 3d 9f 25 09 bd 05 74 87 bd
       -0.03789686 0.09516277 -0.033483144 -0.06613926
000230 a7 47 49 bc fe 82 af 3c bf a7 a8 bd 15 a2 40 3c
       -0.01228515 0.021424767 -0.0823512 0.011757393
000240 33 0f 88 3d 6a 43 3d bc 41 19 98 bd bb db 8a bd
       0.06643524 -0.011551717 -0.07426692 -0.067801915
000250 48 93 ce 3d 8a fe 05 3d 42 98 fa 3c a0 f6 6a 3c
       0.100866854 0.03271345 0.03059018 0.014341027
000260 50 d9 fe bc c3 2b 08 3c 04 00 85 3d 7d d6 07 3d
       -0.031109482 0.008311215 0.064941436 0.033163536
000270 44 3f 02 3b 1c 22 6f bd 53 2f 32 3c 9e dd b5 bc
       0.0019874135 -0.05838214 0.010875541 -0.022200402
000280 7c b6 01 be de 89 86 bd 6d 1d b8 3d 07 e6 f5 3d
       -0.12667269 -0.06569265 0.089899875 0.12006765
000290 f0 6f b1 bd 13 04 b2 3c 59 fb a7 bc 53 eb c7 bd
       -0.086639285 0.021730458 -0.020505594 -0.097616814
0002a0 b3 91 37 3d a1 5b b8 bc ae c1 4b 3d be d0 9a bd
       0.044816684 -0.02250463 0.049745254 -0.07559346
0002b0 ab c8 e5 3c 84 74 09 be 45 15 bc bd 76 20 8b 3c
       0.028049788 -0.13423353 -0.09183744 0.016983252
0002c0 e0 a6 a3 bd f5 56 8b 3d cf 38 da bd 42 22 7c 3d
       -0.07990813 0.06803695 -0.10655367 0.06155611
0002d0 0a a1 b2 bd d7 f2 a2 3c 3e 73 8b bd 49 c6 e5 bd
       -0.08722122 0.019891186 -0.0680909 -0.112194605
0002e0 71 62 ee bc 1b 1e 31 bc ab 2d 1e 3d 64 03 07 3e
       -0.029099675 -0.0108104 0.03861777 0.13184887
0002f0 0d c5 d6 3d b4 3c 09 3e 8e 72 c8 3d e2 2c c2 3d
       0.10486803 0.13402063 0.097874746 0.09481217
000300 0b 30 c7 3d 3d 68 7c bd 3f f5 f2 3d 98 ee 71 3d
       0.0972596 -0.061622847 0.11863183 0.05906543
000310 a5 81 4c 3d 1f 8d a0 bb 90 18 b3 3d 1e 15 e5 3d
       0.049928326 -0.0048996354 0.08744919 0.111856684
000320 ac 8e f7 3c be 03 a9 3c 30 ea 1b 3d d6 dd 8c 3a
       0.030219398 0.020631667 0.038065135 0.0010747265
000330 fc 39 b5 bc d5 e6 5f bd 8f e3 00 3e d0 d0 c7 3d
       -0.022122376 -0.054663498 0.12586807 0.09756625
000340 2d e0 c0 3d 24 f7 c7 3c 56 58 ca 3d 15 88 99 bd
       0.09417758 0.024409838 0.0988013 -0.07496659
000350 ae da 54 3d b0 01 c7 3d 7d e5 0e bd ee 47 ae bd
       0.05196636 0.09717119 -0.034886826 -0.08509813
000360 5a 1f da bd aa d8 96 3d a7 e0 fe 3d 32 04 a3 3d
       -0.10650511 0.07365544 0.12445193 0.079597846
000370 16 1f 1e bd d6 cf f3 bd 18 8e 44 3d 34 66 b7 bc
       -0.038603865 -0.11904876 0.047987074 -0.022387601
000380 2b 8b 26 bd ef 77 0e bc 40 da 82 3d 04 cc 4b 3d
       -0.040660065 -0.008695587 0.06389284 0.04975511
000390 56 c1 28 3d 71 2b 86 3d 6d 70 ff 3c 66 03 1a bd
       0.041200005 0.065512545 0.031181538 -0.037600897
0003a0 b4 0d 93 3d d3 d1 ea 3d 14 64 e5 bd 6e 1f 35 3c
       0.07180348 0.11465802 -0.11200729 0.011054857
0003b0 60 50 c3 bd 48 bd f2 bd c3 5b 86 bd c0 fa 42 3d
       -0.09536815 -0.11852509 -0.06560471 0.047602415
0003c0 39 e0 68 bd 6a 3a f3 bd b8 38 6d bd 48 b1 20 bc
       -0.05685446 -0.11876376 -0.05791542 -0.009807892
0003d0 14 aa 85 3d 41 c6 86 3d 86 fc 82 bd cd 3f d9 bc
       0.065265805 0.06580783 -0.06395821 -0.02651968
0003e0 e7 87 b1 bc b0 0e f3 bc 06 7f b8 bd 75 35 8d 3d
       -0.021671249 -0.02967009 -0.09008603 0.06894962
0003f0 c9 69 15 3e 39 5f 95 3d 2c 0f af bb fc 34 8a 3d
       0.14591135 0.07293553 -0.005342385 0.06748387

bias f4 [64]
000000 02 ee d8 bd 85 b9 8e bd 3a 0a c4 3d c8 52 70 bc
       -0.105922714 -0.06968979 0.09572263 -0.014668174
000010 0b 95 e0 3d 17 77 eb bd 37 dd 06 bd c7 b0 c6 bd
       0.10965928 -0.11497324 -0.03292581 -0.09701686
000020 20 b6 72 bd fa f3 85 bd e8 0c 0e bd 82 a0 4a 3d
       -0.05925572 -0.065406755 -0.034680277 0.04946948
000030 a1 c8 81 3d 12 86 30 3c a0 f9 6a 3d a1 37 d3 bd
       0.06337095 0.010774152 0.057366967 -0.10313345
000040 ca 86 ba 3d a1 c6 28 3d fb ba 33 bc 20 62 e3 3d
       0.0910774 0.041205052 -0.010969873 0.111027
000050 47 b1 fd 3d 86 e6 0b bd 97 92 f9 bc 75 21 9a bd
       0.123873286 -0.03415539 -0.030465407 -0.07525913
000060 b2 f8 e1 bd 8b 5e 4a bd 27 ea a7 3c ef fe 6c ba
       -0.11033763 -0.04940657 0.020497395 -0.00090406736
000070 06 5a ea 3d 88 0b 6f bd 4b 93 b6 bd 67 54 39 3d
       0.11442952 -0.058360606 -0.08914813 0.045246508
000080 e9 33 90 3d fd 1a 71 3d 4f df e3 3d ec 89 28 bd
       0.07041151 0.05886363 0.11126577 -0.041147158
000090 d2 69 83 3d 4b 38 cd bd d3 36 cd 3c 0f 3a 32 3d
       0.06416668 -0.10020503 0.025050556 0.0435124
0000a0 6a 41 c7 bd 20 b2 de bd 2f a7 b8 bd 39 43 0e bd
       -0.097292736 -0.108738184 -0.09016263 -0.034732077
0000b0 ad 2c 03 3b fb 29 11 bd 8c ee f9 bd 34 11 a1 bd
       0.0020015643 -0.035440426 -0.12203702 -0.07864609
0000c0 b1 cf 50 bc 7f be de 3d e1 16 c2 bd ce c9 6c 3c
       -0.01274483 0.10876178 -0.0947702 0.014452411
0000d0 b9 eb ae 3d 03 12 ed bd 09 5f 9c 3d 7c 51 00 be
       0.08541054 -0.11575701 0.07635314 -0.12531084
0000e0 2e 76 bc bb 54 0e 80 3d f3 20 d8 bd c7 b2 12 3d
       -0.005751393 0.06252733 -0.105531596 0.035815027
0000f0 49 bc f0 3c 3b 8d 37 3c 06 08 5e 3c 23 53 29 bc
       0.029386656 0.011203106 0.013551718 -0.010334763

weight f4 [64]
000000 5d 20 73 3f 54 aa 7e 3f 66 08 6e 3f 54 1c 73 3f
       0.9497126 0.9947865 0.92981565 0.949651
000010 9c 1b 74 3f b4 39 6c 3f 8b 82 6b 3f d0 bf 74 3f
       0.9535463 0.9227555 0.9199607 0.9560518
000020 54 5a 80 3f 80 3d 6b 3f e9 87 80 3f 07 e5 7f 3f
       1.0027566 0.91890717 1.0041476 0.99958843
000030 7e 51 75 3f 0e 47 6d 3f 09 3d 7c 3f 55 38 6d 3f
       0.9582747 0.92686546 0.9853063 0.9266408
000040 86 75 71 3f 5a 44 76 3f 4d 35 6d 3f ae db 77 3f
       0.9431995 0.96198046 0.92659456 0.9681958
000050 e4 44 7f 3f 5d 7b 71 3f 9c 13 6d 3f 1a 31 76 3f
       0.99714494 0.9432886 0.92608047 0.96168673
000060 84 e7 6a 3f 85 5e 6c 3f c6 12 6d 3f c4 f6 75 3f
       0.91759515 0.92331725 0.9260677 0.9607966
000070 70 fa 7a 3f 58 e9 70 3f d0 d5 73 3f 5d 5f 6f 3f
       0.9803839 0.94106054 0.95248127 0.9350489
000080 52 27 7c 3f 85 61 68 3f 96 30 70 3f 3f f6 6a 3f
       0.984975 0.90773803 0.93824136 0.9178199
000090 35 70 69 3f bd 34 7d 3f 5c 46 78 3f 08 c5 78 3f
       0.9118684 0.989086 0.9698236 0.97175646
0000a0 a4 81 6c 3f c4 16 7e 3f 5f 92 6f 3f 27 50 7e 3f
       0.92385316 0.9925349 0.9358272 0.9934105
0000b0 be bf 70 3f ed f2 75 3f 3e c8 81 3f 69 84 77 3f
       0.94042575 0.960738 1.0139234 0.96686417
0000c0 e0 b0 78 3f 2d 55 6e 3f f4 fe 75 3f 53 fe 6b 3f
       0.9714489 0.9309872 0.9609215 0.9218494
0000d0 59 07 6f 3f 2a bf 6c 3f 83 dc 70 3f 2a f9 76 3f
       0.93370587 0.92479193 0.94086474 0.96473944
0000e0 15 81 6e 3f f9 c7 71 3f 34 60 68 3f 1b 81 71 3f
       0.93165714 0.9444576 0.90771794 0.94337624
0000f0 6d d0 74 3f 43 16 6a 3f f7 90 77 3f ba f8 79 3f
       0.9563053 0.9144022 0.96705574 0.9764515

bias f4 [64]
000000 c6 05 cf bb 47 72 2d bd be 80 8b bd 38 e6 f5 bc
       -0.006317827 -0.04234531 -0.06811665 -0.030017003
000010 6f 56 76 bd b4 54 26 bd fe 7f de bd e0 f4 5d bd
       -0.060141023 -0.040608123 -0.10864256 -0.05418861
000020 dc 90 15 bd 7e 3b 7e bc a1 aa 25 3d 03 9d f2 3c
       -0.0365151 -0.015517114 0.040445928 0.029615885
000030 eb 42 72 bb 5e e9 7f bd bf 38 95 bc 73 9d 1e bd
       -0.0036966156 -0.062478416 -0.018215535 -0.038724374
000040 8c 51 06 bd a0 5e 3e bc 86 2a f0 bc 95 6e 38 bd
       -0.032792613 -0.01161924 -0.029317152 -0.045027334
000050 13 2c 21 bd e6 7d 0b bd 82 87 46 bd b1 d2 c3 bc
       -0.039348673 -0.034055613 -0.048469074 -0.023904176
000060 7c 8c a2 bd bc 09 c3 bd b2 fb 47 bd 0a 6f cc bc
       -0.079369515 -0.09523341 -0.04882402 -0.024955291
000070 10 2f 8d bd 09 58 a9 bd 41 c0 6f bd 3e 3c 54 bd
       -0.06893742 -0.082687445 -0.058532957 -0.051815264
000080 8b 85 fd bc 9b 87 6d bd 98 18 48 bd 9e c0 29 bd
       -0.030947467 -0.05799065 -0.04885158 -0.04144346
000090 6d ed be bc fe 70 53 3b 3d dc 61 bc 54 72 31 bb
       -0.023306573 0.0032263394 -0.013785419 -0.0027076202
0000a0 51 c8 c4 bd b9 3d ae bc de 3d 92 bb e0 d5 0e 3a
       -0.0960852 -0.021269666 -0.0044629415 0.000544874
0000b0 71 b2 19 bd 0a f7 95 bd c6 5b 07 bc 40 09 84 bc
       -0.03752369 -0.073225096 -0.008261627 -0.016117692
0000c0 33 cf cb 3c ed 4a 6e bd 11 bf 00 bd ea 56 a3 bd
       0.024879074 -0.058176924 -0.031432215 -0.07975562
0000d0 c4 ad 6d bd c9 5b 73 bd 57 3f 5b bc 47 f8 23 bd
       -0.058027044 -0.059413705 -0.013381801 -0.040031698
0000e0 e6 d6 1e bd db b3 ad bd 5f 3f b4 bd f4 dd 2c bd
       -0.038779162 -0.0848157 -0.088011496 -0.04220386
0000f0 8f 53 2e 3b 4a c4 67 bd 7f d4 0e bd 77 80 8a bc
       0.0026600098 -0.05658368 -0.03487062 -0.01690696

running_mean f4 [64]
000000 ef 7e 66 be 45 2c 7f bd c6 cf 20 bd 7c 28 b2 3e
       -0.22509359 -0.062298078 -0.03926065 0.34796512
000010 57 7b 12 3f 31 da 6c be 65 5d a7 be 01 1c ba be
       0.5721945 -0.23130108 -0.32688442 -0.3634949
000020 29 c9 5a be e4 12 31 bd 55 55 11 be a4 2c 57 be
       -0.21365799 -0.043230906 -0.14192708 -0.21013123
000030 5f 61 5f bc ce dd 34 bf 1b a1 6f be 57 c2 81 be
       -0.013634055 -0.7065095 -0.234013 -0.25343582
000040 17 2c 1f be 48 88 b0 3d a0 06 9c 3e 8d d7 9e bc
       -0.15544163 0.086197436 0.30473804 -0.019389892
000050 0d 7b 1d 3d 34 f6 94 be 3d be 00 be fd 30 0a bf
       0.03844743 -0.29094088 -0.1257257 -0.53981
000060 8e 6e be be 0a 91 a9 be 94 46 4d be 64 e5 a4 bd
       -0.37193722 -0.3311847 -0.20046455 -0.08051565
000070 f6 93 58 3d 63 25 25 be 99 f9 9f bd ae 90 a3 be
       0.05287548 -0.16127543 -0.07811279 -0.3194632
000080 f2 ef 86 bc b0 4a 17 be cb 73 ec 3e 4c d7 77 be
       -0.016471837 -0.14774585 0.46182093 -0.24203223
000090 e6 c2 9e 3e 43 61 70 be 79 f2 01 bf b7 b4 cf bd
       0.3100807 -0.23474602 -0.5076061 -0.101418905
0000a0 be d0 d5 bd 32 b0 42 bf a6 c0 47 bd 58 ff f2 bd
       -0.10440205 -0.760501 -0.04876771 -0.11865109
0000b0 78 03 4d 3d c4 13 3b be c6 2d a6 bc 14 b3 03 be
       0.050052136 -0.18269259 -0.020285498 -0.12861282
0000c0 21 8c 90 be ed 3e 1c 3f 87 91 b5 3e ec e1 a4 be
       -0.2823191 0.6103352 0.3546259 -0.32203615
0000d0 99 c3 cc 3d 1a f0 e1 be a6 53 fd bd 87 14 b8 be
       0.09998245 -0.44128495 -0.1236947 -0.3595316
0000e0 62 c0 23 be be 19 01 be 7f cc 1b bc 8c ee 35 be
       -0.15991357 -0.12607476 -0.009509205 -0.1776678
0000f0 21 1d 42 bc 36 db fc 3c 68 d8 f5 3c 89 3d c4 be
       -0.011847765 0.030866247 0.030010417 -0.38328198

running_var f4 [64]
000000 7d c4 47 3e 48 57 a1 3e eb 05 ad 3e 8e 72 62 3e
       0.19508548 0.31511903 0.33793578 0.22114012
000010 5e db 80 3e 2d db 54 3e be dd 9b 3e 92 02 5e 3e
       0.25167364 0.20786734 0.30442613 0.21680668
000020 95 86 64 3e fd 2c 26 3e f2 03 95 3e e3 89 63 3e
       0.22316964 0.16228099 0.29104573 0.22220568
000030 44 0c 4d 3e 55 df 46 3e 8b 6f 84 3e cd c9 10 3e
       0.2002421 0.19421132 0.2586635 0.14139481
000040 6d d4 5b 3e f5 e8 9f 3e 21 b6 dc 3e 60 15 5c 3e
       0.21467753 0.3123242 0.43107703 0.21492529
000050 db f5 1e 3e f6 95 95 3e f9 f8 5f 3e 6d 71 4b 3e
       0.15523474 0.29215974 0.2187232 0.19867487
000060 be ac 74 3e 43 cd eb 3e 57 d2 82 3e 7a da 91 3e
       0.23894021 0.4605504 0.25551102 0.28486997
000070 41 4e 54 3e 8f 93 43 3e c1 d5 de 3e f0 15 26 3e
       0.20732976 0.19099258 0.43522456 0.16219306
000080 9f 45 18 3e b7 64 b3 3e ca 51 5f 3e 61 b9 76 3e
       0.14870308 0.35037777 0.21808544 0.24094154
000090 62 5c 68 3e af 56 f9 3d 62 59 93 3e 52 d6 1e 3e
       0.22691491 0.12174737 0.2877913 0.15511444
0000a0 6b a9 08 3f 20 c5 b2 3e d7 77 4a 3e bd 93 37 3e
       0.5338351 0.3491602 0.19772278 0.17927451
0000b0 59 9a 32 3e 26 88 58 3e e8 a6 7b 3e 40 33 8c 3e
       0.17441691 0.21145687 0.24575388 0.2738285
0000c0 1f a7 77 3e bc f5 57 3e cc f1 09 3e fb 65 88 3e
       0.24184845 0.21089834 0.13471144 0.26640305
0000d0 5d 2b a6 3e 50 12 a9 3e 4d 84 98 3e 32 ca 72 3e
       0.3245496 0.33021784 0.29788437 0.23709944
0000e0 78 7e 68 3e 7f f7 ae 3e 24 3d 63 3e 8b 95 33 3e
       0.22704494 0.341732 0.22191292 0.17537515
0000f0 3e 96 29 3e ba e3 b7 3e 53 c7 1e 3e ba 28 be 3e
       0.16561219 0.3591593 0.15505724 0.37140447

weight f4 [1, 64]
000000 7d 1a 9c 3c 08 1a 47 3c 17 43 9e bc 66 3b c2 bb
       0.0190556 0.012152202 -0.0193191 -0.005927491
000010 3a 1b 33 bc ba d7 0b 3c c4 dd c9 3c e6 09 83 3c
       -0.010931784 0.00853532 0.024641879 0.01599593
000020 08 f5 8e 3c ea 26 64 bc 15 6b 6a bc 1f f2 1d bc
       0.017450824 -0.013925293 -0.014307757 -0.009640246
000030 55 16 81 bb fb 5e a4 bc 5c eb 19 3c 87 bc 63 bc
       -0.0039394298 -0.020064821 0.009394493 -0.013899929
000040 58 fb 6b 3c b9 77 b3 bb 8c 71 a2 bc a1 e8 4d 3c
       0.014403187 -0.0054769185 -0.019829534 0.01256767
000050 86 e6 c2 bb 5b c9 a2 bc eb 20 75 3c e9 ea 3a bc
       -0.0059478907 -0.019871404 0.014961462 -0.011408546
000060 9d c0 9d 3c 62 50 c3 bc e9 1c 3a bc d1 0b ce bb
       0.019256884 -0.02384204 -0.011359432 -0.0062880297
000070 99 bf 36 3c ad 47 91 3c b7 a6 bf 3c f8 07 e9 3b
       0.011154079 0.017734373 0.023394926 0.0071115457
000080 cd d5 10 3a be ad 91 3c 1c 3c 8d 3c 58 1c 15 bc
       0.0005525023 0.017783042 0.017240576 -0.009100996
000090 7a 0f 8e 3c c1 b6 ad bb 5c 4c 3b bc 4a 34 57 bb
       0.017341364 -0.005301327 -0.01143178 -0.0032837563
0000a0 58 02 c6 bc 4e d0 89 bc 1d 88 2a 3c 74 9d e4 3b
       -0.02417104 -0.01682296 0.0104084285 0.0069767777
0000b0 bf dd 32 3c 95 8b af 3b 48 e7 88 bc b9 f1 8e bc
       0.010917126 0.0053572156 -0.016711846 -0.017449247
0000c0 f7 b3 e1 ba b9 9d 98 bc da fd f8 bb 65 c6 4b 3c
       -0.0017219771 -0.018629896 -0.007598621 0.012437438
0000d0 0d 26 d1 3b 44 a5 af bc 97 e9 b3 bc 2a de 07 3c
       0.00638271 -0.02144111 -0.02196197 0.008292714
0000e0 83 dc 27 bc 39 a6 31 3c 1b 13 53 3c d3 26 26 3c
       -0.010245445 0.010842853 0.012882973 0.010141092
0000f0 4f c4 43 3b d4 85 67 3c 46 00 2f 3c 6f 24 1e bc
       0.0029871648 0.014131028 0.010681218 -0.009652241
