Industrial Equipment/mlruns/0/d2d7e37d002d4976827fc21abf3ebaf7/artifacts/generator_model/data/model.pth (torch, 55038 bytes, 14 tensors)

weight f4 [64, 100]
000000 7a 5c 72 3d b8 a7 7b bd 92 09 c2 bd e0 90 b2 3d
       0.059170224 -0.061439246 -0.09474482 0.08719039
000010 20 d3 d0 bd e9 b8 96 3d 80 14 20 3c c7 cc b4 bd
       -0.10196519 0.073594876 0.009770513 -0.08828121
000020 a9 90 aa bd b4 13 cc bd 88 f3 43 bd 08 56 d7 bd
       -0.08328373 -0.099646956 -0.04783967 -0.10514456
000030 d3 09 70 3d 01 46 7b 3d 86 ef c0 3d 64 a3 fc bb
       0.05860312 0.061346058 0.094206855 -0.0077099074
000040 e5 fb 85 bd ef ae a9 bd ed 71 b5 3c 61 45 69 3d
       -0.06542186 -0.08285319 0.02214905 0.05695093
000050 27 19 78 bc b7 0f a5 bc 6d a2 73 3d de 74 8e bd
       -0.015142716 -0.020149095 0.059481073 -0.069558844
000060 b7 77 50 3d 4e b4 dd 3d 8b 84 9a bd 31 c7 91 3c
       0.05089542 0.10825406 -0.07544812 0.017795177
000070 83 42 d3 3d 8a c4 a5 3b 4b 78 31 3d 3d 51 af bd
       0.103154205 0.0050588297 0.04332761 -0.08560417
000080 75 8a 83 bd 6b 2f 8d bd 98 fa ca bc 3a a3 9a bc
       -0.06422893 -0.0689381 -0.024777696 -0.01887666
000090 a5 6f 89 bc 21 bd bd bd 0d ed 11 3c b6 50 b4 3c
       -0.01677687 -0.09264589 0.008906615 0.022011142
0000a0 28 13 08 3d 96 ee 22 bd f6 58 8d bc ac 70 34 3c
       0.033221394 -0.039778315 -0.017254334 0.011013191
0000b0 2d d3 9c bd 58 86 95 bd c3 05 40 3c 08 a3 0f 3a
       -0.07657466 -0.07301015 0.011720124 0.00054793106
0000c0 a3 3b 20 bd 81 1e 66 3d c4 29 c8 bc 9c c5 7b bd
       -0.039119374 0.056181435 -0.024433978 -0.06146775
0000d0 8f 99 35 bd 43 cb 28 3d b2 f5 a3 bc 88 d5 a0 bd
       -0.044335898 0.04120947 -0.020014618 -0.07853228
0000e0 90 a0 c9 bd 44 48 aa 3d 93 3f b8 bd 99 eb ae bc
       -0.09845078 0.08314565 -0.08996501 -0.021352576
0000f0 2e 3e ce bd 77 bd 0b 3d 4e f6 26 3d 64 1a 89 3d
       -0.100704536 0.034116235 0.04076224 0.06694487
000100 d0 37 59 bd 99 4e 4c 3d f0 e3 38 3d e6 3c 78 3d
       -0.053031743 0.049879644 0.045139253 0.060604952
000110 5c 5c 98 bd 9b 6d d0 3c 82 94 34 bd da fc 6d 3d
       -0.07439491 0.025442889 -0.04408694 0.058102466
000120 fd 7b 99 bd 21 96 77 bc 95 d7 49 bd b5 fc 93 bd
       -0.07494352 -0.015111477 -0.04927786 -0.072259344
000130 fa 02 d4 bb c4 ec 7f bd 0b 66 a1 bd ba 5a 12 3d
       -0.0064700814 -0.062481657 -0.07880791 0.035731055
000140 47 ce 3b bb 7e 3c ad bc fd b5 94 3c 49 80 b1 bd
       -0.0028656886 -0.021147009 0.018153185 -0.086670466
000150 1a 24 98 3c 0b 1e 67 bd c0 cb 1d 3c 48 04 c2 3d
       0.018571902 -0.056425136 0.009631097 0.09473473
000160 14 79 b3 3c 54 44 9a bd 0e 38 c0 bd 8c 49 f9 bc
       0.02190832 -0.07532564 -0.093856916 -0.030430578
000170 c8 59 82 3d ba 30 c3 bc 7b 50 e2 bd 30 c7 ae bd
       0.06364781 -0.023826946 -0.11050507 -0.08534086
000180 53 8c 01 3d 55 4d aa bd ea 60 23 bd 16 54 7b bd
       0.031627964 -0.08315531 -0.039887346 -0.061359487
000190 31 8f 0c bd db 21 5a 3d 0a 61 9d bd 40 88 28 3c
       -0.034316245 0.053254943 -0.07684524 0.010286391
0001a0 c0 6c 0f 3d 32 31 c6 bd f6 d8 c7 3d 7d 37 49 3d
       0.03501582 -0.09677352 0.09758179 0.049125183
0001b0 1a ac ba bd b9 77 95 bd 3a 7b 8b bd 2f a2 a0 bd
       -0.09114857 -0.07298226 -0.06810613 -0.07843434
0001c0 b5 bb c6 bd d7 6f c6 3c 8c 80 40 bd dc 41 a8 bd
       -0.09703771 0.024223251 -0.04699759 -0.08215687
0001d0 af 00 8b bd 4c d4 cf bc 44 dc c5 3d 32 4e ab bd
       -0.0678724 -0.025369786 0.09661153 -0.08364524
0001e0 ba cf 80 bd 62 e0 99 bd 44 da 54 bd e6 ed e8 3b
       -0.06289621 -0.07513501 -0.051965967 0.007108438
0001f0 84 10 8b 3d 6b b6 4d bd 30 07 c0 bd 9e fa a2 bd
       0.067902595 -0.050222795 -0.09376371 -0.07957958
000200 63 8b 7e 3d d1 bd c0 bd bb b8 af bd d4 d3 ee 3c
       0.06214465 -0.094112046 -0.085801564 0.029153742
000210 0a a9 aa bd 95 ab 8c 3c dc b6 ec bb 96 7c a3 3b
       -0.08333023 0.01717166 -0.007223947 0.004989217
000220 e9 fd 81 3d c9 c8 2f 3d db e2 7a bc fa 9b 2e 3d
       0.06347258 0.042916093 -0.015312876 0.04262922
000230 3b 28 a2 bc d1 42 cf 3a 15 8b e4 3b 0d b4 16 bd
       -0.019794574 0.001581276 0.0069745877 -0.036792804
000240 10 29 f8 3c 43 1c b7 bd 1c e0 20 bd aa 7b 9e 3a
       0.030293018 -0.08940937 -0.039276227 0.0012091298
000250 ab 08 a0 3d c6 53 c3 bd aa 81 90 bd cd 00 7a bd
       0.07814153 -0.09537463 -0.070559815 -0.06103592
000260 7a d5 92 bd bc 3e 95 bd 42 4b 4d bd 59 81 7d bd
       -0.07169624 -0.07287356 -0.0501206 -0.061890934
000270 6d 9b ae bd 09 47 98 3d ad c7 eb 3c 00 be f1 bc
       -0.08525739 0.07435424 0.028781736 -0.029509544
000280 1e 52 2d bd 61 ed 46 3d 73 20 2a bd 4f d7 c3 3c
       -0.04231464 0.048566226 -0.041534852 0.023906378
000290 f6 ec de bc af 1b 92 bb 4a 75 8d 3d 84 46 ce 3c
       -0.027212601 -0.0044588665 0.06907137 0.025180109
0002a0 d7 ef 8a 3d 35 22 09 3d 3a e0 7c 3d ea 7e 5c bc
       0.06784027 0.033479888 0.061737277 -0.013457993
0002b0 4a e1 cb bd f3 02 69 3d 15 15 01 bd 21 4a 8f bd
       -0.0995508 0.05688758 -0.031514246 -0.06996561
0002c0 5e 39 89 bd 63 de df bb a2 38 01 bc 23 87 81 3c
       -0.06700395 -0.0068319305 -0.0078870375 0.015811509
0002d0 78 c0 dd 3c 83 3a d5 3b 26 25 84 3d a4 cd 75 3d
       0.027069315 0.0065072193 0.06452398 0.060010567
0002e0 39 f4 50 bc 80 2a 90 3d 59 cf 9e bc f5 1a 7f 3c
       -0.01275354 0.07039356 -0.01938598 0.015570392
0002f0 13 8a 45 3c 89 d5 a9 3d aa 73 0e bd 4a da 39 bd
       0.012056845 0.08292682 -0.034778275 -0.045374192
000300 ee a3 94 3d 1e f9 07 3d 6c 1a 51 bd 3a c7 30 bc
       0.072578296 0.03319656 -0.05105059 -0.010789687
000310 73 6f 46 3d cf 10 ca 3d 5a 03 15 3d 2b a3 51 bd
       0.04844613 0.09866487 0.03638015 -0.051181
000320 96 1e 02 bd 86 fc 7d 3d 56 b4 88 3c cd 1a 55 3d
       -0.03176745 0.062008403 0.016687553 0.052027512
000330 b9 d0 b1 3c 73 39 91 3c 17 04 d0 bc 1b 46 78 3d
       0.021705972 0.01772759 -0.025392575 0.060613733
000340 62 88 39 3d 89 60 71 3d ba 1a bb 3d 29 5e 7e bd
       0.04529608 0.058929954 0.09135957 -0.062101517
000350 97 24 c1 3d f2 7f a9 3b 0d 12 29 3d 1d e8 04 bc
       0.09430807 0.005172723 0.04127698 -0.008111981
000360 16 9e 2e 3d 05 01 73 3c 48 86 42 bd 9e da 75 bd
       0.04263123 0.014831786 -0.04749134 -0.060022943
000370 06 6c f0 bb 13 84 84 3c bb 25 d9 bd b1 b1 f9 3c
       -0.007337096 0.01617626 -0.106029 0.030480238
000380 9c 4d 55 bd 14 55 93 bd 26 6a b1 3b 52 b6 a6 bd
       -0.052075967 -0.07193962 0.005414265 -0.081402436
000390 d5 85 b9 bd 1c 62 aa 3d d3 78 57 3d 94 c4 ad 3d
       -0.090587296 0.08319494 0.05260546 0.0848476
0003a0 62 ba d4 3c 95 62 4f bd 81 82 98 3d b2 3c 99 3d
       0.02596778 -0.050631125 0.07446767 0.0748228
0003b0 3b 1e ca 3d 93 7f 84 3c 74 c1 ac bd 59 66 45 bd
       0.09869047 0.016174113 -0.08435336 -0.04819331
0003c0 e4 51 82 3c 47 b1 8f 3d bf d4 b5 3d 0f 04 cd 3d
       0.01590819 0.07016235 0.08878469 0.1001054
0003d0 94 30 46 bc 3d b4 b6 bd 1f b9 26 3d 42 a3 55 bd
       -0.012096543 -0.089210965 0.04070389 -0.052157648
0003e0 48 77 bf bd 96 9a 84 bd e9 43 9e 3d e7 cd 19 3d
       -0.09348923 -0.064747974 0.077277966 0.03754988
0003f0 1d 21 91 bd 08 2d 99 3d 22 73 9c 3d ff 4a b3 bd
       -0.07086394 0.07479292 0.07639147 -0.08754539

bias f4 [64]
000000 6b bd b1 bd e1 5f 6e 3d 65 9c b0 3d 9e 3e 44 3d
       -0.08678707 0.058196906 0.0862358 0.04791128
000010 59 3e 04 bd 30 ff 6f 3c 4a 59 04 3c dd 3e 9d bd
       -0.03228602 0.014648244 0.008077929 -0.07678006
000020 d3 14 8c bd 3b 92 62 3d c8 f6 12 3c fc c7 b9 3d
       -0.068399094 0.055315237 0.00896997 0.09071347
000030 19 c7 3a bd eb ae 90 3d 1e fb 86 3d 9a 06 ab bc
       -0.04560003 0.07064613 0.065908656 -0.020877171
000040 98 6a 26 bb 83 57 ac 3d d6 7b 86 bd 63 b4 b4 bd
       -0.0025393125 0.08415129 -0.065665886 -0.088234685
000050 82 7a 3a 3d 98 5a 1d bd 24 38 24 bd 1a 1b 22 bd
       0.04552699 -0.038416475 -0.040092602 -0.039576627
000060 b6 07 50 3d 5d 85 33 3a 0f 2c 6e bd d0 0c d4 bc
       0.050788604 0.0006848181 -0.058147486 -0.025885016
000070 d8 78 97 bd 86 85 e4 3c 1f 2b 6b bd fc 22 77 bc
       -0.07396096 0.0278957 -0.05741417 -0.0150840245
000080 21 0c ac bc 4e 71 80 3d ef 5e 8b 3d 7e 8c 99 ba
       -0.021001877 0.06271611 0.068052165 -0.0011714844
000090 4e fc 13 3d c1 bf ba bd e1 a3 c7 3d 3b fd 08 3c
       0.03612929 -0.091186054 0.09748054 0.008361156
0000a0 78 cf 96 bd ad e6 21 bd 5b 23 8f 3d e3 e8 48 3c
       -0.0736379 -0.03952663 0.069891654 0.012262556
0000b0 a1 bd 0b bd 93 f0 9d bd ce 64 a0 3c 83 ab 49 bd
       -0.03411639 -0.077119015 0.019579317 -0.049235832
0000c0 2d a8 cb 3d a5 39 c7 bd 2e 39 57 bd b3 54 71 3d
       0.09944186 -0.09727792 -0.052544765 0.058918666
0000d0 9a 91 cf bc 13 23 c3 3d 0e b5 69 bd d1 6d d1 3b
       -0.025337983 0.09528174 -0.057057433 0.006391265
0000e0 01 91 cb bd 1b 84 a9 3d fa a4 82 bc 64 67 74 3d
       -0.09939767 0.0827715 -0.015947808 0.059668913
0000f0 1a 2f b7 bb d0 ed 5e 3d 25 00 8d 3c ca 81 3f bd
       -0.0055903317 0.054426014 0.017211983 -0.046754636

weight f4 [64]
000000 8a ab 83 3f cd a7 80 3f eb f8 7e 3f dd 1c 7e 3f
       1.0286725 1.0051209 0.9959857 0.9926279
000010 db d5 7c 3f 5e 66 82 3f 01 ae 80 3f 9d 25 81 3f
       0.9876382 1.018749 1.0053102 1.0089604
000020 28 7e 7f 3f 63 39 7f 3f f5 e2 82 3f ab c5 7f 3f
       0.99801874 0.9969694 1.0225512 0.9991099
000030 b6 10 79 3f 58 5e 84 3f 0f 39 7b 3f 26 5b 81 3f
       0.97291124 1.0341291 0.9813394 1.0105941
000040 f7 0c 7e 3f 75 38 79 3f 87 32 7e 3f 23 d0 7e 3f
       0.9923853 0.9735177 0.9929585 0.9953634
000050 76 fb 81 3f f8 77 7e 3f 9c 09 80 3f d2 7e 80 3f
       1.0154865 0.9940181 1.0002933 1.0038702
000060 85 e0 7e 3f 14 92 81 3f 23 c5 82 3f cf c3 7a 3f
       0.9956134 1.0122705 1.0216411 0.9795503
000070 39 1c 80 3f 22 a3 7a 3f 9c 82 82 3f ac 48 7c 3f
       1.0008613 0.9790517 1.0196109 0.9854839
000080 37 01 82 3f 40 76 80 3f bb 4c 80 3f 19 36 80 3f
       1.0156621 1.0036087 1.0023416 1.0016509
000090 df 33 80 3f b3 21 7c 3f 6e 39 7e 3f 74 b1 7b 3f
       1.001583 0.9848892 0.9930638 0.98317647
0000a0 ad 1b 80 3f 59 e7 7e 3f e3 da 7d 3f 77 28 7b 3f
       1.0008446 0.9957176 0.9916212 0.9810862
0000b0 7f 48 7f 3f 60 12 81 3f 29 04 7f 3f 36 c3 7f 3f
       0.99719995 1.0083733 0.9961572 0.99907243
0000c0 f0 94 80 3f 81 41 7d 3f 9e de 81 3f 45 24 84 3f
       1.0045452 0.98928076 1.0146062 1.0323569
0000d0 f2 84 80 3f ee e1 80 3f 00 0d 7c 3f 89 7e 7d 3f
       1.0040572 1.0068948 0.98457336 0.990212
0000e0 2d 6e 7b 3f 20 3b 80 3f d5 20 80 3f c5 e9 83 3f
       0.9821499 1.0018044 1.001002 1.0305716
0000f0 68 68 7d 3f c6 be 80 3f e8 28 77 3f ee 64 7f 3f
       0.98987436 1.005822 0.96546793 0.9976338

bias f4 [64]
000000 5f 3f 81 3c 74 62 8c bc ec df 33 bc d0 c6 57 bc
       0.015777288 -0.01713679 -0.01097868 -0.013169959
000010 0f 3b 1f bc 65 35 52 3c e5 a5 a7 3b 9d cb 21 3b
       -0.0097186705 0.012830113 0.0051162117 0.0024688013
000020 1d 3d 7f bb a2 a6 35 bb c0 e6 bb 3c 67 59 f2 37
       -0.0038946338 -0.002771773 0.022937179 2.889028e-05
000030 84 98 78 bc 5b 24 2d bc ae 74 82 bc 70 5b 9d 3b
       -0.015173081 -0.01056775 -0.015924778 0.00480216
000040 d6 ed 72 3c b4 f2 55 bc 67 bd d6 bc 1c a0 4c b9
       0.014827212 -0.013058353 -0.026213361 -0.00019514601
000050 fe d6 a5 3c f8 6b 44 bc 46 62 2b bb 4e 24 b5 ba
       0.020244118 -0.011988632 -0.0026151105 -0.0013820024
000060 fc ed a8 bc 08 a5 ec 3c 53 3b 54 3c 68 cd 62 bc
       -0.020621292 0.028887287 0.012953597 -0.013842918
000070 d4 64 11 3c fa 7c 82 bc e7 75 57 3b 4e a4 41 bc
       0.008874137 -0.015928734 0.0032876672 -0.011818958
000080 3b 63 fc bb 30 ae 40 3c b5 06 7e 3b eb 74 24 bc
       -0.007702259 0.01176028 0.0038761322 -0.010037641
000090 69 51 5d 3c 87 99 03 bb 69 bd f9 3a 0b e1 a1 bc
       0.013508179 -0.0020080523 0.0019053641 -0.01976063
0000a0 fb 6a f2 bb 1a 95 6a 3c 27 81 cc bc a0 f5 28 bc
       -0.007398007 0.014317775 -0.024963928 -0.010312468
0000b0 6b 6d f1 bb 9d 9e 56 3b 8d 5d 01 bc 81 1f bc bb
       -0.00736778 0.003274835 -0.007895839 -0.0057410602
0000c0 e7 3b 69 bb 79 19 95 bb 67 fc 3b 3c 9c 48 05 3d
       -0.0035588683 -0.0045501557 0.011473752 0.03253995
0000d0 92 79 1e bb 29 b5 ee ba 56 b3 31 bc 8b 62 d1 bc
       -0.0024181348 -0.0018211949 -0.01084598 -0.025559684
0000e0 c0 f3 87 bb f5 25 64 3b db 88 a8 3a 80 99 18 3c
       -0.0041489303 0.0034812663 0.0012858169 0.009313941
0000f0 9e ca b1 bb e0 54 dc 3b a0 39 91 bc fb b7 88 3b
       -0.005425765 0.006723985 -0.017727673 0.004172323

running_mean f4 [64]
000000 ef 87 84 bd 8a 48 6d 3d 5c eb 52 3d 29 c3 4d 3d
       -0.0647124 0.057930507 0.051493987 0.050234947
000010 46 6f 00 bd 51 8c b3 3c ae 6c 9d bc ac fa 89 bd
       -0.03135612 0.021917494 -0.019216862 -0.06737265
000020 e4 be 9d bd 8e 84 b4 3d ac 81 15 3a 78 1a d2 3d
       -0.07702425 0.08814345 0.00057032215 0.10258955
000030 05 f3 a6 bd 7a 1c d0 3d 1e ae a8 3d 8a 4f 37 3c
       -0.08151821 0.101616815 0.08236335 0.011188397
000040 91 df aa 3c 39 46 a3 3d af 76 91 bd 92 e1 b0 bd
       0.020858558 0.07972378 -0.07102715 -0.08636774
000050 90 10 3e 3d bc 8b 4b bd ef 63 08 3c 64 4d c3 ba
       0.046402514 -0.049693808 0.008324607 -0.0014900384
000060 15 79 8e 3d c7 4a 50 3c 84 d0 d7 bc 47 bb 8c 3b
       0.06956688 0.012713141 -0.026344545 0.004294786
000070 cf fd 7e bd 20 6f e6 3c 34 d7 64 bd 95 97 71 bb
       -0.06225377 0.02812916 -0.055869296 -0.0036864032
000080 8f 1a 83 bc 23 7f 72 3d d6 da 84 3d 98 a7 35 3c
       -0.016003875 0.05920328 0.06487052 0.011087321
000090 97 f3 90 3d 9a f2 b3 bd 30 87 f3 3d cf b9 5b 3c
       0.07077711 -0.08786507 0.11891019 0.013410999
0000a0 a2 21 77 bd 9e f5 0f bd 8a 72 bf 3d b0 74 c1 39
       -0.06033481 -0.03514635 0.093480185 0.00036898768
0000b0 80 3e d3 bc 10 d4 c9 bd 1b b0 33 3d 22 d1 db bc
       -0.025786638 -0.09854901 0.04386912 -0.02683312
0000c0 e0 27 fa 3d 87 a6 c1 bd 3e 98 a6 bd 8f 86 35 3d
       0.12214637 -0.09455591 -0.08134507 0.04431778
0000d0 48 63 8f bc 64 6b 9a 3d 42 03 85 bd 10 33 bc 3c
       -0.017503396 0.075400144 -0.06494762 0.022973567
0000e0 fb f7 c0 bd 0f e6 aa 3d 32 67 6f bc 18 84 4a 3d
       -0.094222985 0.083446614 -0.014612006 0.04944238
0000f0 0c 95 1d 3c 5e ee 80 3d 5e 82 cd 3c 56 83 55 bd
       0.009618055 0.06295465 0.025086578 -0.052127205

running_var f4 [64]
000000 20 bd ca 3e 8d 00 a6 3e 67 a2 b0 3e 2b 07 98 3e
       0.39597416 0.32422295 0.34498903 0.2969297
000010 71 5b a4 3e 10 1e 9a 3e 68 67 c4 3e 02 81 9e 3e
       0.32101014 0.3010106 0.38360143 0.309578
000020 c8 ca cd 3e 0e 6a b5 3e e9 86 c5 3e c1 27 a0 3e
       0.40193772 0.35432476 0.3857949 0.3128033
000030 ce 40 b3 3e 6d 26 b8 3e df 98 8a 3e 64 30 cc 3e
       0.3501038 0.35966817 0.27069756 0.3988067
000040 a1 35 b8 3e 2d 42 c9 3e d9 63 b0 3e 19 d4 a2 3e
       0.35978416 0.393083 0.34451178 0.31802443
000050 75 ce ba 3e 0f 56 a7 3e 2a 96 b4 3e 80 bd cc 3e
       0.3648564 0.32682845 0.35270816 0.39988327
000060 3f 6f ca 3e c7 29 b2 3e b9 5a bf 3e f2 ee a2 3e
       0.39538 0.347975 0.37373903 0.31822926
000070 0f 1b a5 3e 21 73 98 3e d9 a5 91 3e 8e 47 c6 3e
       0.32247207 0.29775336 0.28446844 0.38726467
000080 7c 58 bc 3e ba 4a a5 3e 9a 73 ad 3e 7c a3 b4 3e
       0.36786258 0.32283574 0.3387726 0.3528098
000090 47 7a ad 3e 0a 9d 9e 3e b7 ce 99 3e 1a 49 9c 3e
       0.33882353 0.30979186 0.30040523 0.30524522
0000a0 92 c9 9d 3e 6b a2 b9 3e 72 8a a5 3e 87 fd b1 3e
       0.30817848 0.36256728 0.32332188 0.3476374
0000b0 5e 47 bd 3e ca ac ad 3e e0 44 ad 3e 53 13 ab 3e
       0.3696851 0.3392089 0.3384161 0.3341318
0000c0 c1 ae a4 3e f9 36 9f 3e 0a 62 cc 3e b1 24 8d 3e
       0.32164577 0.31096628 0.39918548 0.27567056
0000d0 67 56 c5 3e 00 64 c8 3e ae 09 96 3e cf 50 a9 3e
       0.38542482 0.39138794 0.2930426 0.33069465
0000e0 b3 55 c4 3e 4f 21 b7 3e 9f f1 b4 3e e2 58 ad 3e
       0.38346633 0.357676 0.35340592 0.33856875
0000f0 c0 fa 96 3e 18 ac a2 3e 6d fc b6 3e 58 d4 ad 3e
       0.29488182 0.31771922 0.3573946 0.33951068

weight f4 [64, 64]
000000 0d 40 2b bc f9 20 da bd 61 7f c0 3d 1a 55 39 3c
       -0.010452283 -0.1065082 0.093992956 0.011311794
000010 27 1d 8d 3d 12 9b 46 3d 54 cf 34 3d eb 78 00 3e
       0.06890326 0.04848773 0.044143036 0.12546127
000020 61 85 89 bc 09 f1 de 3c 08 0e d8 bd 2d b2 42 3d
       -0.016787233 0.027214544 -0.10549551 0.047533203
000030 72 5c 2b bc 14 30 ce bd 15 de 9b 3d fc 93 ae bd
       -0.010459052 -0.10067764 0.07610718 -0.085243195
000040 a2 a5 da bd e7 42 02 3c ea 14 ab bd 2c 24 88 3d
       -0.10676123 0.007950521 -0.083535984 0.06647524
000050 10 9b 0d bd 48 d6 cf 3d 49 37 bd bd 1a c9 cc 3d
       -0.034571707 0.10148293 -0.092390604 0.099992946
000060 3f 79 d5 bd ca 78 a0 3d ec 19 6c bc f3 d6 ac bd
       -0.104235165 0.07835539 -0.014410477 -0.08439436
000070 b1 cd 5e bd ca 33 66 3d a8 6f a8 3d 5d 91 ed 3d
       -0.05439538 0.056201734 0.08224422 0.115999915
000080 3a 40 aa bd b4 4f 9b bd 19 c8 4e 3d 86 90 8a bd
       -0.083130315 -0.075835615 0.050483797 -0.06765847
000090 d0 88 51 3d ef 39 98 3d 83 0f ad bd 9d a9 04 be
       0.051155865 0.07432925 -0.08450224 -0.12955327
0000a0 12 af 84 bd 77 90 86 3d 27 a1 97 3d 6a 52 8e bd
       -0.064787045 0.06570523 0.07403784 -0.06949313
0000b0 66 4d 85 3c e9 48 36 3d 53 07 05 bc e6 12 71 3d
       0.016272258 0.044503126 -0.008119422 0.058855914
0000c0 a7 b6 84 bd a5 fc 3e bd 8a 01 a8 bd 87 2a e4 3d
       -0.06480151 -0.04662766 -0.082034186 0.11140924
0000d0 d3 b4 9f bd ab af a9 3d ef 62 49 bd 03 41 a4 bc
       -0.07798161 0.08285459 -0.049166616 -0.020050531
0000e0 b4 5b 17 bd 51 da 50 bc 46 eb d9 3d cf e0 03 3e
       -0.03695269 -0.012747363 0.10640578 0.12878726
0000f0 38 1c 84 ba d1 09 c9 bd 80 08 62 bd 33 32 01 3e
       -0.0010079211 -0.098163255 -0.055183887 0.12616806
000100 e2 11 e6 3d e6 91 7f bd 9f bd db bc 74 d5 10 3c
       0.112338796 -0.062395 -0.026823817 0.008839954
000110 b6 45 6e bd 07 fe 81 bd 09 03 1c bd f3 aa 2d 3d
       -0.05817195 -0.0634728 -0.038088832 0.042399358
000120 1f 24 11 3d c8 0c 10 be f8 eb ec 3d 4f b8 82 bd
       0.03543484 -0.14067376 0.11568445 -0.0638281
000130 68 29 37 bd 6d 53 d6 3d ad d1 3b 3d 84 33 30 bd
       -0.044717222 0.10465131 0.04585426 -0.04301788
000140 ba 2e 01 3d df 9a 1d bd 14 a6 03 3d 3d 67 62 bc
       0.031538703 -0.038477775 0.032140806 -0.013818559
000150 47 02 00 3d c7 72 cb 3d 48 cf 6d bc ab e7 17 be
       0.03125217 0.099340014 -0.014514752 -0.14834468
000160 b1 bc bb bd 51 e4 16 3d 3a b0 08 be f5 4c 00 3e
       -0.091668494 0.036838833 -0.13348475 0.12529357
000170 e9 41 a1 bd 06 ba a9 3b 1b a0 48 3d b1 de d3 bd
       -0.078738995 0.0051796464 0.048980813 -0.103452094
000180 24 57 08 3e 95 a1 96 bd 98 d3 9f 3a 12 d7 87 ba
       0.13314492 -0.07355038 0.0012193797 -0.0010363779
000190 31 5a 57 bd b1 7c d9 bc 1c 3f 87 3d e6 a7 e7 3d
       -0.052576248 -0.026548715 0.06603834 0.11311321
0001a0 fe 04 f3 3c 3d 87 fb bd 42 e9 40 bc 1f e5 07 bd
       0.029665466 -0.12281654 -0.011774363 -0.03317749
0001b0 c6 80 f5 bb ba 2b 34 3c 06 43 d0 bd 6d 93 c9 bd
       -0.0074921576 0.010996753 -0.10169034 -0.09842572
0001c0 f2 39 ea bd b1 87 30 3d 67 d3 b4 3d 1f 82 d0 bc
       -0.114368334 0.043098155 0.08829384 -0.025452672
0001d0 1d 15 cd 3d 09 52 ba bd 79 d6 7a bc ac 95 f5 3d
       0.10013793 -0.09097678 -0.015309923 0.11991438
0001e0 51 91 80 bc 7a 80 42 bd 9f 40 86 bd 0b 68 91 3d
       -0.015694292 -0.047485806 -0.06555294 0.07099923
0001f0 b9 9b 72 3d d2 c6 52 bd fd f5 b2 3d 28 e8 2a bd
       0.05923054 -0.05145914 0.08738325 -0.041725308
000200 56 db db 3d 72 bc 06 3e 76 ba 70 3d c9 6c e9 bc
       0.107351944 0.13157824 0.058771573 -0.028494256
000210 70 84 b0 bd 9f 23 a5 bc e6 15 00 3e 56 38 a4 3d
       -0.086190104 -0.020158587 0.12508354 0.08018558
000220 86 17 0b 3e 2f a2 31 bd 31 e5 0a 3e e5 40 ce bd
       0.13583192 -0.04336756 0.13563992 -0.100709714
000230 24 01 38 3d a8 4d 6f bc b4 a2 5b bd f2 bd 87 bd
       0.044922963 -0.014605917 -0.053621963 -0.06628026
000240 81 69 16 bd 9e 71 eb bd 42 f9 86 3d 5a c4 03 bc
       -0.03672171 -0.1149628 0.06590511 -0.008042419
000250 78 52 41 bd 12 8c 94 3d 89 a7 18 bd 17 78 d3 3d
       -0.04719779 0.07253279 -0.03726915 0.1032564
000260 f9 fd 7a 3d 15 f2 4a 3c 87 2b e4 bd 19 d0 85 bc
       0.061277363 0.012386818 -0.11141115 -0.01633458
000270 66 4a c4 3d 69 07 90 3d 4c 32 9d 3d e8 f7 d6 bc
       0.09584503 0.070326634 0.07675609 -0.026241258
000280 df 63 3d 3c 94 64 7e 3c 3b 62 6a bd fa 17 38 3d
       0.011559456 0.015526909 -0.057222586 0.04494474
000290 87 1e db 3c 33 01 69 3d 0b 62 85 3d fa 69 4b bc
       0.026747955 0.05688591 0.06512841 -0.0124154035
0002a0 ba 20 f9 3c af bc d9 3c e4 ba c0 bc 25 94 a7 3d
       0.030411113 0.02657923 -0.023526616 0.08182553
0002b0 31 a1 cd 3c e2 b4 4e bc 6b f4 18 3d 96 e4 a7 3d
       0.025101276 -0.012616368 0.03734247 0.08197896
0002c0 58 3b 9d bd fa e5 9e 3d 58 1e b1 bb c5 8b a7 3c
       -0.076773345 0.07758708 -0.0054052286 0.02045239
0002d0 15 26 ff bd 3e 61 6f bc 96 e0 b4 3d d9 39 03 bd
       -0.124584354 -0.014610587 0.08831899 -0.03203759
0002e0 30 24 c2 3d 17 0c 2f 3d 5f 45 a7 3c 97 14 2e 3d
       0.094795585 0.04273614 0.02041882 0.042500105
0002f0 1b 1e 80 3d 80 2b 61 3d 6a d1 b1 3d d9 1c 8b bd
       0.06255742 0.054973125 0.08682521 -0.06792612
000300 fb 14 93 3d e3 9b 61 bc b8 8c be bb 12 85 40 3d
       0.07181736 -0.013770076 -0.005815115 0.047001906
000310 b8 ec 4b bd 5c fb ba bd fc 11 cd bd 40 9c 01 3d
       -0.0497863 -0.09129974 -0.10013196 0.031643152
000320 c5 66 aa bd f6 05 6a bd 72 7f 2d bd f4 79 88 bd
       -0.08320383 -0.05713459 -0.04235787 -0.06663886
000330 49 bb b3 bb 5d d0 8d 3d 33 4d 5d bd cd 95 c5 bd
       -0.0054849726 0.06924508 -0.0540287 -0.09647713
000340 a3 36 05 bd 05 36 27 bd 88 19 8e bd 75 f7 f0 3d
       -0.03252281 -0.040823 -0.069384634 0.11765949
000350 ba ef ae 3c d6 fa 97 bd 9e 12 f7 bb e4 9d 21 3d
       0.021354545 -0.0742089 -0.007540061 0.039457217
000360 7d ff 1a 3d ac f7 41 bc 20 af ce 3d e7 43 c2 3d
       0.03784131 -0.011838835 0.10091996 0.094856076
000370 8a 52 d1 bd 56 f5 cb 3d c4 1e 8f 3c e8 25 3e 3d
       -0.10220821 0.099589035 0.017470725 0.04642287
000380 9a 37 84 bd bd 79 ca bd 52 af 6f 3d d2 3e ce 3d
       -0.06455918 -0.09886501 0.058516808 0.10070576
000390 44 65 03 be cf b1 ee bc 5f 22 16 3d ac 90 21 bd
       -0.12831599 -0.02913752 0.036653873 -0.03944461
0003a0 b6 41 41 bd c7 57 fa bd 38 2c e3 bd 4b a3 ae 3d
       -0.047181807 -0.122237734 -0.110924184 0.085272394
0003b0 76 9d f6 bd d7 45 b4 3d 7c af 8e bb 47 c6 01 3d
       -0.12041752 0.088023834 -0.0043544155 0.031683233
0003c0 64 33 cb bd 24 de 39 3d bf 5d e2 bc e1 97 fb 3d
       -0.09921911 0.045377865 -0.027632592 0.12284828
0003d0 7e 67 9b 3c c6 21 03 3d 4c 75 a5 bd b5 8d ad bd
       0.018970247 0.03201463 -0.08079013 -0.08474294
0003e0 60 46 47 3d 91 df be 3b eb 90 81 bb 11 a3 9c 3d
       0.0486511 0.005824991 -0.003954043 0.0764829
0003f0 53 03 c2 bd e0 15 d4 bd fb b0 f7 3b 8a b5 61 bd
       -0.0947329 -0.10355735 0.0075589395 -0.05510477

bias f4 [64]
000000 b8 6e 94 bd 45 31 23 b9 6c 66 e2 bd 5b 4b 7d bd
       -0.072476804 -0.00015563246 -0.11054692 -0.061839443
000010 e0 41 07 bd 82 3a 1f 3d 6d cc 1c 3c e4 61 38 3d
       -0.033021808 0.038874157 0.009570223 0.04501523
000020 ba fa db 3b b4 b4 70 bd a2 a4 1a bd ea bb f8 3d
       0.0067132385 -0.058766082 -0.037754662 0.12145217
000030 e9 d0 c9 3a b7 dc 7d bd 19 f0 90 bd 6d 05 af bc
       0.0015397343 -0.06197807 -0.07077045 -0.021364892
000040 27 e9 74 bc a4 22 b0 3d 2f f9 67 bd 07 96 1d bd
       -0.014948166 0.08600357 -0.056634124 -0.038473155
000050 09 f2 9a bd 9b a1 e0 bc bd 8a a4 bd 15 8a fe bd
       -0.07565696 -0.02742081 -0.08034275 -0.12428681
000060 b1 05 85 bd dc 65 a7 3d e6 0c c6 3c 9d 1e b8 ba
       -0.06495226 0.08173725 0.024176072 -0.0014047209
000070 2c 14 ec bb 52 29 2d 3b a2 73 b7 bd b3 77 57 bc
       -0.007204553 0.0026422334 -0.08957602 -0.013151097
000080 cc 6a 71 3d 4c 96 03 3d 17 81 f0 3c bb 3e 4e bd
       0.05893974 0.032125756 0.02935843 -0.050352793
000090 55 d9 cc bd 3a 58 f6 bd 98 08 f1 bd 93 7d ae bd
       -0.1000239 -0.12028547 -0.11769217 -0.08520045
0000a0 8c 3c cb 3d 47 5c 5f bd b9 4f a9 3d c4 e0 cc bd
       0.09923658 -0.054531362 0.08267159 -0.10003808
0000b0 2f ac a3 3d e0 08 92 3d b8 87 73 3d a5 09 30 bd
       0.07991826 0.07130599 0.059455603 -0.042977948
0000c0 bc 15 b7 3c 11 88 b0 3c 06 d4 58 3b e2 25 cb 3d
       0.022349231 0.021549257 0.003308536 0.09919335
0000d0 2e ca cd bd d7 fc ee 3d e5 43 99 bd 7f 5f 98 3d
       -0.10048328 0.11669319 -0.07483653 0.074400894
0000e0 be b6 c3 bd 69 f4 48 3d d9 ec fe bd db c6 cb 39
       -0.0955634 0.049061213 -0.12447519 0.00038867336
0000f0 b7 e2 9d 3c 8b 56 69 bd 4a 0e 61 bd c1 45 e8 3d
       0.019273145 -0.0569673 -0.054945268 0.113414295

weight f4 [64]
000000 b1 da 76 3f e7 b8 7d 3f 56 49 83 3f 21 53 78 3f
       0.96427447 0.99110264 1.0256755 0.97001845
000010 b3 69 7e 3f 9b 69 7b 3f 61 83 7c 3f bf 11 76 3f
       0.99380034 0.98208016 0.9863797 0.9612083
000020 3e fa 76 3f 84 99 7a 3f 39 f8 7c 3f ba 56 73 3f
       0.9647559 0.97890496 0.9881626 0.9505421
000030 f2 f3 80 3f c3 8f 81 3f 4c 96 7b 3f a1 dd 79 3f
       1.0074446 1.0121998 0.9827621 0.97603804
000040 27 98 7c 3f e6 64 7b 3f dc 8a 7e 3f 0b f4 80 3f
       0.98669666 0.98200834 0.9943063 1.0074476
000050 ac 4b 81 3f ae 01 81 3f 35 53 74 3f eb 7d 7a 3f
       1.0101218 1.0078638 0.95439464 0.97848386
000060 c7 c0 7b 3f 48 84 80 3f 1d c8 80 3f c7 dc 79 3f
       0.9834103 1.0040369 1.006107 0.97602504
000070 77 41 7e 3f 28 67 82 3f e1 f0 7c 3f 24 4d 82 3f
       0.9931864 1.0187731 0.9880505 1.0179791
000080 f9 fb 77 3f 60 25 7e 3f b4 0f 84 3f b9 c3 86 3f
       0.96868855 0.9927578 1.0317292 1.052848
000090 1c 3d 84 3f f8 06 7f 3f 7a 76 7b 3f e7 3a 7e 3f
       1.0331149 0.9962001 0.98227656 0.9930863
0000a0 96 41 7d 3f 34 5a 7a 3f b9 9e 81 3f 15 ec 80 3f
       0.989282 0.9779389 1.0126563 1.0072047
0000b0 26 34 7b 3f a0 dd 7c 3f a4 54 79 3f ec 5a 7f 3f
       0.9812645 0.9877567 0.97394776 0.9974811
0000c0 32 a0 80 3f 88 de 80 3f 3d e8 7e 3f 12 5c 7f 3f
       1.0048888 1.0067911 0.9957312 0.99749863
0000d0 bf ad 7c 3f f1 84 7a 3f 9b 24 7f 3f 53 33 7b 3f
       0.98702615 0.978591 0.9966523 0.9812519
0000e0 0c 35 7d 3f fa f5 80 3f a6 c2 7c 3f 78 26 80 3f
       0.9890907 1.0075066 0.9873451 1.001174
0000f0 a9 dd 79 3f df ce 7d 3f 2c f8 79 3f 90 f1 76 3f
       0.9760385 0.99143785 0.97644305 0.96462345

bias f4 [64]
000000 1c 00 e4 bc b0 c6 6e 3a 4f 8e d6 bb c6 f4 4f bc
       -0.027832083 0.0009108586 -0.006547726 -0.012692636
000010 34 6c 7e 3c 8e 6f 1a bd 38 9d 03 bd c2 d5 d8 bc
       0.015528727 -0.037704043 -0.032132357 -0.026469115
000020 eb 6b 33 bd c6 f5 8f bc f0 c1 2b bc 3a 1f fa bc
       -0.04380409 -0.017573249 -0.01048325 -0.030532468
000030 6b 38 a3 3b 7b c9 4f bb 1f 5b 89 bc cd 9b f2 bc
       0.004981091 -0.0031705785 -0.016767083 -0.029615307
000040 1a 59 93 bc 68 60 b3 bc 57 b3 06 bc ba 39 34 3c
       -0.017986823 -0.021896556 -0.008221469 0.011000091
000050 c6 97 79 3c 27 fd 82 3c 79 b7 12 bd ce 40 f0 bc
       0.0152339395 0.015989853 -0.035819504 -0.029327776
000060 38 9b 05 bb c6 39 99 3b fc c8 a5 3c 4a 29 f4 bc
       -0.0020386707 0.0046760766 0.020237438 -0.029804844
000070 3a 7a 1a bd ec 6c 11 bc d4 f6 10 bc 5b 7e 03 3d
       -0.03771422 -0.008876067 -0.008847911 0.032102924
000080 0d 79 c9 bc 3e 31 0f bc b0 9b b6 3c 40 f7 62 3d
       -0.024593854 -0.008739768 0.022291034 0.055411577
000090 49 9d 27 3c be ed a9 3b ee 06 08 bb bc 96 90 3c
       0.010230371 0.005185812 -0.0020756084 0.01765
0000a0 e2 1c b9 bc 16 02 52 bc 1f 23 b8 bb ce d7 74 3c
       -0.02259678 -0.01281788 -0.005619421 0.01494403
0000b0 d7 e4 8b bc 9c d3 06 ba 4e 93 b3 bc ac d0 45 ba
       -0.017076893 -0.00051432266 -0.021920826 -0.0007546048
0000c0 2e 0d f0 bb 39 94 03 3d 2c 2d 06 bd 7e 86 d6 3b
       -0.00732579 0.032123778 -0.032757923 0.0065467944
0000d0 9d 09 96 bc dd 64 d5 bc 42 38 63 bc 83 9a 78 bc
       -0.01831513 -0.026049072 -0.013868393 -0.015173557
0000e0 b4 a1 29 bd 8f ab a5 bb 20 0b 2d bd ef 49 fa 3b
       -0.041413978 -0.005055852 -0.042246938 0.007638208
0000f0 6f d2 87 bc 3c 88 e8 bb 32 16 d6 bc 19 7a ec bc
       -0.016579835 -0.0070963185 -0.02613363 -0.028866814

running_mean f4 [64]
000000 32 5f 84 bd 64 ec 15 be 52 9e c2 3e e0 a1 b9 be
       -0.064634696 -0.14640957 0.38011414 -0.36256313
000010 bf 51 b0 be 02 c4 23 3e 0f b3 d7 bd 4a cb bf 3d
       -0.34437367 0.1599274 -0.105321996 0.09364946
000020 9a ff 8e be 3d df 7a be f8 88 6a 3e 6e 4f 2f 3d
       -0.27929384 -0.24499221 0.22903812 0.04280036
000030 3c 24 a5 3e 27 93 d6 bd 1c 0b 2b be 06 ab 12 3e
       0.32254207 -0.10477286 -0.16703457 0.14323053
000040 08 06 0f be 12 6a 6f 3e 0f e6 db 3e 3a 87 80 3e
       -0.13967144 0.23380306 0.42948958 0.2510317
000050 88 dd bd 3e f0 5f e1 be a1 f1 b1 bd 01 ce b4 be
       0.37083077 -0.44018507 -0.08688665 -0.35313419
000060 89 86 28 bd 65 ed 82 3e b3 b7 a2 3e c3 c4 02 bf
       -0.041143928 0.25571743 0.31780776 -0.51081485
000070 50 59 86 3e d6 b9 58 3e 22 80 e6 bd cd 63 23 3d
       0.26240015 0.21164641 -0.11254908 0.0398901
000080 e6 f9 89 3e 82 84 5c be b2 68 3d 3e e8 10 f8 be
       0.2694847 -0.21534923 0.1849697 -0.48450398
000090 50 16 a8 3e 2e 4f 7c be ea 65 19 be c9 8e 66 3e
       0.32829523 -0.2463958 -0.14980283 0.22515406
0000a0 71 b2 dc bd b8 66 e5 be 0b fc de 3e d6 fc 70 be
       -0.107762225 -0.4480493 0.4355167 -0.2353395
0000b0 74 63 ed 3d 80 70 c7 3e 12 26 21 be 67 ef ba be
       0.11591235 0.38953018 -0.15737179 -0.36510774
0000c0 ba bc eb 3d ec d9 2a be 6e e1 4b be aa f1 1f 3e
       0.11510606 -0.16684693 -0.19910213 0.15619531
0000d0 4c 60 b9 3d 6c 19 42 3e 95 50 b3 be b3 a5 e1 3c
       0.0905157 0.1895501 -0.35022417 0.027544832
0000e0 5d 59 87 3e a4 e9 34 3e 60 be 8b 3e 56 b1 b2 3e
       0.26435366 0.17667252 0.27293682 0.34900922
0000f0 5a 8d 05 3d 13 9c e4 be 13 24 29 bd 62 79 14 3e
       0.032605506 -0.44650325 -0.04129417 0.14499429

running_var f4 [64]
000000 7a 35 08 3e 05 4d de 3d a4 b1 d7 3d 22 0c db 3d
       0.1330165 0.10854534 0.10531929 0.106956735
000010 83 70 fd 3d 9e 51 c5 3d 6b f4 f5 3d c4 23 29 3e
       0.123749755 0.09634708 0.1200951 0.1651755
000020 ce f0 fa 3d 11 a2 d7 3d 95 50 19 3e a1 10 c3 3d
       0.12252961 0.105289586 0.14972146 0.09524656
000030 96 e4 e5 3d 91 8a 01 3e c8 58 f4 3d 7a 4a 0b 3e
       0.1122524 0.12650515 0.11930996 0.1360263
000040 29 57 0b 3e b0 f5 d8 3d 41 1e dd 3d c7 ee 34 3e
       0.13607468 0.10593736 0.10796786 0.17669211
000050 e4 39 02 3e 5c b2 ce 3d 41 47 c7 3d 6b da da 3d
       0.12717396 0.10092613 0.097303875 0.10686191
000060 02 0f 04 3e 63 ad 01 3e 51 8a de 3d d5 cd d1 3d
       0.1289635 0.12663798 0.108662255 0.102443375
000070 3e 54 03 3e 66 e3 1c 3e 21 bf e5 3d b1 52 e3 3d
       0.12825105 0.1532112 0.112180956 0.110997565
000080 f6 8e 16 3e 5e dd 05 3e 92 0d e6 3d d1 15 e5 3d
       0.14702973 0.13072726 0.11233057 0.11185802
000090 64 46 ed 3d 31 f6 0b 3e ef 2a 1e 3e 97 5d d4 3d
       0.115856916 0.13668133 0.15446065 0.10369413
0000a0 69 2c f0 3d 72 e9 f3 3d 3e 3e 07 3e 93 99 d7 3d
       0.117272206 0.119097605 0.13207337 0.10527339
0000b0 68 b1 c0 3d 6d 31 0d 3e d3 f9 d4 3d 20 cb fd 3d
       0.094088376 0.13788386 0.10399213 0.12392259
0000c0 3a 24 0c 3e fa e4 fc 3d a5 49 06 3e c8 22 3d 3e
       0.13685694 0.12348361 0.1311403 0.18470299
0000d0 a7 a7 da 3d 50 98 00 3e 95 79 e9 3d 56 08 d7 3d
       0.106765084 0.12558103 0.11400143 0.10499637
0000e0 34 f2 da 3d b4 14 08 3e a8 0c 17 3e 2f 09 dc 3d
       0.10690728 0.13289148 0.14750922 0.10743939
0000f0 6b 31 ea 3d 4c a4 0a 3e 6b c7 db 3d 26 a6 ec 3d
       0.11435207 0.13539237 0.10731395 0.11555128

weight f4 [5, 64]
000000 f5 ef 6d bc b0 6c bb bd 5e fd 13 3d 72 eb 5b 3c
       -0.014522542 -0.0915159 0.0361303 0.013422834
000010 f8 8a aa bc c8 d1 ae 3d f2 f8 63 3d 53 ff 1f bd
       -0.020818219 0.08536106 0.055657335 -0.039061856
000020 8e 50 94 bd a5 0a 9e 3c 93 eb f5 3d ac 73 8a bd
       -0.07241927 0.019292185 0.12007823 -0.06760344
000030 e5 6c a2 3d a0 6d 9f bd bd d5 bf bc df 33 ad 3d
       0.07930926 -0.07784581 -0.023417348 0.08457159
000040 fb f0 f7 3d 22 32 77 3d 95 92 bb 3d 4a 0f 68 bb
       0.1210651 0.060350545 0.09158818 -0.0035409504
000050 c6 80 23 3d 51 b4 d7 3c 30 ec d0 bd 16 ee 5e 3d
       0.03991773 0.026331099 -0.10201299 0.054426275
000060 ba 8b bc bd fb 11 f7 bc 92 23 ad bd c6 be d4 bd
       -0.09206338 -0.030159941 -0.0845405 -0.1038795
000070 d0 48 06 3b f7 df e4 bd 85 88 cf 3d d6 35 1a 3d
       0.0020490177 -0.111755304 0.10133461 0.037649
000080 3d e2 05 bd 92 34 89 3d fc 08 5f 3c 68 3a dd bb
       -0.03268646 0.0669948 0.013612982 -0.0067513473
000090 3e 7c 2f bd 14 40 ff bd a0 94 b4 3d d1 50 27 3a
       -0.042843096 -0.12463394 0.088174105 0.0006382587
0000a0 55 39 5e bd ee cd ac bc bf be b8 3d f4 98 8e 3d
       -0.054253895 -0.021094289 0.09020757 0.06962767
0000b0 50 ac be bc 99 05 11 bd 24 13 d9 3c d9 e4 f9 bb
       -0.023275524 -0.03540573 0.026498385 -0.0076261577
0000c0 33 c5 c1 3c ef 6d af bd 4b bf 7f bd ef 6e 02 be
       0.023653602 -0.0856589 -0.06243829 -0.1273763
0000d0 c3 2b 60 3d 44 4c c4 3d a3 22 ff 3d cc 50 c0 bc
       0.054729234 0.09584859 0.12457778 -0.023476027
0000e0 ba 54 7a bc 9b 02 a4 bc aa 80 7e bd e2 c9 67 bd
       -0.015278989 -0.020020774 -0.062134422 -0.056589015
0000f0 cd da 8d bd 2b ba a1 3d e9 3b 93 3d 49 b7 35 bc
       -0.069264986 0.07896837 0.07189161 -0.011091062
000100 f0 04 19 bd d3 5b d9 bd 02 ad 00 be dd 13 3a 3c
       -0.037358224 -0.10613217 -0.12565997 0.011357275
000110 ac f4 0b 3d 3a 1b c8 3d d6 ae 24 3c 79 16 56 3d
       0.034168884 0.09770818 0.01005145 0.052267525
000120 5f ff b6 3d 50 70 91 3d ec ef a3 3d 80 b1 8d 3d
       0.08935427 0.071015 0.08004746 0.06918621
000130 49 ea bd bd ac af b9 bd c9 31 31 bd dd 86 00 be
       -0.09273202 -0.0906671 -0.04326037 -0.12551446
000140 04 12 b0 3d 0b 8a 12 3c d4 92 4f 3d 50 20 ce 3c
       0.08597186 0.008944045 0.050677136 0.025161892
000150 07 87 d9 bd 9f 24 3a 3c 7d d9 a8 3c dc 57 d6 3d
       -0.106214575 0.01136127 0.020611519 0.104659766
000160 14 fa 91 3d 92 bf ec 3c 66 c6 8f bd 01 f0 8e 3d
       0.07127777 0.028899942 -0.070202634 0.06979371
000170 09 6f a6 3d 3d c6 4a 3c 53 c6 95 bc 92 c7 6e bd
       0.08126647 0.012376365 -0.018283045 -0.058295794
000180 98 43 af 3c a6 06 b3 3d 0c b3 25 bd 8b 5c f1 bd
       0.021394536 0.087415025 -0.040453956 -0.11785229
000190 21 a4 07 be 70 6e 02 3b 74 ba 85 ba d1 92 f2 bd
       -0.13246204 0.0019902252 -0.0010202662 -0.11844409
0001a0 14 82 a1 3d 9c 43 b8 bb 9b 54 82 3d 14 09 d4 bd
       0.078861386 -0.005623294 0.063637935 -0.10353294
0001b0 fa 4b 02 be 31 28 4a 3d c1 26 df bd 3c 6b d9 3d
       -0.12724295 0.049354736 -0.108960636 0.106161565
0001c0 0b 22 b1 3c d0 48 32 3d 16 e2 77 bc 80 6d 4c 3d
       0.021622678 0.04352647 -0.015129587 0.049909115
0001d0 4f e8 96 3d 3b 50 67 3c 75 9d 9a bd 88 f2 05 3d
       0.07368528 0.0141182495 -0.07549564 0.032702
0001e0 02 3b 94 3d 79 50 a7 3d 47 ce 26 3c a4 3c 96 bd
       0.07237817 0.08169646 0.010181016 -0.07335785
0001f0 ae d6 00 3e ff 4f 90 bd 1d 91 27 3c ae 71 97 bd
       0.12581894 -0.07046508 0.010227469 -0.073947296
000200 6e 00 9d 3c 46 69 88 3d d7 c6 6b bc fc 0b bd 3d
       0.019165244 0.06660704 -0.014390669 0.092308015
000210 bc 8c 62 3d 51 bd 14 3d 75 0d 25 bd 36 7e 53 bd
       0.055309996 0.03631336 -0.040296037 -0.051634036
000220 ab 18 a8 3d 2e 9d e8 3b db 07 cb bd 67 21 80 bd
       0.0820783 0.0070988154 -0.09913608 -0.06256371
000230 d7 7c c4 bd be a4 4b bc fd d2 c8 3d f5 43 36 3b
       -0.09594124 -0.012429414 0.09805868 0.0027811502
000240 5a 49 a6 3d 58 b2 9e bd 27 6d 7e 3d 4a 12 85 3d
       0.081194595 -0.0774886 0.062115815 0.06497629
000250 15 34 f9 3b 8b 8a b1 3d 5c 58 91 3d ef 3c 39 3d
       0.0076050856 0.08669003 0.07096931 0.045224126
000260 d3 ec 39 3d 2a 5a ad 3d ec 29 50 3d 65 b2 f0 bd
       0.04539187 0.08464463 0.05082123 -0.11752776
000270 27 25 33 bd 2c fb a9 bd b2 4a 00 3c c0 86 05 3d
       -0.043736603 -0.0829986 0.007830309 0.03259921
000280 9e 0f bb 3d 12 95 69 3c 0b 37 57 3c 59 28 aa 3d
       0.09133838 0.014256733 0.013135682 0.08308477
000290 2e 3c 19 3d 42 9c 32 3d b1 72 92 bd 13 20 3a bc
       0.037410907 0.04360605 -0.07150782 -0.011360186
0002a0 5a 8c 98 bd 40 33 a9 bd 4e d6 29 bd e1 83 d8 bc
       -0.07448645 -0.08261728 -0.041464143 -0.026430072
0002b0 74 e6 33 bd d2 89 ae bd 24 77 56 bd 6b 9f d5 bb
       -0.04392095 -0.08522381 -0.052359715 -0.0065192482
0002c0 e1 39 f7 bd 8c 99 cb 3d 4b ce b9 3b a2 75 b5 3d
       -0.120715864 0.09941396 0.005670344 0.08860327
0002d0 49 b6 a9 bd 95 b3 9b 3d b0 57 d6 3c 71 4e e0 3d
       -0.08286721 0.07602612 0.02616486 0.109524615
0002e0 d2 0d 2e bc 28 c5 6a bd 02 2a 53 3c 08 c4 7d 3c
       -0.010623412 -0.05731693 0.012888433 0.015488632
0002f0 37 ed 6f 3d 2a f6 7a 3d 18 f0 90 bd 65 84 e6 bd
       0.058575835 0.061269917 -0.07077044 -0.11255721
000300 60 6b 91 3d c1 7e b6 bd f8 86 d8 bd 81 59 55 3d
       0.07100558 -0.08910895 -0.10572618 0.05208731
000310 62 36 b5 3d 77 fb 33 bd 6d 08 a2 bd 4a f8 a7 bc
       0.08848263 -0.043940987 -0.07911763 -0.020504136
000320 b3 f9 0f 3d 86 62 45 3d 23 d8 15 bd 24 12 93 bd
       0.03515024 0.048189662 -0.036583077 -0.071811944
000330 61 c9 6a bc 16 43 44 3d 5e cd da 3d bd 6f a7 3d
       -0.014330239 0.04791554 0.10683702 0.08175609
000340 db 4d 8f bd b9 27 a5 3d 3d 24 07 3d 53 67 cf bd
       -0.069972716 0.08064217 0.032993544 -0.101271294
000350 76 ea e0 3c 60 7b 19 3d aa 46 a0 bd 59 e6 2c 3c
       0.02745555 0.037471175 -0.07825978 0.010552966
000360 6d 87 76 bd 33 70 cf bd 07 b4 53 3d 64 ad 44 3d
       -0.060187746 -0.10128822 0.05168536 0.04801692
000370 9c 80 be bd 40 eb 1d 3d 79 d7 4a 3d e7 c0 6c bd
       -0.09301874 0.03855443 0.049521897 -0.057801154
000380 11 82 90 3d 13 4e a8 bd 8c b5 e8 3d 87 ac 94 bc
       0.07056058 -0.082180165 0.11362752 -0.018148674
000390 ab 06 05 3e ed 8a 5a bd eb 2e 9e bd 3d a9 cd ba
       0.12990825 -0.053355146 -0.07723793 -0.0015690696
0003a0 82 68 1a bd 31 d0 80 3c 34 40 01 3e 78 5e 88 bc
       -0.037697323 0.015724273 0.12622148 -0.016646609
0003b0 3f 6a a9 3d b1 88 ad 3d 7a fe 00 3d eb 7e 2f 3d
       0.08272218 0.084733374 0.031492688 0.042845648
0003c0 d4 59 e9 bd 94 dd 04 bc 4e 97 57 bd 37 1e 8a bd
       -0.113940865 -0.008109469 -0.05263453 -0.06744044
0003d0 4c 62 d2 3d 52 ea e0 bc 57 6c 59 bd e5 3e 8f 3d
       0.10272655 -0.027455483 -0.053081837 0.06994418
0003e0 e1 8e 89 bd 77 8c 9d 3d 9e b3 85 3c 4e 14 a5 3d
       -0.06716705 0.07692807 0.016321 0.080605134
0003f0 28 2e 8c 3c ff a3 98 bd 9d e7 0f 3d cd bd a4 3b
       0.017111853 -0.07453155 0.035132993 0.005027509

bias f4 [5]
000000 53 2a a6 bd 79 ee b7 bd 16 a6 2f bd 35 4c 12 3b
       -0.081135415 -0.08981032 -0.042883 0.0022323255
000010 69 d2 25 3e
       0.16193546
