Industrial Equipment/mlruns/0/121be6a8464b4e51a2715309fb75a9c1/artifacts/discriminator_model/data/model.pth (torch, 30142 bytes, 13 tensors)

weight f4 [64, 5]
00000000: 7984 263e 9920 6c3e e360 abbe 61c2 743d
00000010: d9c3 1fbe 8ab4 c13e 5375 3cbe 9751 cebe
00000020: 9238 a53e 65bf 92bc c49e 6e3e d21c 7d3e
00000030: a8b1 a83e bba1 95bc 8bc2 3fbe aca9 a9be
00000040: f007 19be 6233 94bd 6974 ba3e f905 89be
00000050: 8e3a d0be 27f3 7abe f3cf e23c d817 98bd
00000060: 9dff ba3e 1f58 29be d5c7 6cbe 4a70 0b3e
00000070: 718c b4be 77eb b2be 3a62 debd 80c8 8b3d
00000080: 36b6 1c3e e4a2 96be 6540 dabd af90 21be
00000090: 9c38 4fbe e84c 683e 4d2d 983e c13d 623e
000000a0: 9366 99bc c7e7 f0bd 24ca 383e 52ce b33d
000000b0: 61d4 e13e c5b9 9b3c 0464 7abd 6a6f dbbe
000000c0: b51f d4be ee17 d3bd 6718 83bd c82a ba3e
000000d0: a2ca b53e 20db cebe 8354 bd3e 5086 c43e
000000e0: 4de5 d63e 1b2e 4fbd 93ac 7a3e 4b7f 8a3e
000000f0: 77d1 b1bb 86c3 2e3e 3c73 113e 86e1 873d
00000100: fa36 93bb 5aeb 6cbe 092a 8c3e ea8a 99be
00000110: fcbb 09be 4db9 b13b d33e 073c c307 07be
00000120: 4da9 acbe 19c0 7bbe f3b7 40bd 5c88 edbe
00000130: 42e4 b8be f973 413e e1a9 56be f644 303e
00000140: c3ec e53e 113d 333e b57c dbbd fe91 d7be
00000150: 9212 0fbd 468d 723d 1a0c 6abe 9f35 8a3e
00000160: 9663 383e 4c81 2bbe 1a9f 923e 4da0 afbe
00000170: ee5b 7bbe 9e65 c23e 9dc4 ba3e 6515 813e
00000180: c03d 5bbe ade5 f5bd daea 86be 63f6 b3bd
00000190: 616f 253e 5d05 bd3d c67d b93e 8b0b 3fbe
000001a0: 16b0 84be 2968 a13b 7250 cbbd eb42 84bd
000001b0: ed3b ecbd 0074 3a3e 7f39 9cbd 8b08 9d3e
000001c0: c28b 913e 6c1b 45be b467 923e e9c0 fdbb
000001d0: ef1c ab3e 50c0 483c 345c a7be 3f90 abbe
000001e0: 398a 8d3e c567 e03e bbe4 a1be 88f3 cb3e
000001f0: a559 8c3e 0955 a03e 5fb6 8b3e 41f3 293e
00000200: 0031 babe cca1 f83d 0ab1 57be 9c1f 853e
00000210: b0f8 ac3d 6432 96be 8aff c23e 9a8a 06be
00000220: 4394 20be 5b13 8a3d 6240 223e e162 2c3e
00000230: 4759 c33e 1bd3 1cbc dc22 8bbd 7428 383e
00000240: 2dc6 bf3e 18df 86be 85e4 293e b60d d03e
00000250: e00c a73e c578 c6bd 6c3c ea3d e232 1ebe
00000260: d741 6cbe f0ce ec3e 03fa f7bd a7ec 883e
00000270: 088b 003e 48cb e4be 3c65 0a3d 44ea 23bd
00000280: 2b6d 9dbe c563 aebe 01b3 5c3e 2d31 1c3d
00000290: d521 f93d 9ea6 303e 639e f53d 1e0a f23e
000002a0: 36ab d4bd 0886 d2bd d947 be3d e633 c3be
000002b0: 0e1b 8fbe defe 58be 951e 263e c945 e53e
000002c0: c600 83be 3ed3 ac3e 51f4 cf3e bead 433e
000002d0: cc80 ab3e 1dda ce3b 9d85 84bd 27d4 503e
000002e0: 1c8b d03d 9eea cf3e f21b d63e 3007 e13e
000002f0: 8c77 8dbe 00af 0a3e 3e91 6e3e 7c5a b73e
00000300: eff2 003e 91e9 53bc f1de b03d 649e 3fbe
00000310: 5ccc 21bb d9d6 b1be eb92 a9be c925 b4be
00000320: d89f 6f3e 65d2 b53e 566f 61be 4df5 abbe
00000330: 874e e63e 9778 d9be 7151 b03e db86 ff3d
00000340: 3ba3 913d 8ae5 83be 97dd b8bd 6430 83be
00000350: 9f40 41be 2f60 16be 7fee 83be 2c7f bebe
00000360: 951b 9b3e dd59 413e dd52 de3e d1a9 883e
00000370: 080b cabe d77a 95be f4e1 8ebe 9382 72be
00000380: 8309 15bd aa9e 35bc f30d 4bbd dc84 0bbe
00000390: 2f32 183b 4ebb 493e 464b 20be c208 d63d
000003a0: a2e9 cc3d 3cc5 f43d 5236 aebe 6d28 ad3e
000003b0: b613 e1bd b085 08be e796 d1bd 78e9 40be
000003c0: 490a 9fbe c310 6c3e ffac 86be 534f f5bd
000003d0: e605 0c3e b006 a33e 8b8a 2e3e d1ff a33c
000003e0: ace0 cbbe e8f6 98be b487 113e db84 aabd
000003f0: edd5 cb3e d520 d53e 74ca 5c3e 8ce7 92be
0.16261472 0.2305931 -0.33472356 0.059755687 -0.15602054 0.37833053 -0.1840413 -0.40296623
0.32269722 -0.01791353 0.23302752 0.24718025 0.3294804 -0.018265596 -0.18726556 -0.33137262
-0.14944434 -0.07236363 0.3641694 -0.2676237 -0.40669674 -0.24506818 0.027687049 -0.07426423
0.36523142 -0.16537522 -0.23123105 0.13617054 -0.35263398 -0.3494527 -0.10858579 0.06825352
0.15303883 -0.2942115 -0.106568135 -0.15777849 -0.20236439 0.22685587 0.29722062 0.2209387
-0.018725669 -0.11762958 0.1804586 0.08779587 0.44107345 0.01900948 -0.06113054 -0.4285844
-0.4143044 -0.103072986 -0.06401139 0.36360765 0.3550616 -0.40401554 0.3697854 0.38383722
0.41971818 -0.05058108 0.24479894 0.27050242 -0.0054265815 0.17066774 0.14204115 0.06634812
-0.0044926377 -0.23136654 0.2737582 -0.29988796 -0.13450617 0.005423701 0.008254725 -0.13186555
-0.33722916 -0.24584998 -0.047050428 -0.46393096 -0.36111647 0.18891896 -0.20963241 0.17213807
0.44907197 0.17503764 -0.10717145 -0.4210357 -0.03492982 0.05921676 -0.22856179 0.26994035
0.18006739 -0.16748542 0.2863701 -0.34301987 -0.24546787 0.37968153 0.3647813 0.25211635
-0.21410275 -0.12006698 -0.26351053 -0.08787229 0.16155769 0.092295386 0.3622877 -0.18656747
-0.25915593 0.004925747 -0.09927453 -0.06458076 -0.115348674 0.18208313 -0.07628154 0.3067058
0.2842694 -0.19248742 0.28594744 -0.007743944 0.33420512 0.012252882 -0.32687533 -0.3350849
0.27644518 0.4382917 -0.3161982 0.39834237 0.27412143 0.31314877 0.27287576 0.165967
-0.3636551 0.12140235 -0.21063629 0.2600068 0.08445871 -0.2933532 0.38085586 -0.1313881
-0.15681557 0.06741973 0.15844873 0.16834594 0.3815405 -0.009571816 -0.06793758 0.17984182
0.37455884 -0.26342082 0.1659108 0.4063546 0.3262701 -0.09691004 0.11437306 -0.15449098
-0.23071991 0.4625163 -0.12108233 0.2674305 0.12553036 -0.4468634 0.03378795 -0.040018335
-0.3074735 -0.34060493 0.2155266 0.038132835 0.12164656 0.1725106 0.119931005 0.47273344
-0.103842184 -0.10279471 0.092910476 -0.38125533 -0.2795033 -0.21190974 0.16222604 0.44779804
-0.25586528 0.33754915 0.40616086 0.19109246 0.33496702 0.006312622 -0.06470797 0.2039343
0.10182783 0.40608686 0.41818196 0.43950796 -0.2763027 0.1354332 0.23297593 0.35811222
0.12592672 -0.012934105 0.08636273 -0.18712765 -0.0024688458 -0.34734228 -0.33119902 -0.35185078
0.2340082 0.3551208 -0.22015128 -0.33585587 0.44981787 -0.42474815 0.34437135 0.124768935
0.07111212 -0.25761062 -0.0902664 -0.25622857 -0.18872307 -0.14685129 -0.25767896 -0.372064
0.3029448 0.18881936 0.43422595 0.2669206 -0.3946154 -0.29195282 -0.27906764 -0.23682623
-0.036386024 -0.011085192 -0.04957385 -0.136249 0.002322327 0.19700357 -0.15653715 0.10450889
0.100054994 0.11951682 -0.34025818 0.33819905 -0.10990088 -0.13332248 -0.102338605 -0.18839061
-0.31062534 0.23053269 -0.2630386 -0.119780205 0.13674125 0.3184104 0.17045037 0.020019444
-0.3981985 -0.29875875 0.14211923 -0.083261214 0.3981165 0.4162661 0.21561605 -0.2869228

bias f4 [64]
00000000: de66 783e 1595 b6bd a3bd dd3e 6d58 78bb
00000010: 0b37 a93e 6b26 b6be b97d 29bd 2e86 c1be
00000020: efea a7be 14cf 823e 1c8f 9d3e f4ce d73e
00000030: d6eb a03e 8847 f33d 8d4a eb3c 5739 c43e
00000040: c0be 363e bed4 58be b3ff 85be 27d3 aabe
00000050: 055d a83e 0c10 543e c9f7 c3bd 36c6 d1be
00000060: 7ff8 723e a35b dabe 2bff 3cbe 207b 4f3e
00000070: ebde e03e 221c adbe 9f0a 72be e5b5 b33d
00000080: 17e8 d6be 437d 10be 71a6 153e 6fe9 b1be
00000090: 7814 4dbd 4295 f03d dd07 d1be 01b9 73be
000000a0: 2349 fbbc 3af7 77bb 5070 b03e 2e67 29be
000000b0: c863 433e c06e 84be 9a1c cabe 65fb 6c3e
000000c0: bdb5 cf3e 2d8e a83e a607 ddbc 2268 bbbe
000000d0: 4103 fabc c0b7 cdbe 024a fc3d 1e25 c2bd
000000e0: 87a9 cbbc 0882 bc3e f463 053e 628c bc3e
000000f0: 4f0e c7be 17ad c03d 21c1 913e 1496 f03c
0.2425799 -0.08915154 0.43308744 -0.0037894503 0.33049807 -0.35576186 -0.041379664 -0.37797683
-0.32796428 0.25548613 0.30773246 0.4215008 0.3142993 0.11878878 0.028722072 0.38324997
0.17846203 -0.21174905 -0.26171646 -0.3336422 0.32883468 0.20709246 -0.09568746 -0.40971535
0.23727606 -0.42648038 -0.18456714 0.20261812 0.43920073 -0.33810526 -0.23636864 0.08774928
-0.41973945 -0.14110284 0.14614274 -0.34748408 -0.05006835 0.11747219 -0.40826312 -0.23801042
-0.030674523 -0.0037836567 0.34460688 -0.16543266 0.19081032 -0.25865746 -0.39474946 0.23142774
0.40568343 0.32920972 -0.026981186 -0.36602885 -0.03051913 -0.40179253 0.12318803 -0.09479736
-0.02486111 0.36817956 0.1302641 0.36825854 -0.38878104 0.09408014 0.28467658 0.029368438

weight f4 [64]
00000000: 5777 813f f62e 823f 617e 873f f69d 7d3f
00000010: 44c4 843f 2e45 803f 6db7 7f3f 61cf 7f3f
00000020: 2f8e 823f b2cd 7f3f 39b3 803f 39a6 813f
00000030: 85ce 793f bf0c 803f 3860 833f 0154 823f
00000040: 135a 803f 89ce 7d3f 63fe 7b3f 70d3 793f
00000050: d821 7b3f c867 803f ef59 753f 22c4 7a3f
00000060: 35fc 7a3f de19 7b3f a0c8 813f b0ba 813f
00000070: d634 7e3f bb04 813f ce0d 833f 1e16 793f
00000080: 8b75 843f 108f 823f ff3e 7c3f 08ec 803f
00000090: b1d3 803f af99 773f 67bb 7b3f 68d0 7c3f
000000a0: 25f2 813f 40a9 7e3f 73eb 723f 1bed 7a3f
000000b0: be82 803f 5023 803f 9cff 803f 3a31 7d3f
000000c0: b293 793f 1334 7d3f 0136 813f 143d 7f3f
000000d0: 46aa 813f 18f3 803f 71a6 843f 041d 833f
000000e0: aa85 7d3f a1d2 813f aa35 7d3f a3bf 813f
000000f0: e048 793f 7b9e 7a3f 7749 813f 6485 803f
1.0114545 1.0170581 1.0585443 0.99069154 1.0372396 1.0021112 0.9988926 0.9992581
1.0199641 0.9992324 1.0054694 1.0128852 0.9758075 1.000389 1.0263739 1.0181886
1.0027488 0.9914327 0.9843504 0.97588253 0.98098516 1.0031672 0.9584035 0.97955525
0.9804109 0.98086345 1.0139351 1.0135098 0.9929937 1.0079569 1.0238588 0.97299373
1.0348371 1.0199909 0.98533624 1.0072031 1.0064603 0.9671888 0.9833283 0.987555
1.0152022 0.99477005 0.94890517 0.98018044 1.0039899 1.0010777 1.0078006 0.9890324
0.9749099 0.98907584 1.0094606 0.9970257 1.0130088 1.0074186 1.0363294 1.024323
0.9903208 1.0142404 0.9891001 1.0136608 0.97376823 0.9789807 1.0100545 1.0040708

bias f4 [64]
00000000: 9835 c1bc cecc 0e3a 975a c53c 5d56 f0bc
00000010: 7496 a43c db5d aabc be95 30bc 5d19 6c3b
00000020: 3b25 a0bc 71cf ca3a 4d6a 443a 7f81 1d3b
00000030: 0255 18bd a3f8 51bc 59d5 ad3b d449 7cbc
00000040: 4a81 c3bb 9b01 12bb 47c3 1fbd 0831 1bbd
00000050: f78e a3bc dbfb 143b 734a 11bd d085 bdbc
00000060: 0f64 db3a 4d59 22bd c977 303c 2473 34bc
00000070: df9a 94bc bf04 04bd 9993 94bc 1dc5 f9bc
00000080: ca80 f1bb 2430 e53a 40a1 36bc 5318 86bb
00000090: c904 723b 22ac 66bd d358 16bc d42f d03b
000000a0: d082 f23c aa79 023b 9fcb aebc 9d3c 1bbd
000000b0: d9bd 47bb fa7f 57bc 6d7e 923b 5c67 55ba
000000c0: 8de5 99bc d74c f3bc 9c48 88ba b616 85bc
000000d0: ef20 2b3c 49c7 3e3c e173 15bc a70c d23b
000000e0: 5306 37bd f651 95bc 5605 f7ba 6915 cabc
000000f0: 4c0e 8dbc 0e1b 33bd a795 063c 1b3d 10bc
-0.023585126 0.00054473884 0.024091048 -0.029338056 0.020091273 -0.020796707 -0.010777889 0.003602586
-0.019549003 0.0015473199 0.00074926467 0.0024033485 -0.037190445 -0.012815627 0.005304974 -0.015398461
-0.00596634 -0.002227879 -0.03900459 -0.037888557 -0.019965632 0.0022733125 -0.03547139 -0.023135096
0.0016738194 -0.039635945 0.0107707465 -0.01101378 -0.018140255 -0.03223109 -0.018136786 -0.030489499
-0.007370089 0.001748566 -0.011146843 -0.004092255 0.0036929122 -0.056316502 -0.009176451 0.006353358
0.029603392 0.0019908943 -0.021337328 -0.037899602 -0.0030478148 -0.013153071 0.0044706375 -0.0008140707
-0.018786216 -0.029699726 -0.0010397616 -0.016246181 0.010444864 0.011644193 -0.009121866 0.0064101997
-0.044683766 -0.018227559 -0.0018846195 -0.024668412 -0.017218731 -0.043726973 0.008214391 -0.008803631

running_mean f4 [64]
00000000: 4a31 973e 75f3 dcbd 4c46 e83e bc63 8ebc
00000010: 21a4 8d3e caaf a0be b21e cabb d480 ecbe
00000020: e27b cfbe 6f6d a83e 5436 a13e 4312 d13e
00000030: 0caa a03e 1852 333e c967 8b3d 242c af3e
00000040: 934f 793e a9e3 7ebe ae73 b3be d3e5 9ebe
00000050: e618 b73e a716 473e 97a1 ccbd 0c44 a1be
00000060: 3721 6a3e e929 c9be d414 38be c495 1b3e
00000070: fe39 c53e 39e9 bdbe c60e 88be a3da 033e
00000080: 8871 f5be c12a 11be feac 093e 0062 e7be
00000090: f4f7 9bbd 1aa9 0a3e 9ac5 c9be 8268 15be
000000a0: 4ac7 d6ba 80ad 203d b4c2 c03e 12e1 61be
000000b0: 326d 583e 3fcc 8cbe df0a bcbe d1fe 843e
000000c0: 3d9e e13e 70ab d23e 39b9 fcbd 2ba2 d2be
000000d0: b24e 74bd 6749 e5be fdbb c53d e0d5 e5bd
000000e0: b6fe b73b a4f8 e33e 28ec 163e a8ea a43e
000000f0: 8b9e babe 3369 743d 2667 973e 8e72 423d
0.29529792 -0.10788623 0.45366132 -0.017381541 0.27664283 -0.31384116 -0.00616821 -0.46192038
-0.40524203 0.3289599 0.31486762 0.40834245 0.31379735 0.17511785 0.06806905 0.34213364
0.24346761 -0.24891533 -0.35049194 -0.31034717 0.35761184 0.19442235 -0.09991758 -0.31497228
0.22864233 -0.39289787 -0.17976695 0.1519385 0.38520807 -0.37091997 -0.2657377 0.12876372
-0.4793818 -0.14176466 0.13444898 -0.45191956 -0.07615653 0.1354107 -0.3940857 -0.14590648
-0.0016386297 0.039227962 0.37648547 -0.22058514 0.21135405 -0.27499577 -0.36727044 0.2597566
0.4406604 0.4114642 -0.12340016 -0.4113935 -0.059645362 -0.44782564 0.096549965 -0.11222434
0.0056150807 0.44525635 0.14738524 0.3221028 -0.36449084 0.05967064 0.29570884 0.04747253

running_var f4 [64]
00000000: 28e9 a63d aa3d 2f3e 909c c03d 758a fc3d
00000010: 7048 113e c51c 0e3e 9ebd 5d3d 614c c43d
00000020: e27f da3d 9ed7 073e 43fc 4f3e 1eaa 2f3e
00000030: af5b a33c 505d a73d 734f 8e3d 2d18 2d3e
00000040: 5f47 183e 986f 8c3d 2d45 6b3e bb9f 973d
00000050: 55e1 ce3d 0f3e d83c c2ae de3d beca 0c3e
00000060: a369 6b3e c4b8 ef3d 4c39 083e e925 1e3d
00000070: 114d 0d3e 92a6 153e ccca ed3d d1db dc3d
00000080: 581f ce3d f2bd cb3d 182e f93d c151 583e
00000090: 67e7 853d 742b 533e a203 913d 30a9 153e
000000a0: ed42 583e fa67 253e d67b 943d 9c1f 463e
000000b0: 22b4 033e 2fe6 d83c f7f0 a23d e549 903d
000000c0: 67e8 b13d 548d 103e dbf1 153e 69b6 df3d
000000d0: 7644 353e 0e5f 213e 70a8 fe3d 10d2 443e
000000e0: 754e 143e a62e 463e 4634 913d a12a 3f3e
000000f0: e327 203e a451 a63d 728f 373e 9275 343e
0.0814994 0.17113367 0.09404862 0.12331096 0.14187789 0.13878162 0.05413591 0.095848806
0.10668923 0.13265845 0.20311074 0.17154738 0.01994118 0.08172095 0.069487475 0.16903754
0.14870976 0.06857222 0.22975607 0.07403513 0.101015724 0.02639678 0.10873176 0.13749215
0.22989516 0.11705163 0.13303107 0.038610373 0.1379893 0.14614323 0.11610946 0.10784114
0.10064572 0.099483386 0.12166995 0.21124937 0.06538277 0.20622045 0.07080771 0.14615321
0.2111928 0.16152945 0.07250182 0.19347996 0.12861684 0.026476948 0.07956117 0.07045344
0.08686905 0.14116412 0.14643042 0.10923464 0.17701897 0.15758917 0.12434471 0.19220757
0.14483054 0.19353732 0.070900485 0.18668605 0.15640216 0.081210405 0.17925814 0.17622975

weight f4 [64, 64]
00000000: 91ed 323d 7c29 583c 1d4a e53d 73a4 44bb
00000010: 20fc 99bd b113 c13d bba0 be3d 040c c43d
00000020: 1f2c cbbd 7680 c13c 6a29 d2bd 3df5 3cbd
00000030: ad78 8c3c ce9b a03c df94 8dbc 0540 5e3c
00000040: 992e 42bd f236 89bd f83f f0bd 9d37 b03d
00000050: dea7 38bd f844 9d3d 72d0 8fba 76d9 20bd
00000060: 0916 85bd 751b 9cbd b2d1 a9bb 0e31 afbd
00000070: 4ba4 3ebd d7ee 3abc 7337 653d 7f54 953d
00000080: 3ac8 8cbd 078e 64bd 9d4e b63d 5dd1 983c
00000090: ed8b c4bd 95fc a43d dbf8 5bbc 63b7 cb3d
000000a0: 37a8 11be 346f 0abc 9330 0ebe 81b2 ab3d
000000b0: e212 e03d da60 a9bc cb3e aa3d 2f4b fbbc
000000c0: 2bff ac3d dc66 96bd 0d97 9f3d 5187 d43d
000000d0: 90df cabd 52a1 1dbe 3d47 233d fac4 9dbd
000000e0: 65e9 d33d e031 0e3d 5119 bd3d 62a6 92bd
000000f0: 1807 d6bd 14f5 cdbd c3a9 21be a9af b0bd
00000100: 2d98 b9bd 8a6a 243d fa3b 8cbd 21a7 51bd
00000110: df05 923d 0be0 8ebd 8551 00bb 165d 743d
00000120: 3f86 003e 2aa6 f63d 3380 b43b f262 4fbd
00000130: 1320 983d d2fd bbbd 919d 3dbd 947f 4b3d
00000140: dd45 243c ad85 c13d e520 49bc e2c4 e0bc
00000150: ed25 c8bd 1ee4 d2bc 6bbd 46bd c87f d33d
00000160: c1bd 68ba 6cb8 323d 78fe 0fbe e02e c6bb
00000170: 8093 0a3e 2a08 e4bd ceb6 e9bc acd8 0d3e
00000180: 5a30 a4bd e1aa debd aab5 923d deba 97bc
00000190: b27e 6dbd b892 c83d 5111 263d 583b 35bd
000001a0: c139 4bbd 1e85 32bd 754d bd3c 2211 a63d
000001b0: 8632 e7bd 19ef 23bd a59e 873d d059 9d3d
000001c0: 5bd7 2a3c a44d 913d 01f9 a1bd 6b49 813d
000001d0: 2274 d7bd 5353 d23d a929 053d 8e52 ad3d
000001e0: 6fb9 25bc 86da 4fbc 8eeb 723d f3d1 bb3d
000001f0: 091d e23c 9169 df3d 4352 01be 3151 78bc
00000200: 1cd0 99bc 7659 1fbd 023f bc3d fe3d 43bc
00000210: 5ee6 f0bc 27f7 a5bd 30e6 49bd ca35 22bd
00000220: 8b16 2cbe 5bf4 883d ddbd 20bc 0def 21bd
00000230: 662f 4abd ace6 18ba 82c2 c43c da29 3fbd
00000240: 427c f6bc d9af 91bd 684f 99bd d4e6 d43d
00000250: 1d71 9f3c cc60 09be d6ee d1bd 721b 59bd
00000260: 4932 963a 1895 95bd c8cd 27be e3f4 b7bd
00000270: af19 0d3d fd2a 203d 8f35 d93c 41cc 5cbd
00000280: e563 333d 416d 90bd a4b3 a23d 493d af3d
00000290: 6691 623d 2c17 f4bd b61b bf3d ece3 4dbd
000002a0: 1f25 e3bb e1b3 f13b 1815 c63d dace 8d3d
000002b0: 59ee 89bb f51c e1bd 424b 703d 312e ec3d
000002c0: 6d23 6b3d 18e3 cdbd eabe 66bd 41d4 2a3d
000002d0: c0a3 1abd b65f 66bd 5357 efbc 4084 bf3d
000002e0: 604a 813c 20ee 44bd e009 3f3d 9c9d 933d
000002f0: 1646 bebd 8d5c ebbc f2aa 1b3d 3198 29be
00000300: b511 973c d5c5 c3bd 4cd1 4dbd 4ad9 423d
00000310: de5d 0cbe 78bf f7bd 54c9 edbc 5fcf a3bd
00000320: 13e2 b1bd 98e6 e43d 3974 013d e5b1 36bd
00000330: 1864 63bd 0d7e e33c b8ec 34bd e814 c33b
00000340: 191b 023e 9f18 993d 7187 02bd 78ff 873d
00000350: b2c9 a23d 18c0 9d3d b586 dcbc 7e89 383d
00000360: 4f65 86bd e567 ab3c 79b6 913d 2947 f9bd
00000370: d650 813c 0299 e23d dfaf 763d 57cb 073e
00000380: 0821 16bd 074f 9abc b64a 943d 3121 8cbc
00000390: bbbe f33d 8a77 623d 6217 8b3c 4d65 d3bc
000003a0: 732b fdbc 24bd c5bd 5212 9bbd f3e6 323d
000003b0: 7e80 85bd 63b5 aebd 334e adbd d5d1 e9bb
000003c0: 1c76 b73d 9419 cbbc 5206 03bd b267 b4bd
000003d0: 4d95 3bbd 0a01 59bd c45f b13d 678e 1f3d
000003e0: 9fe6 cf3d 4a32 a7bd 8c23 33bd 4edb d8bd
000003f0: a614 1c3d b246 82bd da3d 2abb 1b9a d63c
0.043683592 0.013193484 0.111957766 -0.0030005246 -0.07518792 0.09427584 0.09308001 0.09572604
-0.09920525 0.023620825 -0.10261805 -0.046132315 0.017147386 0.019605543 -0.017282901 0.013565068
-0.04740772 -0.06699933 -0.11730951 0.086043574 -0.045081966 0.0767917 -0.0010972156 -0.039269887
-0.064983435 -0.076224245 -0.0051824683 -0.08554278 -0.0465434 -0.011409483 0.055961084 0.07291507
-0.06874128 -0.05579951 0.08901713 0.01865452 -0.09597001 0.08055989 -0.013426031 0.099470876
-0.14224325 -0.008449364 -0.13885717 0.08383656 0.109411016 -0.020676065 0.08312758 -0.030675499
0.08447107 -0.073438376 0.077924825 0.10377372 -0.099059224 -0.1539357 0.03986286 -0.07703586
0.10347251 0.034715533 0.09233344 -0.07160641 -0.10450572 -0.100565106 -0.15787415 -0.086272545
-0.09062228 0.040140666 -0.06847377 -0.051184777 0.07130026 -0.069763266 -0.001957984 0.059659086
0.12551211 0.12043412 0.0055084466 -0.05063147 0.07427993 -0.09179272 -0.046292845 0.049682215
0.010026422 0.09449325 -0.012275909 -0.027437631 -0.09772859 -0.02574354 -0.048520487 0.10327107
-0.0008878373 0.04363291 -0.14061916 -0.0060480684 0.1353283 -0.1113437 -0.02852955 0.13852185
-0.08017035 -0.10872436 0.07163556 -0.018521722 -0.057982154 0.097936094 0.040543858 -0.044246048
-0.049615625 -0.04358398 0.023108223 0.081087366 -0.112889335 -0.040022943 0.06622056 0.07683146
0.010427321 0.07094887 -0.07908822 0.063128315 -0.105201975 0.10269799 0.032510433 0.08463012
-0.010115012 -0.012686377 0.059306674 0.09170904 0.027601736 0.10908807 -0.12629037 -0.015156076
-0.018775992 -0.038903676 0.09191705 -0.011916636 -0.029406723 -0.08103781 -0.04929179 -0.03960208
-0.16805474 0.06687232 -0.009810892 -0.039534617 -0.04936161 -0.00058327126 0.02401853 -0.046670772
-0.030088548 -0.071136184 -0.07485849 0.103955895 0.019463116 -0.13415831 -0.102506325 -0.05300469
0.0011459078 -0.07303828 -0.16387093 -0.08982255 0.034448322 0.039103497 0.026514797 -0.05390573
0.04379644 -0.070520885 0.0794442 0.08556611 0.055314444 -0.11918482 0.09331457 -0.05026619
-0.0069319154 0.0073761796 0.09671992 0.069242194 -0.0042093215 -0.10991851 0.05866552 0.11532248
0.05740683 -0.1005308 -0.056334414 0.041706327 -0.03775382 -0.05624362 -0.029216444 0.093513966
0.015782535 -0.048078656 0.046640277 0.07207796 -0.092907116 -0.028730655 0.038004823 -0.16561963
0.01844106 -0.09559218 -0.05024843 0.047570504 -0.13707682 -0.12097067 -0.029026665 -0.07998537
-0.08685698 0.11176795 0.03160498 -0.044603247 -0.05551538 0.027770067 -0.044171065 0.00595342
0.1270565 0.07475399 -0.03186745 0.06640524 0.079486266 0.077026546 -0.026919702 0.045052998
-0.06562292 0.020923564 0.07114882 -0.12171776 0.015785616 0.1106434 0.060226317 0.13261162
-0.036652595 -0.018836511 0.072408125 -0.01710567 0.11901613 0.055289783 0.016978923 -0.02580514
-0.030904507 -0.09655216 -0.07571854 0.04367728 -0.065186486 -0.085306905 -0.08462181 -0.0071356096
0.089580745 -0.02479247 -0.03198845 -0.08808841 -0.04579668 -0.052979507 0.08660844 0.038954165
0.10151409 -0.08163889 -0.043735072 -0.10588704 0.03810563 -0.0636114 -0.0025976808 0.02619653

bias f4 [64]
00000000: a5f5 bc3d c40b ddbd 5dd5 cd3d 1fbe a63d
00000010: ef64 09bd 12f0 8a3d c41a f9bd 0ab3 8abd
00000020: a19c f1bd 50a1 983b eece 48bd 50f7 f83d
00000030: 8eeb abbd 445d ecbd 8cf3 c43d eb8d d73d
00000040: 3da1 313d 1cbb 503d 81d5 3fbd 2336 ddbd
00000050: b825 d83d 9b31 593c f2de 6bbd 9572 52bd
00000060: edb7 a7bd 0967 dc3d 3640 f1bc e369 92bd
00000070: b80b 2d3d 93aa d23d 1724 753b d001 753d
00000080: 23fc 0b3c b446 a3bd 713d c3ba 80c6 e33d
00000090: 287d a63c ac85 72bd 00dd 983d 9fb1 7a3d
000000a0: eaa2 4a3d 6b8f 32bd 198e b63c a6b4 77bc
000000b0: 0358 603d 284b f4bd 6032 373d 35b6 8d3d
000000c0: 7f02 cd3b 1e81 42bd 20da ddbd 1b08 a33d
000000d0: 6fbe 903c ce36 71bd 49fe cabc 1757 a6bd
000000e0: 5f76 833d ec4f e33b f3cf be3d 1fd0 593d
000000f0: a33e 873d c7ac 803d 0859 f23c 425f 64bd
0.092265405 -0.1079326 0.100504614 0.081417315 -0.033543523 0.06784071 -0.12163308 -0.0677243
-0.11797453 0.004657902 -0.04902547 0.12156546 -0.08394538 -0.115412265 0.096167654 0.105251156
0.04336666 0.05095969 -0.046834473 -0.108013414 0.10554069 0.013256456 -0.057585664 -0.051378805
-0.08189378 0.1076184 -0.029449563 -0.071491025 0.042247504 0.10286441 0.0037405544 0.05981618
0.008544001 -0.0797247 -0.001489563 0.11121845 0.020323351 -0.05920951 0.074640274 0.06120455
0.049471773 -0.043593805 0.022284554 -0.015118754 0.054771435 -0.119283974 0.044725776 0.06919519
0.006256401 -0.047486417 -0.1083262 0.0796053 0.01766893 -0.058890156 -0.024779456 -0.0812208
0.06419062 0.0069370177 0.09317007 0.053176995 0.06603744 0.06282955 0.029583469 -0.055754907

weight f4 [64]
00000000: 6359 7b3f f627 7b3f f8a4 7a3f fbda 763f
00000010: 81b4 713f 67dc 723f 35f3 713f c1f8 6f3f
00000020: cf42 693f 2ebf 793f 9037 6f3f e1d7 693f
00000030: 3b74 723f b6f6 803f 6434 753f 7bcd 783f
00000040: 2b7e 713f 45a0 7e3f ca3e 703f 215a 7c3f
00000050: d229 6f3f 95f1 693f 1fb6 6f3f f641 743f
00000060: bd2f 763f 7859 703f ce7a 6a3f 33bc 743f
00000070: c1d4 7e3f 6ba6 783f 149e 733f 4ae9 773f
00000080: 43d2 6f3f aa01 753f 5fcc 7b3f 1f9f 773f
00000090: a9f1 6f3f 95e7 6a3f 4b08 7c3f b312 683f
000000a0: 135f 7c3f d372 753f 7474 6e3f 5eb3 763f
000000b0: 6a8f 693f 1425 713f ccd8 803f f601 7a3f
000000c0: e1c4 753f a951 6b3f 3634 713f fbf6 7e3f
000000d0: 0eb1 813f 46c2 693f 50c2 6f3f cc6f 743f
000000e0: 0a23 6b3f 0f67 6a3f 4474 7e3f 50c9 753f
000000f0: 0c37 6b3f 6b22 6a3f 8451 773f f74b 763f
0.9818327 0.9810785 0.9790797 0.9642789 0.9441605 0.9486756 0.9451173 0.93738943
0.91117567 0.9755734 0.93444157 0.9134503 0.94708604 1.007529 0.95783067 0.9718854
0.9433314 0.994633 0.9384581 0.98575026 0.9342319 0.9138425 0.9363727 0.9541315
0.9616659 0.9388652 0.91593635 0.9559967 0.99543387 0.97128934 0.95163083 0.96840346
0.9368021 0.95705664 0.9835872 0.96727175 0.9372812 0.91759616 0.98450154 0.9065353
0.9858257 0.9587833 0.93146443 0.9636744 0.9123446 0.941972 1.0066161 0.9765924
0.9600354 0.9192148 0.9422029 0.9959561 1.0132158 0.9131206 0.9365587 0.9548309
0.9185034 0.91563505 0.9939616 0.96010303 0.9188087 0.9145877 0.9660876 0.96209663

bias f4 [64]
00000000: f2a8 afbc b93a 42bd 698e 66bd 5439 2cbd
00000010: 9c45 86bd c4c5 86bc a93a 59bd 9a97 d5bc
00000020: a95c c2bd ecdc 71bb 2c14 26bd bfdd b5bc
00000030: 21fd 5bbd e1f4 a53c ddcd 8b3c ba5f d7bc
00000040: 6bc0 80bd 77d2 53bd 9a00 92bd 5d8f d43c
00000050: baaa 2fbd be9d 73bd 724a 85bc 627f f9bc
00000060: 828e 19bc 38ec f8bc 454a a4bc 9051 77bd
00000070: 48e3 743c 8497 45bd 3cb2 983b 255f 403b
00000080: 254a dfbc ef05 12bd d4ff 8e3c 346d d2bc
00000090: 370b 64bd 441c 10bd 9f75 b23b efae 3bbd
000000a0: af18 6abd 2a13 6bbd d41d acbd 3f9b a9bd
000000b0: 686c 7ebd ff9e 1bbd a782 933c 357a 4b3a
000000c0: ff3a 14bd 89b3 74bd 6ad3 debc 0f54 3f3c
000000d0: c73c 46bd 76ed d7bc bdac c6bc d54e 02bd
000000e0: 9336 c0bc 859b a8bd 5b0c 8c3b d822 d4bb
000000f0: ac67 87bd a89d 9bbd 425c efb9 ee9e 2d3c
-0.021442864 -0.047419284 -0.056288157 -0.04204686 -0.06556246 -0.016451724 -0.05303446 -0.026073266
-0.0949033 -0.0036905361 -0.04054658 -0.022200463 -0.0537082 0.020258369 0.017065937 -0.026290763
-0.06286701 -0.051714387 -0.07129021 0.025947267 -0.042887427 -0.059476607 -0.01627085 -0.030456249
-0.009372355 -0.030386075 -0.020054946 -0.06038052 0.014946766 -0.0482402 0.004659919 0.0029353586
-0.027257035 -0.03565019 0.017455973 -0.025686838 -0.055674758 -0.035183206 0.0054461504 -0.045821127
-0.057152446 -0.057391323 -0.08404127 -0.08281564 -0.062115103 -0.037993427 0.018006636 0.0007762046
-0.036189076 -0.05974153 -0.02720042 0.011677756 -0.048397806 -0.026358347 -0.02425229 -0.03181346
-0.023463523 -0.08232788 0.004273934 -0.0064738803 -0.06611571 -0.0759843 -0.0004565437 0.010596974

running_mean f4 [64]
00000000: 4a9c 07be 6fc2 1cbc dbca 86be 2b31 22bd
00000010: e173 d9be 285b c53e 3c31 30be 5fac 10be
00000020: 1e22 63be c020 cbbc 082d 5dbe dd00 853d
00000030: 412b 94be addc 323e 5414 0e3e 6759 9fbd
00000040: 9adc 09be 28ce 3c3c 24fe 1a3b fb6f 533d
00000050: 9ba5 f53d ee6e 02be 1980 6fbe cd51 1dbf
00000060: aaac c6be 9454 cabd b354 0bbe ba64 c2bd
00000070: e22a 253f 6566 193f cbd9 1c3e e36e 21bd
00000080: 6678 243f 6835 d43d 2007 963e 700e 0a3e
00000090: fbe8 293e b838 0abf 768a 8a3e c40a b8be
000000a0: c69d 80be f8f5 6bbe caf2 73be 6014 edbe
000000b0: 6ef9 a53e 8314 cebe 85d2 9ebe fb1e f5bd
000000c0: d454 133e 82d0 16bf 50e4 933d dd52 ae3e
000000d0: 1bd8 94be 6090 47bd 9e79 b0be 2493 963d
000000e0: 4179 c23e 7c73 2abd ba25 c13e cbe2 b53e
000000f0: 54ef 4a3e 858a a7be 675a ae3d b7c8 ca3d
-0.13243213 -0.009567841 -0.2632664 -0.03959767 -0.4247122 0.3854611 -0.17206281 -0.14128254
-0.22180983 -0.02479589 -0.2159921 0.06494305 -0.2893925 0.17466994 0.13874942 -0.07780724
-0.13463059 0.011523761 0.0023650015 0.051620465 0.11994477 -0.12737629 -0.23388709 -0.61452943
-0.38803607 -0.09879413 -0.13606529 -0.09491868 0.6451856 0.59921867 0.15317456 -0.03941239
0.64246213 0.10361749 0.2930231 0.1348207 0.16592781 -0.53992796 0.27058762 -0.35945714
-0.25120372 -0.23043048 -0.23823085 -0.46304607 0.32416862 -0.40250024 -0.3101999 -0.119688
0.14387828 -0.5891191 0.072212815 0.34047595 -0.29071125 -0.04872167 -0.34467787 0.073522836
0.37983134 -0.04161404 0.37724096 0.35524592 0.19817859 -0.3272287 0.08513337 0.099015646

running_var f4 [64]
00000000: d4b7 b03e aea9 0c3e ddf9 ad3e ce05 833e
00000010: 40e1 0b3e aa97 8d3e e680 3b3e 8397 9d3e
00000020: 5076 8d3e e31e 7c3e b41a 843e 0e16 673e
00000030: 6020 003e 69c6 873e 45c4 5a3e 138d 703e
00000040: 02d9 623e 894a 8f3e 2e45 963e fded 403e
00000050: 5fe1 2c3e 9bdd 7c3e 36f2 893e 6eeb 903e
00000060: 07ed 493e 6a86 9b3e 337b 803e b509 8c3e
00000070: 6e8c 7a3e 7aa8 983e c5a1 403e 0ccd 853e
00000080: 20b6 363e 6c1f 4e3e 7381 703e 5f0f 973e
00000090: 4942 8f3e 001d 853e 7655 753e e317 6c3e
000000a0: 33a9 3d3e b8b3 453e c296 673e 64b8 b03e
000000b0: e495 3b3e e219 203e 13bc 7b3e 6985 a03e
000000c0: cb07 363e 2ec0 743e 227b 403e a04a 9e3e
000000d0: da6f a63e 4b38 8d3e adf1 7e3e f0fd 5f3e
000000e0: ceac 853e 3255 683e 473f 5e3e b9fc 363e
000000f0: c4dd 073f d334 1b3e a849 093e 6f96 973e
0.3451525 0.13736603 0.33979693 0.25590366 0.13660145 0.27654773 0.1831089 0.30779657
0.27629328 0.24621157 0.25801623 0.22567007 0.1251235 0.26518562 0.21363933 0.23491316
0.22153094 0.27986553 0.29349655 0.18840785 0.16882847 0.24693911 0.26942605 0.2830462
0.19719325 0.30375987 0.25093994 0.27351156 0.24467632 0.29816037 0.1881171 0.26133
0.17842913 0.20129174 0.23486881 0.29503915 0.2798026 0.25998688 0.23958382 0.23055987
0.18521576 0.19306839 0.22616103 0.3451568 0.18318897 0.15634874 0.24583463 0.31351784
0.1777641 0.23901436 0.18796971 0.3091631 0.3250721 0.2758201 0.2489688 0.21874213
0.26108402 0.2268875 0.21703826 0.17869844 0.5307276 0.1515687 0.13407004 0.2960696

weight f4 [1, 64]
00000000: 2fca 96bb 7a5c b53b fb97 90bc b86b b03c
00000010: 4b79 7abc f9bc 4ebc de37 78bc 0a99 54bc
00000020: 0081 aebc c7d6 38bc 1864 323c 1f35 dc3b
00000030: 913f 2b3b b692 403c ebd1 023c 7a3b 073c
00000040: cda3 993c 7ee7 1abc 1d84 e9bb 9c19 363c
00000050: 4aa1 41bc 3f34 05bb 92b9 5b3c a0b9 d93b
00000060: 18a4 2a3c 42cd 30bc b775 8f3c fe3a 543c
00000070: 43fc 63bc 5883 4ebc 0780 163c 8a05 b838
00000080: 55cd febb c531 4cbc a29e 1fbc 281f 5bbc
00000090: 6d5d 4c3c c37f c4bb 7e18 1c3c d0aa 153c
000000a0: c317 8cbb ec1f 2fbc 8615 44bc accc afbc
000000b0: 6e3b 14bc f538 353c 5cea fc3b 5876 843c
000000c0: 62f8 2c3c ac4c 97bc 831c 35bc e32e 0b3c
000000d0: da6e 8f3c 42ef 90bc 6d97 9f3a c9fa 393c
000000e0: 03a7 6abc da99 b73c f0ed e13b 5d72 513b
000000f0: 8b06 ce3c f92a 0bbc 2388 c53b 3d1c ba3b
-0.004601739 0.0055347057 -0.017650595 0.02153574 -0.015287708 -0.012618297 -0.0151500385 -0.0129759405
-0.021301746 -0.011281676 0.010888122 0.0067201997 0.0026130418 0.011753729 0.007984619 0.008253926
0.018754864 -0.009454606 -0.007126345 0.011114504 -0.011818239 -0.002032533 0.013410943 0.0066444427
0.0104151 -0.010791125 0.017512185 0.012953518 -0.013915124 -0.012604557 0.009185798 8.7748354e-05
-0.0077759423 -0.012463038 -0.009742411 -0.013374127 0.012473446 -0.0059966757 0.009527324 0.009134963
-0.0042752936 -0.010688763 -0.011968022 -0.0214599 -0.009047372 0.011060943 0.0077183675 0.016169712
0.010557266 -0.018469177 -0.011054161 0.008495065 0.017508913 -0.017692212 0.0012175866 0.011351296
-0.014322045 0.02241223 0.0068948194 0.0031959035 0.025149604 -0.008494132 0.0060281917 0.005679636
