Industrial Equipment/mlruns/0/b7d51b97c77f464c8582f636e06341ce/artifacts/discriminator_model/data/model.pth (torch, 30142 bytes, 13 tensors)

weight f4 [64, 5]
0	0xbe5c3541	-0.2150469
1	0x3d626618	0.055273145
2	0x3d7f9c07	0.06240466
3	0xbec8b102	-0.39197546
4	0xbe86fb12	-0.26363426
5	0x3e3070da	0.1723055
6	0xbdb3e71b	-0.08784314
7	0x3ed9c20d	0.42530861
8	0xbe89f6a5	-0.26945987
9	0x3ecff54c	0.40616834
10	0x3da37fc4	0.07983354
11	0x3dc93de6	0.09826259
12	0xbc391ff4	-0.011299122
13	0x3eb93af0	0.36177778
14	0x3dbb8b2a	0.09157403
15	0x3e119d16	0.1422008
16	0x3ee132df	0.43984124
17	0xbe662149	-0.22473635
18	0xbd37584b	-0.044761937
19	0x3e4e26d8	0.20132005
20	0xbc29e6d1	-0.010369972
21	0x3d5d81c9	0.05407885
22	0x3e403dca	0.1877357
23	0x3d958672	0.07301034
24	0xbe4154b7	-0.18879972
25	0xbd5ce2d3	-0.053927254
26	0xbe8114ef	-0.25211284
27	0xbebc6fba	-0.3680399
28	0x3e23c54e	0.15993235
29	0xbe6987ea	-0.22805753
30	0x3e9416a0	0.28923512
31	0x3d97cd67	0.07412224
32	0xbeadcadb	-0.3394383
33	0x3e8df5d4	0.27726614
34	0xbe5e18d3	-0.21689157
35	0x3e43c2b8	0.19117248
36	0xbd99914e	-0.07498418
37	0x3e8a1486	0.26968783
38	0xbe33c288	-0.17554677
39	0xbeb66eb5	-0.35631338
40	0xbdf8dc8a	-0.121514395
41	0x3e930f1e	0.2872247
42	0xbe701b8d	-0.2344801
43	0xbe8c10a5	-0.2735645
44	0x3e429f51	0.19006087
45	0x3dd7dbf7	0.10540002
46	0x3dcb14dd	0.09916089
47	0x3e435bc3	0.19077973
48	0x3ee498eb	0.44647917
49	0xbeccef51	-0.40026334
50	0xbe368d34	-0.17827302
51	0x3dd96ade	0.106160864
52	0x3eab8a8b	0.33504137
53	0x3e30a7af	0.17251466
54	0xbeb87bb0	-0.36031866
55	0x3ec4c359	0.38430288
56	0x3de511db	0.11185046
57	0xbe902fa1	-0.28161338
58	0xbed5921f	-0.41713044
59	0xbe4e8e6a	-0.20171514
60	0x3eb4c72c	0.35308206
61	0x3edd9164	0.43274987
62	0xbe0c8ea6	-0.13726291
63	0xbed0d40a	-0.40786773
64	0x3ebc5f8d	0.3679165
65	0x3c9364c8	0.017992392
66	0xbe95804c	-0.29199445
67	0x3e823110	0.25428057
68	0xbe5de600	-0.2166977
69	0xbedb21fb	-0.42799363
70	0x3e103b99	0.14085235
71	0x3eb514ed	0.35367528
72	0xbe823cf0	-0.25437117
73	0xbd93c48f	-0.07215225
74	0x3e2b0ceb	0.16704147
75	0x3e2e4718	0.17019308
76	0xbd04b7f1	-0.032401983
77	0x3e2046be	0.15651986
78	0x3ede5862	0.43426806
79	0xbe06612b	-0.13123004
80	0x3dfaea32	0.122517005
81	0x3eb294fc	0.3487929
82	0x3eb353dc	0.35024917
83	0xbede13c8	-0.43374467
84	0xbd9aef57	-0.07565182
85	0x3e530e0d	0.20610829
86	0x3da87514	0.08225456
87	0xbe3e2141	-0.18567373
88	0xbe1ba261	-0.15198661
89	0x3ddffcab	0.109368645
90	0xbe1b9ab3	-0.15195732
91	0xbdf387de	-0.11891149
92	0xbd9674da	-0.073465064
93	0xbecd1d44	-0.4006139
94	0xbe94b009	-0.29040554
95	0x3d087c8c	0.033321902
96	0xbe8899fc	-0.2667998
97	0x3ed24c1c	0.41073692
98	0xbe690133	-0.22754364
99	0x3e5dfcea	0.2167851
100	0xbe499db5	-0.19689067
101	0x38312908	4.2238302e-05
102	0xbdfd416f	-0.12365996
103	0xbea894d2	-0.3292604
104	0xbe24684a	-0.16055408
105	0x3d8f346c	0.069924206
106	0xbcbe0195	-0.023194114
107	0xbed062cf	-0.40700385
108	0x3e0bff78	0.13671672
109	0x3d585bb6	0.052821837
110	0x3ddeea3b	0.1088452
111	0xbb107c7e	-0.002204686
112	0xbecf3c52	-0.40475708
113	0x3e83dd98	0.25755
114	0x3e6954fa	0.22786322
115	0x3eba909d	0.36438456
116	0x3d6a4a38	0.057199687
117	0x3e1bd02a	0.15216127
118	0x3d70483a	0.05866263
119	0xbea0059b	-0.31254277
120	0x3e8e5e63	0.27806386
121	0xbeda2c65	-0.42611995
122	0xbd63876e	-0.055549078
123	0x3e038833	0.12844925
124	0xbeaaa97a	-0.33332425
125	0x3cd4305a	0.025901962
126	0x3d917f3d	0.07104347
127	0x3edc3f26	0.43016928
128	0x3ec716e7	0.3888466
129	0x3e640763	0.22268443
130	0x3ec5f92f	0.38666674
131	0x3e2fd004	0.17169195
132	0x3eb7370b	0.35784182
133	0xbce47e71	-0.027892323
134	0xbe0c05d9	-0.13674106
135	0xbe3f07c4	-0.18655306
136	0xbe87cc95	-0.2652327
137	0x3d4cb2e7	0.049975302
138	0xbc1049b2	-0.008806633
139	0xbdd3b739	-0.10337681
140	0x3ee5ae08	0.44859338
141	0x3ec5ed26	0.38657492
142	0x3e2ee87e	0.17080876
143	0xbe9f30ec	-0.31092012
144	0xbe3ce084	-0.18445021
145	0xbe7a6016	-0.24450716
146	0x3e28b4aa	0.16475168
147	0xbc13ccb3	-0.009020972
148	0xbe8c4d91	-0.27402928
149	0xbe033ece	-0.12816927
150	0x3d3e5f04	0.046477333
151	0x3ead0a14	0.33796751
152	0x3edd6189	0.43238476
153	0xbe827b04	-0.25484478
154	0xbd7e7dc3	-0.062131654
155	0x3cbc635d	0.022996599
156	0xbdfc66f2	-0.12324323
157	0xbe2c7ea1	-0.1684518
158	0x3ea333d8	0.3187549
159	0xbe7a1fd3	-0.24426202
160	0xbecf7f4c	-0.40526807
161	0x3e46d7f0	0.19418311
162	0xbe4342bb	-0.19068424
163	0xbd5e6282	-0.054293163
164	0xbe4d2357	-0.20033012
165	0x3eb90928	0.36139798
166	0xbe2bc1a2	-0.16773084
167	0x3db011f5	0.08597175
168	0xbebc530a	-0.36782104
169	0x3e578719	0.2104763
170	0xbec1bb87	-0.37838385
171	0xbed4f70b	-0.4159473
172	0x3e2a28e2	0.16617158
173	0xbdaefb65	-0.085440435
174	0xbeb184b1	-0.34671548
175	0xbed6b164	-0.41932213
176	0x3add549b	0.0016886176
177	0x3e38424b	0.17994039
178	0xbedbfc2e	-0.42965835
179	0xbd2a65ae	-0.041600876
180	0xbe1a885a	-0.15091076
181	0x3d2d7657	0.042349186
182	0xbed2db7f	-0.41183087
183	0xbe6e12c7	-0.2324935
184	0xbebadf50	-0.364985
185	0x3e91ce09	0.28477505
186	0xbe60da0a	-0.21958175
187	0xbe3f592c	-0.1868636
188	0x3dd17a94	0.10228458
189	0xbdb9b05a	-0.090668395
190	0xbe3b4e84	-0.1829167
191	0x3d58e393	0.052951407
192	0xbea4339e	-0.3207063
193	0xbd6e22d2	-0.058138676
194	0x3de3f08e	0.111298665
195	0xbde2fd13	-0.11083426
196	0x3c6b15a0	0.0143484175
197	0xbebf8796	-0.3740813
198	0x3eca0e37	0.3946397
199	0xbec708a8	-0.38873792
200	0xbe76412f	-0.24048303
201	0xbeac3fe6	-0.336425
202	0x3d82d0d8	0.0638749
203	0x3d99d329	0.07510979
204	0x3dd45e38	0.10369533
205	0x3ea7e2d3	0.3279024
206	0xbdd42465	-0.10358504
207	0x3dcd5573	0.10026064
208	0x3e7632a7	0.2404276
209	0xbc8fb20a	-0.01754095
210	0x3e876359	0.26442984
211	0x3e5c1778	0.21493328
212	0x3e175e8f	0.14782165
213	0xbe979bd6	-0.2961108
214	0x3ec13bb7	0.3774087
215	0x3e6e4efe	0.2327232
216	0xbe7fd2bd	-0.24982734
217	0x3ec5f5bc	0.38664043
218	0x3e031629	0.12801422
219	0xbeabbe33	-0.33543548
220	0xbebcefd5	-0.36901727
221	0xbdcb8cef	-0.0993899
222	0x3e83bc41	0.25729564
223	0xbd3b1030	-0.045669734
224	0x3da5e5fe	0.08100508
225	0x3ed3a908	0.41339898
226	0x3eb2629d	0.3484086
227	0xbe9a81da	-0.30177194
228	0x3dfb664a	0.122753695
229	0xbe99172c	-0.2990049
230	0x3ec94f73	0.39318427
231	0xbeb0b7da	-0.34515268
232	0xbeeb151f	-0.45914552
233	0x3e4d1d94	0.20030814
234	0x3e24ab51	0.16080977
235	0x3e7ad9d0	0.24497151
236	0xbe09ac80	-0.1344471
237	0x3d8a552e	0.06754528
238	0xbbd9e8f8	-0.0066500865
239	0xbcf3d933	-0.029766655
240	0xbd182750	-0.037146866
241	0x3d43663a	0.047704913
242	0xbc740519	-0.0148937935
243	0xbeb954d7	-0.3619754
244	0xbe240cad	-0.1602046
245	0xbe714c13	-0.23564176
246	0x3dc6f504	0.09714702
247	0x3edd4726	0.43218344
248	0xbec235a8	-0.3793156
249	0x3e9a4216	0.30128545
250	0xbedaccdf	-0.4273443
251	0x3ebd1745	0.36931816
252	0x3e81f69d	0.25383464
253	0xbed50205	-0.41603103
254	0xbe0e21fe	-0.13880154
255	0xbe7e113b	-0.2481126

bias f4 [64]
0	0x3ed3da9e	0.4137773
1	0x3ee13b05	0.4399034
2	0x3e27abb2	0.1637409
3	0x3edf9570	0.436687
4	0xbe8fe1fd	-0.28102103
5	0x3ed48f26	0.41515464
6	0xbc91f8e7	-0.017818881
7	0xbebd7ff6	-0.3701169
8	0xbc22a941	-0.009928049
9	0xbe35b8d7	-0.17746292
10	0x3e16da2b	0.14731662
11	0x3e1249b0	0.14285922
12	0xbd910fae	-0.07083069
13	0xbeb42522	-0.3518458
14	0x3ee363cb	0.44412073
15	0x3e9234bc	0.28555858
16	0x3eddb21c	0.4329995
17	0x3e7987b6	0.24368176
18	0xbe421685	-0.18953903
19	0xbe2b1b32	-0.16709593
20	0xbe8a5b4b	-0.27022776
21	0x3eced00c	0.40393102
22	0xbd6847d2	-0.05670912
23	0xbcc7facf	-0.024411587
24	0xbea8d478	-0.329746
25	0xbe18b8f2	-0.14914301
26	0xbd5556d7	-0.05208477
27	0x3e4123c1	0.18861295
28	0xbe8624fd	-0.26200095
29	0x3d9ef6d9	0.07761926
30	0x3e9132eb	0.2835916
31	0xbe86f00b	-0.26355013
32	0xbe8d9685	-0.276539
33	0xbe54272c	-0.20718068
34	0xbda01ae8	-0.07817632
35	0xbd5b8a99	-0.053598974
36	0x3e37cf6e	0.17950222
37	0xbee1e907	-0.44123098
38	0x3e1c8bf7	0.15287767
39	0x3ed7a6ab	0.42119345
40	0xbe9f58cc	-0.31122434
41	0x3e468c99	0.19389571
42	0xbcca5c3c	-0.024702184
43	0xbe73dbcc	-0.23814315
44	0x3ed1c989	0.40974072
45	0xbe624390	-0.22096086
46	0xbd4350c4	-0.047684446
47	0xbdadbef8	-0.0848369
48	0xbed2102b	-0.4102796
49	0xbe672161	-0.22571327
50	0xbe68d18c	-0.22736186
51	0xbdcf6a40	-0.101276875
52	0x3c3a0ad0	0.011355117
53	0xbc98aa48	-0.018635884
54	0x3c333fc4	0.010940496
55	0xbed2e9d4	-0.41194022
56	0x3ee25320	0.44204044
57	0xbe0559eb	-0.13022582
58	0x3e9aca97	0.3023269
59	0x3d24879e	0.040168397
60	0x3dea5ef2	0.11443891
61	0xbd83c684	-0.06434348
62	0x3ee42aa8	0.44563794
63	0xbe922fca	-0.28552085

weight f4 [64]
0	0x3f7e0016	0.9921888
1	0x3f7a3c54	0.97748303
2	0x3f775fca	0.9663054
3	0x3f824f75	1.0180498
4	0x3f7faf35	0.9987672
5	0x3f80b70d	1.0055863
6	0x3f7a4372	0.97759163
7	0x3f84536e	1.0337961
8	0x3f792b0d	0.97331315
9	0x3f8382e1	1.0274316
10	0x3f81d069	1.0141727
11	0x3f8231a2	1.0171397
12	0x3f7a1861	0.9769345
13	0x3f81afb5	1.0131747
14	0x3f7eb98c	0.9950187
15	0x3f7c13fe	0.98468006
16	0x3f80afbd	1.0053631
17	0x3f8051df	1.0024985
18	0x3f78dda3	0.9721319
19	0x3f81160d	1.0084854
20	0x3f806526	1.0030868
21	0x3f808f93	1.0043815
22	0x3f7dd6cb	0.99155873
23	0x3f7de6ec	0.99180484
24	0x3f7e5bd3	0.9935886
25	0x3f808985	1.0041968
26	0x3f7b995b	0.98280877
27	0x3f7dc660	0.9913082
28	0x3f7c16df	0.984724
29	0x3f7f7a5e	0.9979609
30	0x3f7e8a94	0.99430203
31	0x3f80eb48	1.0071802
32	0x3f80a57e	1.0050504
33	0x3f7e3b8a	0.993096
34	0x3f833d49	1.0253078
35	0x3f7bc168	0.9834199
36	0x3f83fb2f	1.031103
37	0x3f823751	1.0173131
38	0x3f8565f4	1.0421739
39	0x3f812310	1.0088825
40	0x3f8225ca	1.0167782
41	0x3f7ada20	0.9798908
42	0x3f81c38d	1.0137802
43	0x3f8061eb	1.0029882
44	0x3f7bda09	0.9837957
45	0x3f7b537a	0.9817425
46	0x3f7d3e64	0.98923326
47	0x3f776820	0.9664326
48	0x3f81a228	1.0127611
49	0x3f7eed19	0.9958053
50	0x3f802474	1.0011125
51	0x3f82abe3	1.0208706
52	0x3f7d1ef0	0.9887533
53	0x3f7cdd1f	0.98774904
54	0x3f83c84b	1.02955
55	0x3f77240c	0.9653938
56	0x3f807f3e	1.0038831
57	0x3f807b20	1.0037575
58	0x3f79fbb1	0.97649676
59	0x3f830f20	1.0238991
60	0x3f83433a	1.0254891
61	0x3f81f81f	1.0153846
62	0x3f7cecf3	0.98799056
63	0x3f7da1cc	0.9907501

bias f4 [64]
0	0xbc6d1392	-0.014469998
1	0xbc9af669	-0.018916326
2	0xbc0e0ec4	-0.008670513
3	0x3bc3dc53	0.0059771924
4	0xbae4de0b	-0.0017461193
5	0x3ba4050a	0.0050054835
6	0xbcbff837	-0.023433788
7	0xbaa4ee42	-0.0012583213
8	0xbcdc14e3	-0.026865428
9	0xbb85fb50	-0.0040887967
10	0x3b8658fb	0.004099963
11	0xbc08a7f2	-0.0083408225
12	0xbd4515f2	-0.04811663
13	0x3ba62e16	0.005071412
14	0xbd37733f	-0.04478764
15	0xbd156a54	-0.036478356
16	0xbd4b7537	-0.04967233
17	0xbd040c98	-0.032238573
18	0xbc8a766d	-0.016902173
19	0xbd03831a	-0.03210745
20	0xbcac09b4	-0.02100072
21	0x3d0297e5	0.03188314
22	0xbcf8832d	-0.030335987
23	0xbc2fb4d1	-0.010724262
24	0xbc94989b	-0.018139174
25	0xbc4906e8	-0.012269713
26	0xbbe31d8b	-0.006931012
27	0xbcac160c	-0.021006607
28	0xbcb73e96	-0.02236871
29	0xbd21b97e	-0.03948354
30	0xbc76bd7b	-0.015059824
31	0x3bc13ac3	0.0058968975
32	0x3c422354	0.011849243
33	0xbcd23805	-0.025661478
34	0x3c11df93	0.008903402
35	0x3c39d0d0	0.011341289
36	0xbbb603a3	-0.0055546327
37	0xbcdc5373	-0.02689526
38	0x3c61ad14	0.013774175
39	0x39ce77d9	0.00039380675
40	0x3bbc1e38	0.005740907
41	0xbcbb91d4	-0.022896685
42	0x3bc922b5	0.0061381706
43	0xbcbfcf27	-0.023414208
44	0xbcaa6ac9	-0.020802872
45	0xbc4b1785	-0.012395744
46	0xbc74e0c2	-0.014946165
47	0xbd449fc6	-0.048003934
48	0xbc39dc3a	-0.01134401
49	0xbc2e0e3c	-0.010623511
50	0xbc3a4e55	-0.011371215
51	0x3bd708f5	0.006562347
52	0xbca5d1b7	-0.020241601
53	0xbc858c85	-0.016302356
54	0xbc9f6151	-0.019455584
55	0xbcfb7c83	-0.03069902
56	0x3c7b294e	0.015329672
57	0xbbdea42e	-0.006794474
58	0xbc4fece4	-0.0126907565
59	0x3c5d72e6	0.013516163
60	0xbc5e360f	-0.013562693
61	0xbb22fbce	-0.0024869326
62	0xbc836517	-0.016039414
63	0xbaa5af8f	-0.0012640822

running_mean f4 [64]
0	0x3ecf8971	0.40534547
1	0x3edb97f8	0.4288938
2	0x3e293f88	0.16528141
3	0x3ed31d2b	0.4123319
4	0xbe8cea18	-0.2752235
5	0x3ee07eb3	0.43846664
6	0x3bc3f9a3	0.0059806868
7	0xbeb1a491	-0.34695867
8	0xbd2bf9da	-0.041986324
9	0xbe1cbbec	-0.15306062
10	0x3e1ba728	0.15200484
11	0x3e1efb45	0.15525539
12	0xbdcbec12	-0.09957136
13	0xbea5809c	-0.32324684
14	0x3ed9926d	0.42494527
15	0x3e9d9c8c	0.30783498
16	0x3ed4c43e	0.4155597
17	0x3e7751dc	0.2415232
18	0xbe3de210	-0.18543267
19	0xbe2a9604	-0.16658789
20	0xbe8e4f43	-0.27794847
21	0x3ed184f6	0.40921754
22	0xbd64d055	-0.055862743
23	0x3b2427d2	0.0025048149
24	0xbe8f7529	-0.28019074
25	0xbe1e2251	-0.15442778
26	0xbd2099bc	-0.039209113
27	0x3e4a67e7	0.19766198
28	0xbe8518a8	-0.25995374
29	0x3d725377	0.05916163
30	0x3e883031	0.26599267
31	0xbe75c13b	-0.23999493
32	0xbe978b33	-0.29598388
33	0xbe4bcc17	-0.19902073
34	0xbd7bcfb3	-0.061477374
35	0xbda0c333	-0.07849731
36	0x3e3afbe2	0.18260148
37	0xbed2edb5	-0.4119698
38	0x3e0c7979	0.13718213
39	0x3ee14814	0.44000304
40	0xbe9dc5c7	-0.30814955
41	0x3e5f83a4	0.2182756
42	0xbd39fcca	-0.045407094
43	0xbe4ccc77	-0.19999872
44	0x3ec9aa51	0.39387754
45	0xbe51b831	-0.2048042
46	0xbc80c1c1	-0.015717389
47	0xbd885343	-0.06656506
48	0xbed416ad	-0.4142355
49	0xbe85c157	-0.2612407
50	0xbe8879cc	-0.26655424
51	0xbdeb79a0	-0.114978075
52	0x3d0bf368	0.034167677
53	0xbd37cac2	-0.0448711
54	0xbc535dff	-0.012900828
55	0xbec410b6	-0.38294
56	0x3ee600c9	0.44922474
57	0xbdfa3f8e	-0.12219153
58	0x3e9c9999	0.30585936
59	0x3d546401	0.051853184
60	0x3de969c6	0.11397128
61	0xbd985f68	-0.07440072
62	0x3eea27f4	0.45733607
63	0xbe8ffdb8	-0.2812326

running_var f4 [64]
0	0x3dc68f1b	0.09695264
1	0x3e36a6bc	0.17837042
2	0x3d5cc175	0.053895433
3	0x3e00fedf	0.12597226
4	0x3cf681ad	0.030091131
5	0x3dd9179e	0.10600208
6	0x3dfaaac8	0.12239605
7	0x3dd5955a	0.10428877
8	0x3dc81d6a	0.09771235
9	0x3e179e1a	0.14806405
10	0x3de9f0b6	0.11422865
11	0x3e1d4d28	0.15361464
12	0x3e75da78	0.2400912
13	0x3e1bd211	0.15216853
14	0x3dce1b62	0.100638166
15	0x3db55986	0.08854966
16	0x3e28988c	0.16464442
17	0x3d30bfde	0.04315173
18	0x3dd38242	0.10327579
19	0x3e0cf378	0.13764751
20	0x3d859e35	0.06524316
21	0x3d9e4752	0.07728447
22	0x3dee28fd	0.11628912
23	0x3dba2a12	0.090900555
24	0x3e046b84	0.12931639
25	0x3e111c04	0.14170843
26	0x3df49ff5	0.11944572
27	0x3d401564	0.0468954
28	0x3e3ba1fc	0.18323511
29	0x3d6d1f6e	0.0578913
30	0x3e0c8903	0.13724141
31	0x3d9933d0	0.074805856
32	0x3dbe1cd0	0.09282839
33	0x3de2cd8a	0.1107436
34	0x3e411bd5	0.18858273
35	0x3e085448	0.13313401
36	0x3e164c01	0.1467743
37	0x3d62b9fd	0.055353153
38	0x3d75e7f0	0.060035646
39	0x3e340122	0.17578557
40	0x3d960176	0.073244974
41	0x3d72c78a	0.059272327
42	0x3e0d726e	0.13813183
43	0x3e1bd042	0.15216163
44	0x3da0dd18	0.0785467
45	0x3e402695	0.18764718
46	0x3e38819c	0.18018192
47	0x3ccd6aee	0.025075402
48	0x3d631418	0.055439085
49	0x3e36cc97	0.17851482
50	0x3e3b4099	0.18286361
51	0x3d84f2c3	0.064916156
52	0x3d5cdac8	0.053919584
53	0x3e97861a	0.295945
54	0x3e18d22c	0.14923924
55	0x3dd8871d	0.10572646
56	0x3d2c72f1	0.042101804
57	0x3e22cee5	0.15899237
58	0x3d94203a	0.07232709
59	0x3e7ca580	0.24672508
60	0x3d0b980e	0.034080558
61	0x3e1d43b4	0.15357858
62	0x3dc3443b	0.09534498
63	0x3e2e40a0	0.1701684

weight f4 [64, 64]
0	0xbe159f36	-0.14611515
1	0xbdbb6dd0	-0.091518044
2	0x3d914b5a	0.0709445
3	0xbcd4eefa	-0.02599286
4	0x3d060217	0.032716837
5	0x3cfff9fb	0.03124713
6	0x3c0f7d86	0.008757954
7	0xbb9412d1	-0.0045188447
8	0x3d022824	0.031776562
9	0xbe24ce00	-0.16094208
10	0xbd17acc7	-0.037030008
11	0xbd4b5806	-0.049644493
12	0x3bce7435	0.006300474
13	0xbdab6cb4	-0.08370343
14	0x3d76f10e	0.06028848
15	0xbd641f51	-0.05569393
16	0xbd448cc6	-0.047985815
17	0xbbd89616	-0.0066096885
18	0xbda19e67	-0.07891541
19	0x3af168c1	0.001841806
20	0x3b77537b	0.0037738967
21	0x3e09c452	0.13453797
22	0x3b6d1ec1	0.003618166
23	0xbdd17f2c	-0.10229334
24	0xbd5e9494	-0.054340914
25	0x3e0aa9c4	0.13541323
26	0x3d7e8ef0	0.062148035
27	0xbd92b5da	-0.07163592
28	0xbd18d146	-0.037308954
29	0x3d9c3820	0.076278925
30	0x3daf093a	0.08546682
31	0xbcdd192b	-0.02698954
32	0xbd0aac92	-0.033855982
33	0x3ddd891d	0.10817168
34	0xbd674208	-0.056459457
35	0x3cc1ed5d	0.023672754
36	0x3cdcd0d7	0.026955051
37	0xbd9236ff	-0.07139396
38	0x3d2542a8	0.04034677
39	0xbdf63cc4	-0.12023309
40	0xbd215b1e	-0.039393537
41	0x3cc3e5d7	0.023913307
42	0x3db54d5c	0.08852646
43	0x3d28bb58	0.04119429
44	0x3d784206	0.06060984
45	0xbd2e3cb3	-0.042538356
46	0xbce7979a	-0.028270531
47	0x3de4e863	0.11177137
48	0xbc5df244	-0.01354653
49	0x3cfcf5eb	0.030878982
50	0x3b45cd95	0.003018235
51	0x3dc27ad6	0.09496085
52	0xbb0552c6	-0.0020343526
53	0xbd739b45	-0.05947425
54	0x3d75e866	0.060036086
55	0x3ca8f736	0.020625692
56	0xbddf455c	-0.10901901
57	0xbda7fe5e	-0.082028136
58	0xbd4c5564	-0.049886122
59	0xbdeea7c5	-0.11653093
60	0x3dba8e8f	0.09109222
61	0x3d9febf8	0.07808679
62	0x3db0091d	0.08595488
63	0xbdcce3b8	-0.100043714
64	0x3d313ea6	0.043272637
65	0x3d7be649	0.061498914
66	0xbdcf129d	-0.10110972
67	0x3cac0747	0.020999564
68	0xbdfae928	-0.12251502
69	0x3d0f13b7	0.03493091
70	0x3e0471cb	0.12934034
71	0x3d185f96	0.037200533
72	0xbd4edaf4	-0.05050178
73	0xbcba5c1c	-0.022749
74	0xbdc28c69	-0.09499437
75	0x3e0f88fa	0.14017096
76	0xbd7ac1bd	-0.06121992
77	0x3c26e971	0.010187493
78	0x3dd6f0d2	0.104951516
79	0x3d6807fb	0.056648236
80	0xbc83da9c	-0.016095452
81	0x3d87427b	0.06604477
82	0xbd13abcf	-0.03605252
83	0x3bea4dc8	0.0071503855
84	0x3d3b1305	0.045672435
85	0xbdd4b398	-0.10385817
86	0x3e06f876	0.13180718
87	0xbde62794	-0.11238018
88	0xbdd47cc4	-0.1037536
89	0x3d453a3b	0.048151236
90	0xbd80a15f	-0.06280779
91	0x3d5aa581	0.053380493
92	0xbd080105	-0.033204097
93	0xbdc0cdc4	-0.09414247
94	0xbcc73102	-0.024315361
95	0xbca268fa	-0.019825447
96	0xb9b71d60	-0.00034926366
97	0x3df93634	0.121685416
98	0xbe01f3b5	-0.12690623
99	0x3d3596e7	0.044333365
100	0x3dcd2cc9	0.10018308
101	0xbc8b8474	-0.017030932
102	0xbde6e924	-0.11274937
103	0xbcecc2c1	-0.02890146
104	0xbc52ed9d	-0.012874034
105	0x3e106b60	0.1410346
106	0x3d8e67b3	0.06953373
107	0x3de74f33	0.11294403
108	0x3a863e9b	0.0010242047
109	0xbce49cd2	-0.027906809
110	0xbcab07b5	-0.020877698
111	0xbcea87cd	-0.028629208
112	0x3df3fe73	0.11913767
113	0xbdb32752	-0.08747734
114	0xbca634f0	-0.020288914
115	0x3dcbfd39	0.09960408
116	0xbd5f38bb	-0.05449746
117	0x3c2e11a2	0.010624321
118	0xbd7d87a6	-0.061896943
119	0x3cb48c8d	0.022039676
120	0xbdb80953	-0.089861535
121	0xbbc4f169	-0.0060102236
122	0xbc33d7c1	-0.010976733
123	0xbced51d4	-0.028969683
124	0x3dcbd540	0.099527836
125	0x3dcdc48c	0.10047254
126	0x3d8ada10	0.06779873
127	0x3d91a4a5	0.071114816
128	0x3dbd0b05	0.092306174
129	0x3ce536a5	0.027980158
130	0xbd36ea82	-0.044657238
131	0xbd8901fe	-0.06689833
132	0xbcbb0fd2	-0.022834692
133	0x3d91c08a	0.07116802
134	0x3cea7a12	0.02862266
135	0x3d8a615f	0.06756853
136	0x3da9489c	0.08265802
137	0xbb763c9f	-0.0037572754
138	0x3cf6d378	0.030130133
139	0xbdfdb3ae	-0.12387787
140	0xbd447bca	-0.047969617
141	0x3cccbcf0	0.024992436
142	0x3c922bf0	0.017843217
143	0xbd197bae	-0.037471466
144	0x3de5e751	0.11225761
145	0x3b96e55b	0.004604978
146	0x3d940773	0.07227983
147	0x3af3e50e	0.0018607692
148	0x3d22671b	0.03964911
149	0x3d52019b	0.051271062
150	0xbd5ae1b4	-0.053437904
151	0xbd1c3369	-0.038134966
152	0x3cf28e44	0.029608853
153	0xbe2fc742	-0.17165855
154	0xbd5cbaa0	-0.053888917
155	0x3d941c4c	0.0723196
156	0x3d8fe033	0.070251845
157	0xbb5982ee	-0.0033189612
158	0x3cb07abd	0.021542901
159	0xbd892242	-0.06695987
160	0x3c4ae7be	0.012384353
161	0x3ca34414	0.019929923
162	0x3da2d193	0.07950129
163	0x3de4cb64	0.11171606
164	0xba347778	-0.00068842573
165	0x3d4aca54	0.04950936
166	0xbdb9bdc2	-0.090693966
167	0x3da89525	0.08231572
168	0x3e04cbcf	0.12968372
169	0xbd90fb9e	-0.07079242
170	0xbe32e065	-0.17468412
171	0xbdb51f89	-0.088439055
172	0xbd33540d	-0.04378133
173	0x3dc77793	0.09739604
174	0x3d9b1607	0.07572561
175	0x3d5ec819	0.054390047
176	0x3be99bdb	0.007129175
177	0xbd8b0c0c	-0.06789407
178	0xbd9af745	-0.07566694
179	0x3ce5cdf9	0.028052317
180	0xba792a29	-0.00095048785
181	0x3ca4efee	0.020133939
182	0xbdd8f15f	-0.10592913
183	0xbd48db4a	-0.049037255
184	0xbb80dc0b	-0.003932481
185	0xbc4eba2a	-0.012617627
186	0xbdcd8467	-0.10035019
187	0x3dd08680	0.10181904
188	0x3daa124f	0.08304273
189	0xbd0929f9	-0.033487294
190	0x3cdc8d17	0.026922746
191	0x3db07ce3	0.0861757
192	0x3dcf1a24	0.10112408
193	0xbd7b0b78	-0.061290234
194	0xbe072c6a	-0.13200536
195	0x3db20f21	0.08694292
196	0x3d6fcfe6	0.058547877
197	0x3bcad0cf	0.0061894427
198	0xbc86362c	-0.016383253
199	0x3cd03684	0.02541662
200	0xbdb2c9df	-0.0872991
201	0x3d7db297	0.061937895
202	0xbd9f5a34	-0.07780877
203	0xbd3c528d	-0.045977164
204	0xbd83d19e	-0.06436466
205	0xbdf2cd02	-0.118555084
206	0x3daf972e	0.08573757
207	0xbdf1d580	-0.118083
208	0xbce92f9e	-0.028465088
209	0x3e0a293c	0.13492292
210	0x3e0740bf	0.13208292
211	0xbc847a45	-0.016171584
212	0x3d02d947	0.031945493
213	0x3d0bde0d	0.03414731
214	0xbdcf331c	-0.1011717
215	0xbdbc3159	-0.091891
216	0xbe041797	-0.12899624
217	0xbd4f4f7f	-0.050612923
218	0x3d18ca6b	0.037302416
219	0x3d0efbb7	0.034908023
220	0x3cbc0876	0.022953253
221	0x3dcc38d6	0.09971778
222	0x3c9eed8b	0.019400379
223	0xbd719d94	-0.05898817
224	0x3d58e1b1	0.05294961
225	0xbdc6fd95	-0.09716336
226	0x3c41836d	0.0118111195
227	0x3d57657d	0.05258702
228	0x3c135a36	0.008993676
229	0x3be8ef54	0.0071086083
230	0x3d8438f4	0.064561754
231	0xbde0563b	-0.10953947
232	0xbe3348ed	-0.17508288
233	0xbc5996d9	-0.013280594
234	0xbc8af10c	-0.016960643
235	0x3d0ceacc	0.034403607
236	0xbde183de	-0.1101148
237	0x3d3d68fd	0.046242703
238	0xbd0acd78	-0.033887357
239	0x3b876a71	0.004132562
240	0x3d668a3e	0.05628418
241	0x3d04db73	0.032435846
242	0x3c167f8f	0.009185686
243	0x3da512fd	0.08060262
244	0x3c203ed2	0.0097806025
245	0xbda6fee3	-0.081540845
246	0xbd68c04f	-0.056824025
247	0xbd71c05d	-0.059021343
248	0x3d540e47	0.05177143
249	0x3dc2100f	0.09475719
250	0xbd07d785	-0.03316452
251	0xbd6ccc7f	-0.05781221
252	0xbe0f66fe	-0.14004132
253	0x3dbf40ec	0.09338555
254	0xbc2bccf9	-0.010485881
255	0xbd3f34d7	-0.04668125

bias f4 [64]
0	0xbd859e3e	-0.06524323
1	0xbd9c409b	-0.0762951
2	0x3e009a15	0.12558778
3	0xbcdd1364	-0.026986785
4	0xbd1b265c	-0.03787838
5	0x3df1bde8	0.118038
6	0xbd48b2c5	-0.048998613
7	0xbd0e8f52	-0.03480465
8	0xbd02cfb7	-0.031936374
9	0x3dbaf1d0	0.09128153
10	0x3decfb25	0.115713395
11	0x3df81f88	0.12115389
12	0xbd69fbb1	-0.057124797
13	0xbdaa40dd	-0.08313153
14	0xbd35e412	-0.044406958
15	0x3ced98de	0.029003557
16	0x3df99fe5	0.121887006
17	0x3dcbd8ad	0.09953437
18	0xbd8e0325	-0.069341935
19	0xbdd59984	-0.104296714
20	0xbda666bc	-0.08125064
21	0xbdd6cc05	-0.104881324
22	0x3d0354a9	0.03206316
23	0xbdfaee8c	-0.122525305
24	0x3d032606	0.032018684
25	0xbd17b768	-0.037040144
26	0x3d340abc	0.04395555
27	0x3de77e64	0.11303404
28	0x3daaca20	0.083393335
29	0xbbd6db39	-0.006556895
30	0x3d7480ec	0.059693262
31	0x3d8458a6	0.06462221
32	0xbd0ed450	-0.034870446
33	0x3d251cd6	0.040310703
34	0xbda12174	-0.07867709
35	0x3dd49fe9	0.10382063
36	0xbc9f64d1	-0.019457253
37	0xbd16439b	-0.036685567
38	0x3b132e1b	0.00224579
39	0xbd3b71b5	-0.045762736
40	0x3d13108a	0.035904445
41	0xbcef6048	-0.029220715
42	0x3d87e70b	0.06635865
43	0xbd8a4968	-0.067522824
44	0x3b99de3c	0.004695682
45	0x3d119e87	0.035551574
46	0xbd98fa44	-0.074696094
47	0xbd7a440d	-0.061100055
48	0x3ddd7ccc	0.10814819
49	0xbdd0fcc2	-0.1020446
50	0xbde615f3	-0.11234655
51	0xbdf16a12	-0.117878094
52	0xbd9f034a	-0.07764299
53	0x3da96111	0.08270467
54	0xbcf3f7d7	-0.029781265
55	0x3db8d9aa	0.09025891
56	0x3c814c5d	0.015783483
57	0x3affd0c2	0.0019517171
58	0x3d71d465	0.059040446
59	0x3d9f3adb	0.07774898
60	0xbd8d92ca	-0.069127634
61	0x3cdb2eca	0.02675571
62	0xbddf6b69	-0.10909159
63	0xbd67584f	-0.056480702

weight f4 [64]
0	0x3f7424f4	0.95368886
1	0x3f78c72c	0.9717891
2	0x3f6c326a	0.92264426
3	0x3f71ef46	0.9450573
4	0x3f7a6978	0.9781718
5	0x3f814e79	1.0102073
6	0x3f7c7d6e	0.9862889
7	0x3f710d7d	0.94161206
8	0x3f7f4704	0.99717736
9	0x3f7c68c6	0.9859737
10	0x3f74dd5a	0.95650256
11	0x3f7be371	0.98393923
12	0x3f709308	0.9397435
13	0x3f6ac6ba	0.9170948
14	0x3f7b1da2	0.9809209
15	0x3f73d6cf	0.95249647
16	0x3f7c2d3b	0.98506516
17	0x3f77857f	0.96688074
18	0x3f72894a	0.94740736
19	0x3f6e4305	0.93071014
20	0x3f7ab49c	0.9793184
21	0x3f73dbc0	0.95257187
22	0x3f725be6	0.94671476
23	0x3f6db330	0.92851543
24	0x3f7ff6e7	0.9998612
25	0x3f6dc758	0.928823
26	0x3f6dfc33	0.9296295
27	0x3f6a34d1	0.9148684
28	0x3f6a5d7c	0.91548896
29	0x3f6c2aa7	0.9225258
30	0x3f70c9dc	0.9405801
31	0x3f70aa89	0.94010216
32	0x3f76ce42	0.96408474
33	0x3f789613	0.97103995
34	0x3f82e44b	1.022592
35	0x3f7b138a	0.9807669
36	0x3f6e0d0d	0.92988664
37	0x3f6c2b5d	0.9225367
38	0x3f72ea46	0.9488872
39	0x3f774be8	0.966002
40	0x3f7dff24	0.9921744
41	0x3f6d9cae	0.928172
42	0x3f7e7aee	0.99406326
43	0x3f710275	0.94144374
44	0x3f79fced	0.9765156
45	0x3f7a1837	0.976932
46	0x3f804877	1.0022115
47	0x3f6f2a68	0.9342408
48	0x3f709182	0.9397203
49	0x3f7002b3	0.9375412
50	0x3f684c2b	0.90741223
51	0x3f6bb181	0.92067724
52	0x3f7e879e	0.99425685
53	0x3f730ebb	0.9494435
54	0x3f74c826	0.956179
55	0x3f75e1a5	0.9604743
56	0x3f6e15ca	0.93002
57	0x3f738e56	0.9513906
58	0x3f6abf31	0.91697985
59	0x3f72b8a2	0.9481298
60	0x3f7342ff	0.950241
61	0x3f7f6da3	0.9977667
62	0x3f6b1652	0.91830933
63	0x3f682d05	0.90693694

bias f4 [64]
0	0x3cb69695	0.0222886
1	0x3cc5cc31	0.024145218
2	0xbd9d9d26	-0.07695989
3	0xbd0e03ec	-0.03467171
4	0x3c84139b	0.01612263
5	0xbcd241f2	-0.02566621
6	0xbcce9b9f	-0.02522069
7	0xbb4fe817	-0.003172403
8	0xbcca6275	-0.024705151
9	0xbc5b1593	-0.013371843
10	0xbd861378	-0.06546682
11	0xbc8fb426	-0.017541956
12	0xbd4e519e	-0.050370805
13	0xbdb09d94	-0.08623806
14	0xbb9e8b84	-0.004838409
15	0xbcf8698b	-0.030323764
16	0xbd91af79	-0.07113547
17	0xbd6dc7e9	-0.058051977
18	0xbd0bbd41	-0.034116033
19	0xbcc9ac21	-0.02461821
20	0xbc0fbee5	-0.00877354
21	0xbd968ad3	-0.07350697
22	0xbd387c10	-0.04504019
23	0xbd1ab1f0	-0.03776735
24	0x3c96c405	0.018404016
25	0xbd281cf9	-0.041043255
26	0xbd4bfee9	-0.04980365
27	0xbdc4ed7d	-0.0961561
28	0x3c2808b6	0.010255983
29	0xbd05588c	-0.032555148
30	0xbb98f261	-0.0046675657
31	0xbdc7e948	-0.09761292
32	0xbd0e4858	-0.03473696
33	0xbd23b5d7	-0.039968338
34	0xbd1d18a2	-0.03835357
35	0xbb7ad3c8	-0.0038273204
36	0xbbdc615a	-0.0067254724
37	0xbd903140	-0.07040644
38	0xbc310f40	-0.010806859
39	0xbd0d8501	-0.03455067
40	0xbce69312	-0.0281463
41	0xbd439918	-0.047753423
42	0xbd23fe1b	-0.040037256
43	0xbd520b5c	-0.051280364
44	0xbcc53815	-0.024074594
45	0x3c62d365	0.013844346
46	0x3d115291	0.035479132
47	0xbd03f073	-0.032211732
48	0xbd2ed5d3	-0.042684387
49	0xbdaab3a6	-0.083350465
50	0xbd895a8a	-0.06706722
51	0xbd1776c4	-0.036978498
52	0x3ccb0e1e	0.024787005
53	0xbd19e071	-0.03756756
54	0x3d26cd47	0.04072311
55	0xbd6f26c7	-0.05838659
56	0xbd105258	-0.03523478
57	0xbd08f56f	-0.03343719
58	0xbc2c0213	-0.010498541
59	0xbd099713	-0.03359134
60	0xbd87fa5b	-0.066395484
61	0xbd637883	-0.05553485
62	0xbd49084a	-0.04908017
63	0xbd8f607f	-0.07000827

running_mean f4 [64]
0	0xbe33df44	-0.17565638
1	0x3d8e13dc	0.069373816
2	0x3e82f04e	0.25573963
3	0xbe7776f9	-0.24166478
4	0x3e287679	0.16451444
5	0x3e3b2c0b	0.1827852
6	0xbe67defa	-0.22643653
7	0x3e41dba0	0.18931437
8	0x3e51685a	0.20449963
9	0x3de64c4e	0.11245023
10	0xbe95ac87	-0.2923319
11	0x3e5d2384	0.2159558
12	0x3d4b7187	0.049668815
13	0xbf046929	-0.5172296
14	0xbef04d4b	-0.4693397
15	0x3e50a376	0.20374855
16	0x3e060126	0.13086376
17	0xbc981cdf	-0.018568454
18	0xbee78fda	-0.45226938
19	0xbca9945e	-0.02070063
20	0xbe8c461c	-0.2739724
21	0xbf09d635	-0.5384248
22	0x3e2093f0	0.15681434
23	0xbeac0470	-0.33597136
24	0x3e5aa957	0.2135366
25	0xbeb26d50	-0.34849024
26	0xbf565b60	-0.8373318
27	0x3d44039b	0.047855
28	0x3e9874ad	0.29776517
29	0xbe870f4a	-0.26378852
30	0x3e42fba4	0.19041306
31	0xbd399802	-0.04531098
32	0x3cd57930	0.026058763
33	0xbdbfe9e7	-0.09370785
34	0xbe58cb7d	-0.21171375
35	0xbe0fca1b	-0.14041941
36	0xbdeecd9b	-0.1166031
37	0xbddafce4	-0.10692766
38	0x3bfafa8f	0.0076592634
39	0x3cdef20c	0.027215026
40	0x3f01c74b	0.5069472
41	0xbdd3f788	-0.10349947
42	0xbef321e5	-0.47486797
43	0x399329a7	0.00028069058
44	0x3e9fb371	0.3119159
45	0x3e9eefcf	0.31042334
46	0xbd9bd18e	-0.07608329
47	0xbdf6188a	-0.12016399
48	0x3ebad599	0.36491087
49	0xbec78353	-0.3896738
50	0xbcf4279a	-0.02980404
51	0xbe8449c8	-0.2583754
52	0xbe020d36	-0.12700352
53	0x3d85b17a	0.065279916
54	0x3f06afbe	0.5261191
55	0x3ea07c0e	0.31344646
56	0x3dac1885	0.08403114
57	0x3e47d7c6	0.19515905
58	0xbc48aff5	-0.012248983
59	0x3e9405f4	0.28910792
60	0xbeed1ba2	-0.46310145
61	0xbf0cfa41	-0.5506936
62	0xbe863139	-0.2620943
63	0xbee75807	-0.45184347

running_var f4 [64]
0	0x3eb5e614	0.35527098
1	0x3e32415b	0.17407744
2	0x3e8cfc8b	0.27536425
3	0x3ea9e555	0.3318278
4	0x3e2ed56f	0.17073606
5	0x3e860313	0.2617422
6	0x3e4fa872	0.202791
7	0x3e37872c	0.17922658
8	0x3e844450	0.25833368
9	0x3e4359de	0.1907725
10	0x3e8c24b2	0.27371746
11	0x3e12c1ff	0.14331816
12	0x3e90de4d	0.28294602
13	0x3ec3c32e	0.38234848
14	0x3e8a66af	0.27031466
15	0x3eac48c0	0.33649254
16	0x3eb390a2	0.35071284
17	0x3e9b5ec8	0.3034575
18	0x3e33fc84	0.17576796
19	0x3e23a1b9	0.15979661
20	0x3e6d8cb8	0.23198211
21	0x3e8add57	0.27121994
22	0x3e366b15	0.17814286
23	0x3e2f188b	0.17099206
24	0x3e4e6be9	0.20158352
25	0x3ed4999b	0.41523442
26	0x3e903216	0.28163213
27	0x3e392a01	0.1808243
28	0x3e805f4c	0.25072706
29	0x3ebe4083	0.37158594
30	0x3e30898c	0.1723997
31	0x3e586d6c	0.21135491
32	0x3e4cc5c6	0.1999732
33	0x3dc637c7	0.096786074
34	0x3f15d197	0.58522934
35	0x3f091012	0.53540146
36	0x3e5f63c3	0.218154
37	0x3e340391	0.17579485
38	0x3e76bc85	0.24095352
39	0x3e62b077	0.22137628
40	0x3eabecab	0.33579
41	0x3e80a454	0.25125372
42	0x3e85b48c	0.2611431
43	0x3defb86c	0.117050976
44	0x3e9a0597	0.3008239
45	0x3e39d08c	0.1814596
46	0x3ea46040	0.32104683
47	0x3ee0633b	0.43825707
48	0x3dfc418b	0.12317189
49	0x3e973d22	0.29538828
50	0x3e78324e	0.2423794
51	0x3e1c4e2b	0.15264194
52	0x3e662ae4	0.22477299
53	0x3e332051	0.17492796
54	0x3f02f168	0.51149607
55	0x3e0f2a16	0.13980898
56	0x3e5ea9b8	0.2174443
57	0x3e23f1d1	0.16010214
58	0x3ee83aac	0.45357263
59	0x3e25e995	0.16202386
60	0x3e4a20f7	0.19739138
61	0x3eaa5b07	0.33272573
62	0x3e44daef	0.19224142
63	0x3e3eab56	0.18620047

weight f4 [1, 64]
0	0xbca3d32a	-0.019998152
1	0xbad1a2b1	-0.001599392
2	0xbca96490	-0.020677835
3	0x3c80b3ae	0.015710678
4	0x3beddb59	0.0072588143
5	0xbc4d2b22	-0.012522491
6	0xbaa14bf6	-0.0012305963
7	0x39f447bf	0.00046592762
8	0xbb81896e	-0.0039531505
9	0x3c09bbb2	0.008406566
10	0xbc6555b0	-0.01399748
11	0xb7b71230	-2.182377e-05
12	0xbb9d935f	-0.004808828
13	0x3cb7b1be	0.022423621
14	0xbc836de1	-0.016043605
15	0x3bc8e5f3	0.0061309277
16	0xbc34a914	-0.0110266395
17	0x3c62e5a0	0.013848692
18	0x3bbf9d60	0.005847618
19	0x3c64d187	0.013965971
20	0x3bdf59cc	0.0068161245
21	0x3cc40ba5	0.023931334
22	0xbc0662d9	-0.008202278
23	0x3c5e0d46	0.013552969
24	0xbbbbd145	-0.005731734
25	0xbca07c39	-0.019590484
26	0x3cb2bccc	0.021818541
27	0x3cde8e69	0.027167516
28	0xbbf79c96	-0.0075565083
29	0x3c9bc660	0.019015491
30	0xbaa4d03b	-0.0012574265
31	0x3ba9777c	0.0051717144
32	0xbc0a3ab8	-0.008436851
33	0xbb31cacb	-0.002712893
34	0xbcddb259	-0.027062582
35	0xbc8f68d7	-0.017506046
36	0x3c5cbbb0	0.013472483
37	0x3c1fbf3e	0.009750186
38	0x3c3ab44d	0.011395526
39	0x3b6a5673	0.0035757094
40	0x3b8719eb	0.0041229627
41	0x3c58eb56	0.013239702
42	0xbc80438b	-0.015657207
43	0x3bd3aabe	0.006459563
44	0xbc641d2b	-0.01392297
45	0xbbc45409	-0.005991463
46	0x3c29b918	0.010359071
47	0x3c6a74b0	0.014310047
48	0xb983306c	-0.00025022344
49	0xbce2a89a	-0.027668286
50	0x3c005825	0.007833515
51	0x3c2859f1	0.01027535
52	0xbb582f45	-0.003298716
53	0xbc07be26	-0.008285081
54	0xbbff8256	-0.0077975197
55	0x3c1ed097	0.009693286
56	0x3ab789d1	0.0014002864
57	0xbb12dd3b	-0.0022409696
58	0x3c5e616e	0.013573034
59	0xbb57940d	-0.0032894642
60	0xbcbf7575	-0.023371438
61	0xbc79f173	-0.01525532
62	0x3c7ffa96	0.015623709
63	0xbc84406a	-0.016143996
