Industrial Equipment/mlruns/0/cf4c17c5153f4a8eb2cf8905013c2a29/artifacts/discriminator_model/data/model.pth (torch, 30142 bytes, 13 tensors)

weight f4 [64, 5]
00000000: cb96 50be 9602 e03d 374f d8bd afdd 83be
00000010: 8c6c 603e dcb0 adbe 59f6 873d cc89 0abe
00000020: 6493 583e 3151 2abd 8f2c 043d 1012 2c3e
00000030: 30ad 73be 8ea3 603e f5bd a63e f85d 80be
00000040: e3fa efbe 54e5 68be 53e7 4b3e f866 a6bd
00000050: 0513 d3be 6d55 82be 7134 b23e 9605 7cbe
00000060: 3236 b7bd 633a a53d 3f2d 633d c4f5 a8be
00000070: 73ca 98be 007e ba3e 87fa bc3e 95a5 d63c
00000080: 1cd9 553e 0700 72be e574 b5be 596b 72bd
00000090: cd62 a03e 4354 933e 28b8 d4be 9b65 fa3d
000000a0: dd8b c7be cc58 883e dad1 28be df32 823e
000000b0: 9202 083d 9a1b 3ebe 1bfb 6c3d 855e 44bd
000000c0: 2497 b2be e640 b1be 1194 003e b994 bfbd
000000d0: b757 9abe 757f f03d 9e72 cfbe f8c0 633e
000000e0: db5f 833e 00bb edbe 386a 5b3e 7300 1fbe
000000f0: 36f5 de3e 1831 c33e 7cc3 9abe d8f6 183e
00000100: 2027 d33e 0537 c6be 20e0 953e 19ad 923e
00000110: e876 9a3e d3c5 903e 3d24 853e 0cef a4ba
00000120: 6703 cc3e 8fba 663e 653e d43d 67ae 02be
00000130: efae c6be 68ac bbbe 9e30 32be bae1 a7be
00000140: 0c2c c53b 4a63 e53d a1a6 f53e 785b 0f3d
00000150: d15a 3b3e c368 69be 0f01 a8be 8d32 ddbe
00000160: 4dc9 8ebe c9be a0be fc36 bf3e d512 aa3e
00000170: 1eb9 7b3e f2cc 89be 0ef6 393e 99be c43e
00000180: 750e a83d b77c a73e 0128 bcbe d4af 903d
00000190: 2b4c 963e 82c8 a6bd 0cd8 aa3e f657 52be
000001a0: ba65 c7be 703c a83d c7d2 b53e 1228 cc3d
000001b0: 8d47 dd3e 56e7 a43e 81a0 2dbe 457b c33e
000001c0: ebc4 36be 4d1c 55be 7ca9 9e3d 75a8 8e3e
000001d0: 229c bd3e ee2e a63c 6651 a6be 495c cb3e
000001e0: 9d1f 9fbe dbe6 a83c 38a9 923e 7bd2 c83d
000001f0: 438d a6be e14a ba3e 0ee1 8c3e 5d71 b03e
00000200: 22c5 bc3c fb7c 513e 1ab6 553e 0cb5 863e
00000210: 5a48 86bd 22f4 a93e 4e25 673e c56a 8b3e
00000220: 57ba b6be 6aae 713e fb09 163d fe96 78be
00000230: 0477 9c3d 7e13 d8be d5d1 af3e 63e8 eebd
00000240: a66b a3be 23b4 563e 5ea9 b9be 8c55 02be
00000250: 8fc0 9c3c 6dc9 023e 8f6a c33e afaf 7d3d
00000260: 4a93 83be f636 89bc 3bb6 95bd 4b5b ad3e
00000270: 2ba0 a83c c970 a6be 7537 d4be ebe0 b5be
00000280: 561f 713e 4716 62bd 336a d93e 94e4 84be
00000290: b0de dabe 854f ba3e 6372 343e 45a9 17be
000002a0: 2113 c03e 99c8 1b3e 4210 58be ccb6 aabe
000002b0: c0a2 70be 5c30 cdbe ca13 d13d 6069 8cbe
000002c0: 0043 9cbe 6eda d2be b61d d1bd d7cd 55bb
000002d0: aa88 36be 4a84 44be 03e0 89be 9f43 b13b
000002e0: bb3e d0be 4c9e cf3e a421 d63e d407 06be
000002f0: 7a7c c0be e2df 903c 95da cbbe 2c0e a9be
00000300: 13b7 653e 7867 9c3d ddfb 51be bb07 453e
00000310: e098 98be 41e0 523d fa87 0c3e 738f b23e
00000320: 774f 593d 3001 d1be 591e a33e e4a7 0cbd
00000330: 324c e6bd 6ef0 8a3d 239b 833e ea6a f6bd
00000340: 84c0 933e e83f 363e 27d0 593e 535b bf3e
00000350: c562 9bbc 1522 713e dc5a b33e ad3d d83e
00000360: 08cb 95be 5aca debd 62d5 b13e 84a5 cabb
00000370: ed40 023e e6b5 abbe 41d8 c93e eb5b 513d
00000380: b0bf 7b3e 90f1 49b7 0f8d fe3d 5ed5 f83e
00000390: acb4 723e d44e 91be d0b3 7f3c 6401 c2be
000003a0: fcd1 35be b6b3 91be 1171 9a3e fc93 d23d
000003b0: 71a8 06be e662 c1bb 1691 7cbe dde2 a73e
000003c0: df08 a03e 7506 b33d 440b c4be 6cf7 fdbd
000003d0: c65a db3d 4d6f fb3d 7b0b 1c3e b112 48bc
000003e0: 991d babd bccf aabc 6a6f a23e 55ca 6fbd
000003f0: 71ee d8be 6120 763e a4e4 93be eebd 6fbe
-0.20370023 0.10937993 -0.10561984 -0.2575507 0.21916407 -0.33923995 0.06638784 -0.13529128
0.21149975 -0.041581336 0.032269057 0.16803765 -0.23796535 0.21937391 0.325668 -0.25071692
-0.468711 -0.22743732 0.19912462 -0.081251085 -0.41225448 -0.254558 0.34805635 -0.24611506
-0.08945884 0.08067777 0.055463072 -0.33000004 -0.29841956 0.36424255 0.36909887 0.026202003
0.20883602 -0.23632823 -0.35440746 -0.059184406 0.3132538 0.28775224 -0.4154675 0.12226411
-0.38973895 0.26630247 -0.16486302 0.25429437 0.033205576 -0.18565217 0.05785666 -0.047941703
-0.34880936 -0.34619826 0.12556483 -0.093545385 -0.30145046 0.117430605 -0.40517133 0.2224158
0.2565907 -0.46431732 0.21427238 -0.15527515 0.43546456 0.38123393 -0.30227268 0.14937913
0.41240788 -0.38713852 0.29272556 0.28647688 0.30168843 0.28275928 0.2600421 -0.0012583449
0.39846346 0.22532104 0.10363463 -0.12761842 -0.3880534 -0.36654973 -0.17401358 -0.32789403
0.0060172137 0.112005785 0.4797869 0.03499934 0.18296362 -0.2279387 -0.32813308 -0.4320263
-0.27887955 -0.31395558 0.37346637 0.33217493 0.24582335 -0.26914173 0.18160269 0.38426664
0.082058825 0.32712337 -0.3674927 0.070647866 0.29354987 -0.081437126 0.33367956 -0.20541367
-0.389448 0.082146525 0.35512373 0.0996858 0.4321865 0.32207745 -0.16955759 0.38179985
-0.17848556 -0.20811577 0.0774717 0.27862898 0.37033182 0.02028605 -0.32483977 0.39718845
-0.31078807 0.020617893 0.2864473 0.09805771 -0.3252965 0.36385253 0.27515453 0.3446149
0.023043219 0.20457833 0.20870247 0.26310003 -0.06556769 0.3319407 0.22572824 0.27229896
-0.3568904 0.2360169 0.036630612 -0.24276349 0.07639888 -0.4220237 0.34339777 -0.11665418
-0.31918067 0.20967154 -0.3626203 -0.12727946 0.019134788 0.1277215 0.38167235 0.061935123
-0.2569831 -0.01674984 -0.07310148 0.33858714 0.020584187 -0.32507923 -0.4144856 -0.3552316
0.2354711 -0.055197027 0.42463836 -0.2595564 -0.42748022 0.36388794 0.1762176 -0.14810665
0.37514594 0.1521324 -0.21099952 -0.33342588 -0.23499584 -0.40075958 0.102088526 -0.27424145
-0.30519867 -0.41182274 -0.10210745 -0.003262391 -0.1782557 -0.1919109 -0.2692872 0.0054096724
-0.4067286 0.40550458 0.4182254 -0.13088924 -0.37594968 0.01768488 -0.39815202 -0.33018625
0.22433119 0.076369226 -0.20506234 0.1924123 -0.29804134 0.051483396 0.13723746 0.34875068
0.0530543 -0.40821218 0.3185909 -0.0343398 -0.11245002 0.067841396 0.25704297 -0.12032111
0.28857815 0.17797816 0.2127081 0.37374362 -0.018967995 0.23548158 0.35030258 0.42234555
-0.29256463 -0.10878439 0.3473311 -0.006184282 0.1272008 -0.33537215 0.394228 0.05111305
0.24584842 -1.2036777e-05 0.124292485 0.48600286 0.23701733 -0.28380454 0.0156068355 -0.37891686
-0.17755884 -0.2845742 0.30164388 0.10282132 -0.13150193 -0.005901682 -0.24664721 0.3279027
0.31256768 0.08741466 -0.38289845 -0.124007076 0.10710673 0.12277088 0.15238754 -0.012211488
-0.090876766 -0.020851009 0.31725627 -0.05854257 -0.42369416 0.24035789 -0.28885376 -0.23412296

bias f4 [64]
00000000: 8e36 63be 78f8 d23e a022 833d a697 d1bd
00000010: 2cde 03bd bca3 6fbc 70cc 8ebd 82e4 21be
00000020: 7276 46be 0a3e 9fbd 82d2 193d 713f 65be
00000030: 6469 ddbc f6bb 273d f987 abbe 7f85 d4bd
00000040: 8359 b1be 3e46 e5bd ee93 96be b75c e1be
00000050: 1fd1 cabe 4cfc bf3e e86a 88bc fbeb 373e
00000060: 8336 d63e 430d 533c eb10 943e 9bf9 dc3e
00000070: dd8f b73e bfb9 bfbe 0ef1 a23e a452 9bbe
00000080: e3e4 863e 1a85 ab3e bb53 803e a697 873d
00000090: 9786 363e 668f 1d3e 4f6a 75be 3ad5 39bd
000000a0: 3860 c13e d83e 603e 6abb 6cbe dfdc 07be
000000b0: d133 d0be 7068 c7bd dc0b b1bd fde9 dbbe
000000c0: f4a0 5a3e b184 a13e d8a6 abbd fe63 64bd
000000d0: a537 ae3d 9605 d63e 8507 0cbd 9dd8 32bd
000000e0: fb37 9c3d 795b 30be 9ffd 62bd b516 713e
000000f0: 806b 803e 0dd5 393e b0a9 7fbd 6f60 d1be
-0.2218878 0.41205192 0.064030886 -0.10234003 -0.0321943 -0.01462644 -0.06972587 -0.15809825
-0.19381121 -0.07775505 0.03755427 -0.22387482 -0.027027793 0.040950738 -0.33502176 -0.10377025
-0.34638605 -0.11195038 -0.29409736 -0.44016048 -0.39612672 0.37497175 -0.01665254 0.17961113
0.41838464 0.01288158 0.28919157 0.43159184 0.35851946 -0.374464 0.31824535 -0.30336487
0.26346502 0.33499986 0.2506388 0.066207215 0.1782478 0.15386733 -0.23966335 -0.045369364
0.37768722 0.21898973 -0.23118368 -0.1326785 -0.40664533 -0.09736717 -0.0864484 -0.42951956
0.21350461 0.31546548 -0.08381432 -0.055759422 0.08506707 0.41801137 -0.03418686 -0.04366361
0.07627865 -0.17222394 -0.055417653 0.23543818 0.25082016 0.18147679 -0.062417686 -0.40893885

weight f4 [64]
00000000: 0b66 793f 8445 7c3f 1133 7b3f 977a 783f
00000010: 420d 833f 9fbb 7d3f 6a80 7d3f 98d3 7c3f
00000020: c7af 813f 9ad3 743f d2f2 7d3f 1d8e 843f
00000030: 4f3b 813f 79ab 813f cbc2 803f 3e7e 7c3f
00000040: 9723 7d3f 78d2 823f dedf 783f d3ee 833f
00000050: bb33 863f 0fa3 813f 0ce5 7d3f faaf 7a3f
00000060: 3094 7a3f 9ba6 813f 9e25 823f dc57 813f
00000070: f8e9 823f 1609 7f3f d4d2 813f 6502 843f
00000080: 931c 803f d028 813f 358d 7d3f bccf 823f
00000090: 44e9 823f 99f0 793f 2a66 7e3f 7b31 7e3f
000000a0: 88ad 823f e3a2 7a3f 1d64 7a3f 9907 773f
000000b0: 4070 793f 4fe0 7f3f bce3 803f c12e 813f
000000c0: 00f3 843f 65b8 793f 3ee6 7d3f 72bf 7a3f
000000d0: dea3 803f 6088 843f 6f68 803f 8204 813f
000000e0: b86e 823f 40e1 803f 32bc 793f 6783 7a3f
000000f0: 71c0 7a3f f550 813f 53b1 7f3f ccc7 803f
0.9742133 0.9854357 0.98124796 0.9706206 1.0238421 0.9911441 0.9902407 0.98760366
1.0131768 0.9563538 0.9919864 1.035587 1.0096225 1.0130454 1.0059446 0.9863013
0.9888243 1.022048 0.97216594 1.0307258 1.0484537 1.0127887 0.9917762 0.9792477
0.97882366 1.0128969 1.016773 1.0104938 1.0227652 0.9962324 1.0142465 1.0313231
1.000872 1.009058 0.9904359 1.0219646 1.0227437 0.9763275 0.9937464 0.9929425
1.0209208 0.97904795 0.9780901 0.9649597 0.97436905 0.9995164 1.0069499 1.0092393
1.0386658 0.9754699 0.99179447 0.9794837 1.0050008 1.0354118 1.0031871 1.0079501
1.0190039 1.0068741 0.9755279 0.97856754 0.9794989 1.0102831 0.9987995 1.0060973

bias f4 [64]
00000000: ccd0 4dbd 5b8d e5bc c228 26bb 43bc 39bd
00000010: 9a4d 523c 5a64 aabc 2ceb 013c 37a3 6abc
00000020: 2261 653b ab8c 02bd 7430 b939 1272 95bc
00000030: fc5f 62bc 9034 0d3c 2498 ebbc 2461 c3bc
00000040: afdd ecbc 155f 35bd 56d4 41bd 158e dd3c
00000050: 4ed3 753c 7d2d b9bb 733e a9bc e57b 60bc
00000060: 78ca 29bc b1f7 d73b b355 f53a e147 bebb
00000070: 6008 613c d5a4 dbbb 4a65 cabc ac09 903c
00000080: 51a9 a0bb 82fa bc3b da00 2abd 938a 5c3c
00000090: 7529 8d3b 82fe cebc 88cd 93bc 7b6d cebb
000000a0: 2eda 9a3c 1aee 08bc 6df4 80bc bcc5 28bd
000000b0: fab8 6dbc 6c41 383c fdc0 aebb a5c3 02bd
000000c0: 2fc7 fa3b 77e0 22bc d414 58bb 032c 1cbd
000000d0: 1eea 003b 5462 76bb 257c f5bb e429 83bb
000000e0: 2dae 013b ba90 0a3c cc21 77bd 9dd2 a6bc
000000f0: b014 b2bc c462 2abb b7bb afbc 1888 80bc
-0.050247952 -0.028021505 -0.0025353883 -0.045345556 0.0128358845 -0.020799804 0.0079296045 -0.01432114
0.0035000523 -0.031872433 0.0003532205 -0.01824287 -0.01381683 0.008618489 -0.02875907 -0.023850031
-0.0289143 -0.04428013 -0.04732164 0.027045289 0.015003992 -0.0056511746 -0.02065966 -0.013701414
-0.010363214 0.0065908064 0.0018717557 -0.0058069085 0.013734907 -0.006702999 -0.024706502 0.017582737
-0.0049029966 0.0057671675 -0.04150472 0.013460773 0.0043079206 -0.025267843 -0.01804234 -0.006299672
0.018902864 -0.008357549 -0.015741551 -0.0412042 -0.014509434 0.011246067 -0.0053330646 -0.031924862
0.007653139 -0.009941212 -0.00329714 -0.03812791 0.0019670795 -0.003759523 -0.007491606 -0.0040027965
0.0019787655 0.008457357 -0.060334966 -0.0203641 -0.02173838 -0.002599881 -0.021451814 -0.015689895

running_mean f4 [64]
00000000: e369 53be 399a df3e 1f2c 5b3d e868 22be
00000010: 75db 90bc abf6 2abd 29b4 6bbd ed7f ccbd
00000020: 9fdd 13be 829c 0dbd 7cc5 d13c ab49 5dbe
00000030: 0551 26bd fa0e c73d 3dbc b0be 000b 12be
00000040: 2f43 a5be c929 0dbe 237e 89be 3198 e0be
00000050: ad56 c6be 019f cb3e 1a05 1e3d 94a9 483e
00000060: f3a0 f03e 039f f03c 412e 953e 2b6f c63e
00000070: 9493 a83e 48d6 e6be 56a4 973e c127 9ebe
00000080: 3497 923e 2575 a13e 570d 563e a274 db3c
00000090: 03a2 333e 7165 3d3e 3eb5 75be 827e f3bd
000000a0: 66ed ac3e f21d 6c3e a8f0 5ebe 71d1 56be
000000b0: 5e83 ebbe 5748 44bd dba7 23be ff5c f0be
000000c0: a51c 3e3e 5950 a93e c943 efbd 64cc 26bd
000000d0: d41f c73d 581c f83e ba7d aa3b dc6a 83bc
000000e0: 7bc4 5a3d 9465 3dbe 3043 15bc 0acd 583e
000000f0: 9dee 9d3e ea95 7c3e 0fb7 15be 733c c9be
-0.20645861 0.4367235 0.053508874 -0.15860331 -0.01768277 -0.041739147 -0.05754486 -0.099853374
-0.1444001 -0.034573086 0.025606863 -0.21610133 -0.04060461 0.097196534 -0.34518614 -0.14262009
-0.3227782 -0.13785471 -0.26854047 -0.43866113 -0.38738003 0.39769748 0.038579084 0.19595939
0.46997795 0.029372698 0.2913685 0.3875669 0.32925093 -0.4508536 0.29617566 -0.30889705
0.28630984 0.31534687 0.20903526 0.026789013 0.17542271 0.18495728 -0.2399492 -0.11889364
0.3377487 0.23058298 -0.2177149 -0.20978333 -0.45998663 -0.04792055 -0.15982 -0.4694595
0.18565615 0.33069113 -0.11682851 -0.040722266 0.097228676 0.48459125 0.005202976 -0.016042165
0.053410035 -0.1849578 -0.009110257 0.21171966 0.3084611 0.24666563 -0.14620613 -0.39303932

running_var f4 [64]
00000000: b10e 6b3d 85ae 823d 2104 b23d 7b72 0b3e
00000010: 0f05 0c3e eadd 063e 789d 063e 7f04 013e
00000020: 8020 d73d 44e5 bf3d d4f0 bd3d cc53 033e
00000030: 3811 613e a692 2e3e 57d9 c23d 4767 133e
00000040: 6ee3 c33d aa91 2d3e f398 1a3e b898 133e
00000050: 9486 143e 42de 103e a36a b63d 5fef 393e
00000060: 690a e23d 2979 f73d 4b81 b33d 1ee2 de3d
00000070: 0deb 1a3e f496 863d 5194 9b3d b5c9 493e
00000080: 1131 393e bedd d53d 0fd2 ea3d 7d61 e93d
00000090: ea23 d03d 6bd7 4c3e a79e 0d3e 2a57 b13d
000000a0: 9ced cf3d 01ed 853d 66c7 f63d cad2 f13d
000000b0: ecb6 ec3d 4a2c 133e ac19 de3d 73a6 823d
000000c0: 3c85 df3d b701 943c 49c2 043e 2be0 843d
000000d0: c874 913d c6de be3d d8ed 843d 74cb 823d
000000e0: 214f 0c3e 17cd ba3d b277 1a3e 7bc7 203e
000000f0: fe85 dc3d 7265 0a3e a342 0f3e 5163 0d3e
0.057387058 0.06380943 0.08692194 0.1361789 0.13673805 0.13170591 0.13146007 0.12599371
0.10504246 0.09369901 0.0927445 0.12824935 0.21979225 0.1704813 0.095141105 0.14394866
0.09564863 0.16950098 0.15097408 0.14413726 0.14504462 0.14147285 0.08907058 0.18157719
0.11037142 0.12083656 0.08764895 0.10882972 0.15128727 0.06571761 0.075966485 0.19705851
0.18085124 0.104426846 0.11465847 0.113955475 0.101631 0.2000405 0.13830052 0.08659203
0.10152742 0.065393455 0.12049751 0.11807783 0.11558327 0.14372364 0.1084474 0.06379404
0.10914084 0.018067224 0.12964739 0.06488069 0.071023524 0.093198344 0.064906776 0.06386462
0.1370206 0.09121149 0.15084723 0.15701096 0.107677445 0.13515261 0.13990264 0.13807417

weight f4 [64, 64]
00000000: dd31 f23c 4475 ddbc 236f 8b3d 5ac6 a6bd
00000010: 5f92 123e 397d fbbc 7117 853d d221 1abd
00000020: 82ce 003e 2ed2 bd3d ad9a ccba c4f5 bbbd
00000030: f17f 79bd ed4d 183e c3a0 e3bd 3d2c b2bc
00000040: 7eb2 ee39 eac0 d1bd f6b5 05be c21c f9bc
00000050: 0d98 efbd 06f7 8bbd ddb9 8e3c e552 dfbd
00000060: 76e1 c8bd cacc 9ebd fb6d d43d 98a4 923d
00000070: 59ac 9dbd 7deb f3bd ac20 16bc e6d3 93bd
00000080: ff85 21bd 19e3 efbd 7f5e ac3c a158 d83d
00000090: 3b93 9c3d d2ec 8bbd 7c3d 8a3d 7e33 ad3d
000000a0: 67ff cabc 35c9 d8bd d0d4 93bb 1302 043d
000000b0: a4cf 523d 182c 76bd 350d 8ebd b921 b33d
000000c0: d0cc edbd ba37 4b3d 12e9 babc 80fc 013c
000000d0: beeb 15bd b7aa f2bd a764 13bd ec50 cc3d
000000e0: b7f9 07bc 3fa7 16bd a1dc c33d c1da fc3d
000000f0: b325 3c3c bdbb bcbd 1ca9 953d 8522 b13d
00000100: 83bc b33d 24c4 e53b 8c87 c8bd a545 ac3b
00000110: 47fe b53d 3b96 af3c 6a67 54bd 9c91 ce3d
00000120: 29a6 e0bc cb17 a2bd e6b1 bb3d b85b d8bb
00000130: ca9d 733d ee04 353d ff51 073d f17e 183d
00000140: 4ed6 303d ee7f cfbd 5992 7ebd c269 f13c
00000150: 874a c23d c809 c4bd 14a9 3fbd 6ca5 8bbd
00000160: a3ab cfbd 1855 b43d 6bcd cbbd c8cb ec3c
00000170: 1bd8 01bd 4d77 9b3c 42d8 883c c0fd b4bd
00000180: ba91 503d 6a0f fe3c 6156 b13d 53fa a43c
00000190: 5a9b 1ebd c465 21bc 9918 043e 8e48 b6bc
000001a0: 33e8 ab3d 44f4 febd 16f9 a7bd 70e6 70bd
000001b0: 3710 fd3c 991a 913b 6982 b03d ba1a ba3d
000001c0: 62a9 39bd 646f e9bd 840d 3f3d 6ba3 353d
000001d0: f5a8 acbd f883 803d 3522 6b3d 03f2 b13d
000001e0: 2ce1 d336 681f ddbd e61a d13d 41b1 27bd
000001f0: 5259 0f3d e8f0 753b 6c84 b73d bccf b1bd
00000200: 2dc5 df3c c347 bfbd 91fa cf3d f16c 1abd
00000210: ef11 e0bd 56ca a53d fda7 52bd 1705 ea3c
00000220: f51e 5f3d 4a3c 0f3e 2bf1 0b3b d14b c1bd
00000230: e0eb a8ba db39 7dbc b2e6 9b3d 88a9 e33d
00000240: 5ccd 78bc 3b2b c6bb 0a5c 833d ec81 09be
00000250: a8fc ca3d 941d 863d 7053 55bc 1088 023d
00000260: d44e b53d 887c 37bb 9e12 273d e782 b8bd
00000270: 77f4 0dbd 74bc b8bd 5363 adbd b9bf e83d
00000280: bbf5 efbd 81a4 b23d 84a4 03bd bb25 8e3d
00000290: 01b6 6ebd c60c d9bc f928 fd3d b302 8f3c
000002a0: 1c84 8dbd 2898 9bbd 5ae1 003e 52db aa3b
000002b0: 81a6 8bbd ef38 8e3b 1430 04be 236d 20bd
000002c0: e87a d03d 78b7 dfbc fa4a 8a3d 86ea 8e3d
000002d0: 9abc bbbd 5b1a bcbc 5a6c d33c 1bf2 86bd
000002e0: 6309 383d 4d19 ae3d 1a4e 5ebd 0976 d73c
000002f0: 0b31 1f3b bd18 fe3d 35b8 cebd 9426 e8bd
00000300: b665 b4bd 093b e5bd ec41 b23d 4c3f 553d
00000310: e71c c73d 2e47 42bd 9009 7dbd 8bb8 46bd
00000320: 8519 35be f771 efbd 7ace 693d b1e9 403c
00000330: 171c 7c3d a9b0 16be 3818 b8bc 0e45 463b
00000340: 6a81 173d 340a 98bd fabf 8fbc 01ed e5bd
00000350: 040e f7bd 3134 423c 942e a0bd 5fed abbd
00000360: c24c 0d3d ff7d 84bd 8542 a6bd 8b8a 9fbc
00000370: 3209 a73d a3a7 d4bd 8824 ddba 7a7d 963d
00000380: 4e08 283d 91eb 48bc bc7b 4f3d c61d dcbd
00000390: d46f cebd af8b 9dbc be78 acbd 680b 13bc
000003a0: 70c8 243d bd48 f4bd 71cd a0bd ec65 ea3c
000003b0: db85 85bd 3cbf b4bc ba8e e03d 1edd 083d
000003c0: 93c4 4fbd ec59 06be ffbe 433d 53a7 5abd
000003d0: 9de0 8ebd 3cfd 40bd 0618 a4bc 6158 c43d
000003e0: f8e0 513d 3399 a33d 6808 bdbc ab05 81bd
000003f0: e84b cebc 6c67 b3bd d0d2 023d 398f b5bd
0.029564792 -0.027033456 0.06808307 -0.08143301 0.14313649 -0.03069936 0.06498612 -0.03762991
0.12578776 0.09268604 -0.0015610062 -0.091777354 -0.06091303 0.14873476 -0.11114647 -0.02174961
0.00045527885 -0.102418736 -0.13057694 -0.03040922 -0.11698923 -0.06834225 0.01742261 -0.10904483
-0.09808628 -0.07753904 0.103725396 0.071603 -0.07698888 -0.1191015 -0.009163063 -0.07218151
-0.03943443 -0.11713237 0.021041153 0.105637796 0.076452695 -0.06832279 0.067500085 0.08457087
-0.024779988 -0.10585252 -0.004511453 0.03222854 0.051467553 -0.060100645 -0.06936113 0.087466665
-0.116113305 0.049613692 -0.022816215 0.007933736 -0.036601774 -0.118489675 -0.03598466 0.09976372
-0.008299283 -0.036780592 0.09563566 0.123464115 0.011483598 -0.09215496 0.07307646 0.08649162
0.0877619 0.007011907 -0.097914785 0.0052573257 0.0888639 0.02143394 -0.051856436 0.100863665
-0.027422981 -0.079146944 0.09164791 -0.0066027306 0.05947665 0.044194154 0.033037182 0.037230436
0.043173127 -0.101318225 -0.062151287 0.029469375 0.09486871 -0.09572178 -0.046792105 -0.06818661
-0.10140159 0.08805293 -0.0995129 0.028905764 -0.031700235 0.018977785 0.016704682 -0.088374615
0.050920226 0.03101321 0.086590536 0.020138895 -0.038722374 -0.009850923 0.12900008 -0.022251394
0.08393898 -0.12448934 -0.08201806 -0.058813512 0.03089152 0.0044282195 0.08618624 0.09087129
-0.04532755 -0.11398199 0.04664375 0.0443453 -0.084306635 0.06275171 0.05740567 0.08688738
6.3145035e-06 -0.10797006 0.102102086 -0.040940527 0.034997292 0.0037527625 0.08960804 -0.086822
0.0273157 -0.09339859 0.101552136 -0.03770155 -0.109409206 0.08095233 -0.051429737 0.02856688
0.054472882 0.13987842 0.0021353464 -0.09438289 -0.0012887679 -0.015455688 0.07612361 0.1111632
-0.01518568 -0.006047634 0.064140394 -0.13428468 0.099114716 0.0654861 -0.013020381 0.03186804
0.08852926 -0.002799781 0.04078924 -0.09009343 -0.034656968 -0.090203196 -0.0846621 0.11364693
-0.11716791 0.08722783 -0.032139316 0.0694079 -0.05827904 -0.026495349 0.123613305 0.017457342
-0.069099635 -0.07597381 0.12585965 0.0052141333 -0.068188675 0.004340283 -0.12908965 -0.03916658
0.101796925 -0.027309164 0.06752582 0.069783255 -0.09166832 -0.022961786 0.025808502 -0.06589147
0.044930827 0.085009195 -0.054273702 0.0263014 0.0024290706 0.12407062 -0.100937285 -0.11335483
-0.08808462 -0.11192901 0.0870398 0.052062318 0.097223096 -0.047431163 -0.061776698 -0.048515838
-0.17685516 -0.11691659 0.057081677 0.011774466 0.061550226 -0.14715828 -0.022472486 0.0030253562
0.036988653 -0.07423821 -0.017547596 -0.112268455 -0.1206322 0.011853264 -0.07821384 -0.08394884
0.03449703 -0.06469344 -0.08118156 -0.019475242 0.08156051 -0.10383537 -0.0016871849 0.073481515
0.041023545 -0.012263195 0.05065511 -0.10747866 -0.10079923 -0.019231645 -0.08421467 -0.008974887
0.040230215 -0.11927936 -0.07851685 0.028613053 -0.065196715 -0.022063844 0.10964723 0.033414
-0.050724577 -0.1312024 0.04778957 -0.05338223 -0.06976435 -0.047116503 -0.020030987 0.095871694
0.051239938 0.07988205 -0.023075297 -0.06299909 -0.02518268 -0.087599605 0.031939328 -0.08865208

bias f4 [64]
00000000: 5032 6cbc 4efb e53d 9985 b93b 6373 d13d
00000010: 9563 5b3d 6a29 dbbd ecb5 98bc 3d73 79bd
00000020: 3b35 65bd 7e5c eabd 223f 853d 8a55 a13d
00000030: 34de 8a3d 79e2 20bd 19b0 b9bd 8b5d 35b9
00000040: bcd2 d2bd d815 cfbd 9ae9 d9bd 2ea9 413d
00000050: 2a3d 6b3d 7512 8b3a 11ef 5d3d 040b fb3d
00000060: 09ae 4bbd febf 37bd b5c9 fabd e34e 983d
00000070: 32ca 883d a44b 9bbd 9d2d afbd 8e8b b93d
00000080: 18fb afbd 5d0e 83bd 182e 933d f16f 883c
00000090: 9c8f 03bd ff17 96bd 7cf7 fdba 4f94 89bc
000000a0: 4f05 c13c bc7c f13d 9f27 79bc 360f 33bd
000000b0: 75cb 51bc a2c2 e7bd 43bc c5bd 5eac 4dbc
000000c0: c93f a9bd 04de ecbd eed2 a83d 83d7 7d3c
000000d0: b2d1 d5bd 84c4 d63d 7154 dcbd a797 ce3b
000000e0: 3243 cebd 3881 9e3d 2423 95bd c267 16bc
000000f0: 7189 e4bd 407f 853d f0e0 37bd 70e7 ef3d
-0.014416292 0.11229573 0.005661678 0.102270864 0.053561766 -0.107012585 -0.018641435 -0.060900915
-0.055958968 -0.11443423 0.06506182 0.078776434 0.06780663 -0.03927848 -0.09066791 -0.00017296353
-0.10294101 -0.10111588 -0.10640259 0.047280483 0.057431377 0.0010610359 0.05418307 0.122579604
-0.04972652 -0.044860832 -0.12245504 0.074369214 0.06679191 -0.07582787 -0.08553622 0.09059821
-0.08592814 -0.06399224 0.07186526 0.01665494 -0.03211938 -0.07328796 -0.0019376124 -0.016794352
0.023562102 0.11791369 -0.0152072 -0.04371568 -0.012804856 -0.1131642 -0.09655049 -0.012553303
-0.08264119 -0.115657836 0.08243357 0.0154932765 -0.10440387 0.10486701 -0.107582934 0.0063046995
-0.1007141 0.0773949 -0.07282093 -0.009180011 -0.11159027 0.06518412 -0.04489225 0.11714065

weight f4 [64]
00000000: 4a67 6b3f febe 6b3f e7a7 803f c43b 7a3f
00000010: 21af 753f 36fc 7e3f e443 6d3f 05f7 6c3f
00000020: bf02 6d3f 25fb 683f 631c 783f 4af1 7e3f
00000030: ec91 7d3f 6953 6d3f 8b3b 7a3f 545b 6b3f
00000040: bcf3 7c3f e28f 713f a443 693f 5503 753f
00000050: d37f 713f de2a 763f 4183 6a3f 9d2b 823f
00000060: 953a 723f 953b 783f 37a3 6a3f fbbe 7a3f
00000070: 7e39 7e3f eb2e 743f 92bd 6d3f 535d 6e3f
00000080: b039 773f 512e 753f 768c 713f d8f4 7f3f
00000090: bb8a 793f 9af4 783f bb3b 7a3f 6283 723f
000000a0: 9cac 793f fc0d 723f 17fa 723f 332c 6c3f
000000b0: b0b6 723f 7953 6c3f e5b5 7c3f a934 723f
000000c0: 9985 723f 4024 753f 2ab3 783f cee3 6c3f
000000d0: 29d3 743f 53e5 7d3f 04f7 733f 4de4 6d3f
000000e0: 4fa6 683f 68c8 753f 6774 713f 1ef1 713f
000000f0: 93b5 703f aeb5 743f 340f 743f 0b97 723f
0.9195448 0.92088306 1.005124 0.97747445 0.9597035 0.99603593 0.9268172 0.9256442
0.92582315 0.91008216 0.96918315 0.9958693 0.99050784 0.927054 0.97747105 0.9193623
0.9880941 0.9436017 0.91118836 0.9570821 0.9433567 0.9615916 0.9160653 1.016956
0.9462064 0.96965915 0.91655296 0.97947663 0.99306476 0.9538409 0.92867386 0.9311115
0.965724 0.957738 0.9435495 0.99982977 0.9747731 0.9724823 0.9774739 0.94731724
0.97529006 0.9455259 0.94912857 0.9225494 0.9481001 0.9231487 0.9871505 0.94611603
0.94735104 0.9575844 0.9714838 0.925351 0.95634705 0.99178046 0.9529879 0.92926484
0.90878767 0.9600892 0.9431824 0.9450854 0.9402706 0.9558972 0.953357 0.94761723

bias f4 [64]
00000000: 45a4 fcbc 9736 52bd a34a ae3c 4cf2 51bd
00000010: d83e a2bc 71ea 4ebd fb23 84bd 1017 40bd
00000020: ee42 25bd d183 59bd ffc4 41bd a3ec 67bd
00000030: a9e4 673b e74c 5cbd a85b 953c 4221 79bd
00000040: c32d d5bc a081 ecbb 41b3 68bd 79dc 86bc
00000050: 0e0b d9bd d45f 22bd 2437 1dbd 00d0 fcbb
00000060: 67a6 82bd a3f8 8ebd 889d c9bc 52d8 8ebd
00000070: 0c6a 4b3c f477 fcbd 08a9 d8bc 4e9a adbb
00000080: 1bd6 81bd 1033 fbbc a4cc 42bd 9f06 043c
00000090: bdda 04bb bf9c 0cbc f071 c5bc fcb2 1c3c
000000a0: bc52 21bc c53d fb3c da78 95bb 643d b5bd
000000b0: 7591 64bd b7b5 09bc 99dd f3bc 49c2 d8bd
000000c0: 5004 c5bd da03 933b 6f97 54bd 15cb f8bc
000000d0: dc59 6dbd 4265 bebd c383 55bd 60d8 63bd
000000e0: 2c24 4dbd 5c1c 56bd 2dc6 0fbd fc39 38bd
000000f0: d245 46bd 3bb0 93bd ff8c ee3b 7682 34bc
-0.030840049 -0.051321592 0.021275824 -0.051256463 -0.019805357 -0.05051655 -0.06452175 -0.046896994
-0.040347032 -0.053104226 -0.04730701 -0.05662216 0.0035384095 -0.053784277 0.018232182 -0.060822733
-0.026022797 -0.007217601 -0.056811575 -0.016462551 -0.10597812 -0.03964217 -0.038382664 -0.007715225
-0.06379395 -0.069810174 -0.02461125 -0.069748536 0.01241542 -0.12327567 -0.026447788 -0.0052979356
-0.063396655 -0.030663997 -0.04755844 0.008058219 -0.002027198 -0.008582293 -0.024102181 0.009564158
-0.009846386 0.030669102 -0.004561526 -0.088496 -0.05580278 -0.008405141 -0.029768752 -0.10583932
-0.09619963 0.004486543 -0.05190223 -0.030370275 -0.057947025 -0.09296657 -0.05212761 -0.055626273
-0.050083324 -0.05227314 -0.035101105 -0.044977173 -0.04840643 -0.07211348 0.0072799916 -0.011017432

running_mean f4 [64]
00000000: fa70 59be 6329 623e ee71 2a3d 31c9 09bf
00000010: cc28 cbbd 0bb8 6f3e cc03 74bd a3df a33e
00000020: 3b87 3bbe 4097 b3be 8325 1fbf d820 82be
00000030: 5625 f93d c7ab 28be 1c8d 0c3e 2687 a3be
00000040: c465 9dbc 51c3 80bc d9ae 15bf 9ac3 a83e
00000050: d2b8 fcbe 8870 0bbe d3a1 333d b2d1 7fbe
00000060: bbaa a2be bfa3 563d f87e e3be 069b 8abc
00000070: 7fbb b93e 6ac9 263e 43dc b3be 1462 8ebd
00000080: 3433 31be d202 46be 74e4 d8bc fe63 e3bd
00000090: 9198 59be 2e71 313e 02bc aa3c 7d06 9a3e
000000a0: 01ea 05be 952c 1fbd 59f9 b7bd cda6 afbe
000000b0: 9b82 393f 76f6 c2be f9cf 00be a179 b1bc
000000c0: da2e 07be e6a4 9c3d c647 1b3e c60e 823e
000000d0: 7aa8 02bd e6c3 6abe d172 e2be cea9 bcbe
000000e0: 419e 2a3e 2358 c2bd 219e 8dbe 00ab ea3d
000000f0: 2319 14be 65c2 7fbe a4ff 5dbe 422e e53d
-0.21234503 0.220861 0.041612558 -0.5382262 -0.09919891 0.2341005 -0.059573933 0.3200656
-0.18313305 -0.35076332 -0.62166613 -0.25415683 0.121653244 -0.16471778 0.13725704 -0.31939048
-0.019213565 -0.015718134 -0.5846992 0.32961732 -0.49359757 -0.13617146 0.0438555 -0.24982336
-0.31770882 0.052402254 -0.44432807 -0.016919624 0.3627586 0.16287771 -0.35128984 -0.06952301
-0.17304689 -0.19337013 -0.026476122 -0.11103056 -0.21249606 0.17328331 0.020841602 0.30083075
-0.13077547 -0.038860876 -0.08983106 -0.34306946 0.72464913 -0.3807866 -0.12579335 -0.021664442
-0.13201466 0.076486394 0.15164098 0.25401896 -0.031898953 -0.22926292 -0.44228223 -0.368483
0.16661932 -0.09489467 -0.27659705 0.11458397 -0.14462714 -0.249765 -0.2167955 0.111904636

running_var f4 [64]
00000000: c3ac 7b3e 5be4 8b3e bc7e 603e 4b21 a53e
00000010: c392 343e 978d a83e f71a 8c3e 02ec 983e
00000020: eeff 6e3e a27f 8f3e acd3 c53e 9ba7 753e
00000030: bdae 6f3e 6e95 183e cbb7 1a3e 836d b73e
00000040: b98e 2c3e a291 8f3e 55ee 753e b1da 9b3e
00000050: 51e7 ac3e a564 0a3e c4d6 463e 1af5 0a3f
00000060: 2618 773e 0383 bb3e 852c 0d3e 2192 853e
00000070: 0c7a 8b3e 2f1b 893e 6669 b93e e190 0d3e
00000080: 7134 783e 0db6 313e e82b d23e ca02 203e
00000090: 1d1d e13e 69d8 313e 14fb 413e 0295 403e
000000a0: db3f f03e 8f53 353e 0e16 8c3e c7b7 0f3e
000000b0: ff42 6e3e 54b6 643e 2fc3 3a3e 96d0 b73e
000000c0: d0ca 103f 4214 813e 1b3d 743e b0d8 8f3e
000000d0: f223 a93e 0fec 933e 8154 803e bf10 6f3e
000000e0: ff40 283e fcf3 6f3e 5401 033f b4ac 813e
000000f0: cf02 4c3e 1d35 df3e ac5f b93e 78b4 4a3e
0.24577622 0.2732266 0.21923345 0.32251963 0.1763411 0.32920524 0.27364323 0.2986756
0.23339817 0.28027064 0.38638055 0.23989718 0.23406501 0.14900753 0.15109174 0.35825738
0.1685132 0.28040797 0.24016698 0.30440286 0.3377023 0.13514955 0.19417864 0.54280245
0.24130306 0.36623392 0.13786514 0.2608805 0.27241552 0.26778552 0.36213225 0.13824798
0.24238755 0.17354603 0.41049123 0.15626064 0.43967524 0.1736771 0.18943435 0.18806842
0.46923718 0.17707656 0.27360576 0.14034949 0.23267744 0.22335178 0.18238519 0.35901326
0.5655947 0.25210768 0.23851435 0.28095007 0.33035237 0.28891036 0.2506447 0.23346232
0.16431044 0.23432916 0.511739 0.25327075 0.19922946 0.4359521 0.36205804 0.19795406

weight f4 [1, 64]
00000000: f00e d2bb 5592 713c 9aa8 ed3a 779f 9fbc
00000010: b34d 2e3c e81a 473c a289 25bc e898 7dbb
00000020: 7b2a 5d3c aa2b c9bb f540 b7bc e195 7abc
00000030: 6864 4dba 211b 27bb 11ba edbb fbe1 adbc
00000040: 552c 4ebc 85ea 2c3c 6036 673c b666 3cbc
00000050: 101c 34bc e0c8 e0ba df54 3b3c ecb4 93bc
00000060: 9739 ef3c b2b2 81bc 380d 963c 5704 73bc
00000070: 3717 003b cd92 ccbb 86ed ca3c 1940 7cbb
00000080: a76e d13b 7056 7f3c a145 063d 8af4 5f3c
00000090: 1c47 813c c7d7 39bc 4e02 12bc 3529 1cbc
000000a0: 222b 8bbc f3b3 1fbc 7960 aa3c a93a 60bc
000000b0: bd74 e3bb d5d9 8c3c 926a 22bc e7ca 56bc
000000c0: e0fd e5bc bf5c 273a 12dd 8e3c b895 933c
000000d0: 7a5a a9bc 3887 98bc 9d7e 5abc f69d 523c
000000e0: 4619 123c 49be e23b 7eef d63c d62f 993c
000000f0: 3fb3 fa3b b08a 9cbb 1996 bbbc 9d08 183c
-0.006410472 0.014744361 0.0018131912 -0.019485218 0.010638642 0.012152411 -0.010103615 -0.0038695876
0.013498898 -0.0061392384 -0.022369841 -0.015294523 -0.0007835091 -0.0025498348 -0.007254847 -0.02122592
-0.012583812 0.010553961 0.014112085 -0.011499098 -0.010993019 -0.0017149709 0.011433809 -0.018030606
0.029202266 -0.015832279 0.01831685 -0.014832578 0.0019545087 -0.006243086 0.024771463 -0.0038490354
0.0063913646 0.015584573 0.032781247 0.0136691425 0.015780978 -0.011342949 -0.008911682 -0.009531309
-0.01698834 -0.009747493 0.020797955 -0.013685861 -0.0069414065 0.017193714 -0.009913104 -0.013109899
-0.028075159 0.00063843647 0.017439399 0.018015727 -0.020673025 -0.018619165 -0.013335851 0.012855044
0.0089171585 0.0069196564 0.026237246 0.018699568 0.0076507623 -0.004777275 -0.02289872 0.009279397
