Industrial Equipment/mlruns/0/0b5ea84a4f6d4dfba0fed3de2406c298/artifacts/discriminator_model/data/model.pth (torch, 30142 bytes, 13 tensors)

weight f4 [64, 5]
000000 4d af 5d 3d 9b ee e6 bc 20 fa 8b be 11 db a8 3e
       0.054122258 -0.028189948 -0.27339268 0.32979634
000010 6d 23 73 be 1e 3d fd 3c 63 2a 49 be e5 fb 29 3e
       -0.23743983 0.030912932 -0.19645076 0.16599996
000020 db d9 2c be 67 84 9d 3d d0 b5 0e be b1 13 34 be
       -0.1687998 0.07691269 -0.13936543 -0.17585637
000030 92 ec ac 3c 4a 64 14 3e 01 8d ca 3e d4 38 ab 3e
       0.0211089 0.14491382 0.39560702 0.33441794
000040 64 35 ab 3e 35 d1 ca 3d 03 ed 12 bc 78 a2 b8 3e
       0.3343917 0.09903184 -0.008967641 0.36061454
000050 a3 cd d5 be ce 37 c5 be b9 ff 01 bd 81 57 df bd
       -0.4175845 -0.38519138 -0.031738017 -0.10905362
000060 7b 56 c2 be ba 65 83 bb a9 75 b8 3e 09 a2 be bd
       -0.37956604 -0.0040099295 0.36027268 -0.093082495
000070 6c 0d b7 3e 3b 0e cc bd 01 70 84 3e 29 6c bc bc
       0.35752428 -0.09963652 0.25866702 -0.023000794
000080 83 9c 4d 3e 83 1a 8f 3d d8 ad 4a bd 43 0d de be
       0.20079236 0.069874786 -0.049482197 -0.43369493
000090 40 7f ae bd 7e be de be 47 50 7d 3e 64 81 65 3e
       -0.08520365 -0.4350471 0.24737655 0.2241264
0000a0 b5 65 59 be 08 14 de be 25 15 91 3e bd 01 89 be
       -0.21230204 -0.43374658 0.28336444 -0.2675914
0000b0 bc fc 47 3c 20 1b c3 3e 5f 0c aa 3e 47 f1 3f bd
       0.012206253 0.38106632 0.33212563 -0.04686096
0000c0 43 27 b8 be 57 69 ad 3e 7c c9 89 3e c5 af 53 3d
       -0.35967454 0.3386943 0.26911533 0.0516813
0000d0 94 dd aa be bd a4 fe bd f0 2d e4 bd dd a4 73 be
       -0.33372176 -0.12433765 -0.111415744 -0.23793359
0000e0 9e 68 56 be da fe 6b be 38 58 1a bd e3 53 b1 be
       -0.20938346 -0.23046437 -0.03768179 -0.34634313
0000f0 7a 37 5c be 1d 22 bd bd 50 48 a8 3e 8d bd c0 bd
       -0.21505538 -0.09235022 0.3286767 -0.09411154
000100 3d 4c b0 bd 87 98 d6 bc 9f 3e 98 3e 26 2e 82 3e
       -0.08608291 -0.026195778 0.29735276 0.25425833
000110 36 77 3d 3e cc a1 aa 3e b8 0a 9d bd 90 cb 93 3e
       0.18502507 0.33326566 -0.0766806 0.28866243
000120 76 ef ea bc 3f 48 b6 be 38 d0 32 3d 07 04 65 be
       -0.028678637 -0.35601994 0.043655604 -0.22364818
000130 80 d2 91 3e 17 6a 3e be f8 ae 4a 3e c2 7c 6f be
       0.2848091 -0.18595158 0.19793308 -0.23387435
000140 23 b9 9b be ad 14 0f be ed 4c cd 3e 87 cf f8 be
       -0.30414686 -0.13972731 0.40097752 -0.4859583
000150 a0 c1 5e 3e 2a a5 80 be 2e 04 59 3e ce 5b 0b be
       0.2175355 -0.2512601 0.21193 -0.1360924
000160 ad 07 87 3e 49 fc 91 be a9 4f 99 bb 3a 69 92 3e
       0.26373044 -0.2851279 -0.0046786857 0.28595906
000170 63 71 cb be f2 21 19 be b2 28 a8 be c5 a2 cc 3e
       -0.39734945 -0.14954355 -0.32843548 0.39967933
000180 fa 7f a3 be a1 65 23 3e f4 41 d4 3e 72 1a ae 3e
       -0.31933576 0.15956737 0.41456568 0.3400455
000190 a9 2d 45 3e 6c b7 da 3e da 38 0e be ef fd 6d 3e
       0.19255699 0.42718065 -0.13888875 0.23241399
0001a0 35 2a 9f be e7 40 b3 3e 4f e3 a8 3d 97 02 1e bd
       -0.3108689 0.35010454 0.08246481 -0.03857669
0001b0 53 c9 b5 be e3 4a b0 be 5f 93 ca bd 0e f2 55 3e
       -0.3550516 -0.34432134 -0.0989139 0.20893118
0001c0 90 c7 9b 3e d5 a6 27 be 97 fc 86 be 22 24 cd be
       0.30425692 -0.16372235 -0.26364586 -0.4006663
0001d0 b6 b0 8b 3e de e0 90 3e 21 0a d2 3d 14 31 ed bd
       0.27283257 0.2829656 0.10255838 -0.115816265
0001e0 fb 9a 0d bb a0 ae db 3e c1 c9 ed 3e 84 59 71 be
       -0.0021607268 0.42906666 0.4644299 -0.23569304
0001f0 b7 e9 ce bd a1 aa a7 be 43 79 a1 bc ca e5 bf be
       -0.10103171 -0.32747367 -0.019711142 -0.37480003
000200 21 b8 ad 3e 6c 62 02 be fe 0d d5 3e d0 95 ad bd
       0.33929542 -0.12732857 0.41612238 -0.0847584
000210 8e 7d f6 bd 3c 8e 13 be f1 34 b1 bd a6 52 17 bd
       -0.120356664 -0.14409727 -0.08652676 -0.036944054
000220 8c 4d 8d 3d 9b 43 a3 3e 72 b2 01 bb 9f a6 b2 be
       0.068995565 0.31887516 -0.00197902 -0.34892747
000230 5e 0e 6b be 1a 5c f2 3e bc 0b 81 3c 5d 2a b2 be
       -0.229547 0.47335893 0.015752666 -0.34797946
000240 fd 00 bf be 08 c3 95 3d fd 08 27 3d a2 75 4c 3d
       -0.37305441 0.0731259 0.040780056 0.04991687
000250 e5 ea 98 3e 07 5f 73 3e 20 df 54 3e 5a 5c ee be
       0.2986671 0.23766719 0.2078824 -0.46554834
000260 d7 ee bb 3e 8e 22 51 be d4 b2 01 bc 15 91 13 be
       0.36705658 -0.20423338 -0.007916171 -0.14410813
000270 82 20 0c be 40 1e 93 3e 84 ce 22 3e a7 c3 d1 be
       -0.13684276 0.28734016 0.15899092 -0.40969583
000280 bf 94 ef 3d 69 04 97 bc c1 2e 16 3e 35 3a 6b 3e
       0.11698293 -0.01843472 0.14666273 0.22971423
000290 31 52 72 be 21 f9 e0 3e d2 ff 7d b9 39 e9 cb be
       -0.23664166 0.4394007 -0.0002422326 -0.39826372
0002a0 cc e9 2d 3e 03 40 9d be c9 1b 80 3e ea 41 10 3e
       0.16983718 -0.307129 0.25021198 0.14087644
0002b0 6b 6f 87 3d c2 bc 2d 3e fa 11 ac 3e f4 73 bf 3c
       0.06613048 0.16966537 0.33607465 0.02337072
0002c0 c5 06 8b 3d f2 93 ea be eb 52 23 3e 78 3a ca 3e
       0.067884006 -0.45815998 0.159496 0.39497733
0002d0 aa f1 b0 bd 18 b3 ca 3e 81 9d c4 be 38 c7 9b bd
       -0.08639844 0.39589763 -0.38401416 -0.07606357
0002e0 7c ca d0 be 8e 7d 39 3e 7c 7d 53 bd b1 6d bb be
       -0.40779483 0.18114302 -0.051633343 -0.36607125
0002f0 2e b8 9b 3d 17 25 b8 bd 53 c5 c6 be 86 24 e5 3e
       0.07603489 -0.08991449 -0.3882242 0.44754428
000300 49 aa 19 be 2f 4b 5d 3e 73 7a b2 bd f9 7b 43 3e
       -0.15006365 0.21610712 -0.087147616 0.1909026
000310 6c cb ae bd e2 ff 81 3d 4b 5c b4 3e 51 4e 65 be
       -0.085348934 0.06347634 0.35226664 -0.22393157
000320 f2 8d 00 bd fb 5a d9 3d c4 4b 10 3e 82 c6 70 3e
       -0.03138537 0.10613056 0.14091402 0.23513225
000330 fe 72 28 be a1 7b 85 3e a4 fc e1 3d 3f 31 94 bd
       -0.16450116 0.26070884 0.110345155 -0.072359554
000340 62 eb 90 3e c1 47 b2 be bb b0 2e 3e ee 98 9c be
       0.28304583 -0.3482037 0.17059605 -0.30585426
000350 c6 3d b5 be cb 6a 95 be 1e 89 c5 ba b7 45 cc be
       -0.35398692 -0.2918304 -0.0015070771 -0.39896938
000360 af 71 4b bd 46 e0 2b 3d 93 fa ee 3c 3e d5 d0 3d
       -0.049668964 0.04196193 0.029172217 0.10196923
000370 ec 4c 9c be 16 0d 68 bd 7d bf d5 3e 68 a0 87 bd
       -0.30527437 -0.056653105 0.41747656 -0.06622392
000380 26 2e 22 3d c4 d8 c9 3e 75 31 68 3d d9 84 fc ba
       0.03959479 0.39423192 0.05668779 -0.0019265666
000390 87 9d 49 3e 1c c0 0d 3e 8d 8d 34 3e c2 21 2b be
       0.19688998 0.13842815 0.17632122 -0.16712096
0003a0 a7 38 30 3e 83 17 a6 be f2 07 1c be 82 4e 93 3d
       0.17209111 -0.32439813 -0.15237406 0.071927086
0003b0 fc c1 f1 be 7d 27 df 3d 39 43 6f 3e 8f 84 0b be
       -0.4721831 0.10896204 0.23365487 -0.13624786
0003c0 19 2f c3 3e 5a 60 2f 3e e8 47 94 bc ee 65 e0 3e
       0.3812187 0.17126599 -0.018100694 0.43827766
0003d0 a6 04 15 be 18 1f 34 3c cd ba 07 3e 36 7d 16 be
       -0.14552554 0.010993741 0.13254853 -0.14696202
0003e0 91 48 9b 3e 8f 9c a8 be f2 0c 92 3d 5f 24 e5 be
       0.303288 -0.32931945 0.07131375 -0.4475431
0003f0 4f 93 66 3c d5 cd a7 3c e5 2c 68 be aa 42 93 bd
       0.014073207 0.02048389 -0.22673376 -0.071904495

bias f4 [64]
000000 0a 9c 14 3e 6e 26 e3 be c6 0c d4 be 22 40 95 be
       0.14512649 -0.44365257 -0.41415995 -0.29150492
000010 e0 55 c1 3e 17 71 ac be 56 cb 3c be 14 25 e1 3b
       0.3776083 -0.3368003 -0.18436942 0.006870875
000020 8d 3e ff 3c 2c cb 0a bd 1c 1a 93 3d 0f fa 06 bd
       0.031157756 -0.033885166 0.07182714 -0.03295332
000030 8c 70 4e bd e8 16 66 bb d1 1f e1 bd 3c 7d 8f be
       -0.0504003 -0.0035108868 -0.109923966 -0.28025234
000040 6a ca da 3e 33 5a 6a 3d 1e 40 b9 bd 96 84 bd bd
       0.42732555 0.057214927 -0.090454325 -0.092538044
000050 82 ba 39 be d9 0b c6 3e eb b5 d9 3d f1 65 d5 3e
       -0.18137553 0.38680914 0.10630401 0.41679338
000060 48 bb 62 3e 14 79 c3 bc 00 8a 43 3e 7c 61 aa 3d
       0.22141755 -0.023861445 0.19095612 0.08319375
000070 a0 9b b2 3d 88 1a 0b 3e 5e dc 7c 3e 17 0c 28 be
       0.08721089 0.1358434 0.24693438 -0.16410862
000080 eb 8d fc 3d 16 f0 d6 be 02 62 8f bc 6f 3d 09 3e
       0.12331756 -0.41980046 -0.017502788 0.13402341
000090 01 2f 0c 3e 43 e6 ac 3e 91 2f fd bd 0c a7 17 bc
       0.13689806 0.33769426 -0.12362588 -0.009256136
0000a0 4e d8 e4 be ab c0 cf be 21 a8 b8 be 93 9f d1 be
       -0.44696277 -0.40576681 -0.36065772 -0.40942058
0000b0 68 f1 7e 3e 7d 75 cc be 94 b0 07 3d 76 3a 1d 3e
       0.24896777 -0.39933386 0.033127382 0.15354332
0000c0 75 82 b1 3d a5 6d fe 3c 41 d3 d6 3e 43 d2 e1 3e
       0.08667461 0.031058142 0.4195805 0.4410573
0000d0 54 5d 6c be 14 cb 5d 3d 9a 2c 90 be f2 1a 9f bd
       -0.23082477 0.05414875 -0.28159028 -0.07768811
0000e0 3f 4a db be 3d c6 a0 3e 70 da 0b 3e f3 c7 bb 3e
       -0.42830083 0.31401244 0.13657546 0.36675987
0000f0 9f 84 da 3e ba dc 6c be a1 bc c0 3e f7 47 52 be
       0.42679307 -0.23131076 0.37643912 -0.20535265

weight f4 [64]
000000 7f 89 76 3f 4c 43 80 3f de be 82 3f a2 70 82 3f
       0.9630355 1.0020537 1.0214498 1.0190623
000010 01 8f 7b 3f e2 d7 79 3f 5d 52 84 3f 1d 82 85 3f
       0.9826508 0.97595036 1.0337635 1.0430332
000020 80 49 7c 3f e9 c7 73 3f 24 06 7e 3f 72 fa 7f 3f
       0.9854965 0.95226914 0.9922812 0.99991524
000030 0a df 84 3f d4 3e 84 3f 0b 52 79 3f 0f 8e 7d 3f
       1.0380566 1.0331674 0.9739081 0.9904489
000040 bc 22 7a 3f 6b 29 79 3f 32 ed 78 3f e6 89 82 3f
       0.9770925 0.97328824 0.9723693 1.0198333
000050 0d 3b 80 3f d0 b6 82 3f be ef 80 3f bc 7d 80 3f
       1.0018021 1.021204 1.0073164 1.0038371
000060 2e f4 82 3f ec df 82 3f cd b1 81 3f d4 cc 74 3f
       1.0230768 1.0224586 1.0132385 0.9562504
000070 09 11 79 3f 6f eb 80 3f 58 a0 84 3f eb ae 7a 3f
       0.9729162 1.0071849 1.0361433 0.97923154
000080 8c b2 80 3f 54 86 78 3f 2f 29 82 3f 70 d6 73 3f
       1.0054488 0.9707997 1.0168818 0.9524908
000090 8f af 81 3f 1f 06 82 3f 0e 70 83 3f 78 d3 79 3f
       1.0131701 1.0158118 1.0268571 0.975883
0000a0 e1 dc 81 3f 4a 19 85 3f 9c 60 7f 3f ae a8 80 3f
       1.0145532 1.0398343 0.9975679 1.0051477
0000b0 7a f1 76 3f 46 30 7f 3f 6d e4 7d 3f 7c c6 83 3f
       0.96462214 0.99683034 0.99176675 1.0294948
0000c0 8a 95 77 3f f1 4f 80 3f 98 72 81 3f fd 0d 86 3f
       0.96712554 1.0024396 1.0113096 1.0473019
0000d0 ed 6f 78 3f 8b d7 82 3f 8c 76 84 3f be 96 7a 3f
       0.97045785 1.0222028 1.0348678 0.97886264
0000e0 06 54 81 3f 65 ef 84 3f ec 98 81 3f 74 b4 78 3f
       1.0103767 1.0385557 1.0124793 0.9715035
0000f0 66 35 77 3f 78 04 80 3f f1 80 72 3f 77 ae 7f 3f
       0.96565855 1.0001364 0.94728 0.9987559

bias f4 [64]
000000 39 f0 8a bc b1 23 10 bc 41 60 6f bc dc 6a 35 3c
       -0.01696025 -0.008797572 -0.014610351 0.011072841
000010 c8 d4 b4 bc 31 4b f1 bc 45 09 1d bc 49 e8 8b 3c
       -0.022074118 -0.0294548 -0.00958473 0.017078536
000020 34 37 93 3a 0e d8 13 bd 6d 1d a7 3a 08 f4 55 bc
       0.0011231662 -0.036094718 0.0012749858 -0.01305867
000030 bf 56 85 ba 62 d8 65 3b a7 06 96 bc 48 f5 a5 3b
       -0.0010172947 0.00350716 -0.018313719 0.00506464
000040 ee 2a b3 bc 44 11 ee bc 1e e2 f9 bc e4 72 03 bc
       -0.021871056 -0.029060967 -0.030503329 -0.0080229975
000050 d4 3c f9 bc 72 a4 9b bc 3f 06 d7 3c 54 08 dc bb
       -0.030424513 -0.018999312 0.026248096 -0.00671486
000060 ff a1 e4 bc a8 03 10 bc 10 f7 e9 bc 3b ad 3d bd
       -0.027909277 -0.008789934 -0.028560191 -0.046307784
000070 a3 8b 07 bd 6e d3 33 3c e5 d2 b7 3c 6d c9 32 bd
       -0.033092152 0.010975702 0.02243943 -0.043649126
000080 73 24 6b bc c9 c5 c8 bc e8 ce 1e 3c be e6 51 bd
       -0.014351952 -0.024508374 0.009692885 -0.051245444
000090 38 49 a4 bc 0e 83 26 3c 62 e2 95 3c 72 d9 49 bc
       -0.020054445 0.010163082 0.018296424 -0.012319909
0000a0 20 18 1a 3c 1a fc b3 3c 96 1e 8d bc 37 be 0e bc
       0.009405166 0.021970797 -0.017226499 -0.008712343
0000b0 ba fd e9 bb bd 96 a2 3b e2 9b 3d bc 90 08 62 bb
       -0.0071408423 0.004961817 -0.01157281 -0.0034489967
0000c0 75 ba 3a bd e3 2a 1e bc 07 08 1d bb ca 9b ee bc
       -0.045587976 -0.00965378 -0.0023961083 -0.02912702
0000d0 c5 85 08 bd a7 fc 3a 38 33 14 55 bc 31 c3 6b bd
       -0.033330698 4.4581157e-05 -0.013005304 -0.057559196
0000e0 12 80 b3 3b 13 e6 0b bb 10 e5 c9 bb d9 2c d5 bc
       0.0054779137 -0.0021346852 -0.0061613396 -0.026022362
0000f0 5d 16 f8 bc 52 54 18 bb 0c f4 ac ba f5 7e 00 bc
       -0.030284101 -0.0023243618 -0.001319529 -0.007842769

running_mean f4 [64]
000000 ec 75 09 3e 41 1f e9 be d5 3d b1 be ab 47 a2 be
       0.1342389 -0.45531657 -0.34617487 -0.31695303
000010 8d 3b d1 3e 7b 21 a6 be e3 f2 73 be b8 e2 03 3e
       0.40865746 -0.3244742 -0.23823123 0.12879455
000020 8e 07 42 3d a0 da a6 bd 30 4b 88 3c 5e 23 ab bc
       0.047370486 -0.08147168 0.016637415 -0.020890888
000030 3b 7f 0b bd 80 7b 18 3d fc 50 d6 bd 8d 9a 7c be
       -0.034056883 0.037227154 -0.10464665 -0.24668331
000040 9c 59 f0 3e 02 e3 bb 3d ee b4 eb bd ba 39 f5 bd
       0.46943367 0.09174158 -0.11509119 -0.11973901
000050 15 2a 6a be 74 7d 8d 3e 76 06 ad 3d b0 f3 f3 3e
       -0.22867616 0.27634776 0.08448498 0.47646856
000060 c9 cc 44 3e 44 9b 43 3d 18 ff d4 3d 8a 14 43 3d
       0.19218744 0.047755495 0.10400218 0.04762701
000070 8e e8 a3 3d 86 d9 21 3e f2 77 3e 3e 72 49 38 be
       0.08003341 0.15805635 0.18600443 -0.17996767
000080 2f be ae 3d 63 99 02 bf fc cb bb bc 7f e1 40 3e
       0.085323684 -0.510153 -0.022924416 0.1883602
000090 6e e6 fb 3d 20 6a 9e 3e bf ce 38 bd 4b 54 55 bd
       0.1229981 0.30940342 -0.045119043 -0.05208234
0000a0 97 58 e6 be d0 2d f1 be 20 56 cb be 3f fb a7 be
       -0.44989464 -0.47105265 -0.39714146 -0.32808873
0000b0 6d ec 95 3e 43 17 e5 be 77 80 0a bd e9 2f 06 3e
       0.2928194 -0.4474431 -0.03381392 0.13104214
0000c0 f9 fc cf 3c 7b f4 7f 3c 00 71 c3 3e 0e f0 e9 3e
       0.025389181 0.0156222535 0.3817215 0.4569096
0000d0 d4 b5 4e be a0 f2 83 3c f9 7c 84 be 4d bd 05 bd
       -0.2018655 0.016106904 -0.25876597 -0.032651234
0000e0 a2 39 d0 be 6d d6 d2 3e fb a5 45 3d 41 ec b3 3e
       -0.4066897 0.4117922 0.048253994 0.35141185
0000f0 3d c4 0f 3f 15 eb 0d be 1b 7b b2 3e 80 f8 09 be
       0.5615881 -0.13859208 0.34859547 -0.13473701

running_var f4 [64]
000000 d8 f7 aa 3d 8d 4b 0e 3d 02 3c b6 3d 11 03 ef 3d
       0.08348054 0.03474002 0.08898164 0.11670507
000010 4e 40 1c 3e cd c4 c5 3d 8c 38 11 3d 1f f3 25 3e
       0.15258905 0.096566774 0.035454318 0.16206025
000020 fa d6 07 3e 42 2b 3e 3e af 5b aa 3d 3c 60 ad 3d
       0.13265601 0.18571189 0.083182685 0.08465621
000030 62 3a 7e 3d 48 47 c4 3d 3d c1 9f 3d bd c4 b9 3d
       0.062067397 0.09583908 0.07800529 0.09070728
000040 c9 4a 44 3e ec 92 cb 3d 41 9e 0b 3e d5 86 43 3e
       0.19169153 0.099401325 0.13634588 0.19094403
000050 35 42 17 3e 11 01 14 3e 08 24 ac 3d 0f b6 fc 3d
       0.1477135 0.14453532 0.0840531 0.123394124
000060 82 5a 1f 3e 7b d0 fb 3d 37 04 aa 3d a1 08 a7 3d
       0.1556187 0.12295624 0.08301585 0.08155943
000070 61 da 44 3e cc 4d 51 3d 34 dd 10 3e 99 18 ec 3d
       0.1922393 0.051099584 0.14146882 0.11528129
000080 95 0b 55 3d 47 70 30 3e 51 23 91 3d 3f 2f 06 3e
       0.052013 0.1723033 0.07086814 0.1310396
000090 f7 e1 34 3e aa b4 81 3d c9 be 13 3e 98 ac 9f 3d
       0.17664324 0.06333287 0.14428248 0.077965915
0000a0 b6 65 32 3d b2 42 d9 3d 4c 4e f4 3d 9f 00 83 3d
       0.04355403 0.10608424 0.119289964 0.06396603
0000b0 1a 5f cc 3d 2d 1b 8c 3d 90 d9 91 3d 37 6e df 3d
       0.09979077 0.06841121 0.07121575 0.10909694
0000c0 e4 3a 07 3e bb 57 b5 3d c7 aa ab 3d d7 3f 2a 3d
       0.13206059 0.08854624 0.083821826 0.04156479
0000d0 dc 84 0d 3e 66 cb c6 3d 9e 17 d3 3d 0f 48 11 3e
       0.13820213 0.09706764 0.10307239 0.14187644
0000e0 df 0f 6e 3d ac f2 ff 3d eb 01 ba 3d fb e4 52 3d
       0.058120605 0.12497458 0.09082397 0.051487904
0000f0 6e 75 41 3e d2 2b 0d 3e 1e 1a 01 3e 55 d2 22 3e
       0.18892452 0.13786247 0.12607619 0.15900548

weight f4 [64, 64]
000000 d9 a8 b8 3a be 6e ba 3d 72 b0 2f bd 56 63 51 bd
       0.0014088406 0.09103154 -0.04289288 -0.051120125
000010 40 28 8b bd f4 55 ae 3b 0e bd ff 3d 78 86 23 3d
       -0.067947865 0.005320305 0.12487231 0.03992316
000020 22 34 57 3d df 3f d5 3c 34 b5 84 3d d7 9d ab 3d
       0.052539952 0.026031433 0.06479874 0.08379715
000030 43 f3 6a 3d d7 ff 45 be db ab a9 bd a3 b0 cf 3c
       0.0573609 -0.19335876 -0.08284732 0.025352782
000040 8f 2c 9f 3c fa cd 72 bc 03 79 c6 3d 9d 38 31 bd
       0.019430427 -0.014819616 0.0969105 -0.04326688
000050 27 87 70 bc f8 1a 76 bc c9 93 a8 bd dd 61 e2 bd
       -0.01468066 -0.015021078 -0.08231313 -0.11053822
000060 dd db dd bd 46 49 82 bd ea ba 73 bd 2d f8 2e 3d
       -0.10832951 -0.06361632 -0.059504427 0.042717148
000070 8f fc a5 bd 24 4b ea bd 82 56 c5 bd 64 c4 a7 bd
       -0.08104812 -0.11440113 -0.09635641 -0.081917554
000080 85 7e 3c 3d 5f db 53 3d 6b a0 8e bd 3b 00 83 3d
       0.046019096 0.05172288 -0.06964191 0.06396528
000090 8f c6 e5 bd ec f0 14 3e d9 7b d6 3c 5d 1e 46 bc
       -0.11219513 0.1454503 0.026182102 -0.0120922
0000a0 40 17 4f bc ae 7c 9f 3d 5b db 54 3d d9 19 7f bb
       -0.012639821 0.07787453 0.051967006 -0.0038925319
0000b0 6a 50 b2 3c a5 57 67 3d c4 4d ea 3d c6 58 11 3e
       0.02176686 0.05648007 0.11440614 0.1419402
0000c0 f5 39 3b bd 5f e4 57 3d 17 a7 99 bd 6e ba 62 3d
       -0.04570957 0.052708026 -0.07502573 0.055353574
0000d0 6b 78 ef bc e4 b2 4b bd 13 0c 09 3c 0e f8 84 bc
       -0.029232224 -0.04973115 0.008364695 -0.016231563
0000e0 3e 34 73 bd d6 9a 9e bd da 0c 0e 3e 21 2f 71 bd
       -0.059375994 -0.07744376 0.1387209 -0.058882836
0000f0 53 48 b5 3c ec 97 04 be 27 ca 74 bc 83 e1 b6 3c
       0.022129213 -0.12948579 -0.014940775 0.02232433
000100 65 61 62 3d 24 1b b3 3d 72 76 b4 3c 58 c2 9d 3d
       0.055268664 0.08745411 0.022029135 0.07703084
000110 97 83 e7 3a 19 3b 93 bd ba 02 e2 bb 8c cc 87 bc
       0.0017663118 -0.07189006 -0.0068972977 -0.016577028
000120 4c 91 67 bd 87 78 98 bd 4b d3 4a bd 2b f5 64 bb
       -0.05653505 -0.07444864 -0.04951791 -0.003493617
000130 50 46 b9 3c 45 88 0f 3e 42 f6 b9 bd 75 b7 6d bd
       0.022616535 0.14016826 -0.09080173 -0.058036286
000140 7c 32 ed bc 3b 38 6d 3d 9a b5 02 be 6b 46 2b 3d
       -0.028954737 0.057914954 -0.12764588 0.041815203
000150 2a 10 b9 bd 1d 58 c8 bd a9 d3 9a 3c 27 44 03 38
       -0.09036286 -0.09782431 0.018899756 3.1296306e-05
000160 94 d5 6f bd ab 4a c0 3d 5c 42 a8 bd 78 29 b5 bd
       -0.058553293 0.09389242 -0.08215782 -0.088458
000170 a6 46 19 bd e1 25 ee 3d 16 09 a2 3d 4b 63 01 be
       -0.03742089 0.116283186 0.07911889 -0.12635534
000180 c7 d3 4e bc 06 69 c5 3d 3e 9b 84 3d bb 6b 86 bc
       -0.012623734 0.09639172 0.064749226 -0.016408792
000190 77 7d ee bc 67 74 9b bc 1d 06 db bd 82 81 da 3b
       -0.02911256 -0.018976403 -0.106945254 0.0066682706
0001a0 0f 85 05 3d 66 d8 cb bc cd 82 e9 bd ce a9 e8 bc
       0.032597598 -0.02488346 -0.114019014 -0.028401282
0001b0 60 41 6c bd 60 50 e6 3d d8 11 9f bc 1d 94 7e 3d
       -0.057679534 0.11245799 -0.019417688 0.06215297
0001c0 f7 35 75 bd 14 31 0c 3d 25 09 f9 3d 6e 09 a4 3d
       -0.059865918 0.034226492 0.12159947 0.08009611
0001d0 46 70 40 bb 12 c4 51 3d 58 41 95 bc ad 04 cb bd
       -0.0029363795 0.051212378 -0.018219635 -0.09913001
0001e0 14 ee 04 bd 7f 78 9b bd a4 d2 d4 3d 88 ae 10 bb
       -0.03245361 -0.07591342 0.10391739 -0.0022076685
0001f0 87 16 94 bc bc 95 bb 3d 07 22 72 3c 3e 32 2b bc
       -0.018077148 0.09159419 0.014778621 -0.01044899
000200 8c ab 5c bd 40 a3 ad bd c4 f3 98 bd 92 51 a0 3d
       -0.053874537 -0.08478403 -0.074683696 0.07828058
000210 ff 2f bd bd 8e 3a fc 3c 4a 4a 1e 3d 76 e8 98 bd
       -0.0923767 0.03078964 0.038645066 -0.074662134
000220 07 e3 2f 3d a2 93 be 3c c2 65 e5 bd fc 7c c0 3b
       0.04294112 0.023263756 -0.112010494 0.0058742743
000230 f5 ca bf bd 0d cc 84 bd 64 00 be bd 59 cd 28 3d
       -0.09364883 -0.06484232 -0.09277418 0.04121146
000240 53 e2 8a 3d 05 2d d4 3c 46 b6 74 3d 1f bb b1 bc
       0.06781449 0.025900373 0.059744142 -0.021695672
000250 e1 19 9d bd 1d cd 80 3d ba 04 b1 bc 16 73 aa 3d
       -0.07670952 0.06289122 -0.0216087 0.08322732
000260 8c 17 4a bd 54 01 a8 bc 6f fb 3d 3d 70 28 7f bc
       -0.049338862 -0.020508446 0.046382364 -0.015573606
000270 9b 3e 64 bd 5a 6d 89 bd 49 3d 1c bd 14 bf be bd
       -0.055723768 -0.0671031 -0.038144384 -0.09313789
000280 52 83 d6 3d cf e2 b6 3d 03 19 18 bd 5f 53 34 3d
       0.10474266 0.08929979 -0.037133228 0.04402482
000290 50 0e 41 bc cb 02 00 be df 3c 89 bd cf aa 87 3d
       -0.0117831975 -0.12501065 -0.06701063 0.06624376
0002a0 d0 3e 12 3d 63 22 f8 bb a6 a2 12 be b7 c7 fb 3c
       0.035704434 -0.0075724586 -0.14319858 0.03073488
0002b0 1b 54 94 3d 1b 09 99 bd 9a f6 3d 3c 56 60 34 be
       0.07242604 -0.0747244 0.011594439 -0.17614874
0002c0 67 ee 8e bd 3e 0c 9f bd 0f e0 31 be ba 09 92 bd
       -0.069790654 -0.07766007 -0.17370628 -0.071307614
0002d0 4c 77 67 bc 5b 87 d5 bd a6 2d b1 bd 40 c1 ac bc
       -0.014127564 -0.10426208 -0.08651285 -0.021088243
0002e0 43 21 5e 3d eb 5c 1b 3b ad 06 d9 bc 89 a6 8f 3d
       0.05423094 0.0023706506 -0.026492441 0.07014186
0002f0 09 4e 42 3b 17 ff 8b 3d 0b d7 86 bc 82 b1 da b9
       0.0029648563 0.06835764 -0.016459962 -0.00041712454
000300 39 c2 7b bd ba ad db bd 5d f4 17 bc e3 b9 be 3d
       -0.061464522 -0.10726495 -0.009274569 0.09312799
000310 d1 e5 bb 3a 39 10 c4 bd 26 dc 09 be 92 58 01 3e
       0.0014335458 -0.09573407 -0.13462886 0.12631443
000320 c4 de 5a bd 05 bf 3e 3c 52 e0 12 3d f3 a6 94 39
       -0.053435102 0.011642222 0.03585846 0.00028353147
000330 4e f1 63 3c e3 2d 58 3c 0e a3 a4 3c 35 7b cb 3d
       0.013912512 0.013194534 0.020097282 0.09935609
000340 e8 06 5b bd 04 2f ce 3d 32 75 6f 3d a6 fc 7c bc
       -0.053473383 0.10067561 0.058461376 -0.015441095
000350 b4 fa d5 3b 80 87 a8 bd 0e b9 ca bd 1f e8 b5 3c
       0.0065301303 -0.082289696 -0.09898578 0.02220541
000360 c9 c4 ed 3c c5 5b df 3d b8 a7 fa 3d 25 56 89 bd
       0.029024499 0.109061755 0.12239021 -0.06705884
000370 8d 86 a3 bd ae 5f ca bc 96 43 8d 3c 49 05 0e bd
       -0.07984648 -0.024703827 0.017244142 -0.03467301
000380 40 55 d3 bd 0f fe bd bd 27 31 4e 3d aa 25 fc 38
       -0.103189945 -0.092769735 0.050339844 0.00012023312
000390 79 3a d6 bd 38 ee e5 3c 60 69 48 bc b5 2d 5f bd
       -0.104603715 0.028067693 -0.012232155 -0.05448695
0003a0 17 cf 0b bc 4f bd 0d bd cf 60 04 be 32 4a c2 bd
       -0.008533261 -0.034604367 -0.12927555 -0.09486808
0003b0 5b 2f a2 3d bb 6c 6a bd ff 26 b4 bd ce 81 25 3d
       0.079191886 -0.0572326 -0.087965004 0.040406995
0003c0 92 93 05 3d 61 be 05 bd 84 55 2c bd 40 f8 ec bd
       0.032611437 -0.032652263 -0.04207374 -0.115707874
0003d0 87 0c 6e 3d 12 a6 02 3e 58 cc 84 3c 50 65 9f 3d
       0.058117416 0.12758663 0.01621072 0.07782996
0003e0 8d 52 b4 3b f1 eb 2d bc cd 7d b7 bd c6 25 98 bd
       0.005503005 -0.010615335 -0.089595415 -0.0742908
0003f0 2d dd 8d bd 0c c7 89 3d 54 7f d3 3b b5 81 01 3d
       -0.069269516 0.06727418 0.0064543877 0.03161784

bias f4 [64]
000000 e1 50 3a bd 8b e3 9f 3c dd 8c e0 3b ef 0f b2 bd
       -0.04548729 0.01951768 0.0068527297 -0.08694445
000010 68 11 33 bd 2a fb 42 bc 5b 7c a7 3d 3a 01 c5 3d
       -0.04371777 -0.0119007025 0.08178016 0.096193746
000020 30 ce f6 bc c2 9a ee bd 4c 81 d6 bd 4f 95 f8 bc
       -0.030127615 -0.116506115 -0.1047388 -0.030344633
000030 89 e9 a5 3d 03 7a de bc 90 3b 73 bd b4 df 78 3d
       0.08101184 -0.02715779 -0.059382975 0.060760215
000040 14 6e 12 bc 34 ea 78 3d 10 65 89 3d 97 47 e6 3d
       -0.0089373775 0.06077023 0.06708729 0.112441234
000050 c9 5a 68 bd 3e 33 c9 3d 4f d0 66 3d 83 1b e3 3d
       -0.056727204 0.09824227 0.056351002 0.11089232
000060 6b 01 00 3e 5c a8 2b bd 6e c3 97 3d f5 86 e6 3c
       0.12500541 -0.041908607 0.07410322 0.028140524
000070 c7 9e bb 3d fc 2e 18 3c 30 b2 21 bd f5 04 fa bd
       0.09161144 0.009288546 -0.039476573 -0.12207977
000080 77 ea a9 3d cd 4a 6a 3d 3c 57 74 bd 38 29 14 bd
       0.08296674 0.05720024 -0.059653506 -0.03617212
000090 3e b2 f4 3d 4e 36 87 3d 99 42 bf 3c e1 dd 12 bb
       0.119480595 0.06602155 0.023347186 -0.0022410082
0000a0 65 a0 8b bd 98 92 b5 bc 47 84 e8 bd 70 8f 9d 3d
       -0.06817702 -0.022164628 -0.11353355 0.07693374
0000b0 10 8e 9c 3d 90 a7 70 3d 67 c9 7d 3d b7 f3 b6 bd
       0.07644284 0.05875355 0.06195965 -0.08933204
0000c0 f2 e1 ff 3d 1e 46 83 3d 87 56 a9 bc dd cc 7d bd
       0.124942675 0.06409858 -0.020671142 -0.06196295
0000d0 91 3e e1 bd d0 5a 22 3d 72 45 8c 3d a2 24 b8 3d
       -0.10998262 0.039637387 0.06849183 0.08991362
0000e0 01 c8 7e bd e4 16 b2 bd 9f 61 4e 3d 81 80 fc bc
       -0.062202457 -0.08695772 0.050386067 -0.030822994
0000f0 f0 b5 f6 bd 34 28 28 3a d0 ef e1 3c 0c 46 fb 3d
       -0.120464206 0.0006414682 0.027580172 0.1226922

weight f4 [64]
000000 fb 7e 6d 3f 17 4f 79 3f 2a ff 7a 3f cf fa 6e 3f
       0.9277188 0.97386307 0.980456 0.93351454
000010 80 dc 78 3f 90 f0 7d 3f b1 05 72 3f 05 c2 77 3f
       0.97211456 0.99195194 0.94539934 0.96780425
000020 18 e1 78 3f 6d 57 7c 3f 9d 04 6e 3f 47 4f 7f 3f
       0.97218466 0.985709 0.9297579 0.9973034
000030 06 93 78 3f 6d dd 73 3f dd 45 80 3f 4c 01 81 3f
       0.9709934 0.95259744 1.002132 1.0078521
000040 ac d1 76 3f a2 48 77 3f d2 d5 7a 3f a3 e9 73 3f
       0.96413684 0.96595204 0.97982514 0.95278376
000050 3d 33 7d 3f a3 bd 7b 3f 44 1c 6c 3f ce 44 80 3f
       0.9890631 0.9833624 0.9223063 1.0020998
000060 5f 59 80 3f f5 df 72 3f f8 fa 69 3f cb de 76 3f
       1.0027274 0.9487298 0.9139857 0.96433705
000070 29 ea 69 3f be 80 6e 3f 77 81 77 3f 8c 56 80 3f
       0.91372925 0.93165195 0.9668192 1.0026412
000080 8a d0 71 3f 9a 2f 80 3f 96 c8 76 3f d2 6e 70 3f
       0.9445883 1.0014527 0.9639982 0.939191
000090 df cc 6b 3f d2 cc 77 3f b4 70 77 3f 6a 63 7d 3f
       0.92109483 0.96796906 0.96656346 0.9897982
0000a0 e2 ae 77 3f 9d 3a 81 3f 32 4b 71 3f c8 09 6d 3f
       0.96751225 1.0096012 0.94255364 0.9259305
0000b0 f9 40 76 3f da 6d 7e 3f 1e 9d 7a 3f 2a 5f 80 3f
       0.9619289 0.9938637 0.9789599 1.0029042
0000c0 6e e1 77 3f df ed 80 3f b7 ca 7c 3f de 1a 78 3f
       0.96828353 1.0072592 0.9874682 0.96915996
0000d0 18 6f 6a 3f 38 44 6a 3f 02 98 7d 3f 8d fb 82 3f
       0.91575766 0.91510344 0.9906007 1.0233017
0000e0 3d 7a 68 3f 74 58 7b 3f 51 9e 70 3f 75 46 6f 3f
       0.9081152 0.98181844 0.9399157 0.93466884
0000f0 e6 6b 77 3f 65 c0 6d 3f 19 2e 73 3f 59 b6 78 3f
       0.96649015 0.92871696 0.94992214 0.9715324

bias f4 [64]
000000 84 9a 88 bd 34 6d fb bc ea 28 d6 bd 04 7b 74 bd
       -0.066700965 -0.03069172 -0.104570225 -0.05968763
000010 40 6a 49 bd 12 70 cf bc 26 2c ba bc 81 df b1 bc
       -0.049173594 -0.025321994 -0.02272613 -0.02171302
000020 76 4b a3 bd 1d f8 11 bd 82 10 ca bc ef a9 d0 3c
       -0.079733774 -0.03563701 -0.024666075 0.025471656
000030 bd 98 64 bd 02 b5 3e bd 36 e5 a3 bd 8d 46 b4 3c
       -0.055809725 -0.04655934 -0.08002703 0.022006297
000040 78 aa fb bc 45 0a 37 bd 98 e1 45 3c ab 89 76 bd
       -0.030720934 -0.04468753 0.0120777115 -0.060189884
000050 16 20 90 bd b2 d8 9a bd 08 be 4e bd 52 79 8f bd
       -0.0703737 -0.075608626 -0.050474197 -0.07005562
000060 ce e2 d2 3c a8 65 ca bc 71 03 8f bd 80 a0 27 bd
       0.025742915 -0.024706677 -0.06983078 -0.04092455
000070 4b f3 6a bd 39 a0 3b bd d0 3a 76 3c d5 73 89 3d
       -0.05736093 -0.045807097 0.01502867 0.06711546
000080 9c 36 bf bc be aa 1e bd ad 42 0c bd 28 2b 16 bd
       -0.02334147 -0.03873705 -0.034243274 -0.03666225
000090 26 89 ef bc 49 5a 2e bc 79 fd 93 3c c6 2c e0 3c
       -0.029240202 -0.010641643 0.018065201 0.0273651
0000a0 af 19 b8 bc ec e8 29 bd bc de 8b bd 4f fb 61 bd
       -0.022473184 -0.041481897 -0.068295926 -0.055171307
0000b0 b1 bb 7f bd 26 16 bc bb 9b f9 2e bd 72 9c ad bd
       -0.062434856 -0.005739945 -0.04271851 -0.08477105
0000c0 55 7c 22 bd d4 32 3a bd 04 ac 12 bd 24 0e 66 bc
       -0.039669354 -0.04545863 -0.035808578 -0.014041457
0000d0 69 45 52 bd d3 5b cc bd 78 b9 13 bd 90 91 b2 bd
       -0.051335726 -0.099784516 -0.03606555 -0.0871917
0000e0 ce 7b 33 bd d0 de a1 bd 16 b8 1f bd fb 68 37 bd
       -0.04381924 -0.07903826 -0.038993917 -0.04477785
0000f0 c3 b3 a3 ba b3 a7 8c bc 51 48 23 bd dd 6c 80 bd
       -0.0012489486 -0.017169809 -0.03986389 -0.06270764

running_mean f4 [64]
000000 2e 69 16 be 3f a9 1f bd 9b 89 02 bf 70 6d ae be
       -0.1468856 -0.038979765 -0.5099122 -0.3406787
000010 76 09 08 be e0 49 15 3e 92 c6 a5 3e de 06 05 be
       -0.13284859 0.14578962 0.3237806 -0.12990901
000020 b7 ca b0 3e a4 76 36 be f7 cc be 3c 58 f3 f0 bc
       0.3452966 -0.17818695 0.023291094 -0.02941291
000030 4d f0 11 bd 72 71 a5 be 7b 7e 21 3b 66 8a 1e 3f
       -0.03562956 -0.32313114 0.0024642039 0.6192993
000040 34 56 01 bd 33 e9 dd 3d 2d f0 00 3f 0c 33 56 be
       -0.03157635 0.10835495 0.5036648 -0.2091791
000050 e8 13 e0 bd 83 2c c6 3d de 73 82 bd 7a c9 22 bf
       -0.10941297 0.09676459 -0.06369756 -0.6358868
000060 f8 0a 81 be cb 15 8f 3e 0a bf 5b 3e 92 64 ab 3d
       -0.2520368 0.27946314 0.21459594 0.08368792
000070 51 eb 30 be 64 e8 ad 3d fc 28 95 be de 5f 8b 3d
       -0.17277266 0.084915906 -0.2913283 0.068053946
000080 ac 0c 66 3e 8a 04 35 be ea 0a f2 be 3d 13 ce be
       0.22465771 -0.17677513 -0.47273952 -0.40249053
000090 f4 3b c4 bc c2 4c 79 3e 0c eb 9d bd e4 58 34 3c
       -0.02395437 0.24345687 -0.07710847 0.011007521
0000a0 fc a5 a8 be 6b ac b9 bd a8 bb 25 be 8f 5b 35 be
       -0.32939136 -0.09066089 -0.16184866 -0.17710708
0000b0 ce 51 04 3f 31 d1 67 be 3a 07 1f 3c 67 4d c8 bd
       0.51687324 -0.22638394 0.009706313 -0.09780388
0000c0 ee cd 95 3c 9d 71 b6 3d ab 69 0c be 3f 41 04 3e
       0.018286671 0.08908389 -0.13712184 0.12915514
0000d0 9f a8 48 3e 4a 0e c5 be 0a 4a 60 be 8f 78 8e bd
       0.19595574 -0.38487464 -0.21903244 -0.069565885
0000e0 e5 0a bb bd 0d a6 47 be 47 07 cb bc bc a6 5c bd
       -0.09132937 -0.19496937 -0.024783744 -0.053869948
0000f0 a6 02 c7 be 9c 2a 9d 3c 44 66 a8 be 02 97 ea bd
       -0.38869208 0.019185357 -0.32890522 -0.11454584

running_var f4 [64]
000000 b0 86 d6 3e cc 02 a9 3e 9c f2 80 3e c7 01 6e 3e
       0.41899633 0.33009946 0.25185096 0.23242866
000010 4c 31 c9 3e 88 66 bf 3e 1d 48 4b 3e 1e 4d 4b 3e
       0.39295423 0.37382913 0.19851728 0.19853637
000020 1e 85 fd 3e fb 7f 2e 3e b7 03 40 3e 7e 7d 84 3e
       0.49515623 0.17041008 0.18751417 0.25876993
000030 fd 6b de 3e fa 65 a3 3e 3b 43 aa 3e c6 61 cc 3e
       0.43441764 0.3191374 0.33254418 0.39918345
000040 94 f6 2f 3e 35 c3 14 3e b6 17 74 3e da aa 3a 3e
       0.17183906 0.1452759 0.2383717 0.18229237
000050 af 66 bc 3e 44 d7 78 3e a2 84 62 3e a3 29 91 3e
       0.3679709 0.24300867 0.22120908 0.2835208
000060 4e 70 59 3e 5b 97 5c 3e b1 ec af 3e c8 10 b4 3e
       0.21234247 0.21542113 0.3436027 0.35169053
000070 81 8e 89 3e 96 4e 8a 3e 38 eb 84 3e 85 f1 57 3e
       0.26866534 0.2701308 0.25960708 0.21088226
000080 23 10 74 3e b2 bf 05 3f 34 0a 4e 3e ab 2e 88 3e
       0.2383428 0.5224563 0.2012108 0.26598105
000090 67 70 9f 3e 9e 41 45 3e ea 6f ae 3e 25 81 6c 3e
       0.31140444 0.19263312 0.3406976 0.2309614
0000a0 f2 e8 8f 3e 52 dc 59 3e 42 c1 7b 3e 11 70 f8 3e
       0.2810741 0.21275452 0.24585441 0.48523
0000b0 48 a2 92 3e 47 43 47 3e 4b 55 82 3e d1 f4 32 3e
       0.28639436 0.19459258 0.25455698 0.17476203
0000c0 cb ac c9 3e 64 50 ff 3d b6 be a2 3e 7c d1 74 3e
       0.39389643 0.12466505 0.31786126 0.23908037
0000d0 6a 60 53 3e c1 82 48 3e c8 12 4b 3e c6 e4 a0 3e
       0.20642248 0.19581129 0.19831383 0.3142454
0000e0 47 60 ca 3e 12 34 8b 3e da f6 4f 3e fe 21 74 3e
       0.3952658 0.27188164 0.2030901 0.23841092
0000f0 25 3d ba 3e 82 38 b5 3e 9b 97 96 3e 39 bb 6e 3e
       0.36374775 0.35394675 0.2941254 0.23313607

weight f4 [1, 64]
000000 15 e3 ad 3c 13 7e 75 3c 49 7e 36 bc 31 2a 66 3c
       0.021226445 0.014983672 -0.011138507 0.014048145
000010 72 6e 64 bc 9d b0 da bc ea 33 29 3c 87 ea 89 ba
       -0.013942348 -0.026695544 0.010327319 -0.0010522165
000020 16 27 3a 3c a8 bd 75 ba 7f 88 32 bc 84 88 76 3c
       0.011361858 -0.0009374269 -0.010896801 0.015047196
000030 3d 35 9a bc ce 4a 8a 3c 35 72 4f bc a8 54 2c 3c
       -0.018824214 0.016881373 -0.012661506 0.0105182305
000040 8f b5 5b 3b ad 1f a9 3b f3 45 64 bc cb 8e e0 3c
       0.0033524965 0.0051612468 -0.013932693 0.027411839
000050 af 32 61 bc 01 df 1c bc a0 2d b6 bb b8 61 7d bc
       -0.013744994 -0.009574653 -0.005559638 -0.0154651925
000060 2e 75 a1 3b 90 4d 18 bb 97 08 e1 bc f9 ce 61 3c
       0.004927299 -0.002323959 -0.027469916 0.013782256
000070 f2 4c cb bc 21 21 89 bc ee 80 17 3c 19 9e 14 3c
       -0.024816964 -0.01673943 0.009247048 0.009070897
000080 f2 07 f1 3b b4 6c 6a bc ef 69 7b 3c 87 05 b3 bc
       0.0073556835 -0.014308143 0.015345081 -0.021853222
000090 c9 ba b1 3c d2 90 25 3c 36 b5 51 bb bf 0a f8 3b
       0.021695511 0.010105329 -0.003199888 0.0075696404
0000a0 63 44 8e 3c 04 f4 13 bc c4 ae 7e bc 33 38 97 3c
       0.017366594 -0.009030346 -0.015544597 0.018459415
0000b0 16 67 8b 3c a0 38 10 3c 7b ec 67 bc e0 38 93 bb
       0.017016929 0.008802563 -0.014155502 -0.004492864
0000c0 f5 2f 45 bc 0d c2 5b 3c 51 e6 13 3c a9 54 19 3c
       -0.01203536 0.0134129645 0.00902708 0.009358563
0000d0 8a 6e 07 3c 3f 24 89 3c 2f e3 21 bc a3 24 9f bc
       0.008266101 0.016740916 -0.009880825 -0.01942665
0000e0 48 6d 63 3c 26 1f 92 3c 6e d6 53 3c d4 55 68 bb
       0.013881035 0.017837118 0.012929542 -0.0035451548
0000f0 83 02 4f bb 8c 09 4a bc 3c 4a 93 3c e9 1f f5 3b
       -0.003158719 -0.012331378 0.017979734 0.0074806106
