Industrial Equipment/mlruns/0/6dd231b9aaab4043a75071c323c3a8ed/artifacts/generator_model/data/model.pth (torch, 49844 bytes, 6 tensors)

weight f4 [64, 100]
00000000: 1452 b63d feac cfbc 6f15 13be 41f0 bd3c
00000010: 0452 163c 0a72 233c a64e 0dbe 0734 22be
00000020: 158b 5d3d 3728 d73d c617 2cbd 9fcd 2b3c
00000030: e4bd a7bd d260 06bc 7b44 b03d f791 adbd
00000040: f003 57bd f08b cbbd 186b ca3c 7d91 6ebe
00000050: 885f 0fbd c9fc e6bd d13a dabd e8ff b7bd
00000060: 9df1 353d ef2e 5fbd d3df 20bb 6155 c5bd
00000070: 5873 a43d e603 f3bd 93f2 423d ae6c 043e
00000080: 83f9 f33d 2e19 853d fd02 23be b268 8c3d
00000090: 212c 51bd f2af 28be 4ae2 113d 909f 17be
000000a0: ff17 0bbd d47e ba3d fb8a 96bd d625 adbd
000000b0: 2b32 8ebd c0d4 1ebd 762c 013e 6b86 26be
000000c0: 1391 0b3d f607 983d e404 d3bd 2ef4 76bd
000000d0: 28c6 973c 2500 afbd ec7e c83d 558a 11be
000000e0: 7a82 47bd 271d 44bc 84b9 11be 90e4 8a3a
000000f0: 9e51 df3d dbb7 1d3e dd0e 30be 2810 febd
00000100: 0afe 0abd 4823 df3d e7ac 03be 2b27 cbbc
00000110: fe2d aa3d 1e44 03bc 3b82 07bd bd17 f1bd
00000120: 8ab6 28bc 515a b0bd 4547 00be fd94 19be
00000130: 423c 103d 9ff4 96bd 9f48 1d3e 230e 63bd
00000140: 93f9 e6bd f57c 9d3d df52 eb3d 2634 cb3d
00000150: 5b2a 3a3e e5a3 05bd 7eed afbb d303 93bd
00000160: e61f 1e3d 0038 bf3d 07af a13d 617b a7bd
00000170: 7bc5 c4bd d594 8ebc fa26 0cbd 1839 753d
00000180: 7d8c 703d d2bb 67bd 3b4e df3d 4d9f 36bd
00000190: f607 d2bd 683a 8139 e247 09be 08f3 dbbd
000001a0: acda e9bd 3fc3 f6bd 29f4 01be 2872 43be
000001b0: 2661 61bd a6d2 943d ddae 42be 37b9 20be
000001c0: 8a04 b93c 0e9d 033e 50f8 a1bd 4992 ca3d
000001d0: 9e6d e93d b4b1 a93d d487 9dbb 99f1 733d
000001e0: ebb9 a33d 00b2 d7bd 46ae 07be 03e0 b43d
000001f0: 4ec9 063e 2c3c b4bd 8250 163e 1831 153d
00000200: 4146 373d 773f e4bd ee71 6c3e de16 aabd
00000210: 1fd7 16bc 47fd 053e 4021 56bb 7269 793d
00000220: 2860 5bbe b3c6 00bd fe37 043e eee4 e7bd
00000230: 0e26 083e 376f c93d d765 033e f25b f63d
00000240: 745b 503b e0eb c63d 4bb9 973d 7256 12be
00000250: 2a0b dd3d 1673 08be d0d2 6ebd e171 dfbd
00000260: 2222 73bd 912b 01bc 4c77 983d 4789 33be
00000270: 8a14 4e3b 6531 e1bc 1a22 0fbe 8b56 7d3d
00000280: ef13 b53d 1ec0 d6bd f9eb 4c3d 85d4 7a3d
00000290: ef51 97bd c054 ca3d e8b8 f9bd 8225 30ba
000002a0: dcba dfbd e2f4 85bd 782d ed3b 9acb c83c
000002b0: 4380 c9bd 1d01 eebd 8144 ae3d 2acd a63d
000002c0: ecaf 203e 33ea 0e3d 3f57 7a3b 1cbb cfbd
000002d0: 508e 423e ac0a dd3d 43fd 1a3e 84aa 903d
000002e0: 9fd0 aa3d 5913 833d 22e5 033d 996a a23d
000002f0: 3750 f43a 1fe5 1f3e 75df 1fbe 174b ffbd
00000300: d9e3 01bd bc44 59bc 5247 6ebd a0f8 edbc
00000310: 3e81 c53d 53a5 613d f49e 313d 2cab 683c
00000320: ab89 d2bd f764 92bd 7aac 3b3c 456d af3d
00000330: 6770 0cbd 0408 1c3e f7c0 8c3d f11a 403d
00000340: c5dd 4f3d 70b8 9e3d 85c6 613d cd45 b8bd
00000350: 2758 0ebd 742c 943d 8f30 35be a651 e83c
00000360: dc17 65bd aad6 fc3d 7467 98bd 99fe 3d3e
00000370: 8f33 3fbd c850 873c 64db d73c 84ec 103e
00000380: f7b5 b6bc fe6b a33d dd7e 693d 6b71 1c3d
00000390: 55d5 383d c0ce e23c 6712 2cbd 3f1d 2bbd
000003a0: dc10 a1bc 5be9 bfbb 714e 323e 25af a13d
000003b0: d27e cbbc 2666 b93d 39f6 d93d 5241 af39
000003c0: 7a19 823e 61ce 093e fe59 77bd 65c4 d63d
000003d0: 3c1e ba3c c931 c7bd 35e9 1bbe 78f6 c53c
000003e0: 1f48 843c fb08 4d3d df5e b7bc 9f13 03be
000003f0: 5799 27bd 1eb6 3c3d a55e 98bd 1071 07bd
0.08902374 -0.025351044 -0.14363645 0.023185851 0.0091748275 0.0099759195 -0.13799533 -0.1584016
0.054087717 0.10505717 -0.04201486 0.010486036 -0.08190516 -0.008201795 0.086068116 -0.08475106
-0.05249399 -0.099388 0.02470927 -0.23297687 -0.035003215 -0.11278684 -0.106557496 -0.08984357
0.044419874 -0.05448812 -0.0024547472 -0.09635425 0.080298126 -0.11865978 0.047594618 0.12932083
0.11912825 0.06498943 -0.15919109 0.068559065 -0.051067475 -0.16473368 0.035616197 -0.14806962
-0.03395843 0.09106222 -0.07350727 -0.08454482 -0.069431625 -0.038777113 0.12614617 -0.16262214
0.0340739 0.074233934 -0.10303667 -0.06029146 0.018527105 -0.085449494 0.097898334 -0.14212926
-0.048708417 -0.011969841 -0.14230925 0.0010596681 0.10904239 0.15402167 -0.1719317 -0.12405425
-0.033933677 0.10895401 -0.12858926 -0.02479895 0.083095536 -0.008011846 -0.03308318 -0.11772106
-0.010297427 -0.086109765 -0.12527187 -0.14998241 0.035213716 -0.073708765 0.15359734 -0.055433404
-0.11278071 0.07689849 0.11490416 0.09922056 0.1818022 -0.032627005 -0.0053688874 -0.07178464
0.03860464 0.09336853 0.07894712 -0.081778295 -0.09607979 -0.017404953 -0.03421686 0.059868902
0.05872773 -0.056575604 0.10903593 -0.044585515 -0.10255425 0.00024648313 -0.13406327 -0.10739714
-0.114186615 -0.12048959 -0.12690796 -0.19086516 -0.05502429 0.072667405 -0.19012018 -0.15695654
0.022585172 0.1285288 -0.0790869 0.09891183 0.11397861 0.08285847 -0.0048074517 0.059556577
0.079944454 -0.10531998 -0.13250074 0.08831789 0.13162729 -0.088005394 0.14679149 0.036423773
0.044744734 -0.111449175 0.23090336 -0.08305143 -0.009206562 0.13084899 -0.0032673627 0.060891576
-0.214234 -0.031439494 0.12911984 -0.11322962 0.13295767 0.09835666 0.12831818 0.12029256
0.0031792792 0.09712958 0.07408389 -0.14290789 0.10793145 -0.13325152 -0.058306515 -0.109103926
-0.059358723 -0.007883922 0.07444629 -0.17532836 0.0031445348 -0.027489373 -0.13977852 0.061850112
0.08841693 -0.10485862 0.05002973 0.06123783 -0.073886745 0.09879446 -0.12193471 -0.0006719456
-0.109243125 -0.06540848 0.0072380863 0.024511147 -0.09838917 -0.11621306 0.0850916 0.08144601
0.15692109 0.03489132 0.0038198975 -0.1014311 0.189996 0.10793051 0.15135674 0.07063773
0.083405726 0.06400175 0.03220094 0.07930488 0.0018639629 0.15614747 -0.15612586 -0.12465494
-0.031711433 -0.013261016 -0.058173485 -0.029049218 0.096437916 0.055089306 0.04336448 0.014200967
-0.10280164 -0.07148164 0.011454696 0.085657634 -0.034286883 0.15237433 0.068727426 0.046900693
0.050748605 0.077500224 0.055120964 -0.089976884 -0.034752037 0.07235041 -0.17694305 0.028359246
-0.055930957 0.123456314 -0.07441607 0.18554153 -0.04668003 0.016518012 0.02634973 0.14152724
-0.022303564 0.07979582 0.057005752 0.0381941 0.045125324 0.027686477 -0.042009737 -0.041775938
-0.01966136 -0.0058566756 0.17412736 0.07894734 -0.024840746 0.090526864 0.10642666 0.00033427268
0.25410062 0.13457634 -0.060388558 0.10486678 0.022719495 -0.09726293 -0.1522568 0.024165377
0.016147671 0.050057393 -0.022384105 -0.12800454 -0.04091772 0.046072118 -0.07439927 -0.03306681

bias f4 [64]
00000000: e88f e53d f36c 163e f9a2 0fbd 97f5 e83d
00000010: 14ea 513d 5626 003e fa13 273e 258a d43d
00000020: f0dd 7e3d d56d 27bd 1fe8 d03c 548e 6a3e
00000030: 818f eb3d 5cc3 a63d 101a 723d 5514 393d
00000040: f3fb 953c 31a4 8d3d 7a25 803c 3532 ed3d
00000050: a833 6dba a294 7b3d e376 ae3b 1b1d b23d
00000060: 941d 143e 1e59 be3b 14a1 9b3d eec5 e03c
00000070: b990 bd3d 0854 df3c 5773 b63d f357 09bd
00000080: 23df 363e 2d2f b03b dae2 f73d c4cc ed3d
00000090: 0e93 39bb b7fd 5e3d aa4c 003d 905f ab3d
000000a0: ca18 533c e03b 2d3d da37 933d 2140 da3d
000000b0: c1cb 8d3d d3e7 963d d5e2 023e 0d4c 2c3d
000000c0: fd0e 993d 9b01 cb3d bd24 693d f747 023e
000000d0: 0215 0cbd eef3 b93d 24bd 8b3d cb95 283d
000000e0: 229d 9c3d c1b5 fa3d 9214 4cbd 1538 25bd
000000f0: 4c47 be3d 3d6c 363d 2145 a73d 9d80 053e
0.112090886 0.14689998 -0.035067532 0.113749675 0.051248625 0.12514624 0.16316214 0.103779115
0.062223375 -0.04087623 0.025501309 0.22905856 0.115019806 0.081427306 0.059106886 0.045185406
0.018308615 0.06916083 0.01564287 0.11581842 -0.000904853 0.061421044 0.005324231 0.08696958
0.14464408 0.0058089634 0.075990826 0.02743813 0.09256119 0.027261749 0.08908718 -0.03353114
0.17858557 0.0053767175 0.121038154 0.116113216 -0.0028316411 0.05444118 0.031323113 0.083678365
0.012884328 0.04229343 0.07188387 0.10656763 0.069236286 0.07368436 0.12781842 0.042064715
0.07473562 0.099124156 0.056919802 0.12722765 -0.034199722 0.09079729 0.06823185 0.04115848
0.07647158 0.12241698 -0.049824305 -0.040336687 0.092909425 0.044536818 0.08167482 0.13037343

weight f4 [64, 64]
00000000: f625 d73d 195e 87bd 893d 8c3d ec5d 52bd
00000010: 3e3b 843d 1830 dcbd ab6f ecbc ea19 ebbd
00000020: d9a1 26be 6707 8b3d f383 5d3d 91cf 87bd
00000030: 4937 e3b9 0bab d93d 3e17 ea3d 516b 473e
00000040: 1802 b1bc bce9 083e b58f 543d de69 bd3d
00000050: 7d75 c93c 3c0f 6f3c 0617 133e 6db5 693d
00000060: 0855 1a3e 4c14 3a3d 8885 6abc 99ac f03d
00000070: 4be1 8cbd ee4a 333e d86a 543c 1be1 3b3e
00000080: df36 5e3e 17e7 aebc ceec e9bc c9b1 91bc
00000090: 7936 053e 877f b7bd 130e cb3d 15fb 793d
000000a0: 8887 753d b5ca 8fbd 1570 623e d4ef d03d
000000b0: 70a7 09be 9947 773e f3e1 783e 2a5f 5b3e
000000c0: fa58 ab3d 94b6 bc3d 1aea 983d 76c6 cfbd
000000d0: 70cc 373e 946a c43d 051a 0b3e 1d5f f3bc
000000e0: 8438 483d 51a6 8fbd 54b6 1bbd 4659 573d
000000f0: 9de0 0e3e 67c6 c23c 0407 e3bc 6851 5dbd
00000100: 963f 4d3d f9b8 15bd e8cb cebd e375 e1bd
00000110: c156 ed3d a4f3 0fbe 043c abbd 27bc 563e
00000120: 4ae0 1fbc 2961 443e fabe d4bd d481 c13d
00000130: 19ea e0bd 10b6 11be 9c7a 0d3d e54f 5fbd
00000140: a52c 0a3e f055 083e 6e94 933c ef9b 103e
00000150: b311 c73d fee2 283e e4fb d23d 4fcc 813d
00000160: 4c9b 6dbd 27c2 283e 8d3f 4f3e b7ea e03c
00000170: ca99 91bc b5a9 113d 8217 003e 93e2 6cbc
00000180: 9a6b a13d 8d82 dc3d 54a5 833d f41b adbd
00000190: cbc3 303e 9722 203e ccb3 1c3e ea92 5c3e
000001a0: ba84 6c3e 69fd 073e 2981 d13d 5a6b a9bc
000001b0: 2631 e53d 960e 503e cef5 3dbc da9f c63d
000001c0: 61b6 463d 1541 763d 9a7b 2a3d 0b20 e23d
000001d0: af22 dd3d e3b7 253e a51c 0b3e 259e a6bc
000001e0: 2bd4 123e 9d4f 4dba 692e a3bd 859e 063e
000001f0: 401f 3dbd 7740 8e3d 995a fcbd fc31 aebb
00000200: 65c0 183c bd26 4fbd e14b 073e 9ed1 b1bd
00000210: c6e1 92bd 5df3 ae3d ac65 e9bc f129 9b3d
00000220: 9d95 34bd b026 6fbd ab11 94bd 5e00 fabd
00000230: 245b 0bbd 07c9 783e 3f97 403e a5f1 9c3d
00000240: 09e0 de3d 5393 ffbc c166 6f3c 3eaf 523e
00000250: cc9c 033b 5e03 2cbd 8980 473e d3b9 39ba
00000260: d9b6 a33d 09d2 6b3d 8771 dc3d 491d 563d
00000270: e540 7ebd 2407 0b3e 21a6 90bd f1a8 1f3e
00000280: 0367 1f3e 10b2 8cbc 5b9a 133e 7898 b7bd
00000290: 4a24 9c3d ed41 81bd 99e5 6f3e 48dd d03d
000002a0: d8c8 8cbb c683 a4bd 2649 423e cc83 7c3c
000002b0: 2b7c b93d 03e2 823d fe28 333e 08d6 d83d
000002c0: a5be cebd 3953 2dbc fac5 393e 0688 363d
000002d0: 8c43 893c e2af 983d 0bd1 393e 65a9 f03d
000002e0: ffcb ea3b 1f60 c43d a83b a1bd d317 e13c
000002f0: 312d 3a3e d832 cebc 91cd 45bd fa49 69bc
00000300: e594 18bd b951 78bd 735b b13d a342 8a3d
00000310: cde4 d13d 24ad 9abc 4921 623c d8eb 99bd
00000320: d22e 02bd 030f b6bd a59b ff3d 42d0 2abe
00000330: fa18 f83d ca55 0c3d acff 24bc 6223 8c3c
00000340: 5465 84bd 29dc a13d 3eec 283c fd12 963c
00000350: a434 f73d bbf1 b6bc b16d 213e 37e4 48bc
00000360: f047 f33d 1117 fd3d 41cd 143d 9004 c13c
00000370: 9011 cabc 7c7b 093e 42ce 643e f8b1 2f3c
00000380: 1870 363d 62a7 4c3d 5e93 f33d 9cef f63d
00000390: c686 14be fd97 9b3d 8579 f9bc 9446 79bd
000003a0: ad8e 7abd 5f71 a93d 8993 ca3d ca0e 273e
000003b0: ccc6 61bc 09a7 6c3d 27d4 143e e6e9 4e3d
000003c0: e1b4 02be 0852 353d 0e81 edbd ab23 9abd
000003d0: 1d93 443e 1411 05be 8161 a13d 1308 033e
000003e0: ebd2 373c e67c b4bd d46d 203e 2a16 363d
000003f0: 07b2 933d 35fd 4a3e f302 4d3e 66d7 03be
0.10505287 -0.066097446 0.068476744 -0.051359102 0.06456612 -0.10751361 -0.028861841 -0.11479552
-0.16272677 0.06788521 0.054080915 -0.06631387 -0.00043338005 0.10628327 0.11430214 0.19474532
-0.021607444 0.13370413 0.051894862 0.09248708 0.024592156 0.0145910345 0.14364251 0.057057787
0.150715 0.045429513 -0.014314063 0.117516704 -0.06878909 0.17509052 0.012964927 0.1834759
0.21700619 -0.021350427 -0.0285553 -0.01778497 0.13009061 -0.08959871 0.09914794 0.061030466
0.059943706 -0.07021085 0.22113068 0.102019936 -0.13442779 0.24148406 0.24304943 0.21423021
0.0836658 0.092145115 0.07466526 -0.10145275 0.1794908 0.09590641 0.13584144 -0.02970844
0.048882023 -0.07014144 -0.03801568 0.052575372 0.1395287 0.023776246 -0.027713306 -0.054032713
0.05010947 -0.036553357 -0.10097486 -0.11008813 0.115888126 -0.14057785 -0.083610564 0.20970212
-0.0097580645 0.19177689 -0.103879884 0.09448591 -0.109821506 -0.14229608 0.034540758 -0.054519553
0.13493593 0.13314033 0.018015113 0.14121984 0.09720173 0.1649284 0.103019506 0.06337797
-0.05800943 0.16480313 0.20239086 0.02745567 -0.017773528 0.035562236 0.12508968 -0.014458316
0.078818515 0.10767088 0.06428018 -0.08452597 0.17262189 0.15638195 0.15302962 0.21540418
0.23097506 0.13280262 0.102297135 -0.020681072 0.11191015 0.20318064 -0.011594249 0.09698458
0.048513774 0.06012066 0.041621782 0.11041268 0.10797631 0.16183428 0.13585146 -0.020339081
0.14338748 -0.00078319927 -0.079678364 0.13146408 -0.04617238 0.069458894 -0.12321968 -0.005316017
0.009323214 -0.050574053 0.1321254 -0.086825594 -0.07171969 0.085425116 -0.028490864 0.07576359
-0.044087995 -0.058386505 -0.072299324 -0.12207101 -0.034022465 0.24295436 0.18807696 0.076632775
0.10882575 -0.03119818 0.014611901 0.20574662 0.0020082472 -0.0419954 0.19482626 -0.000708488
0.0799386 0.057573352 0.10763841 0.052274022 -0.062073607 0.13576943 -0.070629366 0.1559179
0.1556664 -0.01717475 0.1441435 -0.08964628 0.07624109 -0.063114025 0.23427428 0.10198456
-0.0042964034 -0.08032946 0.18973216 0.015412282 0.09056886 0.063907646 0.17496106 0.10587698
-0.10094956 -0.010578924 0.18141928 0.044563316 0.016755842 0.07455422 0.1814615 0.117510594
0.0071654315 0.09588646 -0.07872707 0.02747718 0.18181302 -0.025170729 -0.048291747 -0.014238829
-0.037251372 -0.06062481 0.08660021 0.06750991 0.102487184 -0.018881388 0.013801881 -0.07515687
-0.031782933 -0.08889582 0.12480859 -0.16681007 0.12114139 0.034261502 -0.010070723 0.017106716
-0.06464639 0.0790332 0.010310231 0.018319601 0.12070587 -0.022332063 0.157645 -0.012261442
0.11878955 0.12357915 0.036328558 0.023561746 -0.024666578 0.13426012 0.22344306 0.010723583
0.044540495 0.049964316 0.118933424 0.120574206 -0.14504537 0.07597349 -0.030453453 -0.060858324
-0.061171222 0.08273577 0.09891421 0.16314235 -0.013780307 0.057776485 0.14534055 0.05051603
-0.12764312 0.044267684 -0.11596881 -0.075263344 0.19196744 -0.12994796 0.078799255 0.12796049
0.01121972 -0.08812885 0.15666896 0.04445473 0.072116904 0.19823153 0.20020656 -0.12875137

bias f4 [64]
00000000: fd05 703d 663b f33c 0621 44bc b222 0d3e
00000010: a6c3 8dbc f20a fbbb 7ce9 373d ed5e 94bd
00000020: 49aa dd3c 03b1 b93d 5cbc 133d fcf8 cf3d
00000030: 463d 1c3d 7c09 9dbc 7993 4e3d a0a4 133e
00000040: 34d2 983c 45d1 d03c 55a3 783d df4b d43d
00000050: 20a3 43bc 51aa 163d 141a 05bc 841d 573d
00000060: facf c13d 6c2e df3d d3a8 91bd 91a6 b23c
00000070: ce98 bf3d 6d01 6e3d cc63 46bd 5801 9b3d
00000080: 0e89 0f3e 03dd 9abc 4648 973d ed6c ff3d
00000090: 4e31 88bd b9e1 cabd 747b 593d cac0 063e
000000a0: 26b8 0dbd 1c3b 433e 697e 213e 235a 0c3d
000000b0: dd75 cbbb 6a20 a63d f170 9d3d 8482 4c3d
000000c0: 1d0c 85bd 275d 903b 1974 fc3d bc46 32bd
000000d0: b6ea eb3c 2e13 443e a6d1 4d3d d09a 913d
000000e0: 9755 64bd 8472 873c d2f5 013e 7dbd ca3c
000000f0: ed7e 0e3c b360 183e 0782 373d 56a5 a0bc
0.05859946 0.02969141 -0.011970764 0.13782766 -0.017305207 -0.007661217 0.044900402 -0.07244668
0.027058737 0.090669654 0.036068305 0.10154912 0.038144372 -0.019169562 0.05043361 0.14418268
0.01865492 0.025490412 0.06070264 0.10366034 -0.0119407475 0.03678352 -0.008123893 0.052518383
0.094634965 0.10897526 -0.07112279 0.02180794 0.09355317 0.05810683 -0.048435017 0.07568616
0.14017126 -0.018904215 0.07386832 0.12471948 -0.06650029 -0.099063344 0.05309625 0.1315948
-0.034599446 0.19065517 0.15770878 0.03426565 -0.0062091188 0.08111651 0.076875575 0.049929157
-0.06496451 0.004405636 0.12326831 -0.04352449 0.028798442 0.19147941 0.050248764 0.07109606
-0.055745687 0.016534097 0.1269143 0.024748558 0.008697254 0.14880638 0.044801738 -0.019610088

weight f4 [5, 64]
00000000: 0b32 613e 41e1 323e f1e5 143e e22b e23d
00000010: c44b 7bb8 94bc 8c3d 4d3b 133e aa4a 73bc
00000020: 48c7 6abc 9dec 313e 3159 adbd 48ca b7bd
00000030: cc34 41be c166 96bd fec2 0d3c 3cf2 d63d
00000040: 8295 4b3d 59ff ce3c e169 743d 70ca febc
00000050: f340 01bc 5f52 f3bd 55a2 a73c 25e9 cb3c
00000060: fc92 24be e34b 0d3e 26d4 e03d 6531 b53b
00000070: 8c3a 4a3e 370e e8bc 9e63 fcbc a93a 96bd
00000080: e129 28bd af19 36be b740 babd 564f c4bd
00000090: dc30 ec3d 09d4 603d b49e 39bd d896 efbd
000000a0: cfdc 8c3d 8d8d 84be 11e3 313c 1254 053e
000000b0: d920 00bb 3c9f d6bd bfe0 0dbd 84dd 2dbd
000000c0: 8121 5cbd bbad 85bd 6e6a 0a3e bce5 db3d
000000d0: ee32 b43d 949e 15be 132e ccbd efe0 cbbd
000000e0: 1798 5cbd 2566 51be 144d 0dbd a5b1 4f3e
000000f0: aaa9 513d 3176 96bd 1f35 34be 43fd 2f3d
00000100: d65a 8dbc 0d04 403e 0661 74bd 24cf 10be
00000110: 219b 6d3d 0f84 38bd 71c3 44be ac7c ecbd
00000120: edc1 d8bc 538d 41bd 8473 af3c 1c54 79bd
00000130: ae22 e23c bbd3 e23d 3056 93bd c294 d4bd
00000140: fe21 253e 3aed 673d c80b a7bd 23a9 d6bd
00000150: 1ced c0bd 7c28 b2bd ac8d 9ebd dd8a 213e
00000160: b814 093e 0779 75bc 8f74 653d 4de3 85bc
00000170: a47b 1e3e 18cd 28bd 712d a33c 078d c5bd
00000180: 0905 2e3e e041 533d b1c3 00be 3a6c cf3c
00000190: f08d 43be dc8b a4bc aef6 c3bd 1ac1 86bc
000001a0: d49b 853e 48a3 983b 5ab6 483d 29f4 77bc
000001b0: 65bb e63c e6cc 0b3e 8c27 0cbe de4f 21bd
000001c0: 8225 8cbb 5055 96bc 661b 293d ed82 333d
000001d0: dd9b 35be f1c3 1d3d 04ec a0bd bf41 c0bd
000001e0: 2979 6abd 4caf 6fbc e965 593d f457 f0bc
000001f0: b60c 2f3e aed1 a9bd 48d1 813d 3ea5 47bd
00000200: 8243 bd3a 9c18 2e3c 562c c6bd c075 a43d
00000210: 4cb1 54be 6c30 373c 6dc4 eb3d cf3f f7bc
00000220: dda9 343d 4f9f 02be 4851 13bb c546 27bd
00000230: d798 4fbd bce6 a73d 43d7 a6bd 99cd 0c3e
00000240: 7e0c 82bd 4495 c93d 99b2 603d b84e cbbd
00000250: b25c 8c3e 94eb 0f3e e6e9 383e d970 b03d
00000260: 80e4 5ebc c570 353c 94ce 26bd 2065 85bd
00000270: 7b57 0d3e 90e3 2fbe ee4e 5fbe dc00 833e
00000280: 63d0 893d 9faa 8d3d 9b1e 16be 66bc b53d
00000290: db08 b03d 56a4 0e3e a90c d3bd 356c 7b3c
000002a0: 1c82 823d d62d 4c3d 22dc e93d 8ef0 c13d
000002b0: cb5d 1a3d c8a4 8bbd 30c4 c5bd 90fa 19be
000002c0: 1123 23be 32ca c1bd b363 a43d 888b e7bc
000002d0: 0bd6 cabd 9c2b e1bd 8173 b53d 0716 4a3e
000002e0: ae7d 303c e7b9 3d3d be1a bdbc 7069 3b3d
000002f0: 6d69 e0bd 9f2f 12be a9fe 353e 683b 5b3d
00000300: 5e59 4bbe 6c51 6bbc 65f9 31bd cc6a 703c
00000310: fb15 4e3d 3d26 ee3d 97ad 1fbe c546 20be
00000320: 7747 733e b69f 5f3d 65ba ea3d 2371 0a3e
00000330: 0e06 893d ab9d f13d 29b3 7d3d f985 f6bd
00000340: ba3a c9bd f16d cd3c cf36 0bbd f787 3e3d
00000350: 3d5a 72bc d629 efbc 5653 213e 9a8a e5bd
00000360: 5d5d 01be 9c02 c53d d8c8 193e 3925 72be
00000370: 2bf3 c63c 5ecb e93d 8f31 cf3d 938b 563c
00000380: 7f53 893c bc4a 19bc be88 81bc 9b4d 323e
00000390: d6e5 23be fa41 643e dc7d 48be 587b 0ebd
000003a0: 4a4f 923a 84e8 dcbd 2306 073e 9b20 88bd
000003b0: 220d d4bd c170 afbd eb93 113d 64f7 52be
000003c0: ef1b 193d 51cc 123e 4bf9 61bd 181c e9bc
000003d0: b039 3ebe 3dd2 9dbe ba10 c93c fa7f 26be
000003e0: 4fc1 b0bd 9321 2f3d 107f 023e c752 903d
000003f0: 1c3d f23d a4e2 783d edfa 373d 7134 9ebd
0.21991746 0.1746874 0.1454084 0.11043526 -5.9913626e-05 0.06871906 0.1437809 -0.014849344
-0.014329739 0.17375417 -0.084642775 -0.08974129 -0.18867797 -0.073438175 0.008652447 0.10495421
0.04970313 0.025268244 0.059671286 -0.03110239 -0.00788902 -0.118809454 0.020463148 0.024891445
-0.16071695 0.1379848 0.10977964 0.00552957 0.19748896 -0.02832709 -0.03080922 -0.07335407
-0.041055564 -0.17783235 -0.090943746 -0.09585445 0.11532757 0.054889712 -0.045317367 -0.11698693
0.068780534 -0.25889245 0.0108573595 0.13020352 -0.0019550829 -0.1047959 -0.034638163 -0.042447582
-0.05374289 -0.06527277 0.13517162 0.10737178 0.087987766 -0.14611274 -0.099697255 -0.09955012
-0.05385598 -0.20449121 -0.034497336 0.2028261 0.051187195 -0.07346762 -0.17598389 0.04296614
-0.017255228 0.18751545 -0.05966284 -0.14141518 0.05800927 -0.045047816 -0.1921518 -0.11547217
-0.026459659 -0.047253918 0.021417387 -0.06087123 0.027604427 0.11075541 -0.07194173 -0.10379936
0.16126248 0.05662272 -0.08156544 -0.10481479 -0.09420225 -0.08699128 -0.077418655 0.15775628
0.1338681 -0.014982468 0.056019362 -0.016343737 0.15476853 -0.041211218 0.01991913 -0.096460395
0.16994108 0.051576495 -0.1257465 0.025320161 -0.19097114 -0.020086221 -0.09568535 -0.0164495
0.2609545 0.0046581365 0.04900203 -0.015133896 0.028165529 0.13652381 -0.13686961 -0.039382808
-0.004276932 -0.018351227 0.041285895 0.043826032 -0.17735238 0.038516942 -0.078575164 -0.0938754
-0.057244454 -0.014629196 0.053075705 -0.029338814 0.17094693 -0.08291946 0.06338745 -0.04874157
0.0014439675 0.0106259845 -0.09676425 0.080302715 -0.20770758 0.011180978 0.115120746 -0.030181793
0.044107307 -0.12756084 -0.0022478867 -0.040838975 -0.05068287 0.08198306 -0.08146527 0.13750304
-0.06350039 0.09842923 0.054857824 -0.09927124 0.2741447 0.1405471 0.18057975 0.08615274
-0.013604283 0.01107425 -0.040724352 -0.06513429 0.13802902 -0.17176652 -0.21807453 0.25586593
0.067292 0.06917309 -0.14660113 0.08873825 0.08595439 0.13929877 -0.10305149 0.015345623
0.06372473 0.0498484 0.1141894 0.0946971 0.037687104 -0.06818539 -0.096565604 -0.15036988
-0.15931346 -0.09462394 0.080268286 -0.028264776 -0.09904107 -0.10994646 0.08859921 0.19734965
0.010772152 0.04631987 -0.02308404 0.04575485 -0.10957608 -0.14275979 0.17772926 0.05352345
-0.1985831 -0.014362674 -0.04345073 0.0146739 0.05031393 0.11628387 -0.15593563 -0.15651996
0.2375773 0.05459567 0.11461333 0.1351972 0.06690608 0.11797651 0.06193844 -0.12037272
-0.09825654 0.025076838 -0.033987816 0.046516385 -0.014792022 -0.029194754 0.15754446 -0.11208077
-0.12633272 0.09619638 0.15018022 -0.23647012 0.024285873 0.11415742 0.101168744 0.0130948005
0.016763447 -0.009356197 -0.015812274 0.17412417 -0.16005644 0.22290793 -0.19579262 -0.0347856
0.0011162546 -0.10786536 0.13185935 -0.06646844 -0.103540674 -0.08566428 0.035541456 -0.20602185
0.037380155 0.14335753 -0.055169385 -0.028455779 -0.18576694 -0.30824462 0.024544109 -0.16259757
-0.08630621 0.04275663 0.12743783 0.070470385 0.11828062 0.060763016 0.044917036 -0.07724846

bias f4 [5]
00000000: f983 f3bc b4e6 e53c d866 533d 0fe6 e9bd
00000010: 29ab 3f3d
-0.029726015 0.02806411 0.05161175 -0.11420833 0.04679409
