Industrial Equipment/mlruns/0/706b5f650fd84325b289537f357730de/artifacts/generator_model/data/model.pth (torch, 55038 bytes, 14 tensors)

weight f4 [64, 100]
0	0xbcc87aa5	-0.024472544
1	0x3cfd031b	0.03088527
2	0xbdb963a5	-0.09052209
3	0x3af7a058	0.0018892391
4	0x3ce30854	0.027713932
5	0xbd282a45	-0.041055936
6	0x3d3f2c15	0.0466729
7	0xbd285b43	-0.04110266
8	0xbbd65170	-0.00654047
9	0x3da1d4d3	0.07901921
10	0x3c47ac49	0.012187072
11	0x3d3b5d6e	0.0457434
12	0x394dd402	0.00019629303
13	0xbd81f29f	-0.063451044
14	0x3cfd3e1d	0.030913407
15	0xbca61fd3	-0.020278847
16	0xbc8689dc	-0.016423158
17	0xbdc89bbb	-0.09795328
18	0x3d59f1bf	0.053209063
19	0x3dac6c9b	0.08419152
20	0xbdd22fe5	-0.102630414
21	0xbd75e199	-0.0600296
22	0x3d800081	0.06250096
23	0xbda1539c	-0.07877275
24	0x3d8c882e	0.06861912
25	0xbbfb2672	-0.007664495
26	0xbd661d41	-0.056180242
27	0x3d9b7718	0.07591075
28	0xbdae8058	-0.085205734
29	0x3ce77d57	0.028258009
30	0xbdbbe3cc	-0.09174308
31	0x3d9825a0	0.074290514
32	0xbd159bc1	-0.03652549
33	0x3b1fd08d	0.002438578
34	0xbd9ce77b	-0.07661339
35	0xbd32bd32	-0.043637462
36	0x3d94ac5f	0.0725944
37	0x3da887d0	0.08229029
38	0xbd4121e4	-0.04715146
39	0xbd8f5a53	-0.0699965
40	0xbc7afe7b	-0.015319462
41	0x3cc19d67	0.023634626
42	0x3d1ca321	0.03824151
43	0xbd326167	-0.04354992
44	0xbd24fd02	-0.04028035
45	0xbd951555	-0.072794594
46	0x3c919d91	0.017775329
47	0xbd9460e9	-0.07245047
48	0xbab1e8b4	-0.0013573379
49	0x3c94f39c	0.018182568
50	0xbdc2ac69	-0.09505541
51	0x3d98c980	0.07460308
52	0x3d803287	0.06259637
53	0x3d196baf	0.03745621
54	0x3d38657c	0.045018658
55	0x3d90bd5c	0.070673674
56	0xbc98c8f9	-0.018650519
57	0xbbc49383	-0.00599903
58	0x3dd7b6db	0.10532924
59	0x3d25cd4c	0.04047899
60	0xbda0fb07	-0.0786038
61	0x3d89c437	0.06726878
62	0xbd471427	-0.048603203
63	0xbcfe906e	-0.031074729
64	0x3d8aa7f9	0.067703195
65	0x3c5dcfbd	0.013538298
66	0xbdc36cd7	-0.09542244
67	0xbd8c1329	-0.06839592
68	0x3d6e370f	0.058157977
69	0x3d61a580	0.055089474
70	0x3d926275	0.071476854
71	0x3d3b292a	0.045693554
72	0x3d3a55ed	0.0454921
73	0x3c8382f0	0.016053647
74	0xbd0db6b0	-0.034598053
75	0x3da1ae12	0.078945294
76	0x3d20f57f	0.039296623
77	0xbda45627	-0.08024245
78	0xbda83603	-0.08213427
79	0xbcc9f2b6	-0.024651866
80	0xbde15d23	-0.110040925
81	0xbdcf7dd8	-0.10131425
82	0x3d9fd391	0.07804025
83	0xbd745cdb	-0.059658866
84	0x3db4fab4	0.0883688
85	0xbdac73eb	-0.08420547
86	0x3dae232c	0.08502802
87	0x3c78189a	0.015142584
88	0xbd25ec9d	-0.040508855
89	0xbbda5962	-0.0066634873
90	0xbd7bbf6e	-0.06146186
91	0xbce7f68f	-0.02831581
92	0x3bfc81d5	0.007705907
93	0x3d00778f	0.03136402
94	0x3d92aecf	0.07162248
95	0x3db8c9d7	0.09022873
96	0xbd2ab0c9	-0.0416725
97	0x3daf3d71	0.08556641
98	0x3d45ad40	0.048260927
99	0x3c9ba9fc	0.019001953
100	0xbdafe324	-0.085882455
101	0x3dd0b7a4	0.10191277
102	0xbc7a7e7a	-0.015288943
103	0xbd9b2167	-0.0757473
104	0xbcbebbb8	-0.02328287
105	0x3d0ffa12	0.035150595
106	0xbdcce3a5	-0.10004357
107	0xba087d34	-0.0005206645
108	0xbd712957	-0.058877315
109	0x3d8e6f3f	0.06954812
110	0x3da7a2b0	0.08185327
111	0x3ce98962	0.028507892
112	0x3d8ba8c7	0.06819301
113	0xbd03b70a	-0.03215698
114	0x3d872fa3	0.06600883
115	0xbd49bbd1	-0.04925138
116	0x3d358db4	0.04432459
117	0x3d694070	0.056946218
118	0x3d993a98	0.07481879
119	0x3dab6bd1	0.08370174
120	0x3c3db038	0.011577658
121	0xbd640544	-0.055669084
122	0x3da6565f	0.08121943
123	0xbd5ba75b	-0.0536264
124	0xbd829a5d	-0.06377099
125	0x3d830e01	0.063991554
126	0x3c8b4184	0.016999014
127	0xbc40b168	-0.011761047
128	0x3dace884	0.08442786
129	0xbd6f1e94	-0.05837877
130	0xbdbdba33	-0.0926403
131	0x3d812769	0.06306345
132	0x3d3b076b	0.04566137
133	0x3ddf7053	0.10910096
134	0xbce9991f	-0.028515397
135	0xbcb35ba0	-0.021894276
136	0x3dc9ec7f	0.09859561
137	0x3d702c9d	0.058636297
138	0x3cb6e304	0.022325046
139	0xbd4afaea	-0.049555697
140	0x3d6dbc11	0.058040682
141	0x3dd16cf2	0.10225858
142	0xbd9fc6f7	-0.078016214
143	0xbab9068c	-0.0014116331
144	0x3d254d97	0.0403572
145	0xbcc6ddb9	-0.024275647
146	0xbdc2a7b8	-0.09504646
147	0x3d5e8230	0.054323375
148	0x3d9cf067	0.076630406
149	0xbbebe127	-0.007198471
150	0xbaa28fbe	-0.0012402458
151	0x3d873546	0.06601958
152	0x3c82268d	0.015887523
153	0xbdcc4a1a	-0.09975071
154	0x3d69cb19	0.057078455
155	0xbdda81ba	-0.10669275
156	0x3dbd0714	0.09229866
157	0x3d752e90	0.05985886
158	0xbd7badfc	-0.06144522
159	0xbc9d3d1f	-0.019194184
160	0xbcdc3d22	-0.02688462
161	0xbdb08a3f	-0.08620118
162	0x3d45680b	0.048194926
163	0xbd4c225f	-0.049837466
164	0xbda37ea7	-0.079831414
165	0xbcbe1e28	-0.023207739
166	0xbb64fbe6	-0.0034940182
167	0x3d0c8e1b	0.03431521
168	0xbdaf70b6	-0.0856642
169	0x3d66714d	0.056260396
170	0x3acfdb1a	0.0015858144
171	0xbd3a1f0f	-0.045439776
172	0xbdb3f677	-0.08787244
173	0x3d6d56eb	0.05794422
174	0xbd0fc827	-0.03510299
175	0x3d8c9d8f	0.068659894
176	0xbdc7236a	-0.097235516
177	0xbdc6f9ad	-0.097155906
178	0x3d89f642	0.06736423
179	0xbdb6f3b7	-0.08933204
180	0x3dc01aa6	0.09380083
181	0xbc06c73d	-0.008226213
182	0x3d0cacae	0.034344368
183	0xbd9dd561	-0.077067144
184	0x3d8fe3c4	0.07025865
185	0x3da97ad3	0.0827538
186	0xbb0df087	-0.0021658258
187	0xbd89e24f	-0.06732618
188	0xbd0a0244	-0.033693567
189	0x3db10538	0.086435735
190	0x3db6054a	0.088877276
191	0x3d69446d	0.05695002
192	0xbd42354a	-0.0474141
193	0xbc53da49	-0.012930461
194	0xbcd4d3ac	-0.02597984
195	0x3b8b5f7f	0.0042533274
196	0xbdb1b4ea	-0.08677085
197	0x3db4d53c	0.08829734
198	0xbddd8a21	-0.108173616
199	0x3c89dcb0	0.016828865
200	0xbdbeae94	-0.09310642
201	0x3c4d9858	0.012548529
202	0x3cf90385	0.030397186
203	0xbd8e336f	-0.06943404
204	0xbd683dbd	-0.056699503
205	0x3d0fe9a0	0.03513491
206	0x3dae9165	0.085238256
207	0x3d3a6ae7	0.045512106
208	0xbdc9c8c8	-0.09852749
209	0xbcb66c7b	-0.022268524
210	0x3c57a6f4	0.013162363
211	0x3ac2b815	0.0014855886
212	0xbd45d9ce	-0.048303418
213	0xbdafd528	-0.08585578
214	0x3cd37be1	0.025815906
215	0x3d349635	0.04408856
216	0xbd425aa7	-0.047449734
217	0xbd2682ce	-0.04065209
218	0x3d0dac34	0.034588054
219	0xbd9fba04	-0.077991515
220	0xbd9f69f9	-0.077838846
221	0xbd09d469	-0.033649836
222	0x3d616c79	0.05503509
223	0xbd2a0d8e	-0.041516833
224	0x3da63447	0.0811544
225	0xbda770e4	-0.08175829
226	0xbdac939a	-0.0842659
227	0xbd2caff5	-0.042159993
228	0x3d3c656d	0.045995165
229	0xbdadfc70	-0.08495414
230	0xbc213587	-0.009839422
231	0xbc375631	-0.011189983
232	0x3dce8501	0.10083962
233	0xbd935230	-0.071934104
234	0x3affddf8	0.0019521108
235	0xbd2f2818	-0.042762846
236	0x3d2ef6e7	0.042715933
237	0xbd184495	-0.03717478
238	0x3db86345	0.09003309
239	0xbd124aed	-0.035715986
240	0xbd9595ac	-0.07303938
241	0x3d0d0aa4	0.034433976
242	0xbce23107	-0.027611269
243	0x3cd31cc4	0.025770552
244	0x3dbc8b14	0.092062145
245	0x3b4ce547	0.003126459
246	0x3dba0ee2	0.0908487
247	0x3db72e03	0.08944323
248	0x3dbb9279	0.09158797
249	0xbd982a2a	-0.07429917
250	0xbda7a7d8	-0.081863105
251	0x3da11dc6	0.07867007
252	0xba90e775	-0.0011055308
253	0x3dba64d1	0.091012605
254	0xbd456668	-0.048193365
255	0x3acf712b	0.0015826573

bias f4 [64]
0	0x3dae7db9	0.085200734
1	0xbd87a53e	-0.06623314
2	0x3d1c0e19	0.038099382
3	0xbd9450f8	-0.07242006
4	0x3d6e1df5	0.058134038
5	0xbd6c817e	-0.05774068
6	0x3c3c5fbf	0.011497437
7	0xbd8f3d09	-0.069940634
8	0x3d613577	0.05498263
9	0xbd9491d0	-0.07254374
10	0x3da36495	0.07978169
11	0xbd19fa2c	-0.037592098
12	0xbd5275c6	-0.05138185
13	0xbd54cb3b	-0.05195163
14	0xbd3f7bc1	-0.04674888
15	0x3bdf7117	0.0068189013
16	0x3d3435ee	0.043996744
17	0xbc663bbc	-0.014052328
18	0x3b1ba230	0.0023747794
19	0xbdcbf854	-0.09959474
20	0x3d3259d6	0.043542705
21	0xbd90cf3a	-0.07070775
22	0x3d1f891e	0.038949125
23	0xbd29e484	-0.041477695
24	0x3c89f351	0.016839655
25	0x3cfa4806	0.030551922
26	0xbd0ff631	-0.035146896
27	0xbda4d975	-0.08049289
28	0xbbfcef2e	-0.007718942
29	0x3d153fdb	0.03643785
30	0x3dbc47ff	0.0919342
31	0x3db82486	0.08991341
32	0x3d9a7378	0.07541555
33	0xbd787e1d	-0.060667146
34	0x3dc00444	0.093758136
35	0x3d6b71de	0.05748164
36	0xbc87ccd1	-0.016577156
37	0x3b84b5d1	0.0040499945
38	0xbdc86839	-0.09785504
39	0x3db0b301	0.08627892
40	0x3ce0d063	0.027443117
41	0x3d017eaa	0.031614937
42	0x3dc5d326	0.09659414
43	0x3d2664e5	0.040623564
44	0x3d5b4c89	0.053539786
45	0x3cd901e0	0.026490152
46	0x3d8ccf1a	0.06875439
47	0xbd881201	-0.06644059
48	0xbd9bb1d0	-0.076022744
49	0x3b5918d3	0.0033126369
50	0xbdc19ad8	-0.09453362
51	0x3c8f0368	0.017457679
52	0xbd7a7712	-0.06114871
53	0x3bdd7b95	0.006759117
54	0xbcfdf23f	-0.030999301
55	0x3c29a3ab	0.010353963
56	0xbc8ebc58	-0.017423794
57	0xbdc2fbae	-0.0952066
58	0x3ca64ea2	0.020301167
59	0x3d987275	0.07443706
60	0xbd82b5df	-0.063823454
61	0xbd7d5e44	-0.061857477
62	0x3abed836	0.0014560285
63	0xbdc6cd45	-0.09707121

weight f4 [64]
0	0x3f805536	1.0026004
1	0x3f811f13	1.0087608
2	0x3f7e6f47	0.99388546
3	0x3f7f2890	0.9967127
4	0x3f7decbd	0.9918936
5	0x3f839f36	1.0282962
6	0x3f835033	1.025885
7	0x3f79d5c3	0.975918
8	0x3f802ea2	1.0014231
9	0x3f8193e9	1.0123264
10	0x3f7abab4	0.97941136
11	0x3f812e88	1.0092325
12	0x3f82aa37	1.0208195
13	0x3f7fc2f0	0.99906826
14	0x3f806e0b	1.0033582
15	0x3f83434c	1.0254912
16	0x3f807a20	1.003727
17	0x3f7a2889	0.977181
18	0x3f826515	1.0187098
19	0x3f7dfa44	0.9921
20	0x3f80d5ef	1.0065287
21	0x3f809700	1.0046082
22	0x3f7ce12a	0.98781073
23	0x3f82cc2f	1.0218562
24	0x3f783a67	0.96964115
25	0x3f7bfdfd	0.9843443
26	0x3f816db6	1.0111606
27	0x3f7e9c46	0.99457204
28	0x3f80e6cb	1.0070432
29	0x3f7bc93f	0.9835395
30	0x3f7d2c94	0.98896146
31	0x3f7fa0f8	0.99854994
32	0x3f7c4c3c	0.98553824
33	0x3f7cadde	0.987028
34	0x3f7bb9b0	0.9833021
35	0x3f7e2926	0.9928154
36	0x3f80c7a6	1.0060928
37	0x3f7edcfe	0.9955596
38	0x3f7d73f9	0.99005085
39	0x3f7910c1	0.9729119
40	0x3f7f4dab	0.99727887
41	0x3f8080e3	1.0039333
42	0x3f822051	1.0166112
43	0x3f7ecf87	0.9953541
44	0x3f7ef58f	0.9959344
45	0x3f813c22	1.0096476
46	0x3f844342	1.0333025
47	0x3f7fee20	0.99972725
48	0x3f814266	1.0098388
49	0x3f7eda31	0.99551684
50	0x3f8129af	1.0090846
51	0x3f7f93da	0.9983498
52	0x3f805021	1.0024453
53	0x3f81016e	1.0078561
54	0x3f829a61	1.0203363
55	0x3f81200b	1.0087904
56	0x3f7e6678	0.99375105
57	0x3f7fcf19	0.9992538
58	0x3f803139	1.0015022
59	0x3f7cf84c	0.9881637
60	0x3f810c87	1.0081948
61	0x3f811428	1.0084276
62	0x3f7e6a2a	0.99380744
63	0x3f7cc513	0.9873821

bias f4 [64]
0	0x3bea9837	0.0071592587
1	0x3bc22ec7	0.0059259865
2	0x3c81bc7d	0.015836949
3	0xbc6663d7	-0.01406189
4	0xbc2b7623	-0.010465178
5	0x3b825df5	0.0039784857
6	0x3a938a0f	0.0011256355
7	0xbabbc551	-0.0014325773
8	0xbad27e95	-0.0016059453
9	0xbc288f36	-0.01028805
10	0xbca1f2de	-0.019769128
11	0x3a844540	0.0010091439
12	0x3cd842cf	0.026399044
13	0xbc81d7a6	-0.0158499
14	0xbaf826c0	-0.0018932447
15	0x3cc926e2	0.024554674
16	0xbb5c3f42	-0.003360704
17	0xbbea2592	-0.007145592
18	0x3c1bbbc8	0.00950522
19	0xbc0f5e30	-0.008750483
20	0x3a99e07f	0.0011739879
21	0x3c000332	0.007813262
22	0xbc81ab62	-0.015828792
23	0x3c18ca08	0.009325512
24	0xbb014847	-0.0019726919
25	0xbccbf115	-0.02489523
26	0x3c1c0e25	0.009524857
27	0x3c406bf9	0.011744493
28	0x3b8cdc01	0.0042986874
29	0xbb34ad20	-0.002756901
30	0xbbc1480e	-0.005898482
31	0xbc16bfd9	-0.0092010135
32	0xbb8bf2e0	-0.0042708963
33	0xbcaa0435	-0.02075396
34	0xbc344d61	-0.011004777
35	0xbc30ecf0	-0.010798678
36	0x39dbad74	0.00041900168
37	0xbb4fa3a2	-0.0031683226
38	0xb950e7e4	-0.00019922812
39	0xbcb31eb4	-0.021865226
40	0x3bbe07a4	0.0057992507
41	0xbb3f6892	-0.0029206616
42	0xbb99c126	-0.0046922145
43	0x3b025bd8	0.001989117
44	0x3bf9d2e2	0.007624016
45	0xbc0c10ee	-0.008548958
46	0x3d15d1bc	0.03657697
47	0xbb865c4d	-0.0041003586
48	0x3bb277ee	0.0054464256
49	0xbc2db4d8	-0.010602199
50	0xba74851b	-0.00093276956
51	0xbc31817b	-0.010834093
52	0xbc39e57b	-0.011346216
53	0xbab9d367	-0.0014177383
54	0xbc6801bb	-0.014160569
55	0x3bdebf92	0.0067977393
56	0xbbbeb8ec	-0.0058203842
57	0xbcc6a097	-0.024246497
58	0x3b4fe099	0.0031719564
59	0xbb676f5e	-0.0035314183
60	0x3bb750d1	0.005594351
61	0x3cb95105	0.022621641
62	0xbc3bfc1c	-0.011473682
63	0x3b8c20c7	0.0042763683

running_mean f4 [64]
0	0x3da37599	0.07981414
1	0xbd94c6e6	-0.07264499
2	0x3d4979b5	0.049188334
3	0xbd9e11be	-0.07718228
4	0x3d845cea	0.064630345
5	0xbd0097ae	-0.031394653
6	0x3b2527ef	0.0025200804
7	0xbdc13b7d	-0.094351746
8	0x3d474764	0.048652068
9	0xbdadf3ab	-0.084937416
10	0x3dba4c54	0.0909659
11	0xbccf9f96	-0.025344651
12	0xbd1c13f9	-0.038104985
13	0xbd974065	-0.07385329
14	0xbd476b04	-0.048686042
15	0x3c544260	0.012955278
16	0x3d89995f	0.06718706
17	0x39e2ca8c	0.00043256988
18	0x3c0f0cfc	0.008731123
19	0xbda46148	-0.080263674
20	0x3d2dad2a	0.04240147
21	0xbd670a80	-0.056406498
22	0x3d0dadea	0.034589685
23	0xbd2f8112	-0.0428477
24	0xbcb130ea	-0.02162977
25	0x3cfb0502	0.030642036
26	0xbd66900c	-0.056289718
27	0xbd2e1ec2	-0.0425098
28	0xb9c75af0	-0.00038023992
29	0x3c4df320	0.012570173
30	0x3db7981a	0.08964558
31	0x3dc61c39	0.09673352
32	0x3da02fcf	0.07821619
33	0xbd667585	-0.05626442
34	0x3dba3a0e	0.09093104
35	0x3db8cff0	0.09024036
36	0xbd3b112c	-0.045670673
37	0xbcabfdaa	-0.02099498
38	0xbdda2622	-0.106518045
39	0x3dbedf71	0.09319962
40	0x3b82ba98	0.003989529
41	0x3ce8d633	0.02842245
42	0x3d9338e5	0.07188586
43	0x3d28b94a	0.04119233
44	0x3d4c75c6	0.049917005
45	0x3cfa0582	0.030520204
46	0x3d65477e	0.055976383
47	0xbd9af563	-0.07566335
48	0xbda7adb9	-0.08187432
49	0x3d344de1	0.044019584
50	0xbd9aab80	-0.07552242
51	0xbc543073	-0.012951004
52	0xbda09763	-0.07841375
53	0x3c2d4679	0.010575884
54	0xbcdc07a7	-0.026859118
55	0x3b962b26	0.0045827804
56	0xbc3022a2	-0.010750445
57	0xbdbe2cd6	-0.092858955
58	0x3d1b4c6b	0.037914675
59	0x3da2eb0f	0.0795499
60	0xbd5c140e	-0.053730063
61	0xbd949d74	-0.07256594
62	0xbad2662a	-0.0016052176
63	0xbdae8acf	-0.085225694

running_var f4 [64]
0	0x3eb55ff2	0.35424763
1	0x3ed9271e	0.42412657
2	0x3eaa203c	0.33227718
3	0x3e9402c6	0.28908366
4	0x3ea2e5f4	0.31816065
5	0x3ebb529d	0.36586466
6	0x3ea8bb08	0.32955194
7	0x3ed14f4a	0.40880805
8	0x3ec33b2b	0.3813108
9	0x3eb6c9e5	0.35700908
10	0x3ea86a03	0.3289338
11	0x3ec14e59	0.37755087
12	0x3ea046e8	0.31304097
13	0x3ea24263	0.31691274
14	0x3ead8e3e	0.33897585
15	0x3eb9b0d9	0.36267737
16	0x3e9e8e62	0.30968004
17	0x3eae6f7f	0.3406944
18	0x3e8b71cb	0.27235255
19	0x3e8be64e	0.27324146
20	0x3ea509d3	0.32234058
21	0x3ec9cc90	0.3941388
22	0x3ec7cd89	0.39023998
23	0x3eadff5a	0.3398388
24	0x3e9fc487	0.31204626
25	0x3e9bf0ac	0.30457056
26	0x3eb36b90	0.35043
27	0x3eb223f5	0.34793058
28	0x3e969d5d	0.29416934
29	0x3ead4e36	0.33848733
30	0x3ea68f53	0.32531223
31	0x3eb365c3	0.35038576
32	0x3eb981bc	0.36231792
33	0x3e8eac0c	0.27865636
34	0x3ea1e839	0.31622484
35	0x3ebeed02	0.37290198
36	0x3eaa1c0a	0.33224517
37	0x3eb2e3f3	0.34939536
38	0x3eb3381c	0.35003746
39	0x3eb2c36b	0.34914717
40	0x3ed20ad2	0.4102388
41	0x3ec75b47	0.38936827
42	0x3eb2994a	0.34882575
43	0x3eba7fa1	0.36425498
44	0x3ea91b32	0.3302856
45	0x3eb247aa	0.348203
46	0x3ed0efb9	0.40807894
47	0x3e99db27	0.30050012
48	0x3ea00dc6	0.31260508
49	0x3ec823de	0.39089864
50	0x3ec44e03	0.38340768
51	0x3ec46b01	0.38362888
52	0x3ea2c0bb	0.31787667
53	0x3eb55178	0.35413718
54	0x3e9c1eea	0.30492336
55	0x3e8f41a7	0.27979776
56	0x3eb1c5ae	0.3472113
57	0x3ec6f69a	0.38860017
58	0x3e986144	0.29761708
59	0x3ea54d61	0.32285598
60	0x3ead9d12	0.33908898
61	0x3ea5c495	0.32376543
62	0x3ea7748d	0.3270611
63	0x3ec6b4d3	0.38809833

weight f4 [64, 64]
0	0x3ddc71aa	0.10763867
1	0x3da3cca2	0.07998015
2	0xbdc57a6e	-0.09642492
3	0xbd94d080	-0.07266331
4	0x3da81300	0.08206749
5	0x3d813643	0.06309178
6	0xbdd39ba9	-0.10332424
7	0x3da66e74	0.08126536
8	0xbdb6bce1	-0.089227445
9	0xbd90b306	-0.07065396
10	0x3d175f85	0.03695633
11	0xbd2ad626	-0.041708134
12	0xbd43bd5d	-0.047788013
13	0xbc9d570c	-0.019206546
14	0xb9b6737c	-0.00034799788
15	0xbd836ace	-0.06416856
16	0x3cbefc4c	0.023313664
17	0xbdb6bd4d	-0.08922825
18	0x3d1a33c3	0.03764702
19	0xbd03ad66	-0.032147788
20	0x3ba8b9c6	0.005149099
21	0x3dc948e4	0.09828356
22	0xbd42cd94	-0.047559336
23	0x3d9c6da5	0.076381005
24	0xbd849c17	-0.06475084
25	0x3d6d0352	0.057864495
26	0x3c1db336	0.009625247
27	0x3e091c02	0.1338959
28	0xbd84b160	-0.06479144
29	0x3d9d20ee	0.076722965
30	0x3da224a9	0.079171486
31	0x3d0c7ff1	0.034301702
32	0xbdd519ba	-0.104052976
33	0x3d90bf01	0.07067681
34	0xbd2c0364	-0.04199542
35	0xbdc9be13	-0.09850707
36	0xbdbc4e79	-0.09194655
37	0x3d9e0de3	0.077174924
38	0x3deed4df	0.11661696
39	0x3cda4b29	0.026647167
40	0x3d0f5efc	0.035002694
41	0xbbf04cfa	-0.007333395
42	0x3d5d27a6	0.05399289
43	0xbe0006e8	-0.12502635
44	0xbcf91907	-0.030407442
45	0xbac22917	-0.0014813271
46	0x3da29d99	0.079402156
47	0xbcfa840b	-0.030580541
48	0xbd914268	-0.07092744
49	0x3b305d13	0.0026910945
50	0xbdacddb0	-0.08440721
51	0x3da4c5a1	0.08045507
52	0xbd0989f4	-0.033578828
53	0xbd4dd5ba	-0.050252654
54	0xbdb25cb4	-0.08709088
55	0xbc8fd926	-0.0175596
56	0x3dda22ff	0.10651206
57	0xbbc5b593	-0.006033608
58	0x3de77652	0.11301865
59	0x3d6caa5a	0.057779647
60	0xbd84bf9c	-0.06481859
61	0x3d6dd661	0.058065776
62	0xbd1487f9	-0.036262486
63	0x3d94bcca	0.07262571
64	0x3d1f6b74	0.038920835
65	0x3d8aa791	0.06770242
66	0x3cd18c07	0.025579466
67	0x39458b90	0.00018839375
68	0xbdb536a4	-0.088483125
69	0x3d361166	0.044450186
70	0x3dcd963e	0.10038422
71	0xbd7a52a4	-0.06111397
72	0x3da3356f	0.07969176
73	0x3bfa6065	0.0076408857
74	0x3d90786a	0.07054217
75	0xbd4ea83d	-0.050453413
76	0x3cc7f02c	0.024406515
77	0xbdbaeb43	-0.09126904
78	0xbdde7d6a	-0.108637646
79	0x3c3122a2	0.01081148
80	0x3de89b7b	0.113577805
81	0x3df5eae1	0.1200769
82	0x3e1a5329	0.15070786
83	0x3d5bd338	0.05366823
84	0xbd45c87b	-0.048286896
85	0x3dbc00fd	0.09179876
86	0x3d150064	0.036377326
87	0x3d598089	0.053101096
88	0x3c70a687	0.014688141
89	0x3da5eb37	0.08101504
90	0x3d9c28fe	0.07625006
91	0xbd801942	-0.062548175
92	0x3de3b609	0.11118705
93	0xbc2ced45	-0.010554616
94	0x3dd7baf7	0.105337076
95	0x3c1271ef	0.008938297
96	0x3d767238	0.06016752
97	0x3c05c1d8	0.008163892
98	0x3cf0a6a3	0.029376334
99	0xbd927bd7	-0.07152527
100	0x3ddc5504	0.10758403
101	0x3d043ca7	0.032284405
102	0xbd60f456	-0.054920517
103	0xbc62345b	-0.013806428
104	0x3d0b069c	0.03394185
105	0xbd7f53d4	-0.062335804
106	0x3dc801a2	0.097659364
107	0x3dbdf063	0.09274366
108	0xbd2e31da	-0.04252801
109	0xbc9bfb47	-0.019040717
110	0x3dc4c4c6	0.09607844
111	0x3db8632d	0.09003291
112	0x3dc69c68	0.09697801
113	0xbcf084c8	-0.02936019
114	0x3db822db	0.08991023
115	0x3e084a61	0.13309623
116	0xbdd82395	-0.10553662
117	0xbc4702b6	-0.012146642
118	0x3baf3fe0	0.0053481907
119	0x3ce4e7b3	0.027942514
120	0xbcc37b49	-0.023862498
121	0x3ddce233	0.107853316
122	0x3c856a8f	0.016286163
123	0x3da0b92f	0.07847821
124	0x3d8156b3	0.06315365
125	0x3d8e57ed	0.06950364
126	0xbd72ec88	-0.059307605
127	0x3d9dbaa3	0.07701614
128	0x3d6be138	0.057587832
129	0xbd909574	-0.07059756
130	0x3d67083c	0.056404337
131	0x3b9f8d39	0.00486913
132	0x3d337d93	0.04382093
133	0xbd8b22d1	-0.0679375
134	0xbd070e2a	-0.032972492
135	0xbd8ed6d5	-0.0697457
136	0x3dc8f68c	0.0981265
137	0xbdffe9de	-0.124957785
138	0x3d7d1f7c	0.061797604
139	0xbdf35f52	-0.11883415
140	0xbda8ad37	-0.08236163
141	0x3d4547f6	0.04816433
142	0xbe056fd4	-0.1303094
143	0xbdefb1ba	-0.117038205
144	0xbd32e992	-0.04367978
145	0xbd8a707c	-0.06759736
146	0xbce38254	-0.027772106
147	0x3dcf5b54	0.10124841
148	0x3d837b14	0.0641996
149	0x3d975206	0.073886916
150	0xbdbaca64	-0.09120634
151	0xbd806f56	-0.06271236
152	0xbd0d93b5	-0.034564693
153	0xbd359dad	-0.044339824
154	0x3dea8021	0.1145022
155	0x3d4a645d	0.04941212
156	0x3d9ff118	0.07809657
157	0xbd9c054d	-0.076181985
158	0xbd10fe2d	-0.03539865
159	0xbcb74c77	-0.022375328
160	0x3d43781c	0.047721967
161	0x3d585122	0.05281175
162	0x3b9d529e	0.0048011085
163	0xbe0f38ec	-0.13986558
164	0xbd0f7125	-0.035020012
165	0xbd67d213	-0.056596827
166	0x3da8b201	0.082370766
167	0xbdd482ba	-0.103764966
168	0xbd744dbf	-0.059644457
169	0x3d9771ef	0.07394778
170	0xbd19a230	-0.03750819
171	0x3d924faa	0.07144101
172	0xbdf8788a	-0.12132366
173	0xbd16d70b	-0.036826175
174	0xbdeccef0	-0.11562908
175	0x3da0ac6d	0.078453876
176	0xbc868a0e	-0.016423251
177	0x3dc9ea0d	0.09859095
178	0xbc0a3d94	-0.008437533
179	0xbdb12c4d	-0.08651028
180	0x3d9629e9	0.073322125
181	0xbd922846	-0.07136588
182	0x3d90f34b	0.070776545
183	0x3db65bc1	0.089042194
184	0x3d93c374	0.07215014
185	0x3d767aae	0.06017559
186	0xbdd6a6d6	-0.1048104
187	0x3cea3fee	0.028594937
188	0xbdb78573	-0.08961
189	0x3d5fa1bc	0.0545976
190	0x3d9846c6	0.07435374
191	0x3db1d539	0.08683247
192	0x3dacd46a	0.08438952
193	0xbd14e926	-0.03635516
194	0x3d85fa36	0.065418646
195	0x3cd35560	0.025797546
196	0x3bbebe16	0.005821
197	0x3d177d25	0.03698458
198	0xba421d7c	-0.0007404906
199	0x3d8478d4	0.06468359
200	0xbc9e40d8	-0.01931803
201	0x3d80b817	0.06285112
202	0xbd9886eb	-0.074476086
203	0xbd6fab78	-0.058513135
204	0x3d71ce58	0.059034675
205	0x3c187c43	0.00930697
206	0xbde68ed7	-0.11257713
207	0xbc11392f	-0.008863731
208	0x3bc62a25	0.0060475045
209	0xbb8899b0	-0.0041687116
210	0x3dbce66e	0.092236385
211	0x3dbba9fd	0.09163282
212	0x3ddebf7c	0.108763665
213	0xbdb53864	-0.08848646
214	0xbdf1f848	-0.11814934
215	0x3cf0af38	0.029380426
216	0x3d3a41e9	0.045473013
217	0x3dc4f4bf	0.09616994
218	0xbd6893ac	-0.056781456
219	0x3cf4815e	0.029846843
220	0x3dc13532	0.09433974
221	0xbd167af0	-0.036738336
222	0xbd605bc5	-0.05477502
223	0x3db55380	0.08853817
224	0x3e0813aa	0.13288751
225	0xbdb501ad	-0.0883821
226	0x3dd8579c	0.10563585
227	0xbdceac88	-0.100915015
228	0x3da6cfb4	0.08145085
229	0xbbd02c72	-0.0063529545
230	0x3c801a03	0.015637403
231	0x3d8c88f2	0.06862058
232	0x3c114d6a	0.008868555
233	0x3dbc5dd8	0.09197587
234	0x3c4a8e7e	0.012363074
235	0xbd5598e4	-0.05214776
236	0xbddf9ae3	-0.10918214
237	0xbd9284db	-0.071542464
238	0x3d0f71a5	0.03502049
239	0x3dfecda5	0.12441567
240	0xbcf5d049	-0.030006545
241	0x3d11ab19	0.035563562
242	0xbd77e2ca	-0.060519017
243	0x3c9c6905	0.019093046
244	0x3d7dbc3c	0.061947092
245	0xbbfc791f	-0.0077048684
246	0xbcd1f7c4	-0.02563084
247	0xbc4567e5	-0.012048696
248	0x3c2580ea	0.010101536
249	0xbc9ce310	-0.01915124
250	0xbcaf0aec	-0.021367513
251	0xbd331747	-0.04372337
252	0xbe02978e	-0.12753126
253	0xbe000a3e	-0.12503907
254	0x3daa0f3c	0.08303687
255	0xbd0b75cc	-0.034047887

bias f4 [64]
0	0x3d8969bc	0.0670962
1	0x3d9232cd	0.07138596
2	0x3d81796f	0.0632199
3	0x3da1cf17	0.079008274
4	0xbd5a37c2	-0.05327583
5	0xbb2f75ac	-0.0026773019
6	0xbd814a45	-0.06312994
7	0xbd4f9ddf	-0.050687667
8	0x3d3b1441	0.045673613
9	0x3dce4526	0.10071783
10	0x3ca27473	0.019830918
11	0x3da3214f	0.079653375
12	0xbd8c44ad	-0.06849036
13	0xbd4a973f	-0.049460646
14	0x3c3c2cbf	0.011485278
15	0xbbdc6a47	-0.0067265364
16	0x3dc5d701	0.09660149
17	0x3da79e85	0.08184532
18	0x3d1419fe	0.0361576
19	0xbdbe5258	-0.092930496
20	0xbdd43e27	-0.10363417
21	0xbd31f3e9	-0.0434455
22	0xbd0e1996	-0.03469237
23	0xbdab74a1	-0.083718546
24	0xbdff6e41	-0.12472201
25	0xbd4c2022	-0.04983533
26	0x3cc8253d	0.02443182
27	0x3de62a9a	0.11238594
28	0xbd2bb3f4	-0.041919664
29	0x3dfd0d30	0.12356031
30	0xbd131669	-0.035910044
31	0x3bb94c93	0.0056548803
32	0xbdf29e46	-0.118465945
33	0xbd8dc859	-0.06922979
34	0xbdcd8969	-0.100359745
35	0xbdc0a3de	-0.09406255
36	0x3ca83384	0.020532377
37	0xbce3fd67	-0.027830793
38	0x3df30ddd	0.118678786
39	0x3d1d14ae	0.0383498
40	0xbd74c83b	-0.059761267
41	0xbd8dcece	-0.069242105
42	0xbdc6dc93	-0.0971004
43	0x3da88690	0.08228791
44	0x3d61d329	0.05513302
45	0xbc8e3d51	-0.017363222
46	0x3d11ae59	0.03556666
47	0x3d139e67	0.036039736
48	0x3d66ab55	0.05631574
49	0x3b05b0cb	0.0020399566
50	0xbcd25763	-0.025676435
51	0x3d4b44c7	0.049626138
52	0xbda6c13a	-0.08142324
53	0x3cf90b91	0.030401023
54	0xbdf80456	-0.12110202
55	0xbd1410f6	-0.036148988
56	0x3db9e451	0.09076751
57	0xbd9264b9	-0.071481176
58	0xbd5e814e	-0.054322533
59	0xbd60b170	-0.054856718
60	0xbdfc24f6	-0.12311737
61	0xbc819bd7	-0.01582138
62	0xbca9b992	-0.02071837
63	0xbd280d17	-0.04102811

weight f4 [64]
0	0x3f7f6440	0.99762344
1	0x3f7cc275	0.9873422
2	0x3f73f7ba	0.95299876
3	0x3f7d73dd	0.9900492
4	0x3f80abc7	1.0052422
5	0x3f820a2b	1.0159353
6	0x3f830ac7	1.0237664
7	0x3f7b7e1a	0.9823929
8	0x3f77be10	0.9677439
9	0x3f7ca856	0.9869436
10	0x3f8024ab	1.001119
11	0x3f7e1bb4	0.9926102
12	0x3f7a707a	0.97827876
13	0x3f7da87c	0.9908521
14	0x3f804860	1.0022087
15	0x3f819a8e	1.0125291
16	0x3f799818	0.974977
17	0x3f812fda	1.0092728
18	0x3f822e46	1.0170372
19	0x3f7c7662	0.9861814
20	0x3f80050c	1.000154
21	0x3f7c7458	0.98615026
22	0x3f7c8b91	0.9865046
23	0x3f7e68ed	0.99378854
24	0x3f73c7fd	0.9522703
25	0x3f75652c	0.958575
26	0x3f77a0a5	0.967295
27	0x3f81c9e9	1.0139743
28	0x3f7dea74	0.9918587
29	0x3f784ebf	0.96995157
30	0x3f791c8d	0.9730919
31	0x3f7e56c7	0.9935116
32	0x3f72bafe	0.9481658
33	0x3f813daf	1.0096949
34	0x3f804efe	1.0024107
35	0x3f799baf	0.9750318
36	0x3f73dda9	0.952601
37	0x3f7bb738	0.98326445
38	0x3f8020fe	1.0010068
39	0x3f7c37f9	0.9852291
40	0x3f7cb6cb	0.9871642
41	0x3f7e0457	0.9922537
42	0x3f7ea7ec	0.9947498
43	0x3f7da93a	0.99086344
44	0x3f7e6fa4	0.993891
45	0x3f841a4f	1.0320529
46	0x3f77adb4	0.96749425
47	0x3f83b543	1.0289692
48	0x3f7f7065	0.99780875
49	0x3f7b218d	0.9809807
50	0x3f824fff	1.0180663
51	0x3f816507	1.0108956
52	0x3f786e12	0.97042954
53	0x3f78b827	0.97155994
54	0x3f7e6cab	0.99384564
55	0x3f7cc6c2	0.9874078
56	0x3f7eaa8e	0.99478996
57	0x3f752070	0.9575262
58	0x3f804be4	1.002316
59	0x3f7bc763	0.98351115
60	0x3f799bca	0.9750334
61	0x3f7680e9	0.9629045
62	0x3f7e2063	0.9926817
63	0x3f79d65c	0.9759271

bias f4 [64]
0	0x3b81e094	0.0039635394
1	0xbb64fca9	-0.0034940636
2	0xbd3de987	-0.046365287
3	0xbca29b78	-0.019849524
4	0xbc969e9a	-0.018386174
5	0x3be85130	0.0070897564
6	0xbd4d8993	-0.05018003
7	0xbb73572d	-0.0037130818
8	0xbcc53e7d	-0.024077648
9	0x3b9bcfcd	0.0047549964
10	0xbc230e27	-0.009952105
11	0xbc58b4a4	-0.013226662
12	0xbb47c70c	-0.0030483631
13	0x3b4fdbc2	0.003171668
14	0x3c6f119a	0.014591599
15	0xbb238f5d	-0.0024957277
16	0xbd3be1d5	-0.045869667
17	0xbc02417d	-0.007950184
18	0x3be258ac	0.006907543
19	0xbd10b5a0	-0.03532946
20	0xbc8ae298	-0.016953751
21	0xbcb54bdd	-0.022130901
22	0xbca7ca4c	-0.020482205
23	0xbd4b8fe3	-0.049697768
24	0xbd7f76b8	-0.06236908
25	0xbcce7f1c	-0.025207095
26	0xbd02a9ba	-0.031900145
27	0x3cba4a4e	0.02274051
28	0xbb4ea8ce	-0.003153372
29	0xbd0980fa	-0.033570267
30	0xbd0a7fde	-0.03381335
31	0xbbdc1c2b	-0.006717225
32	0xbcebbb91	-0.028775962
33	0x3c6f013e	0.0145876985
34	0xbbc35bf8	-0.0059618913
35	0xbd117485	-0.035511512
36	0xbd50b4df	-0.050953742
37	0xbb0c13f2	-0.0021374193
38	0x3af63056	0.0018782716
39	0xbce4f545	-0.027948985
40	0xbbda4d7f	-0.0066620703
41	0x3c347b6b	0.011015753
42	0x3c97b516	0.018518966
43	0x3c95cfa4	0.018287487
44	0xbb2fd1d2	-0.0026827944
45	0x3d3e9f02	0.04653836
46	0xbd1668b6	-0.036720954
47	0x3cc9dd58	0.024641678
48	0x3bba3e2b	0.0056836805
49	0xbc4afd5c	-0.012389507
50	0xbce9749b	-0.028497985
51	0x3c4a2f92	0.012340443
52	0xbcd09014	-0.025459327
53	0xbced9f92	-0.029006753
54	0xbb465de9	-0.0030268377
55	0xbd2f7ed1	-0.04284555
56	0x3c0efee8	0.008727767
57	0xbcfbf236	-0.030755144
58	0x3bcddcda	0.006282431
59	0x3aa0bac0	0.0012262687
60	0xbca8481b	-0.020542195
61	0xbca1d590	-0.019755155
62	0xbc6cf8a9	-0.014463582
63	0xbd04ef46	-0.03245475

running_mean f4 [64]
0	0x3e030ae6	0.12797126
1	0x3f5566c9	0.8335996
2	0xbdef793f	-0.11693048
3	0x3e6ae8d0	0.22940373
4	0x3cbf2644	0.023333676
5	0x3e60bac3	0.21946244
6	0x3ec4e20c	0.3845371
7	0xbe70f9fe	-0.23532864
8	0xbe639a36	-0.22226796
9	0xbe557809	-0.20846571
10	0x3ea4198e	0.32050747
11	0xbd4065d5	-0.046972115
12	0xbd9523e8	-0.07282239
13	0xbdf209f9	-0.118183084
14	0xbe5e1c1a	-0.21690407
15	0x3dcdf32d	0.10056148
16	0x3e21c006	0.15795907
17	0x3e6275dc	0.22115272
18	0x3dcd96bb	0.10038515
19	0xbec7a51e	-0.38993162
20	0xbf42dbdb	-0.7611672
21	0xbed5091a	-0.41608506
22	0x3ea3288c	0.31866872
23	0x3d02a0bb	0.031891566
24	0xbe19e8a4	-0.15030152
25	0xbe7be959	-0.24600734
26	0xbec3fcb9	-0.3827875
27	0x3db2806d	0.087159015
28	0x3dfd3461	0.12363506
29	0x3ea7ea85	0.32796112
30	0x3ed8bb54	0.4233042
31	0xbd94e18a	-0.07269581
32	0xbe8cc090	-0.27490664
33	0x3e1e1284	0.1543675
34	0xbeb707ea	-0.35748225
35	0x3e07601a	0.13220254
36	0xbeb5d389	-0.3551295
37	0xbe7f67aa	-0.24941888
38	0xbd8e2a9b	-0.0694172
39	0xbe6de2bd	-0.23231025
40	0x3b561893	0.0032668456
41	0xbea2d959	-0.31806448
42	0xbe0cba71	-0.13742997
43	0x3c942d8c	0.018088125
44	0x3d6373b1	0.055530254
45	0xbdef7ce0	-0.1169374
46	0x3d3875ca	0.045034207
47	0x3e8db3de	0.2767629
48	0x3e4fe577	0.20302378
49	0xbec4a8f2	-0.38410145
50	0xbe27b98b	-0.16379373
51	0xbe9d4375	-0.30715528
52	0xbe238476	-0.15968499
53	0xbe3b9822	-0.18319753
54	0xbe8081af	-0.2509894
55	0x3e8ff610	0.28117418
56	0x3dc9d73a	0.09855504
57	0xbe9174fb	-0.28409562
58	0x3e226584	0.15859038
59	0xbd0a4433	-0.033756446
60	0x3e158aa6	0.14603671
61	0xbe820111	-0.2539144
62	0x3dd5dc0c	0.10442361
63	0x3d7c7d51	0.06164295

running_var f4 [64]
0	0x3db3829e	0.087651476
1	0x3de7d4dd	0.11319897
2	0x3e2acdbe	0.16680047
3	0x3e01f832	0.12692335
4	0x3de79f44	0.113096744
5	0x3dd78381	0.10523129
6	0x3e2c6448	0.1683513
7	0x3de2ec8e	0.110802755
8	0x3e2df217	0.16986881
9	0x3e037faa	0.12841669
10	0x3e136c71	0.14396836
11	0x3de9e6c9	0.11420972
12	0x3e1cf693	0.15328436
13	0x3e2167c7	0.15762244
14	0x3dff484d	0.12464962
15	0x3dd20126	0.10254125
16	0x3dec0f16	0.11526315
17	0x3dba578c	0.090987295
18	0x3e0d2a8c	0.13785762
19	0x3e030040	0.12793064
20	0x3de8d429	0.11368591
21	0x3ddcb687	0.10777002
22	0x3e0afb7f	0.135725
23	0x3df42fae	0.11923157
24	0x3deff0b2	0.11715831
25	0x3e026ecd	0.1273758
26	0x3e0e9be0	0.13926649
27	0x3df2a983	0.11848738
28	0x3dc12f45	0.09432844
29	0x3dd1aa95	0.10237614
30	0x3de9e74d	0.1142107
31	0x3df49465	0.119423665
32	0x3deebcfc	0.1165714
33	0x3def50b7	0.11685317
34	0x3dfc52a3	0.12320449
35	0x3e1e4d9f	0.15459298
36	0x3e0c9d6c	0.13731927
37	0x3e135b51	0.14390303
38	0x3e00b47b	0.12568848
39	0x3dd4a45f	0.10382914
40	0x3dec8642	0.11549045
41	0x3dec7bfd	0.115470864
42	0x3e0012ca	0.12507167
43	0x3de222ff	0.11041831
44	0x3e16e8a0	0.14737177
45	0x3dc81e13	0.09771361
46	0x3e0eb755	0.13937123
47	0x3dd08477	0.10181516
48	0x3e05191c	0.1299786
49	0x3e2afe36	0.16698536
50	0x3dcfc779	0.10145468
51	0x3e01a2bc	0.12659734
52	0x3e038561	0.12843849
53	0x3e052640	0.13002872
54	0x3e0ff9e3	0.14060168
55	0x3e0c64a9	0.13710274
56	0x3db14869	0.08656389
57	0x3dc9e1bb	0.09857508
58	0x3e0717c6	0.13192663
59	0x3df70cd4	0.12062994
60	0x3dc771ef	0.09738528
61	0x3dccdc94	0.100030094
62	0x3e11f20c	0.1425249
63	0x3dc90276	0.098149225

weight f4 [5, 64]
0	0x3d98c4ba	0.074593976
1	0xbd5e93f2	-0.05434031
2	0x3b961c0f	0.0045809816
3	0xbd6a808c	-0.057251498
4	0xbdd9063e	-0.10596894
5	0xbdb99b69	-0.09062845
6	0xbd9ead78	-0.0774793
7	0x3d30bdae	0.043149643
8	0x3daf69ec	0.08565125
9	0x3d8a34f7	0.067483835
10	0xbd80f404	-0.06296542
11	0xbdc2364c	-0.094830126
12	0x3c974b89	0.018468635
13	0xbd4c435e	-0.049868934
14	0xbdd71328	-0.10501701
15	0xb9ba7fe8	-0.00035571982
16	0x3d9086ff	0.070569985
17	0x3c92c183	0.01791454
18	0x3d185232	0.037187763
19	0x3da31f00	0.07964897
20	0xbd96b6d1	-0.07359088
21	0xbda5e371	-0.08100022
22	0x3dbc09ce	0.091815576
23	0xbcab2625	-0.020892212
24	0x3d09a578	0.03360507
25	0x3d2c9a86	0.042139553
26	0xbd8a355d	-0.067484595
27	0xbdbb943b	-0.09159132
28	0xbdca9a89	-0.098927565
29	0x3d6fa44b	0.05850629
30	0x3d3929dc	0.045205936
31	0x3d791a4a	0.060816087
32	0x3c280555	0.0102551775
33	0x3cc87f61	0.024474801
34	0x3b968ae0	0.004594192
35	0x3d863d3c	0.06554648
36	0x3d9847c4	0.07435563
37	0xbd053a40	-0.032526255
38	0xbbaa2f0d	-0.005193597
39	0x3db87c3a	0.09008069
40	0x3d8b3ec1	0.06799079
41	0xbd9745d4	-0.073863655
42	0xbdc0a42f	-0.094063155
43	0xbc80906a	-0.015693862
44	0x3d7ad544	0.061238542
45	0x3c1f6f61	0.009731145
46	0x3dced951	0.101000436
47	0x3c5e6088	0.0135728195
48	0x3ddc01c7	0.107425265
49	0xbd7a4f4f	-0.06111079
50	0x3dfbc274	0.12292948
51	0xbdda4df3	-0.10659399
52	0x3ccc338f	0.024926929
53	0x3d6dd882	0.058067806
54	0x3d85e03d	0.06536911
55	0xbc661d88	-0.014045127
56	0xbcc548f1	-0.024082633
57	0xbddfce66	-0.10928039
58	0x3e09003d	0.13378997
59	0xbda5ff7a	-0.08105369
60	0xbd84d9dd	-0.064868666
61	0xbd66d03e	-0.05635094
62	0xbdb6c4b9	-0.089242406
63	0xbde90e51	-0.11379684
64	0x3c9a658e	0.018847253
65	0x3dcd1ffb	0.100158654
66	0x3d7a8e1f	0.061170693
67	0x3d5e9910	0.05434519
68	0xbdf09c14	-0.117485195
69	0xbdae590d	-0.08513079
70	0x3b8834cb	0.004156684
71	0xbdb4c557	-0.08826702
72	0x3d72fc6c	0.05932276
73	0xbb18bb33	-0.0023304939
74	0x3e067257	0.13129555
75	0x3d65bb35	0.056086738
76	0xbd023184	-0.031785503
77	0x3cc8f7a0	0.02453214
78	0xbc825632	-0.015910242
79	0xbdacb0f7	-0.08432191
80	0xbcac9ff2	-0.021072362
81	0xbd713143	-0.05888487
82	0x3da2267d	0.07917497
83	0xbd97e15d	-0.074160315
84	0x3bdbf034	0.006711984
85	0x3d4700d9	0.048584793
86	0x3dc75e32	0.09734763
87	0xbd6b1bb9	-0.057399485
88	0x3c609a9a	0.013708735
89	0x3d4d4332	0.05011291
90	0xbd7a3611	-0.061086718
91	0xbcf93404	-0.03042031
92	0x3d06cee1	0.03291214
93	0x3d88a7e1	0.06672645
94	0x3d4d224e	0.050081544
95	0x3c785800	0.0151577
96	0x3d21b41a	0.0394784
97	0xbd3aa875	-0.04557081
98	0x3de5dfd9	0.11224336
99	0x3db01241	0.08597232
100	0x3d40f6c5	0.047110338
101	0x3d1dcb4d	0.03852396
102	0x3d3db87c	0.046318516
103	0xbca7c8d1	-0.020481499
104	0xbde2dd8b	-0.11077412
105	0xbca9878d	-0.020694518
106	0xbd9319a6	-0.071826264
107	0xbb7e11be	-0.00387679
108	0xbc0bac30	-0.008524939
109	0xbe07da90	-0.13266969
110	0xbd2523a1	-0.04031718
111	0xbe03aee2	-0.12859681
112	0xbda4f90a	-0.08055313
113	0x3c7cafa8	0.015422739
114	0xbdcf037c	-0.101080865
115	0xbd151beb	-0.036403578
116	0x3ce6d58e	0.028178003
117	0x3d9c51e8	0.0763281
118	0xbce80925	-0.028324673
119	0x3dd22e15	0.10262696
120	0x3ce0fe29	0.027464943
121	0x3ccd1671	0.025035115
122	0xbd772046	-0.060333513
123	0xbda2b354	-0.079443604
124	0x3d298e29	0.04139534
125	0x3d89e279	0.06732649
126	0xbd8003d4	-0.0625073
127	0x3d02ec41	0.03196359
128	0xbd9bb45f	-0.076027624
129	0xbdeed441	-0.11661578
130	0x3d807c7c	0.062737435
131	0xbdd5de1c	-0.104427546
132	0xbc071865	-0.008245562
133	0xbcc39fff	-0.023880003
134	0x3e13b414	0.14424163
135	0x3d95bccd	0.073114015
136	0x3d0535dd	0.03252207
137	0x3c5dc77e	0.013536332
138	0xbc39e26d	-0.011345488
139	0xbdae03c8	-0.08496815
140	0x3cf143c6	0.029451262
141	0x3b6e6de7	0.0036381425
142	0x3da879bb	0.08226343
143	0x3cecfa9d	0.028928095
144	0x3ddb4fe7	0.107085995
145	0xbd2be954	-0.041970566
146	0xbdaf0c72	-0.08547296
147	0xbd93cef3	-0.07217207
148	0xbd365e3f	-0.044523474
149	0xbd133a3d	-0.035944212
150	0xbd53add7	-0.05167946
151	0x3d91d845	0.07121328
152	0x3d77c740	0.060492754
153	0x3d57fadc	0.052729473
154	0xbd0a8fb9	-0.03382847
155	0x3db6bd49	0.08922822
156	0xbd89569c	-0.067059726
157	0xbdd0a570	-0.10187805
158	0x3d724184	0.05914451
159	0x3dfb1f2e	0.122618064
160	0x3d22b893	0.039726805
161	0x3b6d60fc	0.0036221137
162	0x3dc69fa6	0.09698419
163	0xbd924b5b	-0.07143279
164	0x3d49eef5	0.049300153
165	0xbdc8c97b	-0.09804054
166	0xbd16a2a2	-0.036776192
167	0x3bd6815a	0.0065461816
168	0xbe019a14	-0.12656432
169	0x3da44788	0.08021456
170	0x3d00b96e	0.03142684
171	0xbc548273	-0.012970555
172	0xbd96a09d	-0.07354853
173	0xbdd30473	-0.10303583
174	0x3dbb140e	0.091346845
175	0xbd8ef857	-0.06980961
176	0x3d6448a9	0.055733357
177	0xbdb5123c	-0.088413686
178	0xbc650a94	-0.013979573
179	0xbd0dd1ce	-0.034623913
180	0x3d261f3b	0.040557127
181	0xbdb782bb	-0.08960482
182	0xbd0fa63f	-0.035070654
183	0x3cfef7cd	0.03112402
184	0x3d871180	0.06595135
185	0x3dc3a6fa	0.095533326
186	0x3d987a5d	0.07445214
187	0x3d07ba2a	0.033136524
188	0xbdb1f52a	-0.086893395
189	0x3dbfb399	0.093604274
190	0xbd852689	-0.065014906
191	0x3da26c5d	0.07930825
192	0xbd8442e4	-0.06458071
193	0xbc1bcc13	-0.009509104
194	0xbc6f6f6f	-0.01461397
195	0x3d65dd89	0.056119476
196	0xbceb94e8	-0.028757527
197	0xbd632984	-0.055459514
198	0xbd21b362	-0.039477713
199	0x3d61d5ea	0.055135645
200	0x3da20498	0.079110324
201	0x3dd0aaec	0.10188851
202	0x3d254e66	0.04035797
203	0x3d5d7e4b	0.05407552
204	0x3ba8a7f4	0.0051469747
205	0x3db50ffe	0.08840941
206	0x3d562240	0.052278757
207	0xbdd1b451	-0.10239471
208	0xbd4d1ce2	-0.050076373
209	0x3c5d104a	0.013492653
210	0xbd971e4f	-0.07378828
211	0xbd6cfbf5	-0.057857472
212	0x3be60d54	0.007020632
213	0xbd9f499b	-0.07777711
214	0x3cd10128	0.025513247
215	0xbcd984c2	-0.026552562
216	0x3d63136b	0.05543844
217	0x3c9b71d4	0.018975176
218	0x3a52a783	0.00080358254
219	0xbda5b90e	-0.08091937
220	0x3da3820c	0.07983789
221	0xbc66aedc	-0.014079776
222	0x3d03ee1c	0.0322095
223	0xbc22a548	-0.009927101
224	0x3db1b6b4	0.08677426
225	0xbd9a2f3e	-0.07528542
226	0x3e16359b	0.14668886
227	0xbd0d8ca3	-0.03455795
228	0xbdb793af	-0.08963715
229	0x3d428a06	0.04749491
230	0xbd759823	-0.059959542
231	0x3dc6f332	0.097143546
232	0x3d06bd84	0.03289558
233	0x3db20d6a	0.08693965
234	0x3dc92d63	0.0982311
235	0x3da85eb9	0.08221192
236	0xbcf612a4	-0.030038185
237	0xbcb79a41	-0.022412421
238	0x3d9e157a	0.0771894
239	0x3ce05ea0	0.02738887
240	0xbda2bd4c	-0.07946262
241	0xbd0044fa	-0.03131578
242	0xbd02da56	-0.031946503
243	0xbdc8efdc	-0.098113745
244	0x3ba00e92	0.0048845494
245	0xbdf9d2aa	-0.12198384
246	0xbe0b56ea	-0.13607374
247	0x3cbaadae	0.022787895
248	0x3db80e3a	0.089870885
249	0x3d560cf4	0.052258447
250	0xb9af1f94	-0.0003340213
251	0x3de8f36f	0.11374556
252	0xbcfa4332	-0.03054962
253	0x3c12f145	0.008968656
254	0x3cd56829	0.026050644
255	0xbde5d5af	-0.112223975

bias f4 [5]
0	0xbcc93ab3	-0.024564123
1	0xbda9c191	-0.08288873
2	0xbdc7a242	-0.09747745
3	0xbc046f76	-0.008083215
4	0x3e3dfe61	0.18554069
