Industrial Equipment/mlruns/0/cf4c17c5153f4a8eb2cf8905013c2a29/artifacts/generator_model/data/model.pth (torch, 55038 bytes, 14 tensors)

weight f4 [64, 100]
00000000: 473d a7bd 51ba 21bd 8fdf 92bd 9f91 943c
00000010: b24f 90bd cc9b 9b3c 85bd 6fbd 4411 fb3b
00000020: aa0c 5b3d 28ae 2f3d 99bb db3d 664a 6a3d
00000030: c586 5ebd 0743 733d d078 eabb 5252 65bd
00000040: 0101 263d a8cd 5bbd 57ab bcbd e787 b4bd
00000050: 5c44 aabd 14c6 55bd 7629 11bd 43d4 513d
00000060: bf75 393d 8f09 41bd d675 93bd 2ad6 633d
00000070: 43a7 adbc 71d6 943c 68b8 ba3d 6da7 3e3d
00000080: 7196 063d 03ab 85bd 878d 013d 0c16 8abd
00000090: fd30 7b3d 2321 c63d 0831 0ebd dffd 0abd
000000a0: 3b8d 1c3d ee4f 6abd 0a9d d93b 4488 cc3c
000000b0: 5821 94bc 51b0 a4bd c4ab 013d 0439 bbbc
000000c0: bb87 88bc 4565 85bd 3d30 813d 32c7 acbd
000000d0: 7bd5 83bd d817 acbd eea5 223d ac2e a4bd
000000e0: 84f7 6cbd b9f6 ffbb 5ad4 c5bc 2847 733d
000000f0: e32b 873d 474b 153b 5d55 0bbc e709 acbd
00000100: fdbc ab3c 8b66 a13d 43e3 89bd 693f b3bd
00000110: a6da 1cbc 3971 06bd 3bb3 8ebd 1369 6c3d
00000120: 4db5 6dbd 7858 5a3d 36c2 3d3d 9dc6 983d
00000130: 715c ca3d 3edf 47bd 31c2 8f3a 2781 bc3d
00000140: e4ac 1e3d 9eb7 7f3d 11fc e63d 6c16 8ebd
00000150: 1234 e73c e4c2 313d f71a ab3c ce85 b7bd
00000160: b423 8d3d 6579 a8bd 2593 693b dbf4 34bd
00000170: e1a3 2e3d e9f9 9cbc 0baf 8fbc cbaa e8bc
00000180: 2e75 533d 3445 6a3d 0edc 113d 88f8 56bc
00000190: 1455 8f3d 1109 073b 4fa4 afbb bc60 99bd
000001a0: 8263 003d d709 8cbd c83b a6bd fbd2 0abd
000001b0: f383 28bd 0d11 503d b1e9 7abb 4a6c bcbc
000001c0: 09db c5bc fd46 ebbc f5df 56bb 1998 ba3d
000001d0: 5e28 153d 0ff5 d0bd 1c3a b2bd 1a77 303b
000001e0: e42e 53bd ea7b a53c 22de 50bd a21f b83d
000001f0: d1ef 55bc 7be8 acbd b05b 9a3c 58be c03b
00000200: be44 73bb 64f2 63bc 8780 783d 1133 7e3b
00000210: 2046 47bd 9d5b a43b 77db 57bc deb2 9f3a
00000220: be0f 283c 7bc9 cfbc e601 ed3a fcd4 7dbd
00000230: 4b42 a6bd b029 73bc 2250 a13d 8f9d 483d
00000240: 3ae9 603d c2ae 71bd fd89 4c3d 7378 a53d
00000250: 3756 7e3c b13e fb3c 1c8b 8ebd 7852 473d
00000260: 8565 54bd a31e d03d 47dd 063d 9dd7 123c
00000270: 1228 8e3d 85b9 0dbd fe2e 96bd 4239 b3bd
00000280: e3b7 62bd 8002 893c 3514 ba3a 1fdc 243d
00000290: d547 d33d d4d8 4f3d ce92 0dbd 82a9 be3d
000002a0: 9e92 c33d 8f80 c83d e15e 16bd 6e96 b6bd
000002b0: 84b5 eabd cd5f babd 6b96 933d e643 9fbd
000002c0: f3d1 993d 163f bc3c e291 b8bd 6300 acbd
000002d0: e352 1fbd 6d91 863d 6ad5 9bbc da18 b03d
000002e0: 46e4 c9bd 61ed 9cbd 54e4 3f3d e2c3 ab3d
000002f0: 42e9 0b3d 4320 b43d 0d2c 94bb 1eec 25bd
00000300: 53ce 843d a9b4 843c 94bb df3b 7e65 2e3d
00000310: 6a43 76bd 90d0 933d 32d3 a73c b0a8 f7bc
00000320: e485 aa3d c667 0f3d a37d ccbd 3a5d 00bd
00000330: d554 90bd 0ab9 86bd 9a82 85bd 0134 0d3b
00000340: 7c86 f3bc ee4a 5abd 1686 473d 77b1 87bb
00000350: 4844 55bc 2747 053d 9566 74bd b44e 42bd
00000360: e09a 0cbd 10ff 65bd 2087 6f3c fc05 a4bd
00000370: 12b3 eb3c 7103 ccbd 8428 08bc e32d 6cbd
00000380: ad4f 323d 7104 d5bd 806d c2bd 770b 6f3c
00000390: 4af9 5e3d 1d6d a83d b792 9dbd a7a1 d23c
000003a0: f45c c2ba 6c42 0e3c 7c27 45bd b272 33bc
000003b0: 7dd4 c8bd 0e64 403d 2f63 e9bb 8d35 66bd
000003c0: d46c d1bc 4da3 06bd d54e 153d a52e c9bd
000003d0: cc46 9fbd 9367 0c3d 2178 95bc 9636 77bd
000003e0: a852 463d 9a60 723d 4a3b c1bc a304 c3bd
000003f0: b1ac 423d 90a2 b03d ff48 b7bb ae58 0bbd
-0.081659846 -0.039484326 -0.07171547 0.018135844 -0.07046451 0.018995188 -0.05853035 0.0076619703
0.053478874 0.042890698 0.10729141 0.057199858 -0.054327745 0.059390094 -0.0071555153 -0.05598671
0.0405283 -0.053662926 -0.09212368 -0.08814984 -0.0831382 -0.052190855 -0.03543993 0.05122782
0.045278307 -0.047128256 -0.0720021 0.055624165 -0.02119792 0.01816866 0.09117204 0.04654639
0.032858316 -0.065267585 0.03162911 -0.06742486 0.061326016 0.09674289 -0.03471473 -0.033933517
0.038220625 -0.057205133 0.006641035 0.02496732 -0.018082306 -0.08041442 0.03165795 -0.022854336
-0.016666284 -0.06513456 0.06308029 -0.08436431 -0.064372025 -0.08402985 0.039709024 -0.080167145
-0.057853237 -0.007811394 -0.024149109 0.05939403 0.066001676 0.0022780464 -0.008504239 -0.08400326
0.02096414 0.07880887 -0.067328 -0.08752329 -0.009573614 -0.03282282 -0.06967779 0.057717394
-0.05803423 0.053307027 0.046327792 0.074597575 0.09880913 -0.048796885 0.0010967908 0.09204321
0.0387391 0.06243097 0.112785466 -0.069378704 0.028223071 0.043398753 0.020886881 -0.08961068
0.068915755 -0.08226279 0.0035640683 -0.044178825 0.042636756 -0.019162135 -0.017539522 -0.028401753
0.051625423 0.057194903 0.03561025 -0.013120778 0.06998649 0.002060477 -0.0053601633 -0.07489154
0.031344898 -0.06837814 -0.08116871 -0.033892613 -0.04114146 0.05079751 -0.0038286264 -0.023000855
-0.024152296 -0.028720373 -0.0032787297 0.091110416 0.03641545 -0.10202991 -0.0870249 0.0026926459
-0.05155839 0.020200688 -0.050993092 0.089904085 -0.013057665 -0.0844278 0.018842548 0.0058820657
-0.003711983 -0.013912771 0.06066945 0.0038787762 -0.04865086 0.005015804 -0.013174883 0.0012184044
0.0102576595 -0.025364628 0.0018082231 -0.061970696 -0.08118113 -0.014841482 0.07876612 0.048978385
0.054909922 -0.059004553 0.049936283 0.080796145 0.015523485 0.030669542 -0.06960127 0.048662633
-0.05185463 0.101620935 0.03292587 0.008962539 0.069412366 -0.034600753 -0.07333182 -0.087511554
-0.05535115 0.016724825 0.0014196696 0.040248986 0.10316435 0.050743893 -0.034563832 0.09309675
0.095494494 0.097901456 -0.036711577 -0.08915411 -0.114604026 -0.09100304 0.07206424 -0.077766225
0.07510748 0.0229793 -0.090122 -0.08398511 -0.038897406 0.065707065 -0.019022662 0.0859849
-0.09857993 -0.07662464 0.04684861 0.08386971 0.034158 0.08795216 -0.004521853 -0.040508382
0.06484666 0.016199427 0.006827781 0.04257726 -0.060122885 0.072175145 0.020486448 -0.030231804
0.08326319 0.035011075 -0.09984901 -0.031338908 -0.070474304 -0.06578262 -0.06519051 0.002154589
-0.029727213 -0.053294115 0.04871186 -0.0041410285 -0.013016768 0.03253856 -0.059668142 -0.04743834
-0.034327388 -0.05615145 0.014619619 -0.08008954 0.02877191 -0.09961594 -0.008310441 -0.05766095
0.043533016 -0.10401238 -0.09493542 0.014590136 0.05443696 0.08223937 -0.07693999 0.025711847
-0.0014828728 0.008682828 -0.04813336 -0.010952638 -0.09806154 0.04697042 -0.0071224193 -0.056203414
-0.025564589 -0.03287058 0.036452133 -0.0982335 -0.07777175 0.034278464 -0.018245758 -0.06035479
0.04841867 0.059174158 -0.023587842 -0.09522369 0.047527973 0.08624756 -0.0055934186 -0.03402012

bias f4 [64]
00000000: 128b 76bd 16d7 3c3d 83ad c8bd 4088 3d3d
00000010: 9d53 7abd c868 bbbd ae47 79bd 5408 c33b
00000020: d834 b83a bcc5 233d d8ec cc3d a648 11bd
00000030: 0543 aa3c 1016 9abd b242 c33c f42c 2b3d
00000040: 06df 593d b408 613c 568f 693d 06f7 c53d
00000050: e4e3 133d 3050 953d 7114 75bd 2525 b23d
00000060: 9dee feba 1816 8d3b 799e 89bd a3c8 a3bd
00000070: 2b6f 76bc b120 bcbd da84 6c3d 3574 e0ba
00000080: c727 943d 95bf 133c a437 7dbd 5a33 f3bc
00000090: 02fc 2e3c 7dd5 d63c 6323 bf3d 7f91 5dbc
000000a0: be48 8fbd 1c3d 343d 7d00 12bd 5e45 a23d
000000b0: abf6 ab3d 18fb a5bd 3335 c23c 2654 a4bd
000000c0: 20ea ae3c 19f6 903d 53dc c4bc 96e0 133d
000000d0: e4ca febc ef32 153d 0adb a03d fdca aabd
000000e0: aeda c3bd 8596 1ebd 9c76 0f3d 321f bc3b
000000f0: f73e 7ebd 8f6f acbc 87a1 a3bd 5840 873c
-0.06019122 0.04610356 -0.0979872 0.046272516 -0.061114896 -0.09150845 -0.060859375 0.0059519205
0.0014053835 0.039983496 0.10006112 -0.035469674 0.02078391 -0.07523739 0.023835514 0.041790918
0.053191207 0.013734985 0.05702146 0.096662566 0.036106005 0.07290685 -0.059833948 0.08698491
-0.0019449774 0.0043056123 -0.067196794 -0.07997253 -0.015041153 -0.09185923 0.057743885 -0.0017124476
0.072341494 0.009017845 -0.06182064 -0.029687572 0.0106802005 0.026224846 0.09332921 -0.0135234585
-0.06996296 0.04400359 -0.035644997 0.07923387 0.083966576 -0.08104533 0.023707008 -0.080238625
0.021351874 0.070781894 -0.02403084 0.036102854 -0.031102605 0.036425527 0.078542784 -0.08339498
-0.09563194 -0.038717765 0.035025224 0.0057410235 -0.062071767 -0.021049289 -0.07989793 0.016510174

weight f4 [64]
00000000: 4bef 7e3f e960 803f 622a 803f 5e2c 7f3f
00000010: baea 7f3f 27d8 7a3f 0dd8 7e3f 8c52 803f
00000020: 0c69 833f b999 803f d0da 803f 6748 7e3f
00000030: d90f 7f3f 0c1c 823f 904b 813f b478 7d3f
00000040: 760a 7c3f 716e 7e3f 3d81 803f eef0 813f
00000050: b7e9 803f 398a 7d3f 5c57 823f 212e 813f
00000060: 5996 7c3f c190 7e3f b3a1 7c3f d6ff 7c3f
00000070: d091 803f fe51 843f 1ae0 7b3f 1264 813f
00000080: 8b7a 803f b611 813f 57fd 7e3f 7120 7d3f
00000090: 18e0 803f 1db4 863f 6258 7c3f 189f 813f
000000a0: 1051 7b3f dcda 853f 50ec 7f3f 1cf1 7f3f
000000b0: b024 823f 1805 7d3f cea5 803f dc89 7c3f
000000c0: 3b38 823f 243c 7c3f 6a31 783f 9a3a 7d3f
000000d0: 7a75 7e3f 096a 803f 142d 7f3f 6f8f 7b3f
000000e0: 23da 803f b59e 7d3f 6d62 823f 0071 803f
000000f0: 27c4 7c3f 7669 7e3f e49e 7a3f d890 7b3f
0.9958388 1.0029575 1.0012934 0.99677074 0.9996754 0.9798607 0.9954842 1.0025191
1.0266433 1.0046912 1.0066776 0.9932923 0.99633557 1.0164809 1.0101185 0.99012303
0.9845346 0.9938727 1.003944 1.0151651 1.0071324 0.99039036 1.018291 1.0092202
0.9866691 0.99439627 0.98684233 0.98827875 1.0044498 1.0337522 0.98388827 1.0108664
1.0037397 1.008353 0.99605316 0.98877627 1.0068388 1.0523716 0.9857236 1.0126677
0.98170567 1.0457416 0.9996996 0.9997728 1.0167446 0.988359 1.00506 0.98647857
1.017341 0.9852927 0.969504 0.98917544 0.99398005 1.0032359 0.9967816 0.9826574
1.006657 0.9907029 1.0186287 1.0034485 0.98736805 0.9937967 0.978987 0.9826789

bias f4 [64]
00000000: 5354 31bc b4b8 fc3b 69ef 61bb 884e b63a
00000010: 9b28 ea3a e3a4 92bc 2140 b93b a894 80bb
00000020: 6a94 2c3c dbd8 09bc 6422 8f3b 96ea 4bbc
00000030: 00cc 1bbc 429d 9db9 baa1 763c 3198 71bc
00000040: f95f 5bbc a221 1bbc 4d94 a2b9 7052 d23b
00000050: 5e6a 6f3a c6b7 9fbb 4f81 b13c 83a5 34bb
00000060: b9c9 96bc c3e5 49bc 01f0 12bc 8584 773a
00000070: 7fe3 a739 22aa c43c fd52 36bc a18a 54bc
00000080: c08f b73a 6776 a73b d61c e3bb 0fc7 82bc
00000090: 40af 1e36 5fcb 19bb 4587 69bc 242e 1b39
000000a0: 20c4 33bb 5d93 c13b a8b9 b5bb c9a1 c2bb
000000b0: 7b7d 483c 2e24 19bc a5aa e3bb 02e0 80bc
000000c0: 2619 7c3c 9f52 15bb 2189 98bc 316c 82ba
000000d0: 54ec 343b a042 6a3b 4cac a93b 47a8 f2bb
000000e0: 3651 a53b 3e9c 69bc 41ac 273c 5936 beb9
000000f0: d213 09bc 7bfa 033c 4867 5dbb 61e3 f4bb
-0.010823327 0.007712448 -0.0034474975 0.0013908902 0.0017864885 -0.01790089 0.0056533967 -0.003923971
0.010533432 -0.008413519 0.0043681134 -0.012446066 -0.009509087 -0.0003006254 0.015053207 -0.014745758
-0.013389581 -0.009468468 -0.0003100954 0.0064185187 0.00091329764 -0.0048742024 0.021668104 -0.0027564473
-0.018406736 -0.012322846 -0.008968354 0.0009442049 0.0003202222 0.024006907 -0.011128184 -0.012972505
0.0014004633 0.00511055 -0.0069309277 -0.01596406 2.3645844e-06 -0.0023467166 -0.014253442 0.0001479914
-0.0027430132 0.0059074597 -0.0055458136 -0.0059396964 0.012236948 -0.009347005 -0.0069478326 -0.015731815
0.015386855 -0.0022784842 -0.018620076 -0.0009950456 0.0027606683 0.0035745278 0.00517801 -0.007405314
0.0050450815 -0.014258442 0.01023394 -0.00036280116 -0.008366542 0.008055325 -0.0033783484 -0.0074733947

running_mean f4 [64]
00000000: 7e37 9cbd 73b5 673c bd07 e7bd 2d46 323d
00000010: 2e45 81bd 9922 e3bd 32bf 27bd 16a7 edba
00000020: 40e3 ec3b 620a c33c 85a2 c33d 3578 62bd
00000030: 80ec 7f3c 1d42 94bd 387e b5b9 72dd 773d
00000040: 85db 883d 63df 373d 42c8 4e3d 394e d63d
00000050: 2e1a 133d 6efc 363d d677 79bd 97b2 843d
00000060: 9ee0 83bc cadb c53c b347 a5bd 24b5 b4bd
00000070: d80b 8dbc 76a0 92bd 6d6c 943d 20c8 75bc
00000080: fd50 8a3d 4a70 ef3c 32e9 a2bd 9ef2 eebc
00000090: f1a5 90bc e284 4b3d 9749 c53d bfdb 13bd
000000a0: 5ce5 96bd 8cf3 593d 7cd4 21bd a2c2 fe3d
000000b0: 1566 943d 8a20 a9bd 83f9 313c 8bc5 adbd
000000c0: 0d02 903c dbe5 933d bc49 e1bc ebde 423d
000000d0: 85da c9bc 0c39 123d 76d7 b73d 8114 c4bd
000000e0: 137b e6bd 9b6b 65bd a50c dd3c 53ce e93b
000000f0: fa9e 93bd 04c9 b3bc 0b2e 8dbd 7d0e d83c
-0.07627772 0.014142382 -0.11280773 0.043523956 -0.06312023 -0.11090583 -0.040953822 -0.001813146
0.0072292387 0.023808662 0.095524825 -0.05529042 0.015620351 -0.072391726 -0.0003461705 0.06051392
0.06682495 0.044890773 0.05048395 0.104641385 0.03591364 0.04467433 -0.0609053 0.06479376
-0.016098317 0.024152655 -0.08070316 -0.08823612 -0.017217562 -0.07159512 0.07247243 -0.015001327
0.067537285 0.029228348 -0.07954635 -0.029168423 -0.017657252 0.049687274 0.09633177 -0.036098238
-0.073679656 0.05321078 -0.03950928 0.12439467 0.07246033 -0.082581595 0.010862711 -0.08484944
0.017579103 0.07221576 -0.02750098 0.047575872 -0.024640331 0.035698935 0.08976643 -0.09574223
-0.11253943 -0.056010824 0.026983568 0.0071351915 -0.07208057 -0.021946438 -0.068935476 0.026374096

running_var f4 [64]
00000000: b3f2 a13e 148a b13e f80c ad3e abdc a33e
00000010: c094 c13e 36b5 af3e 26d7 a93e 6d38 a23e
00000020: f69a b43e 51c0 b23e b3bb a53e e29b b03e
00000030: f993 873e 970c bc3e aff5 a23e 4fe7 a73e
00000040: b584 ad3e b743 c53e 054a c03e e21d ba3e
00000050: 899e c63e 9ccd 9a3e ef05 ad3e b8bf c63e
00000060: 55c2 9e3e fdf0 963e 391d af3e 75a5 b13e
00000070: ba2a b83e 2b82 963e 9bcb a93e 99f0 b83e
00000080: f01e ab3e a07e c73e 0622 a13e 15a2 a53e
00000090: 305c aa3e 627d bc3e 9158 a53e 9ccf c13e
000000a0: 3d6a ae3e 6f32 a73e a051 a73e c791 c73e
000000b0: 0cef b03e da6b bc3e 1e92 ab3e 0049 ab3e
000000c0: c0d2 9b3e 9d4a 953e 10e5 a63e 587e 9e3e
000000d0: efe1 ab3e 4472 883e f2a2 c03e 3668 963e
000000e0: 4028 c53e 05c7 a13e 55cf b63e cea0 883e
000000f0: b158 b03e 68c0 ae3e b2e1 cf3e e7b8 9d3e
0.31630477 0.34675658 0.33798957 0.32004294 0.378088 0.3431794 0.33171958 0.31683674
0.35274476 0.3491235 0.32369766 0.3449393 0.26480082 0.36728355 0.31828067 0.32793662
0.3389031 0.38528225 0.37556472 0.36350924 0.38792828 0.30234993 0.3379359 0.38818145
0.3100764 0.29480734 0.34201983 0.34696546 0.35970098 0.29396185 0.3316315 0.3612106
0.3342204 0.38963795 0.3147127 0.3235022 0.33273458 0.3681441 0.32294133 0.37853706
0.34065428 0.32655665 0.32679462 0.38978407 0.34557378 0.36801034 0.33509916 0.33454132
0.30434227 0.29158488 0.32596636 0.30955768 0.3357081 0.26649678 0.37624317 0.29376382
0.3850727 0.31597152 0.35705057 0.26685184 0.34442666 0.3413117 0.4060188 0.30805132

weight f4 [64, 64]
00000000: 88bb 8d3d 2f83 a53d e41b 913d 1710 59bc
00000010: de85 0d3d 0a4a 7ebd 45f4 2dbd 96b7 2f3d
00000020: c1b6 c5bd 467d c2bb 88b6 f13c 4625 cfbd
00000030: 3cb7 903d f083 b1bd 59f0 e8bd abbc 2c3d
00000040: ee55 9c3d 4ff0 cb3c ac60 01bd 3c92 59bd
00000050: 36de 7b3d 3a59 f4bc 6288 743d 2db1 593d
00000060: 4497 efbc b640 0e3d 3668 d13c 1464 533d
00000070: 3fc4 9eba 2633 fcbc 6a36 db3d 1ee9 de3d
00000080: b6e7 9fbd 4047 3d3d e9a9 033e 8d21 d9bd
00000090: 59c2 47bd b11c b9bd 54c5 2dbc 406a cf3d
000000a0: 9489 873d a005 e0bd d084 1cbc 0e24 6dbd
000000b0: d44c c93d 9f5a ce3d fde5 5ebd 0d11 c8bd
000000c0: 75e7 2fbd 56d6 183d 6159 47bd 237a 38bd
000000d0: 2e76 99bd 2559 7c3d 5826 4c3d ebd2 80bd
000000e0: 48ff 9abd 733f b2bc 55d0 e1bd 6143 dfbd
000000f0: 0111 97bd fe59 17bd af3c 89bd 79fa 9abd
00000100: 5c1c 063b f08f b33d 0ba1 0abd 49ba 5abd
00000110: ea46 9ebd 46a4 583c b64a 9abc 19b6 4abb
00000120: 865a 023d 73e9 99bd d9e6 e8bd 0dc8 0abd
00000130: 4a70 56bd d63e 0e3c ac70 f93d 74c3 d03d
00000140: 433c 88bd 636f 793d c48d ebbd 794f e9bc
00000150: c42c c83d 6bd9 04bc 8908 ba3c e586 9b3d
00000160: c172 793c 611b 5bbc ce84 60bd 0eac e0bd
00000170: f592 78bd 0787 043e 0a85 07bc da40 b6bd
00000180: 1515 b1bd 0b37 d6bd 7e2e 303c 8072 b1bd
00000190: 74ad 1cbd d748 e73d c552 713d 6a85 af3c
000001a0: d00a b33d 5c5d b23c f9a5 dabd 188e 053d
000001b0: fc7b 7f3c 9584 6dbd aa9a 033d 587c 47bd
000001c0: 6b7b c93d c693 7bbd 668d 2abd ae4a 5bbd
000001d0: 5cb2 25bd bcd5 ba3c 24e8 d8bd 6f34 b73d
000001e0: a8b5 9dbd e387 153e 2042 dabd 570c a4bd
000001f0: 10b6 943d e497 e83d a0ae cebd 3300 a73d
00000200: 9244 cabd 5504 9b3c 80c6 13bd 8010 0abd
00000210: 3dfb 25bd 527b 01bb e222 89bd e8da e13d
00000220: ce5b f6bd a469 cf3b 3fff c33d 4b5e 9f3d
00000230: e441 a7bd 1a6b b1bd c6e4 9d3c 8536 b03c
00000240: 1d0a 82bd 1080 62bd 39b9 f1bd e038 953c
00000250: e754 4bbc d57e ccbd 8f5c a6bd 3123 38bc
00000260: 5949 b43d 0739 ca3c 84e5 843d 3a14 bc3d
00000270: fc35 12bd 93f4 d53b e659 6d3d c70e db3d
00000280: 4378 fdbd 7b66 a2bc ada9 873d 863d 6db9
00000290: 80a3 873b 80ca de3d bddb a63c 271a d3bc
000002a0: 4db0 dd3d 0624 13bd 956b 9b3b 315f fbbd
000002b0: 8adc ebbc a853 c0bc 44fa 733d 82c2 f5bc
000002c0: b391 8d3d 2f53 74bd d8a2 d53d 94e3 193d
000002d0: 02eb 563d 94f1 01bd 02c4 ccbd d622 5abd
000002e0: 6045 e9bd 253a 073d baf2 0e3e 2482 9d3c
000002f0: 2e3b 0b3c 7290 de3b 3caa 39bd 5eb8 1f3d
00000300: 0c44 82bd e7d5 4ebd 433f 7fbd fc28 88bc
00000310: 2ee5 21bd 5cea 1c3d 08b4 f23b 199a 853d
00000320: 9fa1 703d 2012 a53d fe94 f3bd 2534 77bd
00000330: a9eb b7bc d44f 2f3c 180d d03d 36bb 1e3d
00000340: f264 0c3d 13fe 903d c943 b03c 0a03 c8bd
00000350: d761 b7bd 74b7 083e f37c c73c 7793 dcbd
00000360: 2dbb dc3d 2d84 a8bd d22c 373d 0ec5 da3d
00000370: f8ea 19bc 3cb6 d3bd 56e7 ac3d a4b4 64bd
00000380: 4ece 1b3d 7a01 9f3c b3e2 a8bd 6d45 76bd
00000390: a289 913d ccd0 bbbd 8045 ecbc ee0b b03d
000003a0: 092b d63c 365f 343d 4c1c 85bd 4997 18bd
000003b0: 6fc0 593d 939d b33d f3a4 af3d 9a20 f1bd
000003c0: e866 ed3d b3da e73c 860d 2dbd f9a1 ebbb
000003d0: 2954 0abd f366 883d 04d2 11bd ca05 d63d
000003e0: 0d7a 853d dc66 4d3d 0e72 babb e1db c73d
000003f0: 8427 0c3d 2aa8 bc3b 9fa3 edbc df5b a03d
0.06920534 0.08081662 0.07085398 -0.013248465 0.034551494 -0.062082328 -0.04246928 0.04289969
-0.09653998 -0.005935344 0.029505983 -0.10114531 0.07066199 -0.08667743 -0.11373968 0.042172115
0.07633577 0.024894862 -0.031586334 -0.053117976 0.061491214 -0.029827703 0.059700377 0.053147484
-0.029246934 0.034729682 0.025562387 0.051609114 -0.0012112929 -0.030786108 0.10703738 0.10884307
-0.07807867 0.046210527 0.12857784 -0.106021024 -0.04876933 -0.090386756 -0.010606129 0.101276875
0.06618038 -0.10938573 -0.009553149 -0.057895713 0.09829107 0.10075878 -0.054418553 -0.09768877
-0.042945344 0.03731378 -0.048669223 -0.045038354 -0.07493244 0.061608452 0.049841255 -0.062902294
-0.07568222 -0.02175877 -0.11026064 -0.109015234 -0.0737629 -0.036951058 -0.067010276 -0.07567305
0.002046368 0.08767688 -0.03384499 -0.05340031 -0.077283695 0.01322276 -0.018834453 -0.0030931293
0.03182461 -0.0751523 -0.11372156 -0.03388219 -0.05235318 0.008681973 0.121796936 0.1019353
-0.06652119 0.060897242 -0.11501649 -0.028480278 0.09774163 -0.008108477 0.022709148 0.075940885
0.015225113 -0.013373227 -0.054814152 -0.10970317 -0.060687024 0.12942134 -0.008271465 -0.08899088
-0.08646599 -0.10459717 0.010753272 -0.08664417 -0.038251355 0.1129319 0.058916826 0.021425921
0.08742297 0.021773033 -0.10676188 0.032606214 0.015593525 -0.05798777 0.03212992 -0.048702568
0.09837993 -0.061420225 -0.041638754 -0.053538017 -0.0404533 0.022806995 -0.10591152 0.08945548
-0.07700664 0.14602618 -0.106571436 -0.08010166 0.07261288 0.11357096 -0.10091901 0.08154335
-0.0987636 0.018922964 -0.036077976 -0.033707142 -0.040522803 -0.0019757343 -0.066961065 0.11028081
-0.12029229 0.006329732 0.09570169 0.07781657 -0.081668645 -0.08663006 0.019274127 0.021510372
-0.06349585 -0.05529791 -0.118029065 0.018215597 -0.012410379 -0.09985129 -0.08123123 -0.011238859
0.088030525 0.024685396 0.06489089 0.091835454 -0.035696015 0.0065293997 0.057947062 0.10696178
-0.12376454 -0.019824257 0.0662416 -0.00022625 0.0041393638 0.108784676 0.020368451 -0.025769306
0.10824642 -0.035923027 0.0047430494 -0.12274016 -0.028791685 -0.02347739 0.059564844 -0.029999975
0.069125555 -0.059649643 0.104314506 0.03757055 0.052470215 -0.031724527 -0.09998323 -0.05325588
-0.11390185 0.033014435 0.1395978 0.019227095 0.008497996 0.0067921216 -0.045328364 0.038994186
-0.06360635 -0.050496962 -0.06231619 -0.016621105 -0.039525203 0.03830944 0.0074067153 0.065235324
0.058747884 0.08060098 -0.118936524 -0.060352463 -0.022451239 0.010700185 0.101587474 0.038752757
0.034275956 0.07079711 0.021516697 -0.09766205 -0.08954208 0.13351232 0.024351573 -0.10770314
0.107778884 -0.082283355 0.04472048 0.106821164 -0.0093944 -0.10337493 0.08442561 -0.055836335
0.038038544 0.019409884 -0.082463644 -0.060124803 0.071063295 -0.09170684 -0.028841734 0.085960254
0.026143568 0.044036113 -0.06499538 -0.03725365 0.053162035 0.08770289 0.085763834 -0.117737964
0.115918934 0.028302526 -0.042249225 -0.0071909395 -0.033771668 0.06660261 -0.035600677 0.10450323
0.0651742 0.050146922 -0.005689866 0.097587354 0.034217373 0.0057573514 -0.029008685 0.07830023

bias f4 [64]
00000000: a6f2 d43b 3b09 8abc 1603 613c b261 68bd
00000010: a0a3 b23b 7336 813d 97bd 753d 1b11 58bd
00000020: ff5c 86bd d7f7 863d 3919 b23d eb10 ac3d
00000030: e5e4 ee3d 1a7f c53d ae6a 1d3c c3fe 3a3d
00000040: ea83 e03d d9ab 433c e382 b1bd ed22 57bd
00000050: 8115 77bd 177d febc e28a 13bd c02b d53d
00000060: 3a5f 993b 110f aebd d0ca 8bbd d0a7 57bd
00000070: 629c cf3d bb02 c1bd 53af e7bd e458 7f3c
00000080: 7e04 4ebd 709a d13d 7bd9 343d 28fc bebd
00000090: 4d44 993d c59a f6bd 3167 ee3d e9f4 b33d
000000a0: f8ba 673d fbf6 fc3d 80da 933d 0ac7 f63d
000000b0: 9086 a23c 0c85 e9bd 2891 aabd 763d 743d
000000c0: 16ef af3c 9c36 113c bb7d bfbd 9f9d 92bd
000000d0: 063b f8bd 9151 a4bd f630 653b 4cef bebd
000000e0: 7546 553c e4ba 81bd 8a92 debd 9a4b b73d
000000f0: 37f1 0d3d 7772 a53d 9fe3 9b3a 8d0f 9ebd
0.0064986525 -0.016850105 0.013733646 -0.056733795 0.0054516345 0.063092135 0.05999526 -0.052750688
-0.06560706 0.065902404 0.08696217 0.08401664 0.11664752 0.09643383 0.009607954 0.045653116
0.109626606 0.011942827 -0.08667543 -0.052523542 -0.060323242 -0.031065507 -0.03602112 0.10408735
0.0046805413 -0.084989674 -0.06825793 -0.052650273 0.101372495 -0.09424349 -0.11312737 0.015585158
-0.050297253 0.10234535 0.044152718 -0.09325439 0.074837305 -0.12041239 0.11640776 0.08786947
0.05657479 0.12351795 0.0721941 0.120496824 0.019839555 -0.1140233 -0.083284676 0.059628926
0.02147631 0.008863118 -0.09350153 -0.0715897 -0.12120633 -0.0802337 0.003497181 -0.09322986
0.013017287 -0.06334475 -0.10867794 0.08949967 0.03465387 0.08078473 0.0011893398 -0.0771781

weight f4 [64]
00000000: 5b06 7a3f ee3d 813f 46c1 7b3f 75da 7e3f
00000010: 5721 7e3f 196a 813f 5190 7d3f 9f9d 823f
00000020: 88c6 713f 80e1 7c3f 447d 803f c816 7f3f
00000030: f401 803f ab4b 7b3f 5305 7e3f 03da 773f
00000040: a435 783f 9a2f 833f 0ae0 7a3f 16d7 793f
00000050: 9839 803f e5d2 783f b5a6 773f d179 7d3f
00000060: fc56 7b3f 46a4 7f3f b33e 7a3f e9a7 803f
00000070: 5dfa 7d3f 9e23 833f 28c0 793f 936e 7b3f
00000080: ab05 803f 60d1 7b3f 38de 7d3f 36ca 803f
00000090: de08 793f 0a79 743f 5642 783f 87d5 773f
000000a0: 52db 7f3f 32cf 803f bfe2 7f3f aed7 793f
000000b0: eade 7f3f 050f 7c3f 6b93 7b3f bf00 763f
000000c0: 9b64 783f 7f51 823f 8edb 803f 2266 793f
000000d0: 0197 7f3f de73 7f3f e5f3 7a3f 1ac0 803f
000000e0: 03a9 7f3f 3733 813f 88e2 7b3f 5464 7c3f
000000f0: 310d 7b3f 843a 783f 0a74 7b3f 4db3 7d3f
0.9766595 1.0097024 0.98341787 0.9955209 0.9926962 1.0110503 0.99048334 1.0204352
0.9444356 0.98781586 1.0038228 0.99644136 1.0000596 0.98162335 0.99226874 0.96817034
0.9695685 1.0248902 0.97998106 0.9759382 1.0017576 0.971968 0.9673875 0.99014
0.981796 0.99860036 0.9775192 1.0051242 0.9921015 1.0245245 0.9755883 0.982156
1.000173 0.98366356 0.99167204 1.006171 0.97279155 0.9549719 0.9697622 0.9681019
0.9994403 1.0063231 0.9995536 0.97594726 0.99949515 0.9846042 0.98271817 0.9609489
0.9702851 1.0181121 1.0067003 0.9742147 0.9983979 0.99786174 0.98028404 1.0058625
0.99867266 1.0093755 0.98392534 0.9859059 0.98067003 0.9696429 0.98223937 0.99101716

bias f4 [64]
00000000: 2ffd d0bc 9f32 2a3c 9c99 8639 1a75 943b
00000010: 1220 09bd 512e 84bc 554f b1bc 7179 073c
00000020: 4e89 8dbc 35b8 ebba cb5d 3b3c 8acb 1bba
00000030: 7de3 e2bc ab3e 2439 9e84 f2bb 5b1f f9bc
00000040: 56bd 563c 75ff 16ba b5e4 c839 7c99 c3bb
00000050: c463 0fbc b14a 30bc 222b d2bc 56d3 9abc
00000060: 0c51 93bc 1d1a 4dbc 9640 21bc d4dd 51bb
00000070: 68fc a83a 2e09 b239 82c2 abbc 541c 21bd
00000080: 5618 56bc 6c85 fbbc ab57 993b f0e6 76bb
00000090: d7b2 0cbd 8622 24bd 207a 22bc fa5e 1bbd
000000a0: 54dd 30bb e938 ddbc c764 e43b bdd0 4cbc
000000b0: 5be5 4fbc 2a97 beba 5d76 57ba b27f 8cbc
000000c0: b338 f6bc 1004 693c cf54 a1bb 842a bbbc
000000d0: dead 64bc c843 d93b 59a7 57bc 2041 f73b
000000e0: 474a 4c3b 431f 853c 26e8 bfba 74b4 70bb
000000f0: ef8f eebc 67fb 76bc d2cb 49bc 7d1b 76bc
-0.025511352 0.010388046 0.0002567292 0.004530561 -0.03347785 -0.016135367 -0.021644274 0.0082687
-0.017277386 -0.0017983975 0.011435936 -0.00059431104 -0.027696365 0.00015663604 -0.007401063 -0.03041046
0.013106665 -0.0005760112 0.00038317373 -0.0059692245 -0.008751813 -0.010759995 -0.025655333 -0.018899601
-0.017982982 -0.012518433 -0.009842059 -0.003202309 0.0012892606 0.00033957645 -0.020966772 -0.039333656
-0.013067326 -0.030703269 0.0046796403 -0.003767427 -0.034350242 -0.040071987 -0.009916812 -0.037932374
-0.002698739 -0.027004676 0.0069700214 -0.012500939 -0.01268896 -0.00145409 -0.00082192366 -0.017150734
-0.030056333 0.01422216 -0.00492344 -0.022847421 -0.013957469 0.0066303946 -0.013162457 0.0075456053
0.0031172202 0.016250258 -0.0014641329 -0.0036728652 -0.029121367 -0.015074587 -0.012316661 -0.015021202

running_mean f4 [64]
00000000: 788a 3ebe 52b0 34be c556 6abd 1eda 2d3e
00000010: 55f8 c83e 1814 8d3d cba2 6e3e 103f 81be
00000020: 02aa bfbd 17ac 863d 4d2d 3f3d b66e 24be
00000030: 1720 763e f765 cdbe cbfd fa3e c5b1 583e
00000040: 9267 c4be 56a5 8abe 8950 29bd 8c10 b8bd
00000050: 9e3a a03d 52ce df3e 66c2 70be c571 143f
00000060: f9de 31be d349 f9bd ff17 30be aa5e 3c3e
00000070: 8c1e 51be 64b9 143d 2039 c93d 9584 83be
00000080: 0532 fb3c 24f6 1c3e 6574 a03d 670f d83d
00000090: 30ee 59bb 88d1 51be e84c 143d e42b 243e
000000a0: 7bfd 8a3e 2f13 f23d 589b 5bbd da2d 18be
000000b0: 5b19 973d 58ca 3ebe 1f22 b7be 204d 12be
000000c0: 3bf8 123d f251 623e 6b17 473e 84ec bebe
000000d0: 9ab7 f9bc dd67 4ebe 68fe 813e 1ea9 42be
000000e0: 61c5 13be d572 353e 32a5 1cbe 1c09 ac3e
000000f0: 873d fd3d 9fd2 98bd 889f 073e ecc8 9e3e
-0.18607509 -0.17645386 -0.057211656 0.16977736 0.39251962 0.06888598 0.23304288 -0.25243425
-0.09358598 0.06575792 0.04667406 -0.16057858 0.24035679 -0.40116856 0.49021754 0.21161564
-0.38360268 -0.27079266 -0.04133657 -0.08987531 0.0782368 0.43712097 -0.23511657 0.579861
-0.17370214 -0.12172284 -0.17196654 0.18395486 -0.20421809 0.036309615 0.09825349 -0.2568709
0.0306635 0.1532827 0.078347005 0.10549813 -0.0033253543 -0.20490086 0.036206156 0.16032368
0.27146515 0.11820065 -0.053614944 -0.14861241 0.07377883 -0.18631876 -0.3576822 -0.14287233
0.035881262 0.22101572 0.19442527 -0.37289822 -0.030483056 -0.20156808 0.2538941 -0.19009826
-0.14430763 0.17719586 -0.15297392 0.336007 0.12365251 -0.07462048 0.1324445 0.31012666

running_var f4 [64]
00000000: f744 c03d 7621 f23d 7ee1 b63d 70df bd3d
00000010: 7303 e53d 25e9 023e 7623 e83d f71f de3d
00000020: e3ec fc3d a583 033e c900 f03d 8aca 0a3e
00000030: b64d 103e 92da 013e 3499 cf3d c9d3 ef3d
00000040: 115c 133e b7ed f03d 7934 de3d b30a 043e
00000050: 1441 c83d 4c5f 0d3e 3ff7 063e 4b3e ef3d
00000060: 33f5 fd3d de3b 0c3e bd74 c03d 824f 053e
00000070: 564a f63d 61e3 e23d dd99 ce3d 9120 c53d
00000080: 332e ed3d d912 013e c511 023e e4f2 de3d
00000090: 1f6c c93d b9b8 df3d 34db 043e 1676 093e
000000a0: 2bde d03d 016c 003e df36 d13d 61f7 013e
000000b0: 938e bf3d 0580 de3d c791 053e 225c 053e
000000c0: 958b ad3d 4f0d c43d c1eb ec3d a34b 0a3e
000000d0: 7bcf d73d a2fa 013e 2eab d53d 060f ca3d
000000e0: f2b1 ff3d 9766 f73d 2512 f83d 688f cb3d
000000f0: d235 c73d ca03 d23d aa86 cd3d a245 f73d
0.09388154 0.118227884 0.08929728 0.09271133 0.111822985 0.1278425 0.11334889 0.108459406
0.1234987 0.12843187 0.117189 0.13553825 0.14092144 0.12681034 0.10136643 0.11710317
0.1439059 0.117640905 0.10849852 0.12894706 0.09778038 0.13805884 0.13180254 0.11681803
0.12400284 0.13694713 0.09397266 0.13018611 0.12025897 0.11078525 0.10087941 0.09625352
0.115810774 0.12604846 0.12702091 0.108861715 0.098350756 0.10923905 0.12974244 0.13423952
0.10198625 0.125412 0.10215544 0.12692024 0.09353366 0.108642615 0.13043891 0.13023427
0.08473889 0.09572851 0.11568404 0.13505416 0.10537621 0.12693265 0.104330406 0.09866147
0.12485112 0.12080114 0.12112836 0.09939462 0.09727062 0.10254629 0.10035451 0.12073828

weight f4 [5, 64]
00000000: af9f 00be 736d efbc 2ce7 b7bd e759 1fbd
00000010: 3831 973c d3cd dc3c 9193 433d 0917 2c3d
00000020: d4a1 0f3d cc3d e2bc 3abe c4bd 3819 153c
00000030: 40db ef3b 2d05 2d3d 0594 8ebd 80af 833b
00000040: 07db babd 34b9 febc 0f4e dcbd b704 ecbd
00000050: c011 033e f07a d2bd 83d0 1e3c 39a0 d73c
00000060: 6b8d 213d c750 9cbd f56b 8b3d da21 983d
00000070: 8c1c acbd c4c1 07be 1b74 d13d 78d2 cd3d
00000080: 373f 993c 197d e2bc 8f05 95bc 21c9 fb3c
00000090: 4fa8 00bd 5411 2a3c 99f1 b2bd dc0a 263d
000000a0: 54ed dcbb 107f 223c 9313 26bd b4ab 8d3d
000000b0: 3a86 233d 5923 9fbd de41 8c3d 3422 a9bd
000000c0: 4e4e 8abd 6db2 b33d a54f 84bb 25aa dbbd
000000d0: d5f2 b9bd ef25 b73d 6f20 6f3d 5522 b43d
000000e0: d147 b7bc d6c2 c0bd 9d1f 9a3c 4422 c73c
000000f0: 1db6 b7bd 0c5d 59bb 433d 4d3d d5b5 593d
00000100: c302 25bc 95f9 ba3d 11e0 853d 7125 d43d
00000110: 13dc cdbd c1e7 8e3c a73f d23d 809e 9f3d
00000120: d2df 92bd 9b6f b9bc f089 40bd e395 923c
00000130: 68c4 0c3e 2cb2 0ebc 63b8 1ebc 0efc 98bd
00000140: e40a f63d 63da 023e ddba 99bd 7d35 50bd
00000150: caa1 34bc 31ce 3cbd 297c 5fbd 88b6 6ebb
00000160: 897c 6ebd 474e edba b9fb 57bc 143d 11bd
00000170: 565d 8b3d 0978 0c3e f819 97bd 4713 b6bd
00000180: e146 39bd bd97 91bd a106 7b3d 1196 1d3d
00000190: 23d2 c1bd 6a60 9c3c 5a64 553d 2d90 8bbd
000001a0: 85f7 1e3d 9eb8 9fbd eef7 953d f179 9ebd
000001b0: e9d5 df3d 5924 873d a046 453d 8d55 633d
000001c0: 8aed d4bd a804 683c 6783 33bc 4fb0 c0bd
000001d0: 0e8a 7d3d 1276 d23d 9b9a 9e3d 20c4 683c
000001e0: dc85 3d3c 8cec a83d 0505 9ebc fa2e 573c
000001f0: e3e7 a7bd 22c0 50bd 55ff 1ebd 95bd 053d
00000200: 0b48 a4bd 7e91 d0bd 51de 8e3d dc08 a13d
00000210: f3fc c2bd 0b29 0cbe dcff 513d 962f 83bd
00000220: 789d 943d 41e4 613d 9418 f43d 89b9 2a3d
00000230: ab0a e3bd 8625 a13d 32fd 0abe 53c5 24bc
00000240: 2544 943d 95b1 c5bd 28b4 dd3d b6e9 1d3d
00000250: f6d3 bcbc fbce 24bd 4fe8 823d 5f6e 38bd
00000260: 7c59 703d 3fee bbbd 3728 3c3d 347f a23c
00000270: db60 84bd c319 23bd e4df 873d 92d1 c4bd
00000280: 5082 7aba 77a2 47bd fb96 a63d 19fc 023c
00000290: 16ab a4bd 1af7 8abd bbcd 75bd 6995 95bc
000002a0: fa43 7ebc 8f24 12bd 069b 883c 68c2 693d
000002b0: 9edd 82bd e76d f53d 1583 9cbb 49fe f5bd
000002c0: e7bc 68bd 278e a03d fd84 023e 45dd 3ebc
000002d0: 3a8b f6bd 6e77 213d 079d fabb dbd6 f0bb
000002e0: 8335 083d 6358 943d 2941 e33d 4b86 753d
000002f0: e773 3bbd b875 e13c 5ccb 073d ed96 71bc
00000300: 5fce 1abd 4a3d 963c 7fc5 d6bc 1133 86bd
00000310: 3f91 033d f91b d8bd 78c0 9f3d 30a6 9dbd
00000320: 84a5 823d 1f22 40bd 6eb7 453d 29e1 cb3d
00000330: 8bed 493d aa09 9abd 18fa e0bd 7119 a8bd
00000340: 02c0 35bd adf4 d8bd acb3 4fbd 70c9 863c
00000350: b466 90bc 4471 6abd 1044 c33d ea94 e9bc
00000360: 2dd8 11bd 4734 053e c2ab 973c bbf5 f43d
00000370: 9d24 963d 28b2 2ebc 650f e13d d1c3 7abb
00000380: 5875 aabd 2606 8fbd aa68 d7bd 58ec 8dbd
00000390: 408b 04bd 6e17 e63d 4fcd 493d d08f bd3d
000003a0: cd96 59bd c83b 87bd 0feb d7bd 7f35 6c3d
000003b0: bffb db3d 8a94 e73d 0019 563b d0ac 2d3d
000003c0: 19c7 ea3b 660f e33d be61 f6bb e266 00bd
000003d0: 742b f43d a34b 95bd ecc0 90bd 313b a6bd
000003e0: 96ae c4bd 5512 973d 3f3e 00bd 290d d6bc
000003f0: 6f81 cbbc 876d 5bbd 0a89 91bd db18 153c
-0.12560914 -0.029226994 -0.089796394 -0.038904097 0.018456087 0.026953613 0.047748152 0.042014156
0.03506644 -0.027617358 -0.09606595 0.009100251 0.007319838 0.042241264 -0.06961826 0.004018724
-0.091238074 -0.031094171 -0.10757076 -0.11524337 0.1279974 -0.10277355 0.009693268 0.026321517
0.039441507 -0.076325946 0.068077005 0.07428332 -0.084038824 -0.1325751 0.102272235 0.10049909
0.018706901 -0.027647542 -0.018191127 0.030735554 -0.03141051 0.010380108 -0.08737487 0.0405377
-0.006742159 0.009917989 -0.04054601 0.069175154 0.03992293 -0.07770414 0.06848501 -0.08258477
-0.06753217 0.087742664 -0.0040378147 -0.10725812 -0.0907952 0.08942782 0.05838054 0.08795611
-0.022373112 -0.09412162 0.018813903 0.024308331 -0.08970282 -0.0033167033 0.05010725 0.053151924
-0.010071459 0.09129635 0.06536878 0.10358704 -0.100517415 0.017444493 0.10266047 0.07793903
-0.071715966 -0.022636225 -0.047006547 0.017893737 0.13746798 -0.008709472 -0.009687516 -0.074699506
0.12013796 0.1277862 -0.075063445 -0.05083226 -0.011024902 -0.046095077 -0.054561768 -0.0036424715
-0.058224235 -0.0018104994 -0.013182574 -0.03545864 0.06804912 0.13717665 -0.07378 -0.088903956
-0.04523361 -0.0710902 0.06128562 0.038473193 -0.094639085 0.019088943 0.052097656 -0.06814609
0.03881027 -0.07798885 0.073226795 -0.07738102 0.10929472 0.0659873 0.048163056 0.05550151
-0.103968695 0.014161266 -0.010956622 -0.09408628 0.061899237 0.102764264 0.077443324 0.014206916
0.011567559 0.08248243 -0.019289503 0.013133759 -0.08198526 -0.050964482 -0.038817722 0.032651503
-0.080215536 -0.101840004 0.06975997 0.07863018 -0.095209025 -0.13687532 0.051269397 -0.06405561
0.07256597 0.05514932 0.119187504 0.041680846 -0.11086019 0.07868485 -0.13573149 -0.010056811
0.0723956 -0.09653012 0.10825378 0.038552962 -0.02305029 -0.040236454 0.063919656 -0.045027133
0.05867909 -0.09176301 0.04593679 0.019836046 -0.06463786 -0.03981949 0.066345006 -0.09610285
-0.0009556161 -0.048738923 0.08134266 0.007994675 -0.080404446 -0.06785412 -0.060010653 -0.01825972
-0.015519137 -0.035679396 0.016675483 0.057070166 -0.063899264 0.11983853 -0.0047763684 -0.12011392
-0.056820776 0.078396134 0.12746044 -0.011649434 -0.12038274 0.039420538 -0.0076481136 -0.0073498315
0.033254158 0.07243421 0.11096413 0.059942525 -0.04576483 0.027521953 0.033152923 -0.014745456
-0.037794467 0.018339772 -0.02621722 -0.06552709 0.03212094 -0.1055221 0.078003824 -0.076977134
0.06379226 -0.04690754 0.048270635 0.09955055 0.049298804 -0.075213745 -0.109852016 -0.082079776
-0.044372566 -0.10593543 -0.050708458 0.016453475 -0.017627098 -0.057236925 0.09534466 -0.02851339
-0.035606552 0.13008223 0.018514518 0.11960932 0.07331202 -0.010662593 0.109892644 -0.0038263688
-0.08323163 -0.069835946 -0.1051801 -0.069298446 -0.03235936 0.112349376 0.049268063 0.09255946
-0.05312233 -0.06603199 -0.10542881 0.057668205 0.10741376 0.113076285 0.003266871 0.042401135
0.0071648476 0.110869214 -0.007518976 -0.031348117 0.119223505 -0.07289817 -0.07068047 -0.081167586
-0.09603612 0.073765434 -0.031309363 -0.026129322 -0.024841992 -0.05357125 -0.07106216 0.009100164

bias f4 [5]
00000000: 53d0 a33d ae29 093e 790d 003e c1ed e03d
00000010: b041 733d
0.07998719 0.13394806 0.1250514 0.10982848 0.059388816
