Industrial Equipment/mlruns/0/1443f16e63954206976bb01f51d297e0/artifacts/discriminator_model/data/model.pth (torch, 30142 bytes, 13 tensors)

weight f4 [64, 5]
0.40619463 -0.35467315 0.21266715 -0.2711487 0.34582126 -0.029448407 0.17247427 -0.2747857
0.35878143 0.17132741 -0.30217445 -0.19320299 -0.09676132 -0.04201086 -0.36444977 0.22168045
0.024224855 -0.29561386 -0.12577632 -0.4242318 -0.05498148 -0.1273069 -0.30640334 -0.39890087
-0.23376335 0.33710486 0.35712764 -0.19653544 0.2891393 0.22815135 -0.3911898 -0.0133423405
-0.393921 -0.14519805 -0.40386742 -0.041657675 -0.05070154 0.40669364 0.002579535 -0.20334995
-0.23963487 -0.23762363 -0.12515338 -0.4011971 -0.3825838 -0.09014047 0.2467784 -0.13646095
0.1202397 -0.3879152 -0.035218835 0.2424958 -0.18334521 -0.31111315 -0.019895969 0.24187256
-0.1460373 0.09118613 -0.28348392 0.020348417 0.37359887 0.36338773 0.297032 0.35069892
-0.20720743 0.12609865 -0.12514566 0.26391545 -0.17184958 0.10464203 0.08568411 -0.08556751
0.4158177 -0.0009087734 0.15705559 -0.34060368 -0.28354445 -0.30485687 0.060882036 -0.06993741
-0.11861317 -0.059916362 -0.3854084 0.11895705 0.28889146 -0.25185844 -0.0062754983 0.04760647
-0.21097934 -0.006062092 -0.10568806 -0.09133924 -0.39751196 0.21844631 0.18989828 -0.38312927
0.25351128 0.38128754 0.16290791 -0.19937086 0.30725092 -0.3936624 -0.2137897 0.39149624
-0.37908226 -0.039254725 -0.02631363 -0.41173607 0.09531279 -0.38299096 0.08409143 -0.22520006
-0.33899638 -0.19688037 -0.37345982 -0.333278 -0.23958659 -0.34288883 0.30108735 -0.15412919
0.1607654 -0.12968926 -0.36872074 -0.2892461 0.17340447 0.2221925 -0.13505077 0.12357492
-0.41870335 0.20666009 -0.408638 0.36645564 0.23287812 0.41334385 0.2761626 -0.31963396
-0.3442588 -0.19178551 0.16207421 -0.10721466 -0.42543295 0.30754405 0.37833312 -0.17132531
0.16283107 -0.29171398 -0.26416025 0.008298693 0.172045 -0.24081506 0.038130876 0.17533998
0.274355 0.114275075 0.004321657 0.08913603 0.3617213 -0.22040117 -0.4160711 0.20995043
0.34078366 -0.39653218 -0.42982683 0.42325273 -0.18537194 -0.27327242 0.21323647 -0.2221079
0.3133856 -0.03119583 0.012912156 0.081805 -0.06898229 0.27825618 -0.4471579 -0.4242626
-0.32083556 -0.26292342 -0.33239582 0.21463469 0.09363428 0.27179706 0.25263703 -0.12058972
0.15380567 -0.17511542 0.0720456 0.10023716 -0.13115336 -0.32333538 -0.0703573 0.38600487
0.17474535 -0.36481982 -0.14057344 0.36832592 0.45303124 -0.16280869 0.42023262 0.014862066
0.18557206 -0.39651555 -0.27717096 0.07429916 -0.33048987 -0.292124 0.40268132 -0.22462407
-0.1675949 -0.21220626 0.38583973 -0.15187886 -0.32265648 0.26007754 -0.15017566 -0.35759678
-0.17038792 -0.4172907 0.2493145 0.45515028 0.2511374 -0.40965602 -0.073456295 -0.37454385
-0.06775609 0.2911905 -0.09336104 0.43894494 0.15711764 0.20836124 0.10715279 -0.06940069
-0.20263821 -0.08545795 -0.42221272 -0.37797496 -0.18885022 0.15708448 -0.23209795 -0.038759317
-0.30497682 -0.10932219 0.089293405 -0.121763736 0.25761694 -0.4038272 0.038682163 -0.36884922
0.031265955 -0.07065621 0.0156866 -0.2526521 0.49017844 -0.15194453 0.09249437 0.3810122
00000000: bef8 cf3e b897 b5be 6bc5 593e 01d4 8abe
00000010: 7c0f b13e c93d f1bc 189d 303e b6b0 8cbe
00000020: 33b2 b73e 7470 2f3e 9cb6 9abe 01d7 45be
00000030: cd2a c6bd 9413 2cbd 2999 babe 3300 633e
00000040: 3473 c63c b35a 97be 82cb 00be e934 d9be
00000050: 4334 61bd bd5c 02be e6e0 9cbe bc3c ccbe
00000060: a95f 6fbe 0299 ac3e 6fd9 b63e 9640 49be
00000070: 110a 943e 82a0 693e 084a c8be d599 5abc
00000080: 03b0 c9be ccae 14be b6c7 cebe 3da1 2abd
00000090: 6bac 4fbd 263a d03e 6a0d 293b f83a 50be
000000a0: d862 75be 9c53 73be 3528 00be b569 cdbe
000000b0: 06e2 c3be 919b b8bd 7ab3 7c3e 6bbc 0bbe
000000c0: 3b40 f63d d29c c6be a041 10bd d250 783e
000000d0: d9be 3bbe 394a 9fbe dffc a2bc 71ad 773e
000000e0: cd8a 15be cbbf ba3d ce24 91be b9b1 a63c
000000f0: 5a48 bf3e f50d ba3e 9414 983e cf8e b33e
00000100: 2f2e 54be 0120 013e 2f26 00be ed1f 873e
00000110: 56f9 2fbe 904e d63d 277b af3d 053e afbd
00000120: 0fe6 d43e c03a 6eba 2ed3 203e 9b63 aebe
00000130: bd2c 91be 3316 9cbe 715f 793d 583b 8fbd
00000140: 76eb f2bd dc6a 75bd 4054 c5be c19f f33d
00000150: 95e9 933e 97f3 80be b2a2 cdbb 00ff 423d
00000160: f80a 58be 83a4 c6bb fb72 d8bd 1110 bbbd
00000170: b086 cbbe 64b0 5f3e b274 423e 8529 c4be
00000180: 3bcc 813e 1f38 c33e 55d1 263e e027 4cbe
00000190: fe4f 9d3e 1e8e c9be b0eb 5abe 3272 c83e
000001a0: 1217 c2be 90c9 20bd af8f d7bc 12cf d2be
000001b0: 5a33 c33d 6417 c4be 2138 ac3d d89a 66be
000001c0: ef90 adbe 029b 49be 2036 bfbe 6aa3 aabe
000001d0: 3056 75be 208f afbe 1f28 9a3e 0bd4 1dbe
000001e0: af9f 243e 43cd 04be f7c8 bcbe 1118 94be
000001f0: f190 313e 6e86 633e c04a 0abe d914 fd3d
00000200: 4960 d6be b49e 533e 0039 d1be 13a0 bb3e
00000210: 9a77 6e3e cea1 d33e 2f65 8d3e 10a7 a3be
00000220: b042 b0be 6c63 44be c8f6 253e 5c93 dbbd
00000230: 59d2 d9be 6a76 9d3e e1b4 c13e e76f 2fbe
00000240: 30bd 263e 895b 95be 0340 87be 3ef7 073c
00000250: 912c 303e 3998 76be 1f2f 1c3d 538c 333e
00000260: 4278 8c3e 0d09 ea3d b09c 8d3b f38c b63d
00000270: 8933 b93e d8b0 61be 4507 d5be 3ffd 563e
00000280: 327b ae3e 4406 cbbe 4312 dcbe 95b4 d83e
00000290: 24d2 3dbe 5dea 8bbe a95a 5a3e 4170 63be
000002a0: 1474 a03e 668e ffbc 828d 533c 6189 a73d
000002b0: 9646 8dbd 9877 8e3e e1f1 e4be f338 d9be
000002c0: 8f44 a4be e69d 86be c92f aabe 32c9 5b3e
000002d0: 54c3 bf3d fc28 8b3e a459 813e bef7 f6bd
000002e0: 3c7f 1d3e 7551 33be a58c 933d 2449 cd3d
000002f0: 114d 06be 378c a5be 7d17 90bd 6ea2 c53e
00000300: 72f0 323e aac9 babe 7cf2 0fbe 3795 bc3e
00000310: b6f3 e73e 52b7 26be bb28 d73e 0680 733c
00000320: 9a06 3e3e 1604 cbbe 5ae9 8dbe 282a 983d
00000330: f835 a9be 4791 95be 3f2c ce3e da03 66be
00000340: ff9d 2bbe 994c 59be c98c c53e 2286 1bbe
00000350: 3b33 a5be e228 853e a6c7 19be ed16 b7be
00000360: 2c7a 2ebe 20a7 d5be 4d4c 7f3e 7509 e93e
00000370: 1595 803e 6fbe d1be 4170 96bd 36c4 bfbe
00000380: b4c3 8abd ec16 953e 1334 bfbd 64bd e03e
00000390: 72e3 203e a65c 553e ec72 db3d f321 8ebd
000003a0: 6480 4fbe 9404 afbd 442c d8be ef85 c1be
000003b0: f461 41be c1da 203e 16ab 6dbe 17c2 1ebd
000003c0: ec25 9cbe 50e4 dfbd 76df b63d 445f f9bd
000003d0: 5ee6 833e 70c2 cebe 3071 1e3d ced9 bcbe
000003e0: bb10 003d 34b4 90bd 2f81 803c 9e5b 81be
000003f0: abf8 fa3e 5997 1bbe b06d bd3d 0814 c33e

bias f4 [64]
0.1628014 0.39670315 -0.16863355 0.19312993 -0.35127884 -0.32328627 0.30801952 -0.01276704
0.09453966 0.2821508 -0.43624246 0.3774848 0.32901406 0.2940795 0.052799027 -0.43474585
0.13132747 0.4423488 0.23496792 -0.082111344 -0.004920749 0.3660787 0.044426642 0.005786184
-0.33943036 -0.42321417 0.2276326 -0.35017562 -0.22983032 0.120296314 0.0015533045 -0.0720541
-0.38922608 0.09977041 0.0893914 -0.3885872 -0.3174436 -0.15456244 0.28247452 0.3689962
0.34424105 -0.12447088 -0.22007875 0.21768443 -0.2444542 0.18764114 -0.15943761 -0.04005287
0.18359469 0.36206552 -0.34405032 0.39364225 -0.005226921 -0.35783026 0.32644606 0.31144375
-0.05280635 0.034345515 0.22048797 -0.23300336 -0.27902752 0.04876672 -0.42284542 0.30970266
00000000: 69b5 263e ad1c cb3e 46ae 2cbe dac3 453e
00000010: d2da b3be c785 a5be bcb4 9d3e d92c 51bc
00000020: 029e c13d 1276 903e 2c5b dfbe b045 c13e
00000030: 8874 a83e 9791 963e cb43 583d 0297 debe
00000040: b57a 063e 8b7b e23e 6e9b 703e fe29 a8bd
00000050: 3c3e a1bb ab6e bb3e b6f8 353d 089a bd3b
00000060: d1c9 adbe 87af d8be 8518 693e 384a b3be
00000070: a458 6bbe ea5d f63d 4098 cb3a 1a91 93bd
00000080: a448 c7be 6e54 cc3d d712 b73d e7f4 c6be
00000090: f887 a2be 9e45 1ebe 80a0 903e 12ed bc3e
000000a0: 5d40 b03e 97ea febd 535c 61be abe8 5e3e
000000b0: 3452 7abe 0025 403e 9d43 23be 7a0e 24bd
000000c0: 3f00 3c3e a760 b93e 5d27 b0be 7a8b c93e
000000d0: 9746 abbb 8735 b7be f023 a73e 8e75 9f3e
000000e0: 794b 58bd e2ad 0c3d 99c7 613e 6f98 6ebe
000000f0: b2dc 8ebe 9dbf 473d 327f d8be 5991 9e3e

weight f4 [64]
1.0121032 1.0414598 1.0001738 1.0058798 1.0415713 0.9936845 0.96240073 1.0056673
1.031584 0.98836714 1.0155488 0.9937638 0.9970264 0.988707 1.0090972 0.98626727
0.9977917 1.0153412 1.0082116 0.99652267 0.9967049 0.98850816 1.0186201 0.9967082
1.0316455 0.99263614 0.9956782 1.0118092 1.0138519 0.99009275 0.97885746 1.0048267
0.99981123 1.0046389 1.0191131 0.9854221 0.9901082 1.001756 0.99077815 0.99717593
0.96998954 0.98601454 0.9845439 0.98927855 0.98943573 1.0307244 0.98952633 0.9975435
1.0360718 1.0092094 0.99966717 1.0229658 1.0364308 0.98653144 0.97171503 0.99282044
0.9479185 1.0208012 0.99131423 0.98178494 0.94169533 1.0186427 0.98949206 1.0124521
00000000: 998c 813f 8e4e 853f b205 803f abc0 803f
00000010: 3552 853f 1b62 7e3f e55f 763f b5b9 803f
00000020: f20a 843f a105 7d3f 81fd 813f 4e67 7e3f
00000030: 1f3d 7f3f e71b 7d3f 192a 813f 037c 7c3f
00000040: 476f 7f3f b3f6 813f 140d 813f 1c1c 7f3f
00000050: 0d28 7f3f df0e 7d3f 2562 823f 4528 7f3f
00000060: f60c 843f 671d 7e3f c4e4 7e3f f782 813f
00000070: e6c5 813f b876 7d3f 6796 7a3f 299e 803f
00000080: a1f3 7f3f 0298 803f 4c72 823f 9f44 7c3f
00000090: bb77 7d3f 8a39 803f a3a3 7d3f ec46 7f3f
000000a0: 3c51 783f 736b 7c3f 120b 7c3f 5c41 7d3f
000000b0: a94b 7d3f c7ee 833f 9951 7d3f 035f 7f3f
000000c0: 009e 843f c62d 813f 30ea 7f3f 8bf0 823f
000000d0: c4a9 843f 538d 7c3f 51c2 783f 7b29 7e3f
000000e0: c9aa 723f 9da9 823f c5c6 7d3f 4256 7b3f
000000f0: f212 713f e262 823f 5a4f 7d3f 0898 813f

bias f4 [64]
0.021123286 0.00073761906 0.0044170404 -0.02819058 0.013434513 -0.012282555 -0.03556402 -0.0108463485
-0.0043229447 -0.021689579 0.002073095 -0.017667046 0.00866275 -0.03646552 -0.02607692 -0.03878849
-0.001260662 -0.0127791315 -0.02554419 0.002724334 -0.006023488 -0.018188193 0.016175464 -0.007823351
0.015629567 -0.029422332 -0.021489624 0.0056096287 0.0053769243 -0.016024191 -0.02190216 -0.0030059
-0.040779322 -0.02506708 -0.0107642785 -0.027830318 -0.023267623 -0.009663735 -0.00924104 -0.015616788
-0.025968017 -0.026581917 0.0051353327 -0.01974231 -0.029262763 0.013741668 -0.02090453 -0.02835531
-0.027397227 -0.0021429819 -0.015549571 0.023137651 -0.0044109803 -0.01385201 -0.016423456 -0.02166132
-0.03647935 -0.00059742224 -0.014499118 -0.0033047404 -0.039824102 0.016209947 -0.0147623485 -0.0055669076
00000000: be0a ad3c c75c 413a d2bc 903b eeef e6bc
00000010: 6e1c 5c3c c53c 49bc 94ab 11bd e2b4 31bc
00000020: 7da7 8dbb 58ae b1bc c3dc 073b 7bba 90bc
00000030: 35ee 0d3c de5c 15bd 449f d5bc aee0 1ebd
00000040: cc3c a5ba 905f 51bc 0d42 d1bc bd8a 323b
00000050: ae60 c5bb 68ff 94bc 6882 843c 832d 00bc
00000060: 9409 803c 1a07 f1bc 020b b0bc fad0 b73b
00000070: e930 b03b 2a45 83bc 296c b3bc a2fe 44bb
00000080: 3808 27bd 7a59 cdbc a85c 30bc 68fc e3bc
00000090: be9b bebc a454 1ebc bb67 17bc 8edd 7fbc
000000a0: e1ba d4bc 52c2 d9bc 4b46 a83b a0ba a1bc
000000b0: 76b8 efbc bc24 613c fa3f abbc 6549 e8bc
000000c0: 2670 e0bc 4571 0cbb a1c3 7ebc 2c8b bd3c
000000d0: fc89 90bb 8af3 62bc 7c8a 86bc 1573 b1bc
000000e0: 5f6b 15bd 549c 1cba b58d 6dbc 5894 58bb
000000f0: 991e 23bd b9ca 843c c7dd 71bc 9b6a b6bb

running_mean f4 [64]
0.04712026 0.38366637 -0.096018165 0.21725996 -0.28732845 -0.38396734 0.4357354 -0.009688269
0.18531549 0.3482144 -0.37378332 0.3419581 0.27480462 0.25620523 0.00023707934 -0.38905728
0.1270552 0.5002284 0.22652583 -0.0073775263 -0.08238113 0.41244859 0.07295784 0.04304197
-0.3536424 -0.46061912 0.26091197 -0.32318905 -0.14660469 0.15209426 -0.010536408 -0.029511739
-0.4830054 0.15031466 0.11275288 -0.32567745 -0.32282215 -0.08412088 0.36363748 0.31761873
0.31178856 0.0016977717 -0.29370064 0.21993646 -0.28287306 0.081308745 -0.13172057 0.022941034
0.20935428 0.4520674 -0.38455915 0.3394263 0.00923928 -0.32058904 0.24536714 0.275717
-0.028954282 0.07171631 0.271154 -0.23236206 -0.31716198 0.07554425 -0.41896448 0.28439897
00000000: 2c01 413d eb6f c43e 2ca5 c4bd 6579 5e3e
00000010: b71c 93be 5e97 c4be b618 df3e 8cbb 1ebc
00000020: 58c3 3d3e 2849 b23e 8760 bfbe 2215 af3e
00000030: 31b3 8c3e 552d 833e 8098 7839 8432 c7be
00000040: c21a 023e f80e 003f 63f6 673e 2dbf f1bb
00000050: 70b7 a8bd 762c d33e ec6a 953d c74c 303d
00000060: 9e10 b5be 45d6 ebbe 4196 853e 0979 a5be
00000070: 8a1f 16be 99be 1b3e e6a0 2cbc 9ac2 f1bc
00000080: 7c4c f7be 16ec 193e fbea e63d 32bf a6be
00000090: f248 a5be 9147 acbd b12e ba3e ec9e a23e
000000a0: c0a2 9f3e c487 de3a ee5f 96be 0637 613e
000000b0: bdd4 90be 3385 a63d c2e1 06be d6ee bb3c
000000c0: f860 563e 6175 e73e f0e4 c4be 49c9 ad3e
000000d0: 5960 173c 3f24 a4be 8641 7b3e c72a 8d3e
000000e0: 8831 edbc 00e0 923d b2d4 8a3e 52f0 6dbe
000000f0: 0e63 a2be f2b6 9a3d 8382 d6be be9c 913e

running_var f4 [64]
0.18198392 0.08300966 0.086888865 0.09798262 0.10432165 0.12081039 0.1573164 0.06713931
0.13806413 0.083296396 0.057313405 0.056857146 0.17243716 0.04473322 0.063826695 0.09973184
0.08919946 0.035899196 0.09103327 0.15925846 0.2081799 0.105135106 0.11501138 0.13730264
0.1031181 0.10339735 0.20394064 0.09719184 0.17381252 0.07503009 0.04343141 0.12166115
0.25066715 0.08804053 0.095953204 0.16314226 0.066553734 0.05891575 0.1254408 0.15967521
0.1369301 0.12052256 0.12771417 0.19785321 0.13344371 0.10882014 0.07506983 0.076281615
0.056873266 0.097449414 0.09626746 0.15156306 0.046128213 0.058528278 0.13685977 0.06948039
0.0851979 0.09008441 0.112294964 0.061974656 0.06821869 0.067942806 0.09818622 0.10193425
00000000: fe59 3a3e f800 aa3d caf2 b13d 1dab c83d
00000010: 97a6 d53d 706b f73d 8d17 213e 5680 893d
00000020: af60 0d3e 4d97 aa3d 76c1 6a3d 0ae3 683d
00000030: 5e93 303e 2e3a 373d 92b7 823d 3540 cc3d
00000040: 35ae b63d 090b 133d a76f ba3d a614 233e
00000050: 1d2d 553e 1351 d73d 168b eb3d 1099 0c3e
00000060: 952f d33d fdc1 d33d d1d5 503e 840c c73d
00000070: e9fb 313e 60a9 993d 22e5 313d 7b29 f93d
00000080: 7257 803e 984e b43d 1d83 c43d c40e 273e
00000090: 534d 883d a451 713d 8e73 003e e681 233e
000000a0: 6737 0c3e 88d4 f63d 81c7 023e 089a 4a3e
000000b0: 78a5 083e 18dd de3d 36be 993d 8939 9c3d
000000c0: f1f3 683d 8f93 c73d e027 c53d 5933 1b3e
000000d0: f0f0 3c3d 59bb 6f3d f824 0c3e bc4b 8e3d
000000e0: 3d7c ae3d 2d7e b83d e7fa e53d 23d9 7d3d
000000f0: 3eb6 8b3d 9925 8b3d db15 c93d e7c2 d03d

weight f4 [64, 64]
0.038516644 -0.09084142 -0.08669852 0.01597107 -0.048488032 0.01704663 0.016874708 -0.09876484
0.007740666 -0.08684924 -0.08110122 -0.08828872 0.100778565 -0.030770205 -0.18717816 -0.1358238
0.03435138 -0.0867686 -0.0041577565 -0.012062487 0.091061495 -0.022482604 0.10745676 -0.04286851
-0.077185936 0.04420646 0.027937597 0.046429932 -0.06891409 0.0077582174 -0.1338816 -0.06563223
0.05232841 0.099316195 0.04300433 -0.028548187 0.03559768 0.033759914 0.10997178 -0.06949232
0.073484756 0.11778207 0.102363795 0.10116615 0.09813365 -0.17107984 0.053363506 0.13685557
0.05910555 0.06036218 -0.13064454 -0.00817655 -0.07954188 0.030071652 -0.11574067 0.046376776
-0.13454062 -0.05172723 0.032129083 -0.053795755 0.05194607 -0.113148235 -0.007268463 0.028331721
0.047987677 0.14081936 0.092882715 -0.14109056 -0.10397529 0.07025533 -0.10672147 0.03392253
-0.025907438 -0.11212214 0.02041725 0.059110887 0.020236244 0.10469386 0.0827206 0.057244904
0.11242958 -0.08511813 -0.038470697 -0.036003355 -0.06974329 -0.07369036 -0.09412447 0.09846904
-0.004335805 0.06447805 -0.11192809 0.004373425 0.0027360062 0.08737558 -0.0849169 -0.03694564
-0.10559325 -0.068254724 -0.050083324 -0.033364058 0.00823551 -0.07348493 -0.013790957 -0.035636995
0.047231127 0.03373868 -0.030676499 0.0041309944 0.06001481 0.05772647 -0.076517716 -0.10939111
0.029947607 -0.06932679 -0.018390683 0.10453644 -0.07016356 -0.036110472 0.03129076 -0.02100659
0.08431986 0.08773128 -0.0041910913 -0.018303804 0.041018695 0.00030278726 0.01852132 -0.016178349
-0.00019299719 -0.06348117 -0.08386316 -0.014581152 -0.060958255 0.056773197 -0.08612535 0.11782847
0.13720223 0.019649375 -0.06546519 0.031897705 0.07822227 0.017346554 0.08264142 0.041213565
0.047805496 -0.09497646 -0.14923337 -0.097786054 -0.020529201 -0.10140049 -0.06378032 -0.11964273
0.00797905 -0.012060246 -0.05205079 -0.15609695 0.028559979 -0.0155022945 0.033543434 0.016548513
-0.08905514 -0.035817467 0.002323551 -0.014273708 -0.07941901 -0.038685665 -0.027900442 0.07021253
-0.008640379 -0.1322766 -0.073267765 -0.037735652 -0.00061471586 -0.047734525 -0.03628612 0.04999007
-0.095210046 -0.052308135 0.100723684 0.0964385 0.0008486124 0.037809625 -0.079083465 -0.07807225
-0.00820735 -0.041790318 0.06550079 0.027310958 0.046602327 -0.06097234 -0.078102045 -0.04741098
-0.113356315 0.14449193 -0.057255205 0.018285643 0.0008834696 0.13921356 0.10920419 -0.092570275
0.0951005 0.05867111 -0.09641057 0.09036214 0.083804704 -0.096596755 0.064279996 -0.01580655
0.084006675 -0.054841314 0.05848739 0.014294997 0.11589318 -0.06138673 -0.078837514 0.06670089
0.09515387 0.051069267 0.0103097 0.007812843 -0.013487738 0.10236431 -0.106523894 -0.032993287
-0.10016634 -0.044170294 0.079143494 -0.08919067 -0.039365612 0.06739786 -0.059630677 -0.08727443
0.09185683 -0.037028186 -0.012896834 0.089975975 -0.07584307 0.11467996 -0.11017464 0.045986157
0.085015744 0.02675067 -0.052987173 -0.087187015 -0.11120335 -0.060326982 0.017182453 0.13315766
-0.0827912 0.078461 -0.0458825 0.11873639 0.047978174 0.0022447114 -0.09536664 -0.04251102
00000000: a1c3 1d3d 110b babd fe8e b1bd c3d5 823c
00000010: 639b 46bd 60a5 8b3c d43c 8a3c 3845 cabd
00000020: 6aa5 fd3b 04de b1bd 6518 a6bd b7d0 b4bd
00000030: fe64 ce3d cc11 fcbc a2ab 3fbe 6515 0bbe
00000040: 08b4 0c3d bcb3 b1bd ca3d 88bb bda1 45bc
00000050: 737e ba3d 702d b8bc 4a12 dc3d e496 2fbd
00000060: a913 9ebd d511 353d 63dd e43c 502d 3e3d
00000070: d522 8dbd a538 fe3b 4218 09be 316a 86bd
00000080: 5156 563d 4a66 cb3d 4f25 303d e3dd e9bc
00000090: dfce 113d d647 0a3d e238 e13d fd51 8ebd
000000a0: 2d7f 963d ba37 f13d 1ca4 d13d 3330 cf3d
000000b0: 4cfa c83d 8e2f 2fbe b193 5a3d de23 0c3e
000000c0: a918 723d 553e 773d afc7 05be f0f6 05bc
000000d0: dae6 a2bd d358 f63c 7209 edbd 93f5 3d3d
000000e0: 04c5 09be efdf 53bd c999 033d f058 5cbd
000000f0: 67c5 543d 43ba e7bd 492c eebb ed17 e83c
00000100: ba8e 443d f332 103e 4b39 be3d 0b7a 10be
00000110: fff0 d4bd 07e2 8f3d c990 dabd 5af2 0a3d
00000120: d63b d4bc 4ba0 e5bd 1442 a73c 421e 723d
00000130: 7bc6 a53c bc69 d63d 6b69 a93d a279 6a3d
00000140: 7b41 e63d 6a52 aebd 7393 1dbd 4178 13bd
00000150: 92d5 8ebd f9ea 96bd 55c4 c0bd 23aa c93d
00000160: 5e13 8ebb 110d 843d 8e3a e5bd f34e 8f3b
00000170: 914e 333b f8f1 b23d e9e8 adbd 5054 17bd
00000180: 4641 d8bd 22c9 8bbd 2c24 4dbd c0a8 08bd
00000190: 3cee 063c 447f 96bd 77f3 61bc 19f8 11bd
000001a0: 6d75 413d 9231 0a3d 484d fbbc 4b5d 873b
000001b0: 17d2 753d 9772 6c3d 52b5 9cbd 7208 e0bd
000001c0: af54 f53c 34fb 8dbd 0fa8 96bc 3317 d63d
000001d0: eab1 8fbd 93e8 13bd bd2a 003d 0316 acbc
000001e0: e4af ac3d 75ac b33d 6c55 89bb dcf1 95bc
000001f0: 3803 283d 6bbf 9e39 06ba 973c 7588 84bc
00000200: 4a5f 4ab9 6a02 82bd 73c0 abbd c9e5 6ebc
00000210: 5daf 79bd 038b 683d 7d62 b0bd 0e50 f13d
00000220: be7e 0c3e baf7 a03c 9d12 86bd 2ba7 023d
00000230: ff32 a03d 5c1a 8e3c e83f a93d 8ecf 283d
00000240: b2cf 433d 0583 c2bd a2d0 18be 0e44 c8bd
00000250: db2c a8bc 0fab cfbd 429f 82bd 3f07 f5bd
00000260: 90ba 023c 5798 45bc 3633 55bd e1d7 1fbe
00000270: 9ef6 e93c 56fd 7dbc d764 093d bf90 873c
00000280: 8b62 b6bd 56b5 12bd b846 183b 45dc 69bc
00000290: 6fa6 a2bd dc74 1ebd 788f e4bc 96cb 8f3d
000002a0: 6090 0dbc 8473 07be 690d 96bd b390 1abd
000002b0: e224 21ba 4785 43bd c1a0 14bd 63c2 4c3d
000002c0: 7cfd c2bd 0e41 56bd 3848 ce3d 8c81 c53d
000002d0: 6a75 5e3a 44de 1a3d 83f6 a1bd 58e4 9fbd
000002e0: 1f78 06bc 532c 2bbd 4725 863d 3bbb df3c
000002f0: 15e2 3e3d 22be 79bd f7f3 9fbd 0432 42bd
00000300: 5b27 e8bd b1f5 133e 6f84 6abd c6cb 953c
00000310: a498 673a 008e 0e3e 72a6 df3d 7c95 bdbd
00000320: 0dc4 c23d 1e51 703d e872 c5bd c90f b93d
00000330: cda1 ab3d 85d4 c5bd 3ba5 833d bd7c 81bc
00000340: b10b ac3d 49a1 60bd 7990 6f3d 9035 6a3c
00000350: 6759 ed3d a770 7bbd 9075 a1bd 7a9a 883d
00000360: 08e0 c23d 022e 513d 04ea 283c 7001 003c
00000370: acfb 5cbc 61a4 d13d 3329 dabd f823 07bd
00000380: 0324 cdbd e9eb 34bd fc15 a23d 99a9 b6bd
00000390: d63d 21bd e407 8a3d 4c3f 74bd f0bc b2bd
000003a0: 6f1f bc3d deaa 17bd 3e4d 53bc 5345 b83d
000003b0: 9d53 9bbd 54dd ea3d 3ea3 e1bd fb5b 3c3d
000003c0: bc1c ae3d 3924 db3c 1409 59bd 1b8f b2bd
000003d0: 95be e3bd 6d19 77bd 37c2 8c3c 7b5a 083e
000003e0: 6f8e a9bd 29b0 a03d 4aef 3bbd 102c f33d
000003f0: c384 443d 021c 133b 964f c3bd 0920 2ebd

bias f4 [64]
0.013572413 -0.018872242 0.121364854 -0.062298823 -0.10935623 0.052130442 0.081068 0.07059583
-0.10138115 0.10589328 0.07133355 -0.0670289 0.019156178 0.10137014 -0.037042566 0.121156126
-0.041796263 0.108744405 0.0033786113 -0.06854769 -0.101290815 -0.09939078 -0.124091566 0.08085574
-0.047302272 -0.08124339 -0.0894656 -0.11793308 -0.019526424 -0.11452367 0.022253359 0.032343477
0.058894776 0.04732103 0.05870134 0.039707176 -0.042793963 0.106406026 -0.093488 -0.008940776
-0.07453107 -0.052318335 -0.09849252 -0.030654188 -0.013822229 0.022190696 -0.118699305 0.11390201
0.09920031 0.03608518 -0.011068101 -0.007781518 0.099091664 0.0015696703 -0.024914157 -0.11137726
-0.08895625 -0.04714507 0.07535172 -0.106575094 0.099332556 0.11352203 0.016997369 0.03390174
00000000: d35e 5e3c f699 9abc 238e f83d 0d2d 7fbd
00000010: 29f6 dfbd bb86 553d fb06 a63d 8c94 903d
00000020: eca0 cfbd 93de d83d 5317 923d 7346 89bd
00000030: 6bed 9c3c 269b cf3d f2b9 17bd b420 f83d
00000040: 8f32 2bbd 63b5 de3d b16b 5d3b bb62 8cbd
00000050: 8f71 cfbd 658d cbbd b823 febd b297 a53d
00000060: 07c0 41bd ef62 a6bd be39 b7bd e686 f1bd
00000070: e1f5 9fbc 638b eabd ad4c b63c 987a 043d
00000080: a63b 713d b2d3 413d d170 703d fea3 223d
00000090: b948 2fbd 67eb d93d a376 bfbd 557c 12bc
000000a0: bfa3 98bd c04b 56bd 72b6 c9bd 7e1e fbbc
000000b0: a176 62bc 43c9 b53c 9f18 f3bd 7545 e93d
000000c0: 8829 cb3d 0ece 133d fb56 35bc 1bfc febb
000000d0: 92f0 ca3d 65bd cd3a c618 ccbc c319 e4bd
000000e0: b22e b6bd 301b 41bd 0152 9a3d 0b44 dabd
000000f0: de6e cb3d 3d7e e83d 113e 8b3c 8ddc 0a3d

weight f4 [64]
0.9567992 0.97450083 0.9075272 0.95410234 0.9826868 0.9735153 0.9779667 0.9423565
0.9904956 0.9437539 0.94468874 0.9657605 0.986867 0.99326545 0.9736928 0.94169354
0.9124924 0.9286212 0.99162453 0.95003635 0.9135509 0.9583063 0.9750893 0.9286022
0.97123003 0.93664664 0.94116384 0.9594006 0.9298313 0.9174631 1.0055603 0.94113064
0.985971 0.9148818 1.0069788 0.99906623 0.93895954 0.98155224 0.91635495 0.9663954
0.9699108 0.92950886 0.98255867 0.92504674 0.94748986 0.95278394 0.97366273 0.9379428
0.9538518 0.9599442 0.9652177 0.9821268 0.9180617 0.9781362 0.9136318 0.9379734
0.9545399 0.9512735 0.9207162 0.98528886 0.9479211 0.9298366 0.9372082 0.9590769
00000000: cbf0 743f e378 793f b453 683f 0d40 743f
00000010: 5d91 7b3f 4c38 793f 075c 7a3f 473e 713f
00000020: 1f91 7d3f db99 713f 1fd7 713f 153c 773f
00000030: 51a3 7c3f a546 7e3f ee43 793f d412 713f
00000040: 1a99 693f 1eba 6d3f 1bdb 7d3f 9535 733f
00000050: 79de 693f 9053 753f 749f 793f e0b8 6d3f
00000060: 88a2 783f 13c8 6f3f 1df0 703f 479b 753f
00000070: 6d09 6e3f ddde 6a3f 33b6 803f f0ed 703f
00000080: 9868 7c3f b235 6a3f aee4 803f cec2 7f3f
00000090: a75f 703f 0247 7b3f 3d96 6a3f b065 773f
000000a0: 134c 783f 4bf4 6d3f f788 7b3f ddcf 6c3f
000000b0: b28e 723f a6e9 733f f641 793f 051d 703f
000000c0: a22f 743f e7be 753f 8218 773f a96c 7b3f
000000d0: 1706 6b3f 2267 7a3f c6e3 693f 061f 703f
000000e0: ba5c 743f a986 733f 0fb4 6b3f e43b 7c3f
000000f0: f5aa 723f c509 6e3f e0ec 6f3f 1086 753f

bias f4 [64]
-0.057714045 -0.060978767 -0.09730095 -0.0059557953 -0.036066927 -0.09480849 0.0018356591 -0.034244567
0.001608585 -0.078767955 -0.06932502 -0.0638272 -0.019380229 0.032027185 -0.006816891 -0.05012868
-0.02732934 -0.025399007 -0.054020815 0.004948625 -0.10145228 0.006814187 0.028246054 -0.0401781
-0.03384271 -0.06525122 -0.07169482 -0.036573347 -0.028983919 -0.08638953 0.0018047981 -0.043507047
-0.05614406 -0.06994055 0.00395937 -0.02350883 -4.023104e-05 -0.032118574 -0.051984794 -0.00944122
0.0119522 -0.02727908 -0.017563062 -0.049226407 -0.027990473 -0.049999483 0.0052427705 -0.024737554
-0.015070202 -0.012334284 -0.046531163 -0.0823124 -0.07434335 -0.011583515 -0.036619987 -0.06153735
-0.061824236 -0.050463133 -0.07318505 -0.03037348 -0.04704805 -0.051887684 -0.030134553 -0.023722287
00000000: 9065 6cbd dfc4 79bd b845 c7bd d528 c3bb
00000010: eaba 13bd f42a c2bd 809a f03a 0844 0cbd
00000020: 28d7 d23a 1851 a1bd 47fa 8dbd d6b7 82bd
00000030: 49c3 9ebc f02e 033d 3a60 dfbb bb53 4dbd
00000040: c8e1 dfbc 9411 d0bc ee44 5dbd 1328 a23b
00000050: 37c6 cfbd 8b49 df3b 4564 e73c cb91 24bd
00000060: a79e 0abd 6ea2 85bd bcd4 92bd efcd 15bd
00000070: af6f edbc feec b0bd fa8e ec3a 7234 32bd
00000080: 50f7 65bd fe3c 8fbd 9abd 813b 9795 c0bc
00000090: c0bd 28b8 c48e 03bd 02ee 54bd 59af 1abc
000000a0: 29d3 433c 6178 dfbc 69e0 8fbc a1a1 49bd
000000b0: 474c e5bc 42cc 4cbd 8ccb ab3b 69a6 cabc
000000c0: 02e9 76bc bd15 4abc 7697 3ebd 6793 a8bd
000000d0: 5441 98bd c9c8 3dbc d7fe 15bd 970e 7cbd
000000e0: 693b 7dbd 6eb2 4ebd 0be2 95bd ced1 f8bc
000000f0: 75b5 40bd 2e88 54bd bddc f6bc 3e55 c2bc

running_mean f4 [64]
-0.20146035 -0.11643881 -0.3506945 0.0692786 -0.36131904 -0.24597287 -0.19644117 0.38456506
-0.42574358 0.09672133 0.21497019 0.18955065 0.36891094 0.13239883 0.03841958 -0.48363268
-0.3302159 0.050959542 -0.24767846 -0.01649418 -0.5250675 -0.22309798 0.02826328 -0.07002024
-0.32921663 0.032880086 0.051185373 0.26754537 -0.01993129 -0.23864591 0.04937063 -0.26938075
-0.17212558 0.07661039 0.13353094 0.12559845 0.09732088 -0.046490174 0.027789662 -0.13142262
0.06801291 -0.39963803 -0.4679771 0.2618474 0.11318799 -0.3498497 0.17761967 -0.12432191
0.28184894 -0.22011891 -0.15734172 -0.33504677 0.101379335 0.19314314 0.23581451 -0.015709208
0.17225213 -0.4946862 -0.18703002 -0.812536 0.0032213104 0.10420857 0.20060226 0.13801031
00000000: 9f4b 4ebe 7977 eebd 3b8e b3be f0e1 8d3d
00000010: cffe b8be 50e0 7bbe e027 49be b6e5 c43e
00000020: 10fb d9be d515 c63d 2521 5c3e 9119 423e
00000030: e5e1 bc3e 8f93 073e d95d 1d3d b49e f7be
00000040: 0f12 a9be f4ba 503d 6c9f 7dbe cd1e 87bc
00000050: d36a 06bf cc73 64be 6588 e73c c666 8fbd
00000060: 158f a8be 45ad 063d c1a7 513d b5fb 883e
00000070: f246 a3bc 985f 74be dc38 4a3d 46ec 89be
00000080: b041 30be e8e5 9c3d 56bc 083e e19c 003e
00000090: 2b50 c73d 7b6c 3ebd 25a7 e33c a793 06be
000000a0: 5a4a 8b3d 5b9d ccbe b29a efbe dd10 863e
000000b0: 1bcf e73d 801f b3be eee1 353e 7c9c febd
000000c0: 814e 903e da66 61be 301e 21be 408b abbe
000000d0: f89f cf3d 51c7 453e 5c79 713e 99b0 80bc
000000e0: dd62 303e 8247 fdbe cc84 3fbe 5c02 50bf
000000f0: 9f1c 533b 4e6b d53d ae6a 4d3e 9352 0d3e

running_var f4 [64]
0.24121262 0.2980326 0.32781988 0.18911898 0.29430377 0.2719657 0.18853195 0.22338629
0.14276236 0.46024427 0.23261465 0.22302216 0.18005495 0.33849594 0.15994643 0.25979838
0.22350852 0.13194384 0.24293736 0.3480502 0.20611705 0.2129704 0.16336374 0.19287288
0.26322412 0.25083712 0.43755805 0.27632526 0.25100252 0.24652095 0.18829231 0.3388468
0.24794813 0.1784505 0.17041567 0.5392324 0.12909429 0.2873396 0.1985299 0.09562618
0.2464338 0.25332808 0.27042085 0.38975543 0.15633418 0.15627737 0.16091374 0.24180673
0.13233964 0.42140222 0.24262096 0.30309966 0.1421859 0.24174936 0.21461265 0.4579223
0.1986732 0.30751166 0.3622646 0.19786951 0.5287208 0.14341341 0.25067118 0.14890732
00000000: 7100 773e bb97 983e 02d8 a73e 68a8 413e
00000010: fcae 963e 173f 8b3e 850e 413e 60bf 643e
00000020: 4c30 123e 23a5 eb3e 8932 6e3e ec5f 643e
00000030: 5360 383e 574f ad3e ffc8 233e 4b04 853e
00000040: 6bdf 643e 491c 073e 92c4 783e a333 b23e
00000050: 5910 533e ea14 5a3e d348 273e 7880 453e
00000060: 50c5 863e b96d 803e 9c07 e03e 817a 8d3e
00000070: 6783 803e fd6f 7c3e b3cf 403e 547d ad3e
00000080: 1de6 7d3e babb 363e 7281 2e3e 220b 0a3f
00000090: 4b31 043e 2d1e 933e 6c4b 4b3e a9d7 c33d
000000a0: 2459 7c3e 38b4 813e 9a74 8a3e 068e c73e
000000b0: 1116 203e 2d07 203e 92c6 243e 2f9c 773e
000000c0: 0b84 073e 08c2 d73e a171 783e e12f 9b3e
000000d0: 2e99 113e 258d 773e 6bc3 5b3e cb74 ea3e
000000e0: fd70 4b3e 2b72 9d3e bf7a b93e 4e9e 4a3e
000000f0: 3f5a 073f f7da 123e f957 803e 297b 183e

weight f4 [1, 64]
-0.007520185 0.01913989 -0.019025087 0.004622674 -0.009231012 -0.028312039 0.008746084 0.007625717
6.030973e-05 0.024993403 -0.011577878 0.0020068248 0.010835085 -0.01064927 -0.0021338859 0.031188468
-0.012710649 0.008427244 -0.010843588 0.0065154657 -0.017744012 -0.0064787506 -0.014724486 0.016169513
-0.0006960932 -0.019260252 0.015483931 -0.01303699 -0.019074548 -0.02293407 0.011086921 -0.022220116
-0.008607583 0.01068451 0.012911017 0.02200875 0.009664507 0.009937388 -0.021772405 -0.0015548227
0.010253843 0.012257904 0.017072212 -0.020963836 0.0018846007 -0.008056173 0.008920256 -0.012483054
0.011401281 0.013894793 0.006133583 0.020251522 0.013165663 0.0152275 -0.012588621 -0.028970845
0.010365229 -0.010192229 -0.014827805 0.010663124 -0.015024636 -0.0003482354 -0.0077963094 -0.0021277156
00000000: e26b f6bb 42cb 9c3c 80da 9bbc cd79 973b
00000010: ac3d 17bc a6ee e7bc bc4b 0f3c 27e1 f93b
00000020: 14f5 7c38 f7be cc3c 24b1 3dbc ef84 033b
00000030: a485 313c 477a 2ebc aad8 0bbb f57e ff3c
00000040: 5340 50bc 6c12 0a3c 4ea9 31bc b07f d53b
00000050: e45b 91bc b34b d4bb f83e 71bc ed75 843c
00000060: 067a 36ba adc7 9dbc 50b0 7d3c 1999 55bc
00000070: 3a42 9cbc 3be0 bbbc eba5 353c f606 b6bc
00000080: d206 0dbc 150e 2f3c bb88 533c b24b b43c
00000090: e157 1e3c 6dd0 223c 0b5c b2bc 31cb cbba
000000a0: bcff 273c 60d5 483c 06db 8b3c 5abc abbc
000000b0: b504 f73a 0afe 03bc 4426 123c b985 4cbc
000000c0: 70cc 3a3c fca6 633c 39fc c83b 85e6 a53c
000000d0: cbb4 573c c47c 793c 8140 4ebc 4454 edbc
000000e0: ecd2 293c 4ffd 26bc 52f0 72bc 62b4 2e3c
000000f0: e429 76bc 5d93 b6b9 2f78 ffbb 2571 0bbb
