Industrial Equipment/mlruns/0/0ce9ac40fdd24946bbb4b08b353814f6/artifacts/discriminator_model/data/model.pth (torch, 30142 bytes, 13 tensors)

weight f4 [64, 5]
0.23661624 0.3742147 -0.105087556 -0.114989385 0.35219654 0.30346784 0.25475815 -0.3978054
0.43105704 -0.35487744 -0.33953404 0.11459851 0.3800772 0.19080399 0.035038114 0.22165494
-0.40044412 0.16204302 0.12828933 0.38051307 -0.2638092 0.45585304 0.04981147 -0.16384256
0.43458447 -0.08667075 -0.27317113 0.2527622 -0.04052961 0.33693215 -0.25905097 0.2902154
0.18802197 -0.13819534 0.005199932 -0.012898057 0.09360004 -0.2385512 -0.3635232 0.03148879
0.12078905 0.31917727 0.1331653 0.29902145 -0.19639389 0.124231905 -0.4134832 -0.039691236
-0.33563313 0.2265725 0.29316953 0.2815075 0.12828799 -0.3741843 -0.3150987 0.0731543
-0.21996057 -0.41582885 0.4663926 -0.24635477 0.0180759 0.38170314 -0.02818389 0.40381983
0.06341512 0.28493062 0.057791453 -0.10064378 -0.34762204 -0.23941374 0.3884161 -0.3824293
0.087074935 0.04574684 0.4551222 -0.39368403 -0.07829034 -0.21985611 -0.1971047 0.11582036
0.16531333 -0.39162454 0.2462301 -0.29566112 -0.23460667 0.25641108 0.23810165 -0.13401276
-0.004649773 -0.13612002 -0.31118742 0.26090455 0.05622101 0.06939297 -0.10405886 -0.22739328
-0.35880145 -0.13580146 0.42339066 -0.3217663 0.23181064 -0.40353802 -0.061944712 -0.14304915
-0.045718145 -0.4058125 -0.10733023 -0.1977882 -0.33860874 0.26581478 -0.43241483 -0.0016728335
0.41485745 -0.19167824 -0.4450297 -0.045616996 0.18294877 0.3431124 0.36600682 0.41384876
0.014488846 0.38037804 -0.14633617 0.16388872 0.11366828 -0.11924115 -0.029098392 0.234132
0.27928272 -0.23823911 0.15174805 0.00606816 0.33232513 0.009201643 -0.09697069 -0.29980674
-0.24870826 -0.4688907 -0.04800489 -0.08877164 0.43676123 -0.32642928 -0.37894928 0.3576623
0.09963225 0.1475164 -0.3509079 0.17187864 -0.04062663 -0.13566098 0.0895792 -0.030316617
-0.30521378 -0.39154688 -0.018762685 0.25114757 -0.11011609 -0.42251426 -0.211344 0.0034605472
-0.46164453 -0.16174896 0.14210157 0.30949217 0.047861964 -0.17694654 -0.33053604 0.2711932
-0.079882145 -0.09361328 5.9677135e-05 -0.37661502 -0.32161728 0.2204129 -0.19091937 -0.20029172
-0.049318314 0.10174419 0.3843677 0.3160685 0.17734149 -0.3129741 -0.2563796 -0.39430273
0.24082854 -0.27199784 0.1710479 0.004467723 -0.1739193 -0.36227703 -0.030772276 -0.36207142
0.26139957 -0.19967847 0.3363779 -0.25456858 0.38428223 0.41798067 0.21391702 0.16080017
0.07357032 0.3388617 -0.08165623 -0.13556898 -0.23837294 -0.11806785 -0.18353309 0.45554057
-0.17226806 0.32378632 0.005258111 -0.30158177 -0.42794287 -0.29465002 -0.2650616 0.14661029
0.3397897 -0.032288373 0.33262846 -0.2009928 0.24448466 -0.1567332 0.3268996 0.09742178
0.072652675 -0.21817759 0.12143772 -0.45617232 -0.15742564 0.15612769 0.20671698 -0.4347754
-0.41167116 0.15412314 0.13967802 -0.46560404 0.051108472 0.38225856 -0.26050988 0.086849
-0.38577494 0.06836529 0.11227918 -0.2166493 0.038756955 -0.12598024 0.114498414 0.024575513
0.0721232 0.27815425 -0.11462888 -0.039735653 -0.23824528 0.26488143 -0.19143637 -0.15366855
00000000: 874b 723e 1299 bf3e 2538 d7bd 8e7f ebbd
00000010: 1b53 b43e 2360 9b3e a96f 823e 26ad cbbe
00000020: 82b3 dc3e 7fb2 b5be 68d7 adbe a0b2 ea3d
00000030: 7b99 c23e 1f62 433e 2084 0f3d 83f9 623e
00000040: 0307 cdbe 9bee 253e 475e 033e 9cd2 c23e
00000050: 0012 87be 9265 e93e 1d07 4c3d 58c6 27be
00000060: db81 de3e 6f80 b1bd 16dd 8bbe 0c6a 813e
00000070: 6002 26bd 5f82 ac3e 54a2 84be 1d97 943e
00000080: d588 403e 1483 0dbe 3164 aa3b 5f52 53bc
00000090: 61b1 bf3d c446 74be b61f babe 64fa 003d
000000a0: 4060 f73d 346b a33e 7c5c 083e 5719 993e
000000b0: 7b1b 49be 4c6d fe3d 12b4 d3be 4793 22bd
000000c0: 1bd8 abbe 9f02 683e 511a 963e c021 903e
000000d0: ed5d 033e 1695 bfbe 9e54 a1be ecd1 953d
000000e0: 583d 61be 85e7 d4be 03cb ee3e 6d44 7cbe
000000f0: e913 943c 986e c33e e7e1 e6bc 79c1 ce3e
00000100: c9df 813d 6de2 913e bbb6 6c3d 531e cebd
00000110: 84fb b1be e028 75be 7ade c63e c6cd c3be
00000120: 5854 b23d 0a61 3b3d c705 e93e f490 c9be
00000130: b056 a0bd f621 61be d1d5 49be 3a33 ed3d
00000140: e647 293e 0383 c8be be23 7c3e e560 97be
00000150: bb3c 70be 5048 833e ebd0 733e a43a 09be
00000160: 1f5d 98bb 0c63 0bbe f553 9fbe 4895 853e
00000170: 0048 663d e71d 8e3d d01c d5bd c9d9 68be
00000180: d3b4 b7be 8a0f 0bbe a9c6 d83e 8dbe a4be
00000190: c55f 6d3e 899c cebe bdb9 7dbd 7a7b 12be
000001a0: f342 3bbd a8c6 cfbe f4cf dbbd fd88 4abe
000001b0: 205e adbe e018 883e 7a65 ddbe fa42 dbba
000001c0: 3268 d43e 4d47 44be efda e3be e3d8 3abd
000001d0: ec56 3b3e 6eac af3e 3f65 bb3e fce3 d33e
000001e0: a062 6d3c e9c0 c23e 26d9 15be 72d2 273e
000001f0: eaca e83d b434 f4bd c05f eebc 4dc0 6f3e
00000200: 25fe 8e3e f4f4 73be d763 1b3e 6ad7 c63b
00000210: 8526 aa3e 7dc2 163c 9298 c6bd 4580 99be
00000220: 61ad 7ebe 7112 f0be c7a0 44bd e8cd b5bd
00000230: 2b9f df3e bd21 a7be a405 c2be 831f b73e
00000240: fe0b cc3d 8a0e 173e 33aa b3be f400 303e
00000250: 1c68 26bd b6ea 0abe 4d75 b73d 8e5a f8bc
00000260: fb44 9cbe d578 c8be 34b4 99bc 6a96 803e
00000270: 8b84 e1bd ca53 d8be 906a 58be 59ca 623b
00000280: ac5c ecbe 85a1 25be 1383 113e c275 9e3e
00000290: e80a 443d 7931 35be 053c a9be d6d9 8a3e
000002a0: 4099 a3bd 52b8 bfbd d64d 7a38 afd3 c0be
000002b0: 05ab a4be ebb3 613e 5e80 43be 4619 4dbe
000002c0: 0002 4abd 425f d03d d8cb c43e bbd3 a13e
000002d0: 0299 353e 243e a0be 3044 83be 0ce2 c9be
000002e0: c29b 763e 4d43 8bbe 2e27 2f3e fa65 923b
000002f0: e717 32be 607c b9be 2416 fcbc 6d61 b9be
00000300: 2ad6 853e 8378 4cbe b939 ac3e d056 82be
00000310: a4c0 c43e 9001 d63e 100d 5b3e cda8 243e
00000320: 09ac 963d 487f ad3e 623b a7bd 98d2 0abe
00000330: 0918 74be 8fcd f1bd 19f0 3bbe 9d3c e93e
00000340: 0a67 30be 52c7 a53e 3b4c ac3b ed68 9abe
00000350: 541b dbbe 5edc 96be 27b6 87be 0221 163e
00000360: eaf8 ad3e d040 04bd 474e aa3e 0ed1 4dbe
00000370: 305a 7a3e ab7e 20be 625f a73e 1285 c73d
00000380: edca 943d f269 5fbe 57b4 f83d 6b8f e9be
00000390: 3034 21be f0df 1f3e 9ead 533e e29a debe
000003a0: 90c6 d2be 75d2 1d3e c107 0f3e a763 eebe
000003b0: 1e57 513d 65b7 c33e 8d61 85be e3dd b13d
000003c0: 4b84 c5be 1a03 8c3d a0f2 e53d 50d9 5dbe
000003d0: 9dbf 1e3d f700 01be 257e ea3d 9652 c93c
000003e0: 54b5 933d 3c6a 8e3e 8cc2 eabd dac1 22bd
000003f0: 92f6 73be 8a9e 873e e507 44be 4a5b 1dbe

bias f4 [64]
0.4212536 -0.19150741 0.11480231 -0.43081895 0.07259757 -0.25567317 -0.3370158 0.2826517
-0.20925988 0.1177894 -0.029398723 -0.13014035 -0.15140241 -0.2912541 -0.01113951 0.40001473
0.06787872 0.20782965 -0.37212414 -0.28884026 -0.32953307 -0.046793565 0.20796905 0.02975365
-0.04845242 0.44621542 -0.3470439 0.2215087 -0.39968804 -0.35764268 0.13320675 -0.42747682
0.025792575 -0.18094483 0.08078814 -0.110996716 0.31113115 -0.059662104 -0.14218162 0.26242703
-0.014731023 0.13816589 0.31398746 -0.0046130847 -0.11753524 0.36381614 -0.12986803 -0.3555711
-0.31103915 -0.24283752 0.3269281 -0.35895985 0.16742195 0.30895722 -0.32991564 0.35164496
0.21995492 0.102105945 0.03663761 0.22484162 -0.44326514 0.13587426 0.33133185 0.26629838
00000000: 8dae d73e 851a 44be 791d eb3d 4d94 dcbe
00000010: 09ae 943d 98e7 82be 568d acbe b9b7 903e
00000020: 3948 56be 923b f13d 97d5 f0bc 8343 05be
00000030: 3c09 1bbe 421f 95be 7e82 36bc bbce cc3e
00000040: 0004 8b3d 4cd1 543e 0e87 bebe dfe2 93be
00000050: 8fb8 a8be 9caa 3fbd d7f5 543e edbd f33c
00000060: 0b76 46bd 5976 e43e bdaf b1be 2dd3 623e
00000070: e9a3 ccbe f11c b7be 5a67 083e 3ede dabe
00000080: f34a d33c 9a49 39be 4174 a53d 3f52 e3bd
00000090: 954c 9f3e 4060 74bd 0f98 11be d65c 863e
000000a0: 645a 71bc 5c7b 0d3e f7c2 a03e 5c29 97bb
000000b0: 51b6 f0bd 1c46 ba3e 20fc 04be 6a0d b6be
000000c0: 8640 9fbe 66aa 78be 1f63 a73e 96c9 b7be
000000d0: a970 2b3e a42f 9e3e b4ea a8be cf0a b43e
000000e0: dd3b 613e ec1c d13d 5211 163d e23c 663e
000000f0: a6f3 e2be 9f22 0b3e 54a4 a93e 4358 883e

weight f4 [64]
1.039876 0.987809 1.029987 0.9765985 0.99330306 0.9745975 1.0122222 1.0113271
0.9721299 1.0250111 1.0273548 0.9990584 1.0018523 1.0003396 1.0019614 1.0086225
1.0219728 0.9968149 0.99614257 1.0090654 0.966521 1.0134845 0.9945772 0.9773393
0.9996643 0.9836917 0.9878048 1.0100455 0.98757994 1.0001421 0.99859583 1.0140631
0.94806063 1.0167143 0.9816588 0.9806912 1.029221 1.0049106 1.0407493 0.98891217
1.0033646 1.0096259 0.98589295 1.0173587 0.98212487 1.007043 0.9547318 1.0140572
0.9972925 0.9942362 0.97131807 1.0275495 1.0197315 1.013093 0.9770467 1.0061361
1.0234048 1.029092 0.972592 0.97275966 0.99755216 0.98541206 1.0066938 1.019667
00000000: a81a 853f 0de1 7c3f 9dd6 833f 5c02 7a3f
00000010: 1c49 7e3f 397f 793f 7f90 813f 2b73 813f
00000020: 81dd 783f 9033 833f 5d80 833f 4bc2 7f3f
00000030: b23c 803f 210b 803f 4540 803f 8b1a 813f
00000040: 01d0 823f 432f 7f3f 3303 7f3f 0e29 813f
00000050: ec6d 773f dcb9 813f 9d9c 7e3f e932 7a3f
00000060: 00ea 7f3f 38d3 7b3f c6e0 7c3f 2c49 813f
00000070: 0ad2 7c3f a804 803f faa3 7f3f d2cc 813f
00000080: 1ab4 723f b223 823f fe4d 7b3f 940e 7b3f
00000090: 84bd 833f e9a0 803f 4637 853f 5929 7d3f
000000a0: 406e 803f 6c3b 813f 7b63 7c3f cf38 823f
000000b0: 896c 7b3f c9e6 803f 4e69 743f a0cc 813f
000000c0: 904e 7f3f 4386 7e3f 4da8 783f be86 833f
000000d0: 9086 823f 08ad 813f bc1f 7a3f 11c9 803f
000000e0: eefe 823f 49b9 833f cafb 783f c706 793f
000000f0: 945f 7f3f f743 7c3f 58db 803f 7384 823f

bias f4 [64]
-0.011177194 -0.036737513 0.0024448866 -0.018456534 -0.007410048 -0.027638426 -0.00443701 -0.025253473
-0.008607056 -0.007872409 -0.02383227 -0.020138193 0.0010338065 0.0013372396 0.0025371893 -0.015497943
-0.0131078465 -0.002900904 0.008271229 -0.0073907916 -0.029234214 -0.03310974 -0.011881381 -0.02527464
0.0056956564 -0.036825184 -0.0077268803 0.009827345 -0.008770141 -0.01959989 0.009728507 0.012780287
-0.06288524 -0.0010831346 -0.01758907 -0.0032342095 0.011573111 -0.025679035 0.022640042 -0.012641261
-0.006209207 -0.041311827 -0.022648513 -0.016898228 -0.039705675 -0.019138033 -0.03735504 -0.014174908
-0.006812886 -0.035986654 -0.018858751 -0.029441258 -0.006943077 0.0043495344 -0.055745915 -0.020714112
0.018109243 -0.009748274 -0.012180044 -0.027884921 -0.0136211235 -0.036115486 -0.0033377272 -0.00053582643
00000000: 8d20 37bc 137a 16bd 643a 203b 2832 97bc
00000010: fdcf f2bb fb69 e2bc 5664 91bb 5fe0 cebc
00000020: 9c04 0dbc 47fb 00bc e53b c3bc daf8 a4bc
00000030: ca80 873a 5146 af3a f946 263b 16eb 7dbc
00000040: 4bc2 56bc 181d 3ebb 0d84 073c 742e f2bb
00000050: 977c efbc 149e 07bd 20aa 42bc c30c cfbc
00000060: a1a2 ba3b 01d6 16bd c531 fdbb df02 213c
00000070: a3b0 0fbc f38f a0bc 5164 1f3c 6964 513c
00000080: fac9 80bd f7f7 8dba f416 90bc 08f5 53bb
00000090: 259d 3d3c d75c d2bc 9c77 b93c 4b1d 4fbc
000000a0: 9a76 cbbb 9736 29bd 6089 b9bc 276e 8abc
000000b0: 6ba2 22bd 5dc7 9cbc 9901 19bd e03d 68bc
000000c0: a13e dfbb be66 13bd ab7d 9abc cb2e f1bc
000000d0: c082 e3bb 8a86 8e3b d455 64bd a4b0 a9bc
000000e0: d659 943c 3ab7 1fbc cf8e 47bc eb6e e4bc
000000f0: 222b 5fbc d5ed 13bd c5bd 5abb b476 0cba

running_mean f4 [64]
0.4645942 -0.083087645 0.063328214 -0.42751205 0.025681935 -0.30616036 -0.37562767 0.27154943
-0.15094721 0.091888785 0.030117745 -0.09027827 -0.1104333 -0.24339092 0.016275873 0.31765205
0.066293225 0.27305117 -0.4047617 -0.31230807 -0.3155871 -0.1460978 0.13556921 0.025765995
-0.019386869 0.44286093 -0.32199302 0.16579899 -0.32317832 -0.3509315 0.13489166 -0.3927936
-0.052814882 -0.2343997 0.08392215 -0.1452834 0.30046132 -0.09019935 -0.19554107 0.23569709
0.021770863 0.07801634 0.30306506 0.063982785 -0.08830592 0.32715812 -0.10961045 -0.4556089
-0.3875023 -0.2668969 0.32955274 -0.41617998 0.17010662 0.32683796 -0.27819648 0.37397212
0.20186621 0.10064875 0.16326453 0.23677176 -0.35024634 0.095297046 0.35492098 0.27368918
00000000: 4adf ed3e db29 aabd 39b2 813d dce2 dabe
00000010: ec62 d23c 0dc1 9cbe 4552 c0be 8708 8b3e
00000020: e891 1abe 3030 bc3d 7db9 f63c d0e3 b8bd
00000030: db2a e2bd 783b 79be fb54 853c 4aa3 a23e
00000040: bec4 873d 5dcd 8b3e ed3c cfbe d8e6 9fbe
00000050: a294 a1be a99a 15be a8d2 0a3e 3513 d33c
00000060: 36d1 9ebc abbe e23e 45dc a4be 36c7 293e
00000070: a177 a5be 4bad b3be 0a21 0a3e 3e1c c9be
00000080: 6b54 58bd 7a06 70be 60df ab3d 2cc5 14be
00000090: 11d6 993e 70ba b8bd eb3b 48be 945a 713e
000000a0: cf58 b23c 08c7 9f3d 582b 9b3e 6809 833d
000000b0: bcd9 b4bd 4581 a73e 727b e0bd 9245 e9be
000000c0: b466 c6be b6a6 88be 23bb a83e 8b15 d5be
000000d0: 6e30 2e3e 4e57 a73e c56f 8ebe 4679 bf3e
000000e0: 04b6 4e3e ef20 ce3d d12e 273e 4c74 723e
000000f0: 7d53 b3be 192b c33d 34b8 b53e fd20 8c3e

running_var f4 [64]
0.11847423 0.23051578 0.1018377 0.14390035 0.17458794 0.09467324 0.06583312 0.0905002
0.11079453 0.13713029 0.15939161 0.1879661 0.12140477 0.10277768 0.17714655 0.10862408
0.13205749 0.05537473 0.059582524 0.1887945 0.08189636 0.17253567 0.17579176 0.1713077
0.07054504 0.083396696 0.055198703 0.14805406 0.18442899 0.06774144 0.10978404 0.10326141
0.12856299 0.074701734 0.11723927 0.11483368 0.16277383 0.08951743 0.13133761 0.15512086
0.075478435 0.13647558 0.16214046 0.11781187 0.08155645 0.13044408 0.14357018 0.13774556
0.0730424 0.03784626 0.068779856 0.09750633 0.099654116 0.038660068 0.14378886 0.101135865
0.0794822 0.095782146 0.29191142 0.23376493 0.11554685 0.18398255 0.06394128 0.023707638
00000000: 9ea2 f23d 540c 6c3e 4990 d03d 9d5a 133e
00000010: 2ec7 323e 0be4 c13d 84d3 863d 2b58 b93d
00000020: 3ee8 e23d e26b 0c3e 8e37 233e 2f7a 403e
00000030: 10a3 f83d 1b7d d23d e865 353e 4d76 de3d
00000040: 143a 073e 9dd0 623d ce0c 743d 5853 413e
00000050: 47b9 a73d 31ad 303e c102 343e 496b 2f3e
00000060: eb79 903d e3cb aa3d 0918 623d 7c9b 173e
00000070: f4da 3c3e 06bc 8a3d 74d6 e03d b87a d33d
00000080: 04a6 033e 39fd 983d 241b f03d ec2d eb3d
00000090: 2fae 263e ea54 b73d 5e7d 063e 01d8 1e3e
000000a0: 7094 9a3d 41c0 0b3e 2608 263e 5a47 f13d
000000b0: 1107 a73d 2293 053e 1004 133e 2c0d 0d3e
000000c0: 4197 953d ae04 1b3d 74dc 8c3d 66b1 c73d
000000d0: 7517 cc3d 055a 1e3d 633d 133e 5220 cf3d
000000e0: 90c7 a23d 6e29 c43d 6a75 953e 1360 6f3e
000000f0: d4a3 ec3d ec65 3c3e a5f3 823d 8536 c23c

weight f4 [64, 64]
-0.009971782 -0.11572513 -0.06969116 -0.02247843 0.0028347978 -0.1180241 0.05031387 0.03231282
0.101955645 -0.0234956 -0.057687245 -0.009492198 0.053123318 -0.05879148 0.0995526 0.062296223
-0.11052813 -0.036713563 0.09398006 -0.06720455 0.09325371 0.034119546 0.04839052 -0.078703456
-0.10140442 -0.08181701 -0.093555704 0.08415831 0.03159823 0.009806878 0.097137645 0.10205441
0.008663859 -0.13305317 0.0024424435 -0.078101955 0.07574198 -0.121433355 -0.054939974 -0.09852847
-0.04374158 -0.11700222 0.109473854 0.10782537 -0.082389876 -0.06007186 -0.052119695 -0.042130683
-0.010401796 0.095426165 0.07260631 0.06467161 0.10391079 -0.057469264 0.05947258 -0.1069692
-0.12482145 -0.082464464 0.11299537 -0.013202011 0.01787786 -0.08673807 -0.08997151 0.050584637
-0.075966306 0.06837552 0.040755335 0.044782016 -0.08398291 -0.014961056 -0.086813524 -0.08781114
0.11365395 0.08561426 0.1158985 0.021587672 -0.040162455 -0.085721485 -0.089062355 -0.04542787
0.041791502 -0.05264841 -0.012474807 0.10584909 0.01702565 -0.10388693 -0.08928162 0.006600554
-0.12389132 0.00718243 0.08174365 -0.126418 -0.04456185 -0.013811748 -0.10348199 0.012365719
-0.071173824 -0.01651016 -0.08812251 -0.10417146 0.013722429 0.09968447 -0.060257368 0.02218906
0.06459229 0.0514749 -0.019632967 0.082102254 0.052077778 -0.041248012 -0.08157465 -0.0650787
-0.047490872 0.052994493 -0.0038803767 0.01284182 0.09271543 -0.010385899 0.11391926 -0.07779345
0.102736875 -0.095377296 0.14338857 0.06516473 0.06417647 0.083521284 0.09601078 0.047113467
0.101292215 -0.12851538 -0.055616733 0.09880267 0.12472692 -0.08132583 0.035084315 -0.022214385
0.06480062 0.0718939 0.047183502 -0.14190103 0.015760161 -0.0064978492 -0.041835796 0.06752943
0.04865396 0.06688186 0.07580361 0.055841785 0.0055665523 -0.039764695 -0.011705833 0.026422625
0.096885175 -0.057021342 0.0036436843 0.03950277 -0.08813762 0.024412505 -0.042549316 -0.043115895
0.033931457 0.037863452 -0.06869445 -0.09951448 0.021006707 0.08477367 -0.00238332 0.07941505
-0.025413575 0.029527614 -0.07844093 -0.12870179 0.06504007 -0.059650682 -0.0327468 -0.036471426
-0.08412298 -0.06810663 0.012978404 0.073107846 -0.12890245 -0.045678716 -0.060428053 -0.11534235
-0.047404706 0.034944296 -0.056813143 0.14591503 0.072100654 0.0035137201 -0.034638856 -0.032510646
0.04672141 -0.0051417206 -0.057056494 -0.02159602 -0.047965676 0.10973544 -0.087790854 -0.014803024
0.036312383 -0.08193961 -0.041965637 -0.061044987 -0.007982071 0.051470835 0.09476672 0.04310095
-0.039088525 -0.02371673 -0.0013159586 0.10293338 -0.03885409 -0.11668154 -0.03453166 0.05626251
-0.033750772 0.09481286 0.08255909 -0.088733725 0.10097471 0.0063579786 -0.053927682 -0.036973193
-0.0005038597 -0.033372328 -0.07798543 0.061043493 0.07467942 0.053136624 0.12762672 0.048196755
-0.06145107 0.10455422 -0.0012938728 0.059215784 -0.066217825 0.08317671 -0.091762155 -0.12877473
-0.0697954 0.012816313 0.032722708 -0.104530685 -0.10233557 -0.00070100353 0.068196155 0.14849997
0.13701044 -0.009782577 -0.077992365 -0.040370617 0.0012452631 0.14423557 0.0987866 -0.028983183
00000000: af60 23bc 4c01 edbd 3dba 8ebd af24 b8bc
00000010: 04c8 393b 9fb6 f1bd eb15 4e3d 735a 043d
00000020: 1fce d03d d879 c0bc 7649 6cbd 2a85 1bbc
00000030: d697 593d 56cf 70bd 3ce2 cb3d 532a 7f3d
00000040: 925c e2bd f660 16bd 9e78 c03d 8aa2 89bd
00000050: cdfb be3d f0c0 0b3d 2335 463d 472f a1bd
00000060: 1fad cfbd ad8f a7bd 229a bfbd 315b ac3d
00000070: 256d 013d 07ad 203c 1af0 c63d e701 d13d
00000080: dcf2 0d3c 173f 08be 6711 203b ebf3 9fbd
00000090: 9c1e 9b3d 0db2 f8bd bd08 61bd 4bc9 c9bd
000000a0: 5f2a 33bd dc9e efbd d433 e03d 8cd3 dc3d
000000b0: 06bc a8bd e90d 76bd 767b 55bd 3991 2cbd
000000c0: 4b6c 2abc cb6e c33d 9eb2 943d 8d72 843d
000000d0: 2ecf d43d e464 6bbd 8599 733d ab12 dbbd
000000e0: 63a2 ffbd 21e3 a8bd 1e6a e73d 3f4d 58bc
000000f0: 9774 923c bba3 b1bd fc42 b8bd d631 4f3d
00000100: 3994 9bbd 7708 8c3d 11ef 263d 596d 373d
00000110: 3bff abbd 381f 75bc 4acb b1bd 54d6 b3bd
00000120: 67c3 e83d 8756 af3d 315c ed3d a1d8 b03c
00000130: 6381 24bd bf8e afbd 5366 b6bd 9312 3abd
00000140: 912d 2b3d dca5 57bd 2263 4cbc 68c7 d83d
00000150: 6079 8b3c acc2 d4bd 48d9 b6bd 7649 d83b
00000160: bbba fdbd 975a eb3b 3769 a73d b873 01be
00000170: 7d86 36bd ab4a 62bc 5eee d3bd 9699 4a3c
00000180: 95c3 91bd 5140 87bc 9379 b4bd d957 d5bd
00000190: 0ad4 603c 5f27 cc3d 6ed0 76bd d5c5 b53c
000001a0: f648 843d 58d7 523d 51d5 a0bc 3a25 a83d
000001b0: 824f 553d adf3 28bd 9c10 a7bd fb47 85bd
000001c0: ca85 42bd c110 593d eb4d 7ebb 7f66 523c
000001d0: 96e1 bd3d 9e29 2abc 804e e93d 2c52 9fbd
000001e0: b667 d23d 2c55 c3bd 74d4 123e 1675 853d
000001f0: f46e 833d 350d ab3d 4da1 c43d 0dfa 403d
00000200: 4b72 cf3d 8999 03be 5fce 63bd 0e59 ca3d
00000210: d470 ff3d 288e a6bd 92b4 0f3d f1fa b5bc
00000220: 30b6 843d 1c3d 933d 7d43 413d 814e 11be
00000230: 741b 813c e9eb d4bb 035c 2bbd df4c 8a3d
00000240: 6049 473d 5bf9 883d ec3e 9b3d 5bba 643d
00000250: a067 b63b 4ee0 22bd d2c9 3fbc 4374 d83c
00000260: bc6b c63d 368f 69bd e1ca 6e3b a8cd 213d
00000270: 7f81 b4bd bcfc c73c 3148 2ebd 4b9a 30bd
00000280: b6fb 0a3d b516 1b3d adaf 8cbd 3fce cbbd
00000290: 4216 ac3c d19d ad3d 7931 1cbb 5ca4 a23d
000002a0: 2130 d0bc e5e3 f13c a3a5 a0bd 67ca 03be
000002b0: ba33 853d 4654 74bd 8221 06bd 1063 15bd
000002c0: ab48 acbd 7d7b 8bbd 5fa3 543c 91b9 953d
000002d0: 01ff 03be 9b19 3bbd 6883 77bd 9c38 ecbd
000002e0: 702b 42bd c021 0f3d e6b4 68bd c06a 153e
000002f0: 82a9 933d 7146 663b 79e1 0dbd e229 05bd
00000300: f35e 3f3d e17b a8bb 12b4 69bd 23ea b0bc
00000310: a877 44bd f9bc e03d b1cb b3bd 6288 72bc
00000320: 4bbc 143d f4cf a7bd 29e4 2bbd 4f0a 7abd
00000330: 3bc7 02bc 15d3 523d 0e15 c23d 9f8a 303d
00000340: 4a1b 20bd 9649 c2bc 3e7c acba bcce d23d
00000350: 7725 1fbd bbf6 eebd 1271 0dbd 8573 663d
00000360: 403e 0abd 3f2d c23d bd14 a93d 07ba b5bd
00000370: d4cb ce3d 9756 d03b 46e3 5cbd 3471 17bd
00000380: 7415 04ba 6cb1 08bd d3b6 9fbd be08 7a3d
00000390: 86f1 983d caa5 593d 94b0 023e f669 453d
000003a0: 1eb4 7bbd 8620 d63d 2b97 a9ba 408c 723d
000003b0: 369d 87bd 8d58 aa3d cced bbbd 86dd 03be
000003c0: e4f0 8ebd 83fb 513c 3f08 063d 2f14 d6bd
000003d0: 5095 d1bd 8dc3 37ba 6daa 8b3d 6010 183e
000003e0: 774c 0c3e 1a47 20bc 76ba 9fbd a95b 25bd
000003f0: 1938 a33a 7db2 133e a150 ca3d 246e edbc

bias f4 [64]
0.12558898 0.086107045 0.025896063 -0.04615977 -0.071466126 -0.10047994 0.043857142 -0.043181755
-0.04874078 -0.057962116 0.022467794 -0.019034741 0.024011346 -0.116233185 0.09286935 -0.11231224
-0.022868473 0.12087459 0.119681485 -0.055702034 0.06862673 0.0020777201 0.012720023 -0.021419736
0.0555264 -0.11771075 -0.0017383996 0.044655796 -0.04199671 0.03261307 -0.068070844 0.083909236
-0.110954575 0.0877068 0.09817645 0.10917518 -0.08930244 0.05676486 -0.036329404 -0.09225645
0.08603414 0.0645935 -0.10296768 -0.04014218 -0.0196276 -0.07372552 -0.044717796 0.06938132
0.031440556 0.0063651833 0.053973988 -0.12205479 -0.10943308 0.09049152 0.08575643 -0.030735273
-0.094087675 0.026971472 0.07490451 -0.07555684 0.030790713 0.12435305 0.048776265 0.07180682
00000000: 669a 003e e458 b03d fb23 d43c 0712 3dbd
00000010: d55c 92bd 6dc8 cdbd 8ca3 333d 5adf 30bd
00000020: 6aa4 47bd af69 6dbd 610e b83c bfee 9bbc
00000030: 71b3 c43c aa0b eebd 4932 be3d f603 e6bd
00000040: aa56 bbbc 198d f73d 911b f53d d127 64bd
00000050: 2c8c 8c3d 5c2a 083b a567 503c 7178 afbc
00000060: a76f 633d 5512 f1bd 03db e3ba ffe8 363d
00000070: be04 2cbd 4895 053d ba68 8bbd 9bd8 ab3d
00000080: 273c e3bd 9f9f b33d bc10 c93d 3d97 df3d
00000090: 33e4 b6bd 4582 683d 24ce 14bd f3f0 bcbd
000000a0: ab32 b03d 9949 843d b8e0 d2bd 206c 24bd
000000b0: 10ca a0bc 68fd 96bd 022a 37bd cb17 8e3d
000000c0: d0c7 003d 0793 d03b d413 5d3d ddf7 f9bd
000000d0: 731e e0bd 9e53 b93d 11a1 af3d 8ac8 fbbc
000000e0: 0ab1 c0bd 47f3 dc3c 8967 993d 8bbd 9abd
000000f0: ce3c fc3c d0ac fe3d 9fc9 473d 740f 933d

weight f4 [64]
0.9411017 1.0106099 0.9366322 0.9944914 0.9503627 0.9574766 1.0078976 1.0082418
0.9879624 0.9367361 0.9075803 0.97341114 0.91737556 0.94279337 0.99828506 0.94200444
0.9107074 0.9221871 1.0120664 0.9823219 0.9764832 0.9443667 0.9685031 0.9238966
0.9347723 0.97645926 0.95091164 0.9220302 0.9423271 0.97071916 0.91340226 0.9457351
0.98880565 0.94529206 0.9869612 0.9722829 0.9650089 0.96508205 1.0045892 0.9134578
0.98109144 0.92427254 0.9661026 0.935202 0.96960837 0.9622179 0.9851113 0.91773975
0.9558306 0.95802754 0.91551244 0.91043925 0.95185536 0.9830164 0.9595191 0.94167894
1.0046287 0.97278315 0.920414 0.96163064 1.000043 0.9419782 0.94657236 0.986741
00000000: 0aec 703f aa5b 813f 21c7 6f3f fd96 7e3f
00000010: f84a 733f 301d 753f ca02 813f 110e 813f
00000020: 1beb 7c3f f0cd 6f3f 2f57 683f 7931 793f
00000030: 20d9 6a3f e85a 713f 9c8f 7f3f 3427 713f
00000040: 1f24 693f 7414 6c3f 648b 813f 7379 7b3f
00000050: cefa 793f 04c2 713f d2ef 773f 7d84 6c3f
00000060: 3d4d 6f3f 3cf9 793f f26e 733f 2c0a 6c3f
00000070: 593c 713f 0d81 783f bbd4 693f b21b 723f
00000080: 5e22 7d3f a9fe 713f 7da9 7c3f 88e7 783f
00000090: d30a 773f 9e0f 773f 6196 803f 5fd8 693f
000000a0: cf28 7b3f 209d 6c3f 8052 773f 6669 6f3f
000000b0: 4138 783f ea53 763f 4130 7c3f fef0 6a3f
000000c0: 50b1 743f 4b41 753f 065f 6a3f 8c12 693f
000000d0: cbac 733f f6a6 7b3f 0ba3 753f df11 713f
000000e0: ac97 803f 5108 793f 40a0 6b3f 6d2d 763f
000000f0: 6901 803f 7c25 713f 9152 723f 0f9b 7c3f

bias f4 [64]
-0.05444808 0.044338327 -0.017570836 -0.0050232625 -0.02456848 -0.023784427 0.02155507 0.040825047
-0.028227765 -0.05703735 -0.020197434 -0.060175937 -0.10819562 -0.050120544 0.051291022 -0.024846349
-0.11474205 -0.06345318 -0.0066428687 -0.090864316 -0.026974551 -0.03163876 0.0014835089 -0.05508043
-0.08983775 0.0074612875 -0.052120283 -0.038739096 -0.05335686 0.013209646 -0.07630607 -0.03840852
0.0061423774 -0.026075056 -0.05515818 0.034968317 0.024415568 -0.039663132 0.06104238 -0.05548675
-0.055553995 -0.056838315 0.0010802122 -0.0256721 -0.0059740455 -0.0641167 0.011343105 -0.098396264
-0.01690797 -0.01900787 -0.06347431 -0.04274518 -0.05620222 -0.028217278 -0.006350906 -0.030589875
-0.008749539 -0.07927113 -0.02554154 -0.031124001 0.020484455 -0.03507067 -0.037356615 -0.013478603
00000000: f304 5fbd 1b9c 353d b7f0 8fbc 2e9a a4bb
00000010: d643 c9bc 8fd7 c2bc 4294 b03c 2a38 273d
00000020: ea3d e7bc ff9f 69bd 1775 a5bc 0b7b 76bd
00000030: aa95 ddbd 334b 4dbd 8916 523d 928a cbbc
00000040: e1fd eabd bef3 81bd 6cac d9bb 1217 babd
00000050: bcf9 dcbc a597 01bd 4c72 c23a 049c 61bd
00000060: dbfc b7bd d17d f43b 147c 55bd e3ac 1ebd
00000070: b98c 5abd 456d 583c 5b46 9cbd 4152 1dbd
00000080: ff45 c93b 5b9b d5bc 8bed 61bd f03a 0f3d
00000090: 2803 c83c cf75 22bd 9307 7a3d 1346 63bd
000000a0: 968c 63bd 4bcf 68bd e895 8d3a 4c4e d2bc
000000b0: edc1 c3bb 9e4f 83bd 6ed8 393c fb83 c9bd
000000c0: 9582 8abc 65b6 9bbc d2fe 81bd 9215 2fbd
000000d0: 4d34 66bd ec27 e7bc 431b d0bb 9e97 fabc
000000e0: 3a5a 0fbc e758 a2bd 7e3c d1bc c3f7 febc
000000f0: 04cf a73c 43a6 0fbd 4003 19bd 5cd5 5cbc

running_mean f4 [64]
-0.124405816 0.05224785 -0.044871256 0.060518086 -0.33037752 0.21981418 0.28837168 -0.3561921
-0.51924914 0.23949766 0.053640317 -0.560734 -0.030998882 -0.53377265 -0.18808462 -0.24292873
-0.11971082 0.17936324 0.3725807 -0.50874466 0.5449941 -0.4418454 -0.03370262 -0.02501723
0.10318754 -0.15498456 0.07394174 -0.3362601 0.1991751 -0.32539025 -0.38121408 0.6061616
-0.31941876 -0.062848024 -0.05369879 -0.022918526 -0.41110978 -0.29398566 -0.065212876 -0.27066424
0.06956283 -0.20529391 -0.0071843057 0.2550116 0.16551353 -0.17646536 0.024563491 -0.0019504233
0.18507358 -0.3188668 -0.082041584 -0.17192116 -0.31878668 0.22235832 0.4799462 -0.06404117
-0.09749912 -0.18200393 0.35109285 0.116528414 -0.15949208 -0.2876832 0.318229 -0.5129451
00000000: 7ac8 febd d701 563d ecca 37bd d0e1 773d
00000010: 3e27 a9be f816 613e 74a5 933e d05e b6be
00000020: 83ed 04bf e03e 753e f3b5 5b3d 438c 0fbf
00000030: 5ef1 fdbc 53a5 08bf 4199 40be 4fc2 78be
00000040: f22a f5bd ffaa 373e e6c2 be3e 173d 02bf
00000050: bc84 0b3f 8f39 e2be c20b 0abd eff0 ccbc
00000060: fd53 d33d 46b4 1ebe c46e 973d 492a acbe
00000070: 8ff4 4b3e 8d99 a6be 7e2e c3be 682d 1b3f
00000080: db8a a3be 77b6 80bd 43f3 5bbd a2bf bbbc
00000090: fb7c d2be 4a85 96be 548e 85bd 8194 8abe
000000a0: f576 8e3d 9138 52be 536a ebbb e190 823e
000000b0: 617c 293e 56b3 34be 6039 c93c 59a5 ffba
000000c0: ee83 3d3e 8242 a3be 6b05 a8bd 1a0c 30be
000000d0: 0238 a3be e6b1 633e 82bb f53e 0428 83bd
000000e0: 9ead c7bd 3d5f 3abe 71c2 b33e 73a6 ee3d
000000f0: e451 23be 364b 93be e9ee a23e 5f50 03bf

running_var f4 [64]
0.30820376 0.35847387 0.22218542 0.20692922 0.20408587 0.17736438 0.20347482 0.22460184
0.2493661 0.16690964 0.2793286 0.24446927 0.21728973 0.28783974 0.287706 0.16310102
0.24865964 0.23288164 0.17786823 0.36274305 0.23914485 0.18005039 0.32893765 0.3004921
0.23007536 0.26221916 0.19282982 0.39589077 0.30412418 0.15091598 0.20742884 0.3636226
0.14621006 0.15853678 0.20173095 0.2260014 0.37054655 0.24071757 0.3408087 0.20326032
0.35025254 0.27711567 0.2625384 0.12770063 0.19354601 0.32922557 0.25471473 0.37643415
0.34082803 0.2820181 0.26476693 0.2392144 0.21743998 0.25075987 0.30472803 0.30364463
0.15972418 0.412389 0.15360336 0.16619195 0.30385274 0.19761772 0.32867378 0.34742835
00000000: e2cc 9d3e e389 b73e 9384 633e 41e5 533e
00000010: e3fb 503e 029f 353e b45b 503e 06fe 653e
00000020: d459 7f3e 5cea 2a3e 2904 8f3e 2756 7a3e
00000030: 3381 5e3e bb5f 933e 334e 933e f403 273e
00000040: a2a0 7e3e 8678 6e3e 1723 363e 75b9 b93e
00000050: 63e2 743e 215f 383e 846a a83e 1ada 993e
00000060: e098 6b3e 9741 863e 2e75 453e 32b2 ca3e
00000070: 2ab6 9b3e b889 1a3e 3a68 543e be2c ba3e
00000080: 17b8 153e 7757 223e 8f92 4e3e e96c 673e
00000090: 47b8 bd3e ab7e 763e 7a7e ae3e 7923 503e
000000a0: 4d54 b33e 1be2 8d3e 6f6b 863e f4c3 023e
000000b0: ed30 463e 4190 a83e f869 823e fabb c03e
000000c0: 0381 ae3e ad64 903e 888f 873e 9ff4 743e
000000d0: 96a8 5e3e 9963 803e 5005 9c3e 4f77 9b3e
000000e0: bc8e 233e a724 d33e 334a 1d3e 392e 2a3e
000000f0: 9692 9b3e 4d5c 4a3e ee47 a83e 21e2 b13e

weight f4 [1, 64]
-0.012586438 0.007989549 -0.022107393 0.012944723 0.01906721 0.001642359 0.0069608553 0.0059741987
0.014489724 0.0065411944 -0.0024172112 -0.0027809008 -0.020844072 0.006758 0.0058625718 -0.0032955222
-0.022914417 0.018943941 0.01772823 -0.018667681 0.0049015996 0.009040985 0.0158652 -0.019852076
-0.014719521 0.00032262388 0.005965813 0.010118484 0.015227851 0.014791021 -0.01731799 0.009644156
0.006437644 -0.007888397 -0.011694328 0.016975682 0.0124437995 0.00021137769 0.0069241887 0.0056846435
-0.015491891 -0.0056226132 -0.005120274 0.00030556362 -0.004022918 -0.020857623 -0.006104238 -0.01988612
-0.007416399 0.019188207 -0.004958652 -0.007888367 -0.006512745 0.014777106 -0.009076744 -0.02685734
0.01482672 -0.018298091 -0.0016848351 0.005910276 0.017605526 -0.005561123 0.014567869 0.016647032
00000000: 5937 4ebc 99e6 023c 901a b5bc 1a16 543c
00000010: d632 9c3c 6c44 d73a e317 e43b 36c3 c33b
00000020: 4f66 6d3c 8457 d63b 136a 1ebb c63f 36bb
00000030: 30c1 aabc 3672 dd3b d11a c03b b0f9 57bb
00000040: 04b7 bbbc 5330 9b3c cb3a 913c f7ec 98bc
00000050: 999d a03b a420 143c bcf7 813c d2a0 a2bc
00000060: 252a 71bc d825 a939 de7c c33b ffc7 253c
00000070: 3d7e 793c 0a56 723c 75de 8dbc 8602 1e3c
00000080: dff2 d23b 563e 01bc 9199 3fbc 9610 8b3c
00000090: 14e1 4b3c 44a5 5d39 4ee4 e23b 3f46 ba3b
000000a0: b3d1 7dbc e63d b8bb f9c7 a7bb 0e34 a039
000000b0: afd2 83bb 9bdd aabc 0f06 c8bb 37e8 a2bc
000000c0: 4405 f3bb 9630 9d3c 307c a2bb 363e 01bc
000000d0: dd68 d5bb ad1b 723c a0b6 14bc ed03 dcbc
000000e0: c5eb 723c e1e5 95bc afd5 dcba fdaa c13b
000000f0: 7739 903c 153a b6bb 12ae 6e3c 5b5f 883c
