Industrial Equipment/mlruns/0/218ed5083f7c44c391ca4907da6f3850/artifacts/generator_model/data/model.pth (torch, 55038 bytes, 14 tensors)

weight f4 [64, 100]
0	0x3cede503	0.029039865
1	0xbd0a0142	-0.033692606
2	0x3c9e9d0d	0.019361997
3	0xbd8564ee	-0.065133914
4	0xbd9fb0be	-0.07797383
5	0x3d35acc4	0.044354215
6	0xbd9fe4bb	-0.07807299
7	0x3d44a2c7	0.0480068
8	0xbca32e31	-0.019919487
9	0x3d5863ad	0.052829433
10	0xbd415f0c	-0.047209784
11	0x3d537121	0.05162156
12	0x3d79b541	0.060963873
13	0xbbb7b95f	-0.0056068148
14	0x3b1df375	0.002410141
15	0x3b8858b4	0.004160965
16	0x3d0f4dbc	0.034986243
17	0x3dbf32c2	0.09335853
18	0x3d940eeb	0.07229408
19	0xbd808768	-0.06275827
20	0x3d7f0282	0.06225825
21	0xbdb8586e	-0.090012416
22	0xbd967b0c	-0.07347688
23	0x3da46147	0.08026367
24	0x3dad2f87	0.08456331
25	0x3da80f95	0.08206097
26	0xbdcecf01	-0.100980766
27	0x3d54711c	0.051865682
28	0xbcca4a92	-0.024693761
29	0xbbee13a4	-0.007265525
30	0x3dbc9a07	0.09209066
31	0x3d20a82c	0.03922288
32	0x3d38315a	0.04496894
33	0x3cd653cc	0.026163004
34	0xbd8bc404	-0.068244964
35	0x3d07e2e7	0.033175375
36	0x3d899462	0.06717755
37	0x3d413a48	0.047174722
38	0xbda4afbb	-0.080413304
39	0xbd8f0a0b	-0.069843374
40	0x3db7d2e0	0.08975768
41	0x3cd2968a	0.025706548
42	0xbd82f5da	-0.06394549
43	0xbda8f78e	-0.08250342
44	0x3d60713c	0.05479549
45	0x3da9ec57	0.082970314
46	0x3d464ee5	0.048415083
47	0x3dbee09f	0.09320187
48	0xbcab212d	-0.020889843
49	0x3c9e2328	0.019303873
50	0x3dadb656	0.084820434
51	0xbc04296c	-0.008066516
52	0x3ddc279e	0.10749744
53	0x3cceaad9	0.02522795
54	0xbc64d0af	-0.01396577
55	0xbdb23e0d	-0.087032415
56	0xbdf48911	-0.11940206
57	0x3dae2119	0.085024066
58	0xbce0b90b	-0.027431985
59	0x3ce78dbd	0.028265828
60	0x3db3a8c0	0.08772421
61	0x3d46e0b6	0.048554145
62	0xbd273c8e	-0.040829234
63	0xbb37a61b	-0.002802259
64	0xbd3c4a1d	-0.045969117
65	0xbcac3b0c	-0.02102425
66	0x3d9021b1	0.07037676
67	0xbd89ba5e	-0.06725
68	0xbd8242e3	-0.06360414
69	0x3d92c147	0.07165771
70	0x3d121793	0.035667013
71	0xbd21704a	-0.039413728
72	0xbd43a748	-0.047766954
73	0x3d18859e	0.037236802
74	0x3d9bd33a	0.07608648
75	0xbccca98b	-0.024983188
76	0x3dc65228	0.09683639
77	0xbc5144c0	-0.012772739
78	0xbd89ed49	-0.06734712
79	0x3ca0baf8	0.019620404
80	0xbc2ec22a	-0.0106664095
81	0xbd195fe8	-0.03744498
82	0x3d7ab964	0.06121196
83	0xbd95eb41	-0.07320262
84	0x3a45ef29	0.0007550591
85	0xbd667443	-0.05626322
86	0xbdade5dd	-0.084911086
87	0xbd7c5824	-0.061607495
88	0xbcad08eb	-0.021122416
89	0xbce8b90e	-0.028408553
90	0xbd1bbfb5	-0.038024623
91	0xbdd6699f	-0.104693644
92	0x3daf1b16	0.08550088
93	0x3c74f9eb	0.014952163
94	0xbd91e6f2	-0.071241274
95	0x3d35beb2	0.044371314
96	0x3cec9c6e	0.028883185
97	0xbdb5241f	-0.0884478
98	0x3d1b6bac	0.03794448
99	0x3c96aae0	0.018392026
100	0x3d413ecb	0.047179025
101	0xbd56eb93	-0.052470755
102	0x3d558ccd	0.05213623
103	0xbc5cd22c	-0.013477843
104	0x3da59dfa	0.08086772
105	0xbc7b1565	-0.015324925
106	0xbd4e29c6	-0.050332807
107	0xbdd7b2c2	-0.10532142
108	0xbdbe1a42	-0.09282352
109	0x3d54fb9c	0.051997766
110	0x3d4e1af3	0.05031867
111	0xbd08db4c	-0.033412263
112	0x3b08f196	0.002089595
113	0x3d0f5f03	0.03500272
114	0x3d74df6f	0.059783395
115	0x3be192cf	0.006883956
116	0xbd07ca6a	-0.03315202
117	0xbb1fb466	-0.0024369
118	0x3d02b123	0.031907212
119	0xbdca0059	-0.098633476
120	0x3d67aeef	0.056563314
121	0xbd47992b	-0.048730057
122	0xbdbf2d6c	-0.093348354
123	0x3d45a343	0.0482514
124	0x3c9bf219	0.01903634
125	0x3d8b9413	0.06815352
126	0xbc3772f2	-0.011196839
127	0xbd9215ed	-0.07133088
128	0xbd199f1c	-0.037505254
129	0x3d86677b	0.06562706
130	0xbdb6348d	-0.08896742
131	0xbd888610	-0.066661954
132	0x3d4a7e39	0.04943678
133	0x3cddf63a	0.027094949
134	0xbdb398af	-0.087693565
135	0x3da2c529	0.079477616
136	0x3db44b68	0.08803445
137	0x3d7dc688	0.061956912
138	0x3d13d219	0.036089037
139	0x3d408c03	0.047008526
140	0x3d681f8a	0.056670703
141	0x3c5bda1a	0.013418699
142	0x3dc7efeb	0.097625576
143	0xbddd6655	-0.10810534
144	0xbda799cd	-0.08183632
145	0xbc0d0bb0	-0.008608744
146	0x3c4475ef	0.011991008
147	0x3d4cfb7e	0.05004453
148	0xbddc0b5b	-0.107443534
149	0xbd26f1f5	-0.040758092
150	0xbce46191	-0.027878555
151	0x3b1477c7	0.00226544
152	0x3d97a6f1	0.074048884
153	0xbd05062b	-0.032476585
154	0xbd8c503b	-0.0685124
155	0xbd42c06d	-0.047546793
156	0xbcb63f8d	-0.0222471
157	0x3d96aecf	0.07357561
158	0xbd8bfb1a	-0.06835003
159	0x3ce2c197	0.027680201
160	0x3d89ef92	0.067351475
161	0xbd7721b0	-0.06033486
162	0xbd7ec059	-0.062195156
163	0xbcf8f5d4	-0.030390657
164	0x3c10f37e	0.008847116
165	0x3d0f7078	0.035019368
166	0xbd20baf8	-0.039240807
167	0xbd0b53ec	-0.03401558
168	0x3d837e9b	0.064206325
169	0xbd4509bf	-0.048104998
170	0x3cce4c95	0.025183002
171	0xbcb4dd1d	-0.022078091
172	0xbd027533	-0.03185005
173	0xbd3685c4	-0.044561163
174	0xbd54a097	-0.051910963
175	0x3d33a39c	0.043857202
176	0x3bda109c	0.006654812
177	0xbcdf2d66	-0.027243327
178	0x3d80de8f	0.0629245
179	0x3cb923b7	0.022600038
180	0x3d9c5df8	0.076351106
181	0xbd4c16ca	-0.04982642
182	0x3d05c262	0.03265608
183	0x3bd0b921	0.0063697253
184	0xbc9cd79c	-0.01914578
185	0x3cf709a6	0.030155968
186	0x3dcb760b	0.09934624
187	0x3da59b54	0.08086267
188	0xbd8143da	-0.0631177
189	0xbd42cacf	-0.047556695
190	0xbc2dc82b	-0.010606806
191	0x3bb310e5	0.0054646605
192	0x3d8bdce9	0.06829245
193	0x3dd401d4	0.10351911
194	0x3d8f076c	0.069838375
195	0xbde4d8ea	-0.111741856
196	0xbc643e42	-0.013930859
197	0x3bb896db	0.0056332177
198	0xbd52f8c6	-0.05150678
199	0xbab40847	-0.0013735377
200	0xbc97a4bf	-0.018511174
201	0x3c18eeb5	0.009334256
202	0xbccb4f03	-0.02481795
203	0xbd774670	-0.06036991
204	0x3c9b44de	0.018953737
205	0xbd88aa6b	-0.0667313
206	0x3d536fb9	0.05162022
207	0x3dcea291	0.10089601
208	0xbabf0271	-0.0014572871
209	0x3cc0cccb	0.023535153
210	0xbdaec0c2	-0.085328594
211	0xbd468114	-0.048462942
212	0xbd99d440	-0.075111866
213	0x3d9e6519	0.077341266
214	0x3d04f420	0.03245938
215	0xbcf28fb9	-0.029609548
216	0x3dbd1b11	0.09233678
217	0xbbd52612	-0.0065047825
218	0xbcd3619f	-0.025803385
219	0x3da76fc4	0.081756145
220	0xbd823141	-0.06357051
221	0xbae75637	-0.0017649595
222	0xbce61977	-0.028088314
223	0xbd9e78ed	-0.077379085
224	0xbdbb4e31	-0.09145773
225	0xbd6521cd	-0.055940438
226	0x3ccbb349	0.024865763
227	0x3d846ee4	0.06466463
228	0x3dd1032c	0.10205683
229	0xbb66bb59	-0.0035206883
230	0xbce2685b	-0.027637651
231	0xbc6c0217	-0.014404795
232	0x3c43967d	0.011937735
233	0xbdbce3b6	-0.0922312
234	0x3d978376	0.07398121
235	0x3ca10982	0.019657854
236	0x3db5a0f3	0.08868589
237	0xbd2b8d6f	-0.04188293
238	0xbdcd6c45	-0.100304164
239	0x3d8f2024	0.06988552
240	0x3d6bb1aa	0.05754248
241	0xbdb8cdf2	-0.09023656
242	0xbbbdb956	-0.005789916
243	0x3d92ef95	0.07174603
244	0x3d840979	0.06447119
245	0xbcd40e9f	-0.025885878
246	0x3c03ebaa	0.008051792
247	0x3c843f0b	0.016143342
248	0xbd676e86	-0.056501888
249	0xbdc70d32	-0.09719314
250	0x3d13e5e8	0.036107928
251	0x3da4a069	0.08038408
252	0xbd953272	-0.07285012
253	0xbd6b1b29	-0.05739895
254	0xbcf04792	-0.029331002
255	0xbd97d901	-0.07414437

bias f4 [64]
0	0x3d9b23fe	0.07575224
1	0xbdb243c4	-0.087043315
2	0x3d72016c	0.059083387
3	0x3d8365a7	0.06415873
4	0x3c6aa807	0.014322287
5	0xb9db1203	-0.00041784355
6	0x3d937303	0.07199671
7	0xbd8b0e48	-0.06789833
8	0x3d9fbd15	0.077997364
9	0x3d9bcc4f	0.07607328
10	0x3d9c5846	0.07634024
11	0x3b264e79	0.0025376363
12	0x3daeb858	0.085312545
13	0xbd524f05	-0.05134489
14	0xbd1dc987	-0.03852227
15	0xbc5c9534	-0.013463307
16	0x3d1b59db	0.03792749
17	0xbd18bde0	-0.037290454
18	0xbd9d31a3	-0.07675483
19	0xbd96e8b6	-0.07368605
20	0x3c62dd60	0.013846725
21	0xbccdca0a	-0.025120754
22	0xbdb10813	-0.08644118
23	0xbdb34ba1	-0.087546594
24	0xbd4dfe73	-0.05029149
25	0xbc501b4f	-0.012701823
26	0xbd423dc5	-0.04742219
27	0xbc890421	-0.016725602
28	0xbdac961f	-0.08427071
29	0xbd799989	-0.06093744
30	0xbd176d6f	-0.0369696
31	0x3d9c9dee	0.0764731
32	0x3d79089c	0.060799226
33	0xbdcc26be	-0.09968327
34	0x3d8dfe28	0.06933242
35	0xbda43909	-0.08018691
36	0xbd04d9fe	-0.032434456
37	0xbca331f1	-0.019921275
38	0x3cfc24a8	0.030779198
39	0xbdb86539	-0.09003682
40	0x3c0a7b64	0.00845227
41	0x3d20528a	0.039141215
42	0x3dabc5a2	0.08387305
43	0xbd4f0d1e	-0.05054962
44	0xbd8f490f	-0.06996357
45	0xbcff41da	-0.03115933
46	0x3c65d090	0.014026776
47	0x3d7d8ec1	0.06190372
48	0xbd125bd2	-0.035732098
49	0x3c949f46	0.018142354
50	0x3db17ac0	0.08665991
51	0x3da906a4	0.0825322
52	0x3d669c9a	0.05630169
53	0x3d5d3b57	0.05401167
54	0x3d4ba1eb	0.049714964
55	0x3daf85c6	0.08570437
56	0x3d41698e	0.047219805
57	0xbd3643c0	-0.044498205
58	0xbc3786e0	-0.01120159
59	0xbda6b8e5	-0.081407346
60	0xbc7ce180	-0.015434623
61	0xbdc7e118	-0.0975973
62	0x3d997da6	0.07494669
63	0x3d784919	0.060616586

weight f4 [64]
0	0x3f7e9532	0.99446404
1	0x3f81b7ca	1.0134213
2	0x3f7ddbb2	0.99163353
3	0x3f79183d	0.9730261
4	0x3f7fb3b2	0.9988357
5	0x3f8311fe	1.0239866
6	0x3f81f3e2	1.0152552
7	0x3f8119dd	1.0086018
8	0x3f819692	1.0124075
9	0x3f7cb459	0.9871269
10	0x3f82b120	1.0210304
11	0x3f8395bc	1.028007
12	0x3f7b457a	0.9815289
13	0x3f7de26f	0.99173635
14	0x3f776ebb	0.96653336
15	0x3f806b35	1.0032717
16	0x3f806707	1.0031441
17	0x3f7cd01c	0.9875505
18	0x3f829e6a	1.0204594
19	0x3f7e5a79	0.993568
20	0x3f7a421d	0.9775713
21	0x3f80b544	1.0055318
22	0x3f7a9d08	0.9789586
23	0x3f798ba1	0.9747868
24	0x3f7db4f3	0.9910423
25	0x3f83ab7b	1.0286707
26	0x3f809f74	1.0048661
27	0x3f7c3d6a	0.9853121
28	0x3f821335	1.0162112
29	0x3f80b387	1.0054787
30	0x3f81be00	1.0136108
31	0x3f7d43f3	0.9893181
32	0x3f819092	1.0122244
33	0x3f7ea0b5	0.9946397
34	0x3f7cce14	0.9875195
35	0x3f82bd5d	1.0214039
36	0x3f7f510a	0.9973303
37	0x3f7c842f	0.98639196
38	0x3f7b70bc	0.98218894
39	0x3f7ecd8c	0.9953239
40	0x3f7d0066	0.9882873
41	0x3f823c5e	1.0174673
42	0x3f804910	1.0022297
43	0x3f7cfe76	0.98825777
44	0x3f81241a	1.0089142
45	0x3f82060c	1.0158095
46	0x3f7e8eae	0.9943646
47	0x3f7f1204	0.99636865
48	0x3f7adef9	0.9799648
49	0x3f830c11	1.0238057
50	0x3f80ab5b	1.0052294
51	0x3f80ccd4	1.0062509
52	0x3f8013b2	1.000601
53	0x3f7c056b	0.9844577
54	0x3f81b2c6	1.0132682
55	0x3f78c9e2	0.9718305
56	0x3f814bda	1.0101273
57	0x3f7e87bd	0.9942587
58	0x3f7d9c2a	0.9906641
59	0x3f80bd70	1.0057812
60	0x3f7ef49d	0.99592
61	0x3f815dde	1.0106771
62	0x3f7ddaf2	0.9916221
63	0x3f854a1b	1.041324

bias f4 [64]
0	0xbc3049af	-0.010759755
1	0x3b679171	0.0035334493
2	0xbc608c30	-0.013705298
3	0xbc91e4ff	-0.01780939
4	0xbb5bbb01	-0.003352821
5	0x3cb734f9	0.022364127
6	0x3c21ff2f	0.009887501
7	0x3c0a34b7	0.00843542
8	0x3c4ff8f0	0.012693629
9	0xbb2fb273	-0.0026809245
10	0x3c93ce8a	0.018042821
11	0x3c69f684	0.014279965
12	0xbc7a85e1	-0.015290708
13	0xbc43bba1	-0.01194659
14	0xbc7d397e	-0.015455602
15	0x3ca70b3a	0.020391095
16	0xbae25ef2	-0.0017270728
17	0xbac1d155	-0.0014787117
18	0x3bb8731a	0.0056289556
19	0x3bcf2c5c	0.0063224267
20	0xbc1f077a	-0.009706372
21	0x3b387138	0.0028143656
22	0xbc50741a	-0.012722993
23	0xbce86214	-0.02836708
24	0x3be08e2d	0.006852886
25	0x3c346107	0.011009461
26	0x3c9682d0	0.018372923
27	0x3b531333	0.0032207489
28	0x3cb29bd9	0.02180283
29	0x3bf42308	0.007450465
30	0x3c6cdfe8	0.01445768
31	0xbc00eebc	-0.007869419
32	0x3bb7f541	0.0056139533
33	0x3b8c8070	0.004287772
34	0xbbb46d6d	-0.0055062086
35	0xb9f31460	-0.00046363752
36	0xba3357a3	-0.0006841367
37	0xbc69ff8d	-0.014282119
38	0xbc0aec23	-0.008479151
39	0xbc03056f	-0.007996901
40	0xbb796d48	-0.0038059521
41	0x3bbad1c9	0.005701278
42	0x39400fe8	0.00018316472
43	0xbc0468d3	-0.008081633
44	0xbc31a704	-0.010843042
45	0x3c376c87	0.0111953085
46	0xbc5a50ff	-0.013324975
47	0xba940851	-0.0011293982
48	0xbc574360	-0.013138622
49	0x3c950f65	0.018195817
50	0xbbb0358e	-0.005377478
51	0x3b668279	0.0035172983
52	0x3b755634	0.0037435414
53	0xbc44cd20	-0.012011796
54	0x3c961e15	0.018324891
55	0xbc4a14c5	-0.012334053
56	0x3b59f787	0.003325911
57	0xbbb5dc2a	-0.0055499272
58	0xbbfb6d1e	-0.00767292
59	0x3bdb5026	0.006692904
60	0x3ce3ba40	0.027798772
61	0x3c11ed59	0.008906686
62	0xb9c45d64	-0.00037453615
63	0x3c8411ae	0.016121712

running_mean f4 [64]
0	0x3db72701	0.08942986
1	0xbd8f7857	-0.07005375
2	0x3d13bf8f	0.036071356
3	0x3d85bd88	0.06530291
4	0x3cafa294	0.021439828
5	0x3bfa8914	0.0076457355
6	0x3dad7b6e	0.08470808
7	0xbdc4932b	-0.095983826
8	0x3d8a04de	0.067392096
9	0x3da41e74	0.08013621
10	0x3da1d0ce	0.079011545
11	0xbcb973b3	-0.022638177
12	0x3dbbd220	0.091709375
13	0xbd963fa1	-0.07336355
14	0xbd42326a	-0.04741136
15	0xbd60d4e6	-0.054890536
16	0x3cd22572	0.025652621
17	0xbd51dc85	-0.051235694
18	0xbd2b8e54	-0.04188378
19	0xbd8912cb	-0.066930376
20	0x3d1b1713	0.037863802
21	0xbd4710ac	-0.048599884
22	0xbd9ebcc1	-0.07750846
23	0xbdf1bd6d	-0.11803708
24	0xbd6c6b6e	-0.05771964
25	0xbd06260d	-0.03275113
26	0xbd260281	-0.04052973
27	0xbcc2995f	-0.023754774
28	0xbd8fa010	-0.070129514
29	0xbd93b1ca	-0.07211645
30	0xbd2a7f5f	-0.041625377
31	0x3d8eda8c	0.06975278
32	0x3d609fcd	0.054839898
33	0xbd95e48b	-0.07318982
34	0x3da85232	0.082188025
35	0xbdcdf3aa	-0.10056241
36	0xbcbc9949	-0.02302231
37	0x39a044b7	0.00030568775
38	0x3ca4cb56	0.02011649
39	0xbdc5c35d	-0.09656403
40	0x3cb9fa06	0.022702228
41	0x3cab8e42	0.020941857
42	0x3d9c5cc3	0.076348804
43	0xbd86e8e7	-0.06587391
44	0xbd862749	-0.06550462
45	0xbcf494b4	-0.029856063
46	0xba9abdd0	-0.0011805836
47	0x3da64042	0.08117725
48	0xbd18bd8c	-0.03729014
49	0x3c5cc878	0.01347553
50	0x3daddb56	0.08489101
51	0x3d8e9a47	0.0696302
52	0x3daf27f4	0.08552542
53	0x3d773ecf	0.060362633
54	0x3d821e7e	0.06353472
55	0x3da091fa	0.07840343
56	0x3d3519f2	0.044214197
57	0xbd4eedcd	-0.050519753
58	0xbc32c796	-0.010911843
59	0xbda2e0b9	-0.07953019
60	0xbc2e2754	-0.010629494
61	0xbdfb23e3	-0.12262704
62	0x3da53dbf	0.08068418
63	0x3da10136	0.07861559

running_var f4 [64]
0	0x3ead71dc	0.3387593
1	0x3ea29972	0.31757694
2	0x3e98e71a	0.29863816
3	0x3e9b8563	0.30375203
4	0x3eaba282	0.3352242
5	0x3ea1a4be	0.31571
6	0x3e88e65c	0.2673825
7	0x3eb4697a	0.35236722
8	0x3ea67a25	0.32515064
9	0x3ed6eb62	0.41976458
10	0x3e95c101	0.29248813
11	0x3eb17242	0.34657484
12	0x3ea3e693	0.32011852
13	0x3eb32393	0.34988078
14	0x3ec51328	0.38491178
15	0x3e998c45	0.2998983
16	0x3eaffcf1	0.34372666
17	0x3eaa1830	0.3322158
18	0x3ea7ceec	0.32775056
19	0x3ea9ebe2	0.33187777
20	0x3ea67320	0.32509708
21	0x3e9add65	0.30247036
22	0x3ea423b4	0.3205849
23	0x3ea84343	0.32863817
24	0x3eaec023	0.34130964
25	0x3ea8dd51	0.3298135
26	0x3eb29796	0.34881276
27	0x3eba27bb	0.36358437
28	0x3ebfff1d	0.37499323
29	0x3e9adda9	0.30247238
30	0x3e9c80cc	0.30567014
31	0x3e8d3b41	0.2758427
32	0x3e9f0a2f	0.31062457
33	0x3e9c80d9	0.30567053
34	0x3eb05d7c	0.34446323
35	0x3ec75432	0.38931423
36	0x3eb53008	0.35388207
37	0x3e920878	0.28522086
38	0x3ea08942	0.3135472
39	0x3eb4ae1b	0.35289082
40	0x3ea8e5f9	0.32987955
41	0x3eaab32f	0.3333983
42	0x3eac75b5	0.33683553
43	0x3ebf737d	0.37392798
44	0x3e95db8a	0.29269058
45	0x3eb8091d	0.35944453
46	0x3eb9a677	0.36259815
47	0x3eb8a7c1	0.36065486
48	0x3eaeb862	0.34125048
49	0x3ebc4a10	0.36775255
50	0x3ea2bdef	0.31785533
51	0x3eb3260d	0.34989968
52	0x3eb1f19c	0.34754646
53	0x3ec15564	0.3776046
54	0x3eb7c37a	0.35891324
55	0x3e8c7b8f	0.27438018
56	0x3ea6c2a8	0.32570386
57	0x3eb7de9e	0.3591203
58	0x3eab4370	0.33449888
59	0x3eb02190	0.34400606
60	0x3eb6ff36	0.35741585
61	0x3eb4cb21	0.35311225
62	0x3eaa1967	0.33222505
63	0x3e936ed0	0.2879548

weight f4 [64, 64]
0	0x3d48a30b	0.048983615
1	0x3be696fa	0.007037041
2	0x3ce85924	0.028362818
3	0xbdf4c415	-0.11951462
4	0xbd31a428	-0.043369442
5	0x3ca87b40	0.020566583
6	0xbd98fc89	-0.07470042
7	0xbdb01990	-0.08598626
8	0x3db2fb74	0.08739367
9	0x3dc83aef	0.09776866
10	0x3d9eb57d	0.0774946
11	0xbc1cd008	-0.009571083
12	0x3de1eb44	0.110312015
13	0x3d6a7e7e	0.05724954
14	0x3d287a5a	0.04113231
15	0x3da965a2	0.08271338
16	0xbda8c8b4	-0.08241406
17	0x3dcd0826	0.1001132
18	0x3e0a7e20	0.13524675
19	0xbdc89400	-0.09793854
20	0xbdb14c96	-0.08657186
21	0x3d5b3fe3	0.053527724
22	0x3cbfedc5	0.023428807
23	0x3da1bc09	0.07897193
24	0x3cea3fc0	0.028594851
25	0xbd1de4da	-0.038548328
26	0x3d41b783	0.04729415
27	0x3cfc4bfa	0.030797947
28	0xbd7ab236	-0.06120511
29	0x3dc0dcae	0.09417091
30	0xbdb42b1f	-0.08797287
31	0x3c3120ed	0.010811073
32	0xbba23821	-0.0049505387
33	0x3b02f93d	0.0019984983
34	0x3cf26572	0.029589389
35	0xbdd2988b	-0.102830015
36	0xbdb294ca	-0.087197855
37	0x3d6e5757	0.058188763
38	0xbc868d46	-0.016424786
39	0xbcdc525a	-0.026894737
40	0xbd983c62	-0.07433392
41	0xbd7bc3bc	-0.061465964
42	0x3d8b3961	0.067980535
43	0x3c76fa35	0.015074302
44	0x3cbd7278	0.023125872
45	0xbcfbd714	-0.030742206
46	0x3bc50fa9	0.0060138297
47	0xbdb0a999	-0.08626098
48	0xbd9064eb	-0.070504986
49	0x3d440629	0.047857437
50	0xbdd6d98d	-0.10490713
51	0xbd46c0b1	-0.04852361
52	0x3d7dc44c	0.06195478
53	0xbd5667e2	-0.052345164
54	0xbdceb431	-0.100929625
55	0x3dbae99c	0.09126589
56	0x3cf3cbff	0.029760359
57	0xbda783b1	-0.08179415
58	0x3dc2c105	0.09509472
59	0x3d6dc374	0.058047727
60	0x3d847012	0.06466688
61	0x3d8f8d8a	0.07009418
62	0xbc236d06	-0.009974724
63	0xbdbbbe5a	-0.09167166
64	0xbd17fb02	-0.037104614
65	0xbd9b74ea	-0.07590659
66	0x3d854f75	0.06509296
67	0x3d91fe7c	0.07128617
68	0x3d17aa8e	0.037027888
69	0x3c875718	0.016521022
70	0xbdef4e8b	-0.11684903
71	0xbdb2b9aa	-0.08726819
72	0xbdaab86c	-0.08335957
73	0xbdc2d864	-0.095139295
74	0xbd73ba76	-0.059503995
75	0xbd5251af	-0.05134743
76	0xbd805b6c	-0.06267437
77	0xbc174354	-0.009232361
78	0xbd6557e2	-0.055992015
79	0xbda51d75	-0.08062259
80	0x3cfdb426	0.03096969
81	0xbcd90806	-0.026493084
82	0x3d6c7fde	0.05773913
83	0x3d7e59ba	0.06209729
84	0x3db7b3c8	0.089698374
85	0xbdc0e834	-0.09419289
86	0xbd475a77	-0.04867026
87	0x3ce9bf6e	0.028533664
88	0x3d5fd430	0.054645717
89	0xbd1adbea	-0.037807383
90	0x3dca4f20	0.09878373
91	0x3bda938d	0.0066704215
92	0x3dd5dc04	0.10442355
93	0x3d61a3ab	0.055087727
94	0xbda56586	-0.08076005
95	0x3d8f7ce8	0.07006246
96	0xbdbefe4c	-0.09325847
97	0xbd214749	-0.039374623
98	0xbc8cb641	-0.01717675
99	0xbe033e17	-0.12816654
100	0x3ce4f2c5	0.027947793
101	0x3da2228e	0.07916747
102	0x3d17a057	0.037018146
103	0xbdb63f72	-0.0889882
104	0x3ceaf3ea	0.02868076
105	0x3ddb95f4	0.10721961
106	0x3c4d0229	0.012512722
107	0x3d56d2a0	0.05244696
108	0xbd667049	-0.056259427
109	0xbd82d6f4	-0.06388655
110	0xbaa0229f	-0.0012217349
111	0x3addcb44	0.001692154
112	0x3d91ffd7	0.07128876
113	0x3cfa97cb	0.030589959
114	0xbd7d0e82	-0.061781414
115	0x3bf462f3	0.0074580847
116	0xbdaed988	-0.085375845
117	0xbddeac0d	-0.1087266
118	0xbb868905	-0.0041056895
119	0x3d59b36e	0.053149633
120	0xbde3a5e2	-0.11115624
121	0x3d14fcb4	0.03637381
122	0x3de9f19d	0.11423037
123	0xbdd5d875	-0.104416765
124	0xbd145063	-0.036209475
125	0x3dc2cfd9	0.095123
126	0xbd35dbec	-0.044399187
127	0x39e4bebf	0.00043629666
128	0x3da3757f	0.07981395
129	0x3bafee22	0.005368964
130	0xbd050c85	-0.032482643
131	0x3d155fff	0.036468502
132	0xbd718595	-0.058965284
133	0x3d9dba53	0.07701554
134	0x3d5fcc7a	0.054638363
135	0xbc235e5b	-0.009971227
136	0xbd7d70e3	-0.061875235
137	0xbcb5859a	-0.022158433
138	0x3d94c69d	0.07264445
139	0x3daf1369	0.08548624
140	0xbdbbff18	-0.09179515
141	0xbbe8a024	-0.0070991684
142	0xbdb0eda4	-0.08639076
143	0xbd0333da	-0.03203187
144	0xbd4225e2	-0.04739941
145	0xbd49f3dc	-0.049304828
146	0x3db7c602	0.08973314
147	0x3dbb04ca	0.09131773
148	0xbd9dad7f	-0.076991074
149	0x3b5e552b	0.0033925276
150	0xbdd2b430	-0.10288274
151	0x3b32d36e	0.0027286666
152	0x3db10d83	0.08645155
153	0x3d518348	0.05115059
154	0x3dcce47f	0.1000452
155	0xbd267a1d	-0.0406438
156	0xbd4a4c24	-0.04938902
157	0x3d91edba	0.07125421
158	0x3d4ddaa7	0.05025735
159	0xbdb7d967	-0.08977013
160	0x3dcfcb9f	0.101462595
161	0xbcc82feb	-0.024436912
162	0xbd551e8b	-0.05203108
163	0xbde81e63	-0.11333921
164	0xbdd12100	-0.102113724
165	0x3d9f1068	0.07766801
166	0xbdc5923d	-0.09647033
167	0xbd03ff62	-0.032225974
168	0x3c9789f9	0.018498408
169	0x3d0654fb	0.032795887
170	0xbdc4a67d	-0.096020676
171	0x3d58c66a	0.052923597
172	0xbd95b31a	-0.073095515
173	0xbdf30ac4	-0.11867288
174	0xbdeb8dc6	-0.115016505
175	0xbde6b615	-0.11265198
176	0xbddb38e8	-0.107042134
177	0xbc902e21	-0.017600121
178	0xbc1cd613	-0.009572524
179	0x3d1c4728	0.038153797
180	0x3c47d28f	0.012196197
181	0x3e021b65	0.12705763
182	0xbcea591e	-0.028606948
183	0xbcb56277	-0.022141678
184	0x3dd09048	0.101837695
185	0x3dd1c6fa	0.1024303
186	0x3d120553	0.03564961
187	0x3d7a6e36	0.06114026
188	0x3df298a3	0.118455194
189	0xbc8eb438	-0.01741992
190	0xbcff5238	-0.031167135
191	0x3dbb86fa	0.09156604
192	0xbe0b9efb	-0.13634865
193	0xbc8a75dc	-0.016901903
194	0xbb71a71f	-0.0036873294
195	0xbcdedfee	-0.027206387
196	0x3c93614e	0.017990734
197	0xbda85a70	-0.082203746
198	0x3c76ce53	0.01506384
199	0x3d6ca162	0.057771094
200	0x3de1300e	0.10995494
201	0x3d775da4	0.060392037
202	0xbd7f939b	-0.062396627
203	0x3d80e8a0	0.0629437
204	0x3cfc35e5	0.030787418
205	0x3c39aeb3	0.011333155
206	0xbd028ce7	-0.031872656
207	0x3da379f7	0.07982247
208	0x3c988bc9	0.018621342
209	0xbb97eec0	-0.0046366155
210	0x3d977ff5	0.07397453
211	0xbd0bfca2	-0.034176476
212	0xbc557747	-0.013028926
213	0xbd9174ff	-0.07102393
214	0xbd0e9df0	-0.03481859
215	0x3da06343	0.07831433
216	0xbdcd0ebb	-0.10012575
217	0x3c0f76fa	0.008756394
218	0x3b22f31a	0.0024864138
219	0xbd8c21af	-0.06842362
220	0x3db98f5d	0.090605475
221	0x3d33eb67	0.04392567
222	0x3d8ab7d0	0.06773341
223	0xbb71f31e	-0.003691859
224	0xbc854741	-0.016269328
225	0x3cf50bf8	0.029912934
226	0x3d983577	0.074320726
227	0x3d9ff01b	0.07809468
228	0xbd6f5196	-0.058427416
229	0xbd9d50cb	-0.07681426
230	0xbd15f4ce	-0.036610417
231	0x3d4e43be	0.050357573
232	0xbdce71b3	-0.1008028
233	0x3deb7da6	0.11498575
234	0xbdbd1bd0	-0.092338204
235	0x3cc38d0d	0.02387097
236	0xbcc5d6be	-0.024150249
237	0x3d5b9b83	0.053615104
238	0x3d9a1c64	0.07524946
239	0xbc7e382a	-0.01551632
240	0x3d7e9f80	0.06216383
241	0xbdba4ae9	-0.09096319
242	0xbccca921	-0.02498299
243	0x3ddec1eb	0.10876831
244	0xbd929c62	-0.07158734
245	0xbce13c39	-0.027494537
246	0xbdbd976a	-0.092573956
247	0x3d1afca9	0.03783861
248	0xbd8b751f	-0.068094485
249	0xbdb4ddb3	-0.08831348
250	0xbcda0460	-0.026613414
251	0x3dffeb55	0.12496058
252	0xbb46ecf0	-0.0030353628
253	0x3da2afd3	0.07943692
254	0xbd8f9a6f	-0.07011878
255	0x39a2eecc	0.00031076965

bias f4 [64]
0	0x3ce1bed3	0.027556812
1	0xbd0bf924	-0.034173146
2	0x3de9c1bb	0.11413904
3	0xbdb52c97	-0.088463955
4	0xbd9f043f	-0.07764482
5	0x3dfaca7b	0.12245651
6	0xbd05c5d0	-0.03265935
7	0xbdb7eb18	-0.089803874
8	0xbdc2bfb7	-0.09509223
9	0xbc60e4f7	-0.0137264645
10	0x3dfc67d5	0.12324492
11	0xbd75f51a	-0.0600482
12	0x3de17ccb	0.110101305
13	0x3de39e6a	0.111141995
14	0xbcabf09c	-0.020988755
15	0xbd67cd7a	-0.056592442
16	0xbce4a7fa	-0.027912129
17	0x3d88f177	0.06686681
18	0xbc0b4a21	-0.00850156
19	0x3d7f0a7a	0.06226585
20	0x3d758a30	0.05994624
21	0x3d7d37c3	0.061820757
22	0xbbd9afa2	-0.0066432515
23	0x3d67d2c6	0.056597494
24	0xbade4633	-0.0016958177
25	0x3c8459c1	0.01615608
26	0x3de43874	0.1114358
27	0xbdb5c60f	-0.08875667
28	0xbc15f154	-0.009151775
29	0x3dfa0722	0.12208392
30	0x3dae0f8e	0.084990606
31	0xbd785577	-0.06062838
32	0x383479dd	4.302884e-05
33	0xbdf07a9d	-0.117421366
34	0x3dd6c2e8	0.10486394
35	0xbddffb24	-0.10936573
36	0xbdc76961	-0.09736896
37	0xbdbad590	-0.09122765
38	0x3dabacdb	0.08382579
39	0xbc13b599	-0.009015464
40	0xbdbb9ae7	-0.09160405
41	0xbd05ae84	-0.032637134
42	0x3d2d7c6e	0.042354994
43	0xbd66642e	-0.056247883
44	0x3d3668f7	0.044533696
45	0x3d85a49b	0.065255366
46	0xbb6a82da	-0.003578356
47	0x3d91ad21	0.071131
48	0x3ce67734	0.028133012
49	0x3d812ad0	0.06306994
50	0x3dbaa89b	0.0911419
51	0xbd0ddc71	-0.034634057
52	0x3dee5a65	0.11638335
53	0xbd981b2c	-0.074270576
54	0x3df96739	0.12177891
55	0xbdf03736	-0.11729281
56	0x3d1dcaa9	0.03852335
57	0xbd547b8b	-0.051875632
58	0x3c932017	0.017959638
59	0x3dbb69e2	0.09151055
60	0x3cb4f3f4	0.022088982
61	0xbd3c0c68	-0.04591027
62	0x3d8abf9a	0.06774826
63	0xbd12bc06	-0.035823844

weight f4 [64]
0	0x3f7ddfd4	0.9916966
1	0x3f816b38	1.0110846
2	0x3f7e1a70	0.9925909
3	0x3f7f24d2	0.9966556
4	0x3f811731	1.0085202
5	0x3f8186f2	1.0119307
6	0x3f807ee2	1.0038722
7	0x3f7d94f0	0.99055386
8	0x3f7a6e41	0.97824484
9	0x3f7c57b1	0.98571306
10	0x3f8107fc	1.0080562
11	0x3f79ed2b	0.97627515
12	0x3f7ea195	0.99465305
13	0x3f7e088a	0.9923178
14	0x3f7c3f51	0.98534113
15	0x3f7e4b19	0.9933334
16	0x3f8035f3	1.0016464
17	0x3f7ead27	0.9948296
18	0x3f856fb6	1.0424716
19	0x3f80299e	1.00127
20	0x3f7b5288	0.9817281
21	0x3f789006	0.9709476
22	0x3f8343f7	1.0255116
23	0x3f7ca889	0.98694664
24	0x3f801db6	1.0009067
25	0x3f7ca9ff	0.98696893
26	0x3f7af059	0.9802299
27	0x3f7e7cce	0.99409187
28	0x3f78b9a5	0.9715827
29	0x3f79848e	0.9746789
30	0x3f73e4a9	0.9527078
31	0x3f7cf224	0.9880698
32	0x3f823ad7	1.0174206
33	0x3f7e9877	0.9945139
34	0x3f75d43e	0.9602698
35	0x3f7fe5a9	0.9995981
36	0x3f7e1c82	0.9926225
37	0x3f82ca7b	1.0218042
38	0x3f7aa6fe	0.9791106
39	0x3f82bf77	1.021468
40	0x3f7c4437	0.9854159
41	0x3f78c519	0.9717575
42	0x3f810670	1.008009
43	0x3f779aa4	0.9672034
44	0x3f7be7c0	0.984005
45	0x3f7f4583	0.9971544
46	0x3f81d79b	1.0143923
47	0x3f7b1a2c	0.9808681
48	0x3f7fd791	0.99938303
49	0x3f814031	1.0097715
50	0x3f7eb93e	0.9950141
51	0x3f7e3c9c	0.9931123
52	0x3f81901a	1.0122101
53	0x3f761933	0.961322
54	0x3f81925e	1.0122793
55	0x3f7f5133	0.99733275
56	0x3f819baa	1.012563
57	0x3f823d5f	1.0174979
58	0x3f7cab20	0.98698616
59	0x3f7f8dd8	0.9982581
60	0x3f7f7679	0.9979015
61	0x3f7e5363	0.9934599
62	0x3f7c9a17	0.9867262
63	0x3f7f6fbe	0.9977988

bias f4 [64]
0	0x3c9ffb6d	0.019529069
1	0x3b2433d0	0.0025055297
2	0xbcdecbe9	-0.027196841
3	0xbbbbcea6	-0.0057314215
4	0x3c8e9307	0.017404092
5	0x3d1f7c7b	0.038937073
6	0x3c5f7eec	0.0136411
7	0xbbdc74ab	-0.006727775
8	0xbcb1040b	-0.021608373
9	0xbc27f96a	-0.010252336
10	0x3c080263	0.00830135
11	0x3a6b72b5	0.0008981631
12	0xbb7d21e8	-0.0038624946
13	0xbc96f57d	-0.018427605
14	0xbcb16016	-0.021652263
15	0xbcbe3ac1	-0.023221375
16	0xbbb62aaa	-0.005559285
17	0x3b9a2ede	0.004705294
18	0x3c4dcccc	0.012561034
19	0x3c394622	0.011308225
20	0xbabf5862	-0.0014598484
21	0xbd021f48	-0.031768113
22	0x3c38af03	0.011272195
23	0xbc9f335e	-0.019433673
24	0x3c32a42f	0.010903402
25	0xbc9ed13e	-0.019386884
26	0xbce59c91	-0.028028758
27	0x3c255cad	0.010092896
28	0xbcd987a0	-0.026553929
29	0xbd21e7ff	-0.03952789
30	0xbd08ab2e	-0.033366375
31	0xbc8284ad	-0.015932405
32	0x3c6e5284	0.01454604
33	0xbc40680d	-0.011743558
34	0xbcaf2817	-0.021381421
35	0xbbf74060	-0.007545516
36	0xbc1c9557	-0.00955709
37	0x3cf834f3	0.030298686
38	0xbc3cd999	-0.011526489
39	0x3c5522ce	0.013008786
40	0x398163c6	0.00024679134
41	0xbd0813f2	-0.033222146
42	0xbc0b1c92	-0.008490698
43	0xbcff52d4	-0.031167425
44	0xbbebd7a3	-0.0071973368
45	0xbb77dfdf	-0.0037822647
46	0x3c7daf00	0.015483618
47	0xbc78b06e	-0.015178783
48	0x3c1e6fd9	0.009670221
49	0xbbad6177	-0.0052911597
50	0x3b562b7b	0.0032679725
51	0xbb931709	-0.00448883
52	0x3c11c22f	0.008896395
53	0xbd16aebf	-0.036787745
54	0x3cbf05fc	0.023318283
55	0x3ca12034	0.019668676
56	0x3bdf92ac	0.0068229046
57	0xbc5333e9	-0.012890794
58	0xbc4cd59b	-0.012502099
59	0xbb64f43f	-0.003493562
60	0x3bda86e7	0.0066689136
61	0x3a19a291	0.0005860711
62	0xbc00883c	-0.007844981
63	0x3cf8c581	0.030367615

running_mean f4 [64]
0	0x3da42256	0.080143616
1	0xbe8637e8	-0.26214528
2	0x3db81d26	0.089899346
3	0xbd5d2959	-0.05399451
4	0x3ccf7d18	0.025328204
5	0xbaa3eab4	-0.001250586
6	0x3c028aa1	0.007967622
7	0xbe88d728	-0.2672665
8	0xbe8eae11	-0.27867177
9	0xbedcafaa	-0.4310277
10	0xbe36f072	-0.1786516
11	0x3ead7e52	0.33885437
12	0x3ed0f8e3	0.40814885
13	0xbead7848	-0.3388083
14	0xbf00fa32	-0.5038177
15	0x3c0dc2e7	0.008652425
16	0x3e52ec42	0.20597938
17	0xbe2e4298	-0.17017591
18	0x3ed91c73	0.42404518
19	0xbc94945f	-0.018137155
20	0x3dc1c651	0.09461654
21	0xbdf532c0	-0.119725704
22	0xbbbd834f	-0.0057834755
23	0x3e6f469c	0.23366779
24	0xbe7f67d0	-0.24941945
25	0x3e1010ff	0.14068983
26	0x3c576b57	0.01314815
27	0x3d470975	0.048593003
28	0xbe0231c7	-0.12714301
29	0xbc58dd6d	-0.013236386
30	0xbe35141e	-0.17683455
31	0x3ea20d79	0.31650904
32	0xbd9caed8	-0.07650536
33	0xbeac8be3	-0.33700475
34	0xbe9b34d1	-0.30313733
35	0x3ceba991	0.028767379
36	0xbec4fd4c	-0.384745
37	0x3e141190	0.14459825
38	0x3e0f59ac	0.13999051
39	0x3eca04b9	0.39456728
40	0x3dd6d222	0.104892984
41	0xbde2743f	-0.110573284
42	0x3edcb984	0.43110287
43	0xbdaa96ae	-0.08329521
44	0xbe23854b	-0.15968816
45	0x3e81e75c	0.25371826
46	0xbf01cffc	-0.50707984
47	0x3e7080d3	0.23486643
48	0x3e3e701c	0.18597454
49	0xbd0827dc	-0.033241138
50	0x3d37ceb9	0.04487488
51	0xbd6f3af1	-0.05840582
52	0x3ea47019	0.32116774
53	0x3eb8724a	0.36024696
54	0x3eaaea07	0.33381674
55	0xbe4469b9	-0.19180955
56	0xbed04f20	-0.40685368
57	0x3e580569	0.21095814
58	0x3dfc8c04	0.12331393
59	0x3dec2db3	0.11532154
60	0xbdde0df9	-0.10842509
61	0xbe128b96	-0.1431106
62	0xbe6bfd5f	-0.23045872
63	0x3d70f2a1	0.05882514

running_var f4 [64]
0	0x3dc965e2	0.09833886
1	0x3ddd7b72	0.10814561
2	0x3dd386ad	0.10328422
3	0x3db210a2	0.08694579
4	0x3df8e34e	0.1215273
5	0x3e0e3345	0.13886745
6	0x3dc82f33	0.097746275
7	0x3df77c47	0.12084251
8	0x3dc267b6	0.094924375
9	0x3e20a93c	0.15689558
10	0x3e02461b	0.12722056
11	0x3df0ba1e	0.11754249
12	0x3ddbeed8	0.10738915
13	0x3e04f92f	0.12985681
14	0x3e1d6e21	0.15374042
15	0x3e041fbf	0.12902735
16	0x3de0b6f2	0.10972394
17	0x3df24634	0.118297964
18	0x3dfd2a56	0.123615906
19	0x3db40cb1	0.08791483
20	0x3dd46f74	0.103728205
21	0x3de7c007	0.11315923
22	0x3dde3fe0	0.10852027
23	0x3de42b11	0.11141027
24	0x3e08624c	0.13318747
25	0x3dfb8106	0.12280469
26	0x3e17a8af	0.14810441
27	0x3df1dd9e	0.11809848
28	0x3dfeafd8	0.12435883
29	0x3de57e71	0.112057574
30	0x3e2294b0	0.15877032
31	0x3e07cf31	0.13262631
32	0x3e1699c3	0.14707093
33	0x3df5c5b0	0.120005965
34	0x3e00995f	0.12558506
35	0x3e0ed83d	0.13949676
36	0x3e0199dd	0.1265635
37	0x3dd77953	0.10521188
38	0x3de558a1	0.11198545
39	0x3df58059	0.11987371
40	0x3dd221dc	0.102603644
41	0x3ddbd7de	0.10734533
42	0x3e111f2c	0.14172047
43	0x3e0b54e8	0.13606608
44	0x3de9ab04	0.11409572
45	0x3de0f42d	0.10984073
46	0x3dd58348	0.104254305
47	0x3dda9721	0.10673357
48	0x3e023957	0.12717186
49	0x3e0c519a	0.13703004
50	0x3df03c49	0.117302485
51	0x3dc9f01b	0.098602496
52	0x3df71932	0.120653525
53	0x3e22b53f	0.15889452
54	0x3de26106	0.11053662
55	0x3dfab778	0.12242025
56	0x3de4694e	0.11152898
57	0x3ddcde03	0.10784533
58	0x3dff3330	0.12460935
59	0x3df96f28	0.121794045
60	0x3e166cb3	0.14689903
61	0x3e1d2b83	0.1534863
62	0x3e05de99	0.13073196
63	0x3e1404f5	0.14455016

weight f4 [5, 64]
0	0xbd9fb092	-0.0779735
1	0xbd980c15	-0.074241795
2	0x3d57c744	0.05268027
3	0xbd896327	-0.06708365
4	0xbd5382de	-0.051638477
5	0xbe018617	-0.12648807
6	0x3c2b5a7e	0.010458587
7	0x3cd17363	0.025567716
8	0xbc3b3a7f	-0.011427521
9	0x3dc6bab1	0.09703577
10	0xbdeb3338	-0.114843786
11	0x3ca73dc5	0.020415196
12	0xbddf482c	-0.109024376
13	0xbd219439	-0.039447997
14	0xbd4ee9ed	-0.050516058
15	0x3d2ecb93	0.042674612
16	0x3d941fd2	0.07232632
17	0x3dc951bf	0.09830045
18	0xbd8d5241	-0.06900454
19	0x3af60ebd	0.0018772703
20	0x3d6a7aea	0.057246126
21	0x3d4aad88	0.0494819
22	0x3cadb8fe	0.021206375
23	0xbbe89162	-0.007097409
24	0xbcebf1c0	-0.028801799
25	0x3d2eb03a	0.04264853
26	0x3db2918f	0.08719169
27	0xbd3ac4ad	-0.04559772
28	0x3d35411a	0.04425154
29	0x3da09c27	0.07842284
30	0x3d4f8e53	0.05067284
31	0xbd3fdd0b	-0.046841662
32	0xbddb7b96	-0.107169315
33	0x3b1fd290	0.002438698
34	0xbd21ded9	-0.039519165
35	0x3d50dedd	0.05099379
36	0xbc8b936e	-0.017038073
37	0xbe110ee8	-0.14165843
38	0xbd078dc6	-0.03309419
39	0xbd9dc84f	-0.077042215
40	0xbc7897de	-0.015172927
41	0x3db19600	0.08671188
42	0xbd51a4ec	-0.051182672
43	0x3c8da9cd	0.017292881
44	0x3d7297be	0.059226744
45	0x3e006b17	0.12540852
46	0xbccc9fa6	-0.02497847
47	0xbd6d3fdc	-0.05792223
48	0xbddd6b32	-0.108114615
49	0x3dd72fd7	0.105071716
50	0xbd0a167b	-0.033712845
51	0x3d35b5cd	0.04436283
52	0x3c7c77a6	0.015409386
53	0x3c79a3bb	0.01523679
54	0xbe127c19	-0.14305152
55	0xbbddf079	-0.0067730513
56	0x3de4c301	0.111700065
57	0x3dd09b6b	0.101858936
58	0xbc103d65	-0.0088037
59	0xbd3512b6	-0.044207297
60	0xba8445cb	-0.0010091601
61	0xbe0a7af3	-0.13523464
62	0x3d2ce17d	0.04220723
63	0xbd7502c2	-0.059817083
64	0xbdc17382	-0.094458595
65	0x3d0e78cb	0.034783166
66	0x3d81e2ce	0.06342088
67	0xbbb0b994	-0.0053932164
68	0x3d13cc71	0.036083642
69	0xbd8739b4	-0.06602803
70	0xbda31d72	-0.079646006
71	0x3d8cbf8e	0.06872474
72	0x3ca482a0	0.020081818
73	0x39f4f10a	0.00046718895
74	0x3d1efbb9	0.03881428
75	0xbc9aaeea	-0.018882234
76	0x3d59e141	0.053193334
77	0x3daacc41	0.083397396
78	0x3da4d74a	0.08048876
79	0xbbdbaa95	-0.0067036846
80	0xbde3140a	-0.110878065
81	0xbd9800e4	-0.07422045
82	0xbd88d08c	-0.06680402
83	0xbdb9f7a7	-0.09080439
84	0x3d85e159	0.06537122
85	0x3d717e1a	0.05895815
86	0x3d17e4b4	0.037083343
87	0x3de73daa	0.11291058
88	0x3d7552d8	0.05989346
89	0x3de8bafc	0.113637894
90	0x3d95362b	0.07285722
91	0x3d96c64d	0.073620416
92	0x3dab654b	0.083689295
93	0x3d9c5be8	0.07634717
94	0xbb8661e5	-0.0041010254
95	0x3d094c6b	0.033520143
96	0x3d7dffa1	0.062011365
97	0x3d081f75	0.033233125
98	0x3cc7912a	0.024361212
99	0x3ccb9839	0.024852859
100	0x3dac797c	0.08421609
101	0x3d3f2578	0.046666592
102	0x3b00eebf	0.0019673554
103	0xbe0479c8	-0.12937081
104	0xbc091b90	-0.008368388
105	0xbd9cf9de	-0.07664846
106	0x3d3148c5	0.04328229
107	0x3cc60363	0.024171537
108	0x3dbbe00a	0.091735914
109	0x3cedd8e4	0.029034086
110	0xbda653aa	-0.081214264
111	0x3d89f0f3	0.067354105
112	0x3dbe5eee	0.0929545
113	0x3dc5fee6	0.09667759
114	0xbd8d374c	-0.06895313
115	0x3d8bd654	0.06827989
116	0x3cd65d27	0.026167465
117	0x3d76abb2	0.060222335
118	0x3bcff4e8	0.006346334
119	0xbd8cd8b2	-0.06877269
120	0xbdbaa497	-0.09113424
121	0xbe0f48c8	-0.13992608
122	0x3b8f0230	0.0043642744
123	0xbd3ded2e	-0.04636877
124	0xbde40d68	-0.111353695
125	0x3db78f0e	0.089628324
126	0xbd84d426	-0.064857766
127	0xbd42bc07	-0.047542598
128	0xbda7e48f	-0.08197891
129	0xbdfcf586	-0.123515174
130	0xbd46f3b2	-0.04857225
131	0xbd861961	-0.065478094
132	0xbdb0a5ec	-0.08625397
133	0xbd73efa3	-0.059554707
134	0x3ccbe870	0.024891108
135	0x3d81d78f	0.06339943
136	0x3dc72f50	0.09725821
137	0x3dcee4aa	0.10102208
138	0xbd8bcc94	-0.068261296
139	0x3dcb0233	0.09912529
140	0x3d929298	0.07156867
141	0x3c4654c6	0.0121051725
142	0xbd8edd08	-0.06975752
143	0xbc414663	-0.011796567
144	0xbde3da1e	-0.11125587
145	0xbae045cf	-0.0017110648
146	0xbd1c9559	-0.038228367
147	0x3de84946	0.11342101
148	0x3da42497	0.080147915
149	0x3bf2fd2a	0.0074154334
150	0xbdd2405f	-0.10266184
151	0x3dc51ffe	0.09625243
152	0xbd26c691	-0.04071671
153	0xbdc87865	-0.097885884
154	0xbc2ca24f	-0.010536744
155	0xbdb4cb93	-0.08827891
156	0x3bc9d234	0.0061590914
157	0xbd82d891	-0.06388963
158	0x3d6eff5a	0.05834899
159	0x3db9b84b	0.09068354
160	0xbd22322d	-0.039598633
161	0xbd3b1a85	-0.045679588
162	0x3d2c5fe2	0.04208363
163	0xbe04d501	-0.1297188
164	0x3d9a48da	0.075334266
165	0xbd137648	-0.036001474
166	0x3db5db67	0.08879738
167	0xbdff53ca	-0.12467153
168	0x3d8a61a6	0.06756906
169	0xbcc730f7	-0.02431534
170	0xbc9a9648	-0.018870488
171	0x3d8ee8b8	0.06977981
172	0xbda24d69	-0.07924921
173	0xbc942fe6	-0.018089246
174	0xbd902848	-0.07038933
175	0x3d815029	0.063141175
176	0x3d2f66b3	0.04282255
177	0xbc1ba4c6	-0.009499734
178	0xbd3a56d2	-0.045492955
179	0x3d87beff	0.066282265
180	0xbe0103cc	-0.12599105
181	0x3db6262a	0.08893998
182	0x3cc7ffef	0.02441403
183	0x3cffb1ba	0.031212676
184	0xbdb4eb51	-0.088339455
185	0x3cd0b6a4	0.025477715
186	0x3da51d23	0.08062198
187	0x3c00436f	0.007828577
188	0x3dcff9af	0.10155045
189	0x3d8ece39	0.069729276
190	0x3bf9b0a4	0.007619934
191	0x3d927c6c	0.07152638
192	0xbd01982f	-0.031639274
193	0x3da0c279	0.07849593
194	0x3b6bf825	0.003600606
195	0x3bf4217f	0.007450282
196	0x3d943c69	0.07238085
197	0x3c57cc3a	0.01317125
198	0x3df43ba6	0.119254395
199	0xbcf04579	-0.029330002
200	0xbde14d08	-0.11001021
201	0xbdc8fa79	-0.09813399
202	0xbdd813c4	-0.10550645
203	0x3db1a419	0.08673877
204	0xbd1219e3	-0.03566922
205	0xbc18fbed	-0.009337408
206	0xbdafc164	-0.08581808
207	0x3dc0320d	0.093845464
208	0xbdce3da0	-0.10070348
209	0x3da4b9b9	0.08043236
210	0x3ddb6098	0.10711783
211	0xb9f52726	-0.0004675921
212	0x3e02b0f2	0.12762812
213	0x3d6f28d7	0.058388557
214	0xbd0eb59e	-0.034841172
215	0xbd6c3246	-0.057665132
216	0xbdadf55f	-0.084940664
217	0xbd738ba3	-0.05945934
218	0x3dedec23	0.11617305
219	0x3d2abf73	0.041686486
220	0xbd9514e4	-0.07279375
221	0xbdc90c69	-0.0981682
222	0xbd21a935	-0.03946801
223	0xbdd833ce	-0.10556756
224	0x3c89c320	0.016816676
225	0xbdcd9db0	-0.10039842
226	0x3d844f06	0.06460385
227	0x3dce9140	0.10086298
228	0xbd2bbc5f	-0.04192769
229	0x3b9de2f4	0.0048183147
230	0x3d3af90f	0.045647677
231	0xbd7d67a4	-0.061866418
232	0x3db84000	0.08996582
233	0xbcfd5999	-0.030926513
234	0xbda83c52	-0.0821463
235	0xbc18fd49	-0.009337732
236	0xbd2b55e7	-0.04182997
237	0x3cafb8a0	0.02145034
238	0x3d854e5c	0.065090865
239	0x3db7901d	0.08963034
240	0x3ab2d926	0.0013645038
241	0xbdc2a6d5	-0.09504477
242	0xbdd0cda0	-0.1019547
243	0x3dbd3c14	0.092399746
244	0x3d95e1e9	0.073184796
245	0x3ddee3bf	0.10883283
246	0x3e09fcbc	0.13475317
247	0xba52cce8	-0.00080413977
248	0xbd7510c5	-0.059830446
249	0xbdd65cf7	-0.104669504
250	0xbce895b7	-0.028391702
251	0xbca60742	-0.020267133
252	0xbda715bb	-0.08158442
253	0x3cc947a1	0.024570288
254	0x3c0ac66d	0.00847016
255	0x3d718836	0.05896779

bias f4 [5]
0	0xbe1246b6	-0.14284787
1	0xbca3f0ae	-0.020012226
2	0xbd9c3c54	-0.07628694
3	0x3d7d7edd	0.061888564
4	0x3c66cbbe	0.014086662
