Industrial Equipment/mlruns/0/98fd568b73664859b020a331fc1ffcf8/artifacts/generator_model/data/model.pth (torch, 49844 bytes, 6 tensors)

weight f4 [64, 100]
-0.12626736 0.09578964 -0.053225826 0.09279145 -0.097080305 -0.037617076 -0.11117113 -0.07963923
-0.049912795 0.09955975 -0.00023439393 -0.13159852 -0.03024608 -0.038722742 -0.013389226 -0.07331239
0.03958238 0.034987576 -0.011668194 0.019823844 -0.06593424 0.06901417 -0.06381074 -0.06675777
0.015103798 -0.12849909 -0.044105418 -0.08406262 0.09734088 0.04923127 -0.11064821 0.12708999
-0.09593653 0.04235636 0.08520507 -0.07705084 0.055038847 -0.066337116 0.013728738 -0.049584314
-0.054334197 0.033762723 -0.023270398 0.05911175 0.0913008 0.035061285 -0.12179636 0.10581752
0.11031024 -0.100676395 0.101986215 -0.077745646 -0.061508477 -0.08045977 -0.0074057104 -0.0019178567
-0.106339894 -0.014858742 0.09672526 0.10908005 -0.07294352 -0.034445778 0.023263875 -0.06927291
0.058434706 0.11283881 -0.045231506 -0.113043584 0.087077245 -0.038359452 -0.07678488 -0.083205715
0.015751086 -0.13671239 -0.01681912 0.0052567217 0.0033293897 -0.07753101 0.09558633 -0.103228286
0.07179797 -0.033491705 0.044407506 0.09698174 -0.06842419 0.09945449 -0.07050076 0.125858
-0.08015525 -0.089062944 0.096588574 -0.06956949 0.09904443 0.12154377 0.1074594 -0.11313785
-0.11139925 0.10843296 -0.07101237 -0.063240945 0.04750271 0.17156364 0.08738351 0.04784265
-0.078917384 -0.16022235 -0.063253015 0.048673015 -0.0822843 -0.045595065 0.100510225 -0.0846149
-0.1323417 0.063376784 -0.074743226 0.036233913 -0.11549691 0.07018694 -0.15904549 -0.15231457
-0.06520102 0.12347881 0.16131239 0.044901256 -0.16335317 0.105422914 -0.16867702 0.14353268
-0.067419186 0.07948942 -0.10064758 -0.09837497 -0.07312787 0.004618947 -0.0145918345 -0.0731012
-0.07521452 0.059935138 0.13630673 -0.12567191 0.030516054 0.03378194 0.14198884 -0.045402817
0.04462722 -0.10880083 0.12316879 -0.045277186 -0.003896644 -0.080246694 -0.13361311 0.122770905
-0.13445708 -0.015917791 -0.05830169 0.028988011 0.109551564 -0.041847993 0.1630065 0.14342928
-0.122437716 0.091912456 -0.008398013 0.12188485 0.03860402 -0.10355982 -0.05196988 0.078145765
0.11641772 -0.04536635 -0.09918943 0.022868726 -0.06841097 -0.037975807 -0.15441409 -0.08474459
0.0076024365 -0.09121054 0.107998244 0.08588888 -0.1482693 -0.09359582 -0.042546667 -0.112942435
0.1106659 -0.019851688 0.069681875 -0.042483333 -0.012306802 0.12905054 -0.062342443 0.10208759
0.173056 -0.15392688 -0.07224362 0.15487565 0.12882951 0.026152361 0.019410377 -0.044050958
0.12229777 -0.03811068 -0.054898363 -0.15527798 0.029402591 -0.10133183 0.13128184 -0.12439902
0.15109146 0.11763958 -0.02818759 -0.111108266 -0.00089932093 0.1844059 0.15422717 0.1560115
-0.03813727 -0.08779048 -0.061128214 0.0940316 -0.124862865 -0.017183112 -0.058094632 0.12922956
-0.124855734 0.016131835 -0.16944963 0.01655383 0.12947631 -0.037172224 -0.06080742 0.08378569
-0.13891077 -0.09596462 -0.14099483 -0.035608545 0.07891883 0.12930018 0.074897066 -0.08450467
0.0017539534 -0.038651127 -0.14114493 -0.18291584 4.8037786e-05 0.10980073 0.16208704 -0.016126584
0.11653295 -0.028542383 0.11941245 0.14286849 -0.1879523 -0.019918337 0.089319 -0.17120834
00000000: 3b4c 01be 5c2d c43d 5303 5abd 7209 be3d
00000010: 0ad2 c6bd 5d14 1abd b0ad e3bd e519 a3bd
00000020: 5c71 4cbd fbe5 cb3d a4c7 75b9 c3c1 06be
00000030: a1c6 f7bc bd9b 1ebd 7c5e 5bbc ce24 96bd
00000040: 2221 223d 224f 0f3d f42b 3fbc 9d65 a23c
00000050: 8808 87bd 4d57 8d3d 35af 82bd 4cb8 88bd
00000060: ec75 773c 4495 03be e2a7 34bd 0629 acbd
00000070: a85a c73d baa6 493d 879b e2bd e123 023e
00000080: 5f7a c4bd dd7d 2d3d ff7f ae3d d5cc 9dbd
00000090: 6a70 613d c1db 87bd 80ee 603c ec18 4bbd
000000a0: 898d 5ebd c84a 0a3d 90a1 bebc 2a1f 723d
000000b0: eafb ba3d 6c9c 0f3d 5f70 f9bd dbb6 d83d
000000c0: 56ea e13d 6d2f cebd 26de d03d 1c39 9fbd
000000d0: 50f0 7bbd 18c8 a4bd 9aab f2bb 9860 fbba
000000e0: bbc8 d9bd 1572 73bc e517 c63d 5c65 df3d
000000f0: 6a63 95bd 0417 0dbd e293 be3c f5de 8dbd
00000100: 3b59 6f3d 0918 e73d ac44 39bd 6583 e7bd
00000110: 8e55 b23d cd1e 1dbd 6441 9dbd c267 aabd
00000120: 6c08 813c 55fe 0bbe 40c8 89bc 9440 ac3b
00000130: e431 5a3b 94c8 9ebd c4c2 c33d 5a69 d3bd
00000140: d00a 933d 992e 09bd a5e4 353d 5d9e c63d
00000150: fb21 8cbd ccae cb3d b462 90bd ebe0 003e
00000160: 7028 a4bd a266 b6bd 3bd0 c53d 737a 8ebd
00000170: ced7 ca3d f1eb f83d ad13 dc3d d1b4 e7bd
00000180: 4a25 e4bd 1a12 de3d ef6e 91bd 7884 81bd
00000190: 3492 423d 61ae 2f3e 20f6 b23d a8f6 433d
000001a0: 709f a1bd 5411 24be cc8a 81bd 5b5d 473d
000001b0: ac84 a8bd e4c1 3abd 4ed8 cd3d 944a adbd
000001c0: 9584 07be b0cb 813d fa12 99bd 036a 143d
000001d0: a589 ecbd 2cbe 8f3d d2dc 22be 5af8 1bbe
000001e0: 1d88 85bd 75e2 fc3d 132f 253e 61ea 373d
000001f0: 0e46 27be f8e7 d73d abb9 2cbe 3bfa 123e
00000200: 1213 8abd 59cb a23d 5220 cebd d178 c9bd
00000210: 11c4 95bd 895a 973b 9712 6fbc 15b6 95bd
00000220: 120a 9abd 8c7e 753d fe93 0b3e 23b0 00be
00000230: cefc f93c ee5e 0a3d 8665 113e 4ef8 39bd
00000240: 08cb 363d f8d2 debd eb3f fc3d 9274 39bd
00000250: d75e 7fbb 6158 a4bd e0d1 08be 506f fb3d
00000260: 1eaf 09be 0766 82bc c1cd 6ebd 4478 ed3c
00000270: 925c e03d cd68 2bbd 2deb 263e 20df 123e
00000280: a0c0 fabd 993c bc3d d297 09bc c49e f93d
00000290: 401f 1e3d 2c17 d4bd 5ede 54bd e30a a03d
000002a0: 6a6c ee3d 11d2 39bd d423 cbbd 3257 bb3c
000002b0: 0d1b 8cbd 858c 1bbd ba1e 1ebe 928e adbd
000002c0: dc1d f93b 97cc babd 2f2e dd3d 82e6 af3d
000002d0: e8d3 17be 2aaf bfbd 6a45 2ebd 5d4e e7bd
000002e0: cea4 e23d 02a0 a2bc 5fb5 8e3d 0103 2ebd
000002f0: 78a2 49bc d325 043e ca5a 7fbd 4c13 d13d
00000300: 9835 313e 029f 1dbe 77f4 93bd b997 1e3e
00000310: e2eb 033e 7a3d d63c 8302 9f3c c76e 34bd
00000320: 4177 fa3d f219 1cbd 1bdd 60bd 3101 1fbe
00000330: b4dd f03c 1087 cfbd bf6e 063e eac4 febd
00000340: b8b7 1a3e 05ed f03d a9e9 e6bc bb8c e3bd
00000350: 68c0 6bba e6d4 3c3e baed 1d3e 7bc1 1f3e
00000360: d335 1cbd 7fcb b3bd 9461 7abd a493 c03d
00000370: 1ab8 ffbd 99c3 8cbc a3f4 6dbd c154 043e
00000380: 5db4 ffbd e926 843c 3484 2dbe e69b 873c
00000390: 7095 043e e741 18bd 3411 79bd d597 ab3d
000003a0: a03e 0ebe 1989 c4bd f360 10be 44da 11bd
000003b0: 32a0 a13d 4467 043e a263 993d c910 adbd
000003c0: e9e4 e53a a550 1ebd 4c88 10be 4a4e 3bbe
000003d0: 2e7c 4938 35df e03d 25fa 253e e61b 84bc
000003e0: d4a8 ee3d b7d1 e9bc 848e f43d 1e4c 123e
000003f0: 9176 40be c82b a3bc e1ec b63d 3d51 2fbe

bias f4 [64]
0.15838867 0.04245795 0.15502383 0.052235886 0.06521533 0.16929069 0.08569636 0.18910575
0.11232541 0.13340957 0.07617511 0.15763563 0.21763527 0.16658 0.14484377 0.21471193
0.1634163 -0.008427819 0.036877375 0.07143572 0.093148656 0.044947643 0.06858307 0.026398353
0.1942769 0.11862192 0.22070344 0.048113395 0.16718015 0.028810857 0.07087497 -0.00210948
0.15464222 -0.04017219 0.07166088 0.17260686 0.010414801 0.12750524 0.020697603 0.15794656
-0.002502279 0.18953718 0.07244168 0.15232247 0.060290653 -0.025319396 0.16040252 0.14163782
0.12508495 0.09928086 0.057055518 -0.050090685 0.120627 0.17601946 0.054638207 0.031401686
0.20735802 0.16863953 0.13855578 0.04014248 0.08136781 0.035411403 0.12870839 0.11413819
00000000: a430 223e 63e8 2d3d 91be 1e3e 4cf5 553d
00000010: 9d8f 853d 8a5a 2d3e 9381 af3d f0a4 413e
00000020: dd0a e63d 859c 083e b201 9c3d 3c6b 213e
00000030: c8db 5e3e f393 2a3e ed51 143e 72dd 5b3e
00000040: 9a56 273e d614 0abc bb0c 173d e44c 923d
00000050: b9c4 be3d 051b 383d 4875 8c3d 5c41 d83c
00000060: 86f0 463e 0df0 f23d 1500 623e 8d12 453d
00000070: 4631 2b3e bf04 ec3c e526 913d 343f 0abb
00000080: 885a 1e3e 988b 24bd f1c2 923d dabf 303e
00000090: d7a2 2a3c bc90 023e 058e a93c bebc 213e
000000a0: 46fd 23bb 0916 423e 4e5c 943d 6cfa 1b3e
000000b0: 55f3 763d 9f6a cfbc 8f40 243e 8109 113e
000000c0: 4516 003e c353 cb3d 0cb3 693d e42b 4dbd
000000d0: 4a0b f73d 723e 343e 50cc 5f3d 0e9f 003d
000000e0: a955 543e d7af 2c3e 91e1 0d3e 716c 243d
000000f0: 2ba4 a63d 8c0b 113d 22cc 033e 49c1 e93d

weight f4 [64, 64]
-0.016734611 0.12426685 0.1273968 0.023129065 0.05716135 -0.00075076194 0.10160345 -0.019529384
0.07449407 -0.04688851 -0.011935949 0.15987886 -0.044493098 0.045542803 0.052824624 0.0402829
0.11617239 0.035414055 0.0012809006 0.017219925 -0.051703595 -0.054732416 0.14443706 0.13909028
-0.07008305 0.027271109 0.031123934 0.037542637 0.0865412 0.09931668 0.02348215 -0.06133781
0.10430557 0.039673243 -0.038584042 -0.0123051815 0.15669996 -0.0054705637 -0.032404747 0.034145605
0.08541913 0.05130801 0.034448124 -0.041699227 0.1258341 0.024112819 0.07408495 -0.026971562
0.029243909 0.11787463 0.0038138146 -0.0019776302 0.13957356 0.034126025 -0.042174544 0.07457781
0.16031975 -0.04177224 -0.03168319 0.014532047 0.068247996 0.11868225 0.072997555 0.122418836
0.14296488 0.1599421 -0.013989346 -0.04366938 0.087110914 0.08559404 -0.0029883683 0.1236434
-0.040630292 -0.0592837 0.013697632 -0.032058243 -0.06456598 -0.03089275 -0.010167752 0.00828215
0.076167196 0.09216507 0.05642067 -0.046508513 0.11842244 0.10724329 0.14212693 -0.07772237
0.12841447 0.0059273313 0.13401526 0.1437058 0.03234748 0.111307874 0.043288674 -0.08498248
0.05914948 0.042537775 0.08986546 0.11777924 0.12568003 -0.082820795 0.022250948 -0.05956128
0.08848603 0.093768135 0.1453313 0.101051345 0.14632477 -0.031840045 0.15479049 -0.029628927
0.1284779 -0.021678234 0.061835382 0.027389236 0.0860938 0.16191916 0.056432214 0.081511684
0.11707829 -0.026528986 0.102863654 -0.018812574 0.14377819 0.14501603 -0.022496637 0.07949953
-0.05331662 0.06389841 -0.0031357973 0.1092663 0.072936 0.055687536 -0.002633071 0.08678919
0.028796393 0.11053222 -0.095009595 -0.12501307 0.051145654 -0.018894333 0.0635324 -0.10508155
0.02377835 -0.032796543 0.095102884 0.11988927 0.057602298 0.047314145 -0.06836748 -0.11823867
-0.05748095 -0.027694194 0.10104458 0.07854749 -0.07965294 -0.12740445 0.047253784 -0.008405065
0.033610307 -0.07153088 0.11180053 0.050702408 0.027674621 0.018178346 -0.0072499365 0.05127021
0.052851822 0.043830466 -0.016752003 -0.09837698 0.07814309 -0.11423743 0.11077089 0.026581118
-0.04473654 -0.022468494 0.061684005 -0.10003339 -0.01669229 0.083033144 0.016798658 0.10972423
-0.07579909 -0.07425914 0.018247768 0.04465905 0.08682782 0.018216781 -0.05334783 0.10536263
0.13785368 0.14558503 -0.099362284 0.12434951 0.049733184 0.12772651 0.032166626 0.07382606
0.06732843 0.08382146 0.12131478 0.084537864 0.01643873 -0.051663447 -0.0044535133 -0.0011162135
-0.02996888 -0.04193141 0.050466724 0.15413554 0.08091369 0.064938076 0.10038475 -0.023843845
0.14629743 0.027874826 -0.081855685 0.14012308 -0.07988107 -0.061324887 0.026966492 0.115151025
-0.086810626 -0.069483794 0.025392696 -0.012360623 0.0741547 0.107041664 -0.04855376 -0.0739743
-0.059576057 0.05530241 -0.047982123 0.04743308 -0.08944159 0.08374712 -0.03402329 -0.029298397
-0.05378464 0.03788476 0.078585126 0.16280098 0.09597258 -0.06488343 0.022223545 -0.004631416
0.14403316 0.026488462 -0.0480787 0.06402598 0.1053488 -0.0021930085 -0.066694245 0.004725375
00000000: 0617 89bc 9e7f fe3d 4f74 023e 2a79 bd3c
00000010: 0522 6a3d c8ce 44ba 7815 d03d 16fc 9fbc
00000020: 5990 983d 2b0e 40bd 008f 43bc 49b7 233e
00000030: 653e 36bd 178b 3a3d a25e 583d afff 243d
00000040: caeb ed3d 540e 113d e4e3 a73a cd10 8d3c
00000050: 26c7 53bd 192f 60bd 4fe7 133e af6d 0e3e
00000060: b487 8fbd a967 df3c 9ff7 fe3c 4fc6 193d
00000070: 833c b13d 8b66 cb3d a35d c03c 5b3d 7bbd
00000080: 299e d53d 6980 223d 4d0a 1ebd ac9b 49bc
00000090: f475 203e 6a42 b3bb d7ba 04bd 43dc 0b3d
000000a0: 3af0 ae3d 5928 523d 7a19 0d3d cfcc 2abd
000000b0: a8da 003e 3f88 c53c dab9 973d 77f3 dcbc
000000c0: ec90 ef3c 4168 f13d 31f1 793b 219b 01bb
000000d0: 5fec 0e3e bbc7 0b3d 37bf 2cbd 40bc 983d
000000e0: dc2a 243e 5e19 2bbd 3cc6 01bd d317 6e3c
000000f0: 9bc5 8b3d ae0f f33d be7f 953d bab6 fa3d
00000100: 6365 123e ddc7 233e 9233 65bc aade 32bd
00000110: 3567 b23d ee4b af3d 80d8 43bb c038 fd3d
00000120: f36b 26bd 77d3 72bd 086c 603c 814f 03bd
00000130: 2b3b 84bd cb12 fdbc a596 26bc dbb1 073c
00000140: 8cfd 9b3d 0ac1 bc3d 5c19 673d b67f 3ebd
00000150: 7787 f23d 5fa2 db3d b989 113e e82c 9fbd
00000160: 157f 033e 0f3a c23b 4c3b 093e 9d27 133e
00000170: cb7e 043d 62f5 e33d 774f 313d 4b0b aebd
00000180: ba46 723d 173c 2e3d 620b b83d 3e36 f13d
00000190: 44b2 003e f39d a9bd 9f47 b63c 87f6 73bd
000001a0: 2a38 b53d 8209 c03d bad1 143e 02f4 ce3d
000001b0: 29d6 153e b56a 02bd 6681 1e3e 5db8 f2bc
000001c0: b68f 033e 8d96 b1bc 1947 7d3d 645f e03c
000001d0: f251 b03d 23ce 253e 7725 673d 99ef a63d
000001e0: bec6 ef3d 5153 d9bc 2eaa d23d d41c 9abc
000001f0: 973a 133e 157f 143e de4a b8bc a6d0 a23d
00000200: 8762 5abd 2bdd 823d f381 4dbb 03c7 df3d
00000210: 785f 953d 9d18 643d 9a8f 2cbb 88be b13d
00000220: 6ae6 eb3c b75e e23d 6494 c2bd 6d03 00be
00000230: 1b7e 513d 4ac8 9abc 461d 823d ff34 d7bd
00000240: d0ca c23c ab55 06bd 4dc5 c23d 8188 f53d
00000250: 63f0 6b3d 7acc 413d 4004 8cbd 1e27 f2bd
00000260: 2571 6bbd efde e2bc 76f0 ce3d 82dd a03d
00000270: 1521 a3bd 5076 02be 2f8d 413d 66b5 09bc
00000280: f6aa 093d c87e 92bd adf7 e43d 54ad 4f3d
00000290: e3b5 e23c c1ea 943c e090 edbb b600 523d
000002a0: 277b 583d 9387 333d 7f3b 89bc df79 c9bd
000002b0: 7c09 a03d 50f5 e9bd d9db e23d a5c0 d93c
000002c0: aa3d 37bd d90f b8bc 5ea8 7c3d 4ede ccbd
000002d0: 45be 88bc 480d aa3d 579d 893c 19b7 e03d
000002e0: 8e3c 9bbd 2d15 98bd 587c 953c 68ec 363d
000002f0: c9d2 b13d 5c3b 953c 4183 5abd 5dc8 d73d
00000300: 8429 0d3e 3e14 153e 747e cbbd f5aa fe3d
00000310: 06b5 4b3d bdca 023e 27c1 033d 1e32 973d
00000320: 7de3 893d 96aa ab3d e273 f83d 3022 ad3d
00000330: 84aa 863c 0d9d 53bd c7ee 91bb e94d 92ba
00000340: 4c81 f5bc 45c0 2bbd 32b6 4e3d b5d5 1d3e
00000350: 14b6 a53d 41fe 843d 8596 cd3d 2b54 c3bc
00000360: fece 153e bf59 e43c f4a3 a7bd 6d7c 0f3e
00000370: b098 a3bd ce2f 7bbd d5e8 dc3c 4dd4 eb3d
00000380: c5c9 b1bd 854d 8ebd 5804 d03c 3684 4abc
00000390: 6bde 973d a938 db3d 4fe0 46bd d67f 97bd
000003a0: 0606 74bd c884 623d e788 44bd 3049 423d
000003b0: 272d b7bd 9c83 ab3d 015c 0bbd 3103 f0bc
000003c0: 484d 5cbd 0d2d 1b3d 3df1 a03d 4db5 263e
000003d0: 468d c43d 9be1 84bd 270e b63c 22c3 97bb
000003e0: 6e7d 133e 55fe d83c 2cee 44bd 0e20 833d
000003f0: 1dc1 d73d 94b8 0fbb fe96 88bd 52d7 9a3b

bias f4 [64]
0.117912084 0.08441469 0.024897786 0.12014432 -0.0011847392 0.10912032 0.14002502 -0.082181565
0.09683725 -0.076321535 0.096506074 0.117963485 -0.09154685 0.09148939 0.12105557 -0.07848497
-0.057138324 0.104140855 0.034485657 0.0015102199 0.11834549 -0.054835465 -0.045490015 0.03235269
0.012893553 0.061186593 -0.07452446 0.11080009 0.13591552 -0.008064952 0.15148817 0.0970803
0.06653818 0.057253197 -0.02415938 0.15118678 -0.07956539 0.02953526 0.053315606 0.08714205
-0.05639277 0.026953131 0.0687028 -0.011781206 0.11406845 -0.006430849 -0.026868977 0.18759166
-0.05882381 0.2074877 -0.0014379744 -0.02516008 0.1640146 -0.03883861 -0.010502497 0.15428421
0.14430594 -0.0034795268 0.1817934 -0.08373473 0.03320371 0.1419182 0.14996271 0.08218422
00000000: e47b f13d 9ce1 ac3d 71f6 cb3c 3a0e f63d
00000010: 4049 9bba 797a df3d b862 0f3e cf4e a8bd
00000020: 9c52 c63d 774e 9cbd faa4 c53d d796 f13d
00000030: ea7c bbbd ca5e bb3d fceb f73d babc a0bd
00000040: e009 6abd cd47 d53d d540 0d3d 92f2 c53a
00000050: 1f5f f23d 279b 60bd bd53 3abd 4184 043d
00000060: 7b3f 533c cb9e 7a3d 48a0 98bd 28eb e23d
00000070: 702d 0b3e dc22 04bc b71f 1b3e 09d2 c63d
00000080: 2b45 883d 5482 6a3d e4e9 c5bc b5d0 1a3e
00000090: 2ef3 a2bd eef3 f13c 7761 5a3d 8877 b23d
000000a0: 1bfc 66bd d0cc dc3c 0eb4 8c3d f605 41bc
000000b0: b89c e93d dfb9 d2bb 541c dcbc 0718 403e
000000c0: 3cf1 70bd a877 543e 6a7a bcba 831c cebc
000000d0: 71f3 273e 3c15 1fbd aa12 2cbc aefc 1d3e
000000e0: f0c4 133e c608 64bb 0d28 3a3e 1d7d abbd
000000f0: 9d00 083d 0153 113e d38f 193e 3350 a83d

weight f4 [5, 64]
0.10524344 0.018176455 0.012588536 -0.05618996 0.09197367 -0.1359352 -0.12920213 -0.09002937
-0.18260105 -0.001062277 0.04978361 0.13310553 -0.09290747 0.049314443 -0.17148118 -0.054476563
0.01088716 -0.05019859 -0.12463193 -0.09172224 -0.13928993 -0.12244601 0.024139365 0.09779593
0.038250342 -0.036330987 0.03672453 -0.03334055 -0.00720377 -0.0677976 -0.046044946 0.07758364
0.059546463 0.104472466 0.09214609 -0.10162982 -0.100498304 0.0037073176 0.014400456 0.06856375
0.07314931 0.056640096 -0.050590675 -0.12864621 0.014829215 0.0002570112 -0.016507108 -0.11946713
-0.14134093 0.023667872 -0.16449784 -0.1503646 -0.08998796 -0.092309244 0.005712112 -0.16862534
-0.05609885 0.033943642 -0.09796071 0.10673309 -0.057258997 -0.05887879 -0.05085248 0.04735267
0.106024034 0.020659607 -0.020708794 -0.03009858 0.055712905 0.14006196 -0.057948705 -0.08893263
0.09650054 -0.049700137 -0.15860872 -0.0803845 -0.06696639 -0.032771595 -0.013402228 -0.0151249245
0.027911572 -0.097177 0.14042102 0.020271309 0.030478073 -0.029726332 0.0020760128 0.11240955
0.06091246 -0.056452308 0.013662692 0.13397263 0.029465081 -0.08367435 0.0874716 0.06378385
-0.0010585204 -0.09190007 -0.080375016 0.14025554 -0.066817015 0.16852012 -0.055425152 0.0049239118
-0.041369464 0.08265958 0.0053159883 0.1550323 0.048169125 -0.101594366 0.08610605 -0.030266132
-0.011209082 -0.0528892 0.13387665 0.09445901 0.044491358 -0.082282506 0.08061543 0.07262504
0.12627204 -0.023909176 0.029776875 -0.043957718 0.048969485 0.045525953 -0.06370741 -0.112735875
0.062326472 -0.03919407 -0.034051836 0.01957756 0.014249771 0.07884703 -0.03776397 -0.052846074
0.05401938 0.055184793 -0.0039891824 0.0016249627 0.032375306 -0.05745122 0.1249472 -0.029494463
-0.081970796 -0.009685563 0.05400349 -0.121732004 0.08348239 0.15602857 0.14504227 0.0066518043
-0.077297285 -0.071698345 -0.036806576 0.09905669 -0.058055144 0.18296622 0.044529233 -0.10498761
-0.10414876 -0.025309833 -0.058397602 0.030717965 0.051469214 0.047135256 0.09447786 0.1149618
0.08635337 0.07978875 -0.025170399 0.08347947 0.120570846 -0.0067209005 0.012271857 -0.012103422
-0.050960895 0.13749357 0.051437743 0.07199096 -0.0767198 0.08766155 0.074323006 0.042685647
-0.09888498 0.07572499 0.13603939 -0.061406318 -0.05819332 0.19917946 -0.018972557 0.033674516
-0.15200043 0.016671212 0.082946524 0.106455214 -0.063181795 0.023585282 0.103242286 -0.16104944
-0.20099682 0.045518912 -0.036181096 0.06911512 0.11645274 0.026889432 -0.00075909274 0.050981376
0.03865944 -0.117967024 -0.026972301 -0.07885267 -0.13232844 0.030448534 0.12289974 -0.12913431
-0.08532951 -0.16781381 0.055679634 -0.09987074 -0.19851334 -0.073145844 0.05424072 0.044757254
-0.106080875 0.027227504 0.14591075 0.097940184 0.114787005 -0.031111386 -0.08703417 0.081674546
0.09460461 -0.035005886 0.085832186 -0.085766874 0.056288835 -0.011465018 -0.026373725 -0.11266729
-0.021270676 -0.1279026 0.010601834 -0.10752273 -0.040620137 -0.04752324 -0.15778202 -0.13038066
-0.05601429 -0.06295332 -0.09371129 0.059521474 -0.099906035 -0.00049430487 0.068747625 -0.15791962
00000000: df89 d73d cae6 943c 2640 4e3c 7227 66bd
00000010: b15c bc3d 9932 0bbe 904d 04be 5161 b8bd
00000020: c5fb 3abe 1a3c 8bba e6e9 4b3d d14c 083e
00000030: 4646 bebd f1fd 493d c398 2fbe d122 5fbd
00000040: 0f60 323c 099d 4dbd 063f ffbd dfd8 bbbd
00000050: 05a2 0ebe f9c4 fabd ebbf c53c 3c49 c83d
00000060: 64ac 1c3d cdcf 14bd 766c 163d 1a90 08bd
00000070: 9a0d ecbb 78d9 8abd a099 3cbd 2ce4 9e3d
00000080: fee6 733d a9f5 d53d 17b7 bc3d 4c23 d0bd
00000090: 0ed2 cdbd 78f6 723b e4ef 6b3c 276b 8c3d
000000a0: 4ecf 953d 72ff 673d 2b38 4fbd d5bb 03be
000000b0: 3cf6 723c 76bf 8639 ea39 87bc 2fab f4bd
000000c0: adbb 10be 20e3 c13c 1f72 28be 2df9 19be
000000d0: 9c4b b8bd a10c bdbd ab2c bb3b 1fac 2cbe
000000e0: e8c7 65bd 7d08 0b3d a09f c8bd e196 da3d
000000f0: 6988 6abd e32a 71bd b14a 50bd e0f4 413d
00000100: 2123 d93d 563e a93c 7da5 a9bc 4c91 f6bc
00000110: 3733 643d 676c 0f3e 9f5b 6dbd 5022 b6bd
00000120: 13a2 c53d 5f92 4bbd 536a 22be a1a0 a4bd
00000130: ad25 89bd 823b 06bd 0595 5bbc 88ce 77bc
00000140: cfa6 e43c bc04 c7bd 87ca 0f3e 0410 a63c
00000150: 27ad f93c a384 f3bc b70d 083b fa36 e63d
00000160: 587f 793d 893a 67bd 7cd9 5f3c 1f30 093e
00000170: c160 f13c 755d abbd 4f24 b33d 1ba1 823d
00000180: 0dbe 8aba 1b36 bcbd a89b a4bd 269f 0f3e
00000190: 5cd7 88bd 8a90 2c3e 7c05 63bd c458 a13b
000001a0: 0773 29bd 6d49 a93d be31 ae3b cac0 1e3e
000001b0: fd4c 453d b510 d0bd 5e58 b03d aef0 f7bc
000001c0: 4ca6 37bc 59a2 58bd f616 093e ba73 c13d
000001d0: 923c 363d bb83 a8bd b419 a53d 70bc 943d
000001e0: 754d 013e 2ddd c3bc a2ee f33c 020d 34bd
000001f0: 3a94 483d 6c79 3a3d 0879 82bd 11e2 e6bd
00000200: 0b4a 7f3d f689 20bd f079 0bbd 1e61 a03c
00000210: df77 693c 8d7a a13d 65ae 1abd 2075 58bd
00000220: 6d43 5d3d 7309 623d b0b7 82bb b3fc d43a
00000230: f89b 043d f851 6bbd 51e4 ff3d 5f9e f1bc
00000240: 4ee0 a7bd 32b0 1ebc c332 5d3d a14e f9bd
00000250: d1f8 aa3d f4c5 1f3e f685 143e 61f7 d93b
00000260: 0a4e 9ebd 95d6 92bd 7ec2 16bd 3cde ca3d
00000270: 3bcb 6dbd 7f5b 3b3e 4964 363d be03 d7bd
00000280: f24b d5bd 9156 cfbc 5332 6fbd 3ea4 fb3c
00000290: 62d1 523d e610 413d 9c7d c13d 1871 eb3d
000002a0: 09da b03d 4968 a33d 2732 cebc 49f7 aa3d
000002b0: d9ed f63d 003b dcbb e60f 493c 6e4d 46bc
000002c0: 5fbc 50bd 1dcb 0c3e 62b0 523d ff6f 933d
000002d0: 451f 9dbd e687 b33d a936 983d 25d7 2e3d
000002e0: 3584 cabd b415 9b3d e94d 0b3e 3185 7bbd
000002f0: 1e5c 6ebd b3f5 4b3e 566c 9bbc 4aee 093d
00000300: 00a6 1bbe 1192 883c dedf a93d 3105 da3d
00000310: 7565 81bd ec35 c13c b170 d33d 25ea 24be
00000320: 1cd2 4dbe 0a72 3a3d a132 14bd 3a8c 8d3d
00000330: c67e ee3d 3a47 dc3c dafd 46ba d9d1 503d
00000340: 5c59 1e3d b298 f1bd 04f5 dcbc 827d a1bd
00000350: 1b81 07be 346f f93c dcb2 fb3d c93b 04be
00000360: 3dc1 aebd 62d7 2bbe 5410 643d 0889 ccbd
00000370: 1547 4bbe 7dcd 95bd 842b 5e3d 6253 373d
00000380: ee40 d9bd 370c df3c a169 153e dd94 c83d
00000390: 7315 eb3d 4edd febc f93e b2bd fc44 a73d
000003a0: 10c0 c13d 5562 0fbd c9c8 af3d 8ba6 afbd
000003b0: 1f8f 663d c5d7 3bbc b60d d8bc 1cbe e6bd
000003c0: d73f aebc e6f8 02be 51b3 2d3c e134 dcbd
000003d0: 4d61 26bd bba7 42bd 9c91 21be 8282 05be
000003e0: 3d6f 65bd aced 80bd b4eb bfbd cacc 733d
000003f0: 899b ccbd 3d94 01ba 8ecb 8c3d aeb5 21be

bias f4 [5]
-0.011246192 -0.008850419 0.11193862 -0.017979577 -0.04288478
00000000: f341 38bc 5901 11bc 1340 e53d e849 93bc
00000010: f3a7 2fbd
