Industrial Equipment/mlruns/0/98fd568b73664859b020a331fc1ffcf8/artifacts/discriminator_model/data/model.pth (torch, 24500 bytes, 5 tensors)

weight f4 [64, 5]
0	0x3f0f9fbe	0.5610312
1	0xbe2cc4bf	-0.16871928
2	0x3eb2bd8e	0.34910244
3	0x3ef1813b	0.47168908
4	0xbeace9d7	-0.33772156
5	0xbf112ab5	-0.5670579
6	0x3e811e35	0.2521836
7	0xbe347746	-0.17623624
8	0x3f03df4c	0.515126
9	0x3e87c1d2	0.2651506
10	0x3ca5d488	0.020242944
11	0x3eb5f140	0.35535622
12	0x3e77edaa	0.24211755
13	0xbec1c054	-0.37842047
14	0x3e77fc7f	0.24217413
15	0x3df8df08	0.12151915
16	0xbe8dd69c	-0.27702796
17	0xbe8402df	-0.2578344
18	0xbe1ab108	-0.15106595
19	0x3eb704ad	0.35745755
20	0x3eb2a213	0.34889278
21	0x3eedff5e	0.46483892
22	0xbd9ba21d	-0.0759928
23	0xbeb84f08	-0.35997796
24	0x3ee990c6	0.45618266
25	0x3da5584d	0.08073483
26	0xbcdfbde8	-0.027312234
27	0x3ebeba1b	0.37251362
28	0x3eb5a34e	0.35476154
29	0xbe7e1fcf	-0.24816822
30	0xbe89d0a9	-0.26917008
31	0x3d2ba33b	0.041903716
32	0xbc44fb5f	-0.012022822
33	0x3ed31813	0.41229305
34	0x3e4a7ee0	0.19774961
35	0x3e9da8e6	0.30792922
36	0x3e244463	0.16041712
37	0xbe6d5a4a	-0.23178974
38	0x3eb52f17	0.3538749
39	0x3edb7265	0.42860714
40	0x3eafbf7f	0.34325787
41	0xbec0c570	-0.37650633
42	0xbeb7c71b	-0.35894093
43	0x3e063097	0.13104473
44	0xbee8b9d2	-0.4545427
45	0x3eb2eb42	0.34945112
46	0xbdcf5b49	-0.10124833
47	0xbe9c215a	-0.30494195
48	0x3e0d67b4	0.13809091
49	0xbea4495f	-0.32087228
50	0x3beddd0e	0.007259018
51	0xbc492893	-0.01227774
52	0x3ef7fac6	0.48433512
53	0xbed06b16	-0.407067
54	0xbea0e02d	-0.31421033
55	0x3e8bb48f	0.27286193
56	0x3ea32992	0.31867653
57	0x3e2e2987	0.17008029
58	0xbead8229	-0.33888367
59	0xbe9e4dc0	-0.30918694
60	0xbe479a5e	-0.1949248
61	0xbe887526	-0.26651877
62	0x3ddcd54c	0.10782871
63	0xbed2b6f0	-0.41155195
64	0xbed08f48	-0.40734315
65	0x3ef7c547	0.48392698
66	0x3e840345	0.25783744
67	0x3e83a814	0.2571417
68	0x3edee1b2	0.43531567
69	0xbe28638c	-0.16444224
70	0x3eab6a3d	0.3347949
71	0xbef0cfc3	-0.4703351
72	0xbed8d86a	-0.4235261
73	0x3b6aecd9	0.0035846739
74	0x3e96ef7c	0.29479587
75	0xbe4592e8	-0.19294322
76	0x3e84f3a3	0.2596713
77	0xbe0f30c4	-0.13983446
78	0x3ed5ade7	0.4173424
79	0x3eac8eed	0.33702794
80	0x3ec5e796	0.3865325
81	0x3de71609	0.112835
82	0x3e9d4315	0.30715242
83	0x3edc3947	0.4301245
84	0xbe9e6c61	-0.30942062
85	0x3e82b924	0.25531876
86	0xbe40ea7e	-0.18839452
87	0xbf01831a	-0.5059067
88	0xbe94b75d	-0.29046145
89	0xbefc7803	-0.49310312
90	0x3d74826f	0.059694704
91	0xbed680fc	-0.41895282
92	0x3c985bd5	0.018598476
93	0x3e2c6663	0.16835932
94	0xbf02c975	-0.5108865
95	0xbe93a31f	-0.2883539
96	0x3e910f88	0.28332162
97	0xbf16e70e	-0.5894631
98	0xbe64dbbc	-0.22349447
99	0xbdfd90c5	-0.12381128
100	0x3eb9c494	0.3628279
101	0xbd06e8d2	-0.03293688
102	0xbec93b78	-0.39303184
103	0x3e234090	0.15942597
104	0x3e0ed84b	0.13949697
105	0xbec4f196	-0.38465565
106	0xbd84b4b4	-0.06479779
107	0x3ed270d5	0.4110171
108	0x3e8d5316	0.27602452
109	0x3e1c935c	0.15290588
110	0x3e396f4a	0.1810886
111	0xbe09cd19	-0.13457145
112	0xbe19ffea	-0.1503903
113	0xbd7ebad3	-0.06218989
114	0xbf13e03b	-0.57764024
115	0xbe402372	-0.18763521
116	0x3e90854f	0.28226706
117	0xbefb502f	-0.49084613
118	0x3e17018b	0.14746682
119	0xbea188ef	-0.31549785
120	0xbe8ad31c	-0.2711419
121	0xbe6b3d75	-0.22972663
122	0x3e10e33b	0.14149182
123	0xbedf9b81	-0.43673328
124	0x3d633423	0.055469643
125	0x3f03b647	0.5145001
126	0x3ecc6a8d	0.39925042
127	0xbddfd2f8	-0.10928911
128	0xbe9d5875	-0.3073155
129	0x3c8d7c3e	0.017271157
130	0xbdf89b64	-0.121390134
131	0xbde3bc1c	-0.111198634
132	0x3ec12301	0.37722018
133	0xbe66773b	-0.2250642
134	0x3ef62763	0.48076925
135	0xbe5e1387	-0.21687137
136	0x3e45e45e	0.19325396
137	0x3d978a47	0.07399421
138	0x3d322d96	0.043500505
139	0xbee1811f	-0.44043824
140	0x3e114c48	0.14189255
141	0x3f019637	0.50619835
142	0xbd399e8a	-0.04531721
143	0x3efe1292	0.49623543
144	0x3e015857	0.12631355
145	0xbdce47ae	-0.100722656
146	0x3d7d318c	0.06181483
147	0x3ec9d332	0.39418942
148	0x3e64a5a8	0.22328818
149	0x3e8076e2	0.250907
150	0x3e4a6366	0.1976448
151	0x3e257148	0.16156495
152	0xbe7d2dc4	-0.2472449
153	0x3ec4f804	0.3847047
154	0x3e1d8c83	0.15385632
155	0x3e83ce15	0.25743166
156	0xbe659bb1	-0.22422673
157	0xbe61ab38	-0.22037971
158	0xbe92866b	-0.28618178
159	0x3ed429a8	0.4143803
160	0xbe972ff3	-0.2952877
161	0xbe409030	-0.18805003
162	0x3eaed939	0.34150103
163	0x3e092507	0.13393031
164	0x3e127569	0.14302601
165	0x3e8c07ac	0.27349603
166	0xbb93b22f	-0.004507325
167	0xbe2cd789	-0.16879095
168	0x3ea49e03	0.32151803
169	0xbec17225	-0.37782398
170	0xbec7d83d	-0.39032164
171	0xbed176ac	-0.40910852
172	0xbcf5f9a2	-0.03002626
173	0xbe2a8cc5	-0.16655262
174	0xbf0ab549	-0.5418287
175	0xbe9fee24	-0.31236374
176	0x3e1a7298	0.15082777
177	0x3e847397	0.25869438
178	0xbef54c04	-0.47909558
179	0x3ed85337	0.42250988
180	0x3d9dce09	0.07705314
181	0xbc545021	-0.012958557
182	0x3e230191	0.15918566
183	0x3e2d4206	0.16919717
184	0x3f1cebd3	0.6129734
185	0x3f237cf3	0.6386253
186	0xbee17c63	-0.44040212
187	0x3e885f71	0.26635316
188	0xbedd3f03	-0.43212137
189	0x3ed599a0	0.4171877
190	0xbf1721fb	-0.59036225
191	0xbe1b6311	-0.1517451
192	0xbe585cf2	-0.21129206
193	0x3ef3f23c	0.47645748
194	0xbed3f8e5	-0.4140083
195	0x3e4801f2	0.19531992
196	0xbe7c1a1c	-0.24619335
197	0x3e8fc553	0.28080234
198	0x3ee03d0e	0.4379658
199	0x3ee20527	0.44144556
200	0xbe3a2b47	-0.18180571
201	0x3edcb72c	0.431085
202	0xbcbc1975	-0.022961358
203	0xbed20c21	-0.4102488
204	0xbdcdd7da	-0.10050936
205	0xbe8589c3	-0.26081666
206	0xbe460263	-0.19336848
207	0xbe08af39	-0.13348092
208	0x3ef69998	0.48164058
209	0xbeaea85a	-0.34112817
210	0x3dadf998	0.08494872
211	0xbdad2fd4	-0.08456388
212	0x3e7bb558	0.24580896
213	0x3f0e18eb	0.5550677
214	0xbec5ddd0	-0.38645792
215	0xbd546a37	-0.051859107
216	0xbeef1d16	-0.46701878
217	0xbdb963ac	-0.09052214
218	0x3ea82345	0.3283941
219	0xbeed8d3a	-0.4639681
220	0xbac22002	-0.0014810564
221	0xbe96a092	-0.2941938
222	0xbef9e761	-0.4880934
223	0xbdd785cb	-0.10523566
224	0xbc1f5148	-0.009723969
225	0x3ea91c8e	0.33029598
226	0xbf0ec630	-0.5577116
227	0x3f0ace06	0.54220617
228	0xbe19f3c8	-0.15034401
229	0x3e64f7bf	0.22360133
230	0xbd3c61bc	-0.045991644
231	0xbea5fd53	-0.32419834
232	0xbed9c51a	-0.4253319
233	0x3e95b33e	0.29238313
234	0xbe68b719	-0.22726096
235	0xbee96efd	-0.4559249
236	0x3eb5e174	0.3552357
237	0x3dbfe230	0.09369314
238	0x3dfce646	0.12348609
239	0x3e2b24c2	0.1671324
240	0xbe9dfccf	-0.3085694
241	0x3e911ab6	0.2834069
242	0x3e31869a	0.17336503
243	0x3d12f225	0.03587546
244	0x3cdcf606	0.026972782
245	0x3e63ce28	0.22246611
246	0xbec6b6ca	-0.38811332
247	0xbe8cd022	-0.27502543
248	0xbf0c2cbe	-0.5475577
249	0xbd8dab23	-0.06917407
250	0xbe2b971f	-0.16756867
251	0xbd9348f3	-0.07191648
252	0x3f0185d3	0.50594825
253	0xbe3d70f2	-0.18500116
254	0x3cf445f7	0.029818518
255	0xbdde463a	-0.108532384

bias f4 [64]
0	0x3e018b10	0.12650704
1	0xbde56d2a	-0.11202462
2	0x3ee01428	0.43765378
3	0x3d599a9b	0.05312596
4	0xbd6e966c	-0.058248922
5	0xbd97b229	-0.07407028
6	0x3eee3338	0.46523452
7	0x3e8b65bb	0.27226052
8	0xba02dcbe	-0.00049919996
9	0x3f1e45b5	0.61825114
10	0xbd1fa069	-0.03897134
11	0x3cb024a8	0.021501854
12	0xbe0d65be	-0.13808343
13	0x3ecc1040	0.39856148
14	0x3e7c2434	0.24623185
15	0xbe6b7ca9	-0.22996773
16	0xbd018d22	-0.031628735
17	0xbe7d7f67	-0.24755631
18	0x3e9b365d	0.30314913
19	0xbdaaa5c2	-0.08332397
20	0x3ec656af	0.3873801
21	0xbe0a455f	-0.13503025
22	0x3f036e3d	0.51340085
23	0xbd2e5358	-0.04255995
24	0x3dc86e8a	0.09786709
25	0x3e303fdc	0.1721186
26	0xbe5fb0fb	-0.21844856
27	0x3e37763e	0.179162
28	0x3d65c690	0.056097567
29	0xbe61a042	-0.2203379
30	0x3e4c1540	0.19929981
31	0xbd0346cf	-0.03204995
32	0x3e949608	0.29020715
33	0xbcb58541	-0.022158267
34	0x3e2f9f6b	0.17150657
35	0xbe22504e	-0.15850946
36	0x3e9f5ec5	0.3112699
37	0xbd2a1fe5	-0.041534323
38	0x3d7cf556	0.061757408
39	0x3e00951f	0.12556885
40	0x3ecea771	0.40362123
41	0xbe053754	-0.13009387
42	0xbded6666	-0.115917966
43	0xbe03a5ed	-0.12856264
44	0x3ee54102	0.4477616
45	0xbdf9be7a	-0.12194534
46	0x3deba6e8	0.11506444
47	0x3eedad5c	0.46421325
48	0x3ec13aac	0.37740076
49	0x3ecc15a4	0.3986026
50	0x3ec27d40	0.37986183
51	0xbe0403d3	-0.12892084
52	0x3ead5ce9	0.33859947
53	0x3e3fac35	0.18718036
54	0x3e929370	0.2862811
55	0xbe74755c	-0.23872894
56	0x3e0cd157	0.13751732
57	0xbed8561c	-0.42253196
58	0xbe11e5f9	-0.14247884
59	0x3de949a5	0.11391
60	0x3e633852	0.22189453
61	0x3e05156a	0.1299645
62	0x3e8c61f7	0.2741849
63	0x3cfd50cc	0.030922316

weight f4 [64, 64]
0	0x3c542ca7	0.012950099
1	0x3d80a7d5	0.062820114
2	0x3e1f2ff6	0.1554564
3	0xbd9e9896	-0.07743947
4	0xbd0fd092	-0.035111018
5	0x3dfcb7dd	0.12339757
6	0x3e461c11	0.19346644
7	0x3d19c772	0.03754372
8	0xbc70ac96	-0.014689585
9	0xbdfd27b7	-0.12361091
10	0x3e4070ef	0.18793081
11	0x3cbf7351	0.023370417
12	0xbd62e4b6	-0.055393897
13	0x3979047a	0.00023748158
14	0xbdeacbd0	-0.114646554
15	0x3e110775	0.14163001
16	0x3d213016	0.0393525
17	0xbe83e029	-0.25756958
18	0xbd816b03	-0.06319239
19	0xbd95db23	-0.07317188
20	0x3c941302	0.01807547
21	0x3e425390	0.18977189
22	0x3b6378e8	0.0034709517
23	0x3c2651b8	0.010151319
24	0x3dc5f8d3	0.096666
25	0x3dcd4dc1	0.10024596
26	0x3cf2ac0d	0.029623056
27	0xbd8eb7e3	-0.06968667
28	0x3d8aee32	0.067837134
29	0xbd148723	-0.03626169
30	0xbc8ba5fd	-0.017046923
31	0xbd1dd0f7	-0.038529363
32	0x3e5f048a	0.21779075
33	0x3d4098b7	0.04702064
34	0x3e150a95	0.14554818
35	0x3e65decc	0.22448272
36	0x3e1c98e5	0.152927
37	0xbdff09ef	-0.124530666
38	0x3c553b8b	0.013014684
39	0x3dfadb67	0.12248879
40	0x3b9526ba	0.0045517357
41	0x3e492e33	0.1964653
42	0x3c235e08	0.009971149
43	0xbc33298f	-0.010935201
44	0xbe4db675	-0.20089133
45	0xbe1e2e68	-0.1544739
46	0x3e14a294	0.14515144
47	0x3df60666	0.12012939
48	0x3bdd2af1	0.006749504
49	0xbeb1487d	-0.34625617
50	0x3beaac45	0.0071616494
51	0xbd1ecb99	-0.038768385
52	0x3d8012a1	0.06253553
53	0x3c99be7d	0.01876759
54	0x3d929328	0.07156974
55	0x3e77ded4	0.24206096
56	0xbd78c272	-0.060732313
57	0x3dddc4bc	0.1082854
58	0x3ca591e8	0.020211175
59	0xbc96809f	-0.018371878
60	0x3c0b913c	0.008518513
61	0xbd71d682	-0.05904246
62	0xbe134a53	-0.14383821
63	0x3e1aca12	0.15116146
64	0x3dc8ed97	0.09810942
65	0x3d98c52f	0.07459485
66	0x3abeb730	0.0014550444
67	0x3d84f414	0.06491867
68	0xbd8cb322	-0.06870104
69	0x3ceae0b0	0.028671592
70	0xbe02eeb2	-0.12786368
71	0xbc3337d5	-0.010938604
72	0x3b29457b	0.0025828767
73	0x3d11cdc9	0.035596643
74	0x3da7440f	0.08167278
75	0x3cb4e264	0.022080608
76	0xbd525f89	-0.05136064
77	0x3e371da6	0.17882404
78	0x3d2316fc	0.03981684
79	0x3e7252c0	0.23664379
80	0x3e068730	0.13137507
81	0x3cf31d4a	0.029677052
82	0xbaa828d1	-0.0012829547
83	0xbd840259	-0.0644576
84	0xbda352bc	-0.07974765
85	0x3e1c07d4	0.15237361
86	0xbd9ea2ca	-0.07745893
87	0x3da7106a	0.081574276
88	0xbdbe30df	-0.09286665
89	0x3da6505e	0.081207976
90	0x3e5b6037	0.21423422
91	0xbe0da1b7	-0.1383122
92	0x3b047343	0.0020210303
93	0x3d99c722	0.07508685
94	0xbd88466f	-0.06654059
95	0x3dc91236	0.098179266
96	0x3c4e5aeb	0.012594919
97	0x3e3374b4	0.17524987
98	0x3da7d81b	0.08195516
99	0x3e236cf8	0.15959537
100	0x3d9b3fe1	0.07580543
101	0x3e837934	0.25678408
102	0xbd76ef7d	-0.060286988
103	0x3c845b01	0.016156675
104	0x3a97d4e9	0.0011583838
105	0x3db79093	0.08963122
106	0xbd9f2d7b	-0.077723466
107	0xbcabd408	-0.020975128
108	0xbd6b9a79	-0.057520363
109	0x3e4220f7	0.18957888
110	0xbd59ca92	-0.0531717
111	0xbddd8987	-0.10817247
112	0xbdf38582	-0.11890699
113	0x3e40cf73	0.18829136
114	0x3cfafd4e	0.030638363
115	0x3df27deb	0.11840423
116	0xbd630d29	-0.055432472
117	0x3d15bb97	0.036555853
118	0xbb70e410	-0.003675703
119	0x3cfa3749	0.03054394
120	0xbe0611c8	-0.1309272
121	0x3e3008e0	0.17190886
122	0x3eb9b4ba	0.36270696
123	0xbc4361d5	-0.01192518
124	0x3d410b05	0.04712965
125	0xbd2f9a80	-0.042871952
126	0x3d99f4d6	0.07517402
127	0x3e76f46b	0.24116676
128	0xbdfb6884	-0.12275794
129	0xba4513fd	-0.0007517932
130	0xbd544e26	-0.05183234
131	0x3e871352	0.26381928
132	0xbd912071	-0.07086266
133	0x3ddb486a	0.10707171
134	0xbd6da943	-0.05802275
135	0x3dbab93a	0.091173604
136	0x3c3ce013	0.011528033
137	0xbdf53721	-0.11973406
138	0xbd2a9e23	-0.041654717
139	0xbd29d394	-0.041461542
140	0xbd17e4d4	-0.037083462
141	0xbdf9c87b	-0.12196442
142	0x3e1ce99e	0.15323493
143	0x3dda8a85	0.10670952
144	0x3ce0f194	0.027458943
145	0x3e75ccd8	0.24003923
146	0x3ced777f	0.028987644
147	0x3e42baee	0.1901662
148	0xbe1f7d27	-0.15575086
149	0x3da9c417	0.08289354
150	0x3d2d1dde	0.04226481
151	0x3dc038d0	0.09385836
152	0x3e01aabb	0.12662785
153	0xbe17321f	-0.14765213
154	0x3c179978	0.009252898
155	0xbdadf3ef	-0.08493792
156	0x3dd1329d	0.10214732
157	0x3ac6418d	0.0015125737
158	0x3e0cdb5d	0.13755555
159	0x3e806bbb	0.25082192
160	0x3d725c74	0.0591702
161	0x3ddefeeb	0.108884655
162	0x3d10f904	0.03539373
163	0x3d449c51	0.048000637
164	0x3d698f42	0.057021387
165	0x3e35301c	0.17694134
166	0x3d0d90e7	0.034562018
167	0xbd36c34a	-0.044619836
168	0xbe0336ef	-0.12813924
169	0x3cf9401c	0.030426078
170	0x3d0946ef	0.033514913
171	0xbceb05b0	-0.028689235
172	0xbdb36954	-0.08760324
173	0x3d8d4fe2	0.06900002
174	0x3e0287ce	0.12747118
175	0x3c9d0fe6	0.01917262
176	0x39ed09b0	0.0004521138
177	0x3e7665e7	0.2406231
178	0x3bd149ea	0.006386985
179	0xbd56ff21	-0.052489404
180	0x3dbb7506	0.0915318
181	0x3d0b866b	0.034063738
182	0xbc231e88	-0.00995601
183	0xbbc1df23	-0.0059164925
184	0x3ce599d9	0.028027462
185	0x3e0606c5	0.1308852
186	0x3e879c51	0.26486447
187	0x3d264172	0.040589757
188	0x3de83f7d	0.113402344
189	0xbdb66e1d	-0.08907721
190	0x3cb04942	0.021519307
191	0x3e774d64	0.24150616
192	0x3d9f9838	0.07792705
193	0xbc043d7e	-0.0080713015
194	0x3d6ab5d7	0.057302322
195	0xbd5974b7	-0.053089824
196	0x3d93fa10	0.0722543
197	0xbe303d61	-0.17210914
198	0x3e4f8a7f	0.20267676
199	0xbdc592d0	-0.09647143
200	0xbd1f280e	-0.03885656
201	0xbd965275	-0.07339946
202	0xbd300867	-0.042976763
203	0x3d208dd7	0.03919777
204	0x3e13a84c	0.14419669
205	0xbcf46a67	-0.029835893
206	0x3cb79fdd	0.022415096
207	0xbe2cc416	-0.16871676
208	0xbbd44790	-0.0064782575
209	0xbdc8abde	-0.09798406
210	0x3dd442ab	0.103642784
211	0xbe5ea2a5	-0.21741731
212	0xbcfb4b4b	-0.03067555
213	0xbd66be70	-0.05633396
214	0x3deabf53	0.114622734
215	0xbdf015df	-0.117229216
216	0x3e137fde	0.14404246
217	0x3b70e75d	0.0036758997
218	0xbc1389c8	-0.009005018
219	0x3e233e82	0.15941814
220	0x3cdc9206	0.026925098
221	0x3dba8f65	0.091093816
222	0xbe008e34	-0.12554246
223	0xbe860685	-0.2617685
224	0x3d6860fd	0.05673312
225	0xbe06d251	-0.13166167
226	0xbd06f1e9	-0.032945547
227	0x3da1ae76	0.07894604
228	0x3de16859	0.11006231
229	0xbe54872f	-0.20754693
230	0x3df94df8	0.121730745
231	0xbde38fe8	-0.11111432
232	0xbccc23b0	-0.02491936
233	0x3df8813c	0.121340245
234	0xba723402	-0.0009239317
235	0x3d85f0d5	0.06540076
236	0xbd8810bc	-0.06643817
237	0xbdbbab11	-0.09163488
238	0x3d2adb02	0.04171277
239	0x3e8eef9f	0.2791719
240	0x3deedba2	0.116629854
241	0xbea3a90d	-0.31964913
242	0xbd3bf9ae	-0.04589241
243	0x3ce1b0ac	0.027550064
244	0x3d6da61e	0.05801975
245	0xbb10ba31	-0.0022083635
246	0x3e120b6a	0.14262167
247	0x3d98c2a1	0.074589975
248	0xbd392708	-0.04520324
249	0xbd75d1ba	-0.060014464
250	0xbe666171	-0.22498108
251	0xbdf4406d	-0.11926351
252	0x3c0ebab7	0.0087115085
253	0x3db20b0a	0.08693512
254	0xbd828c9f	-0.063744776
255	0xbe2f79d0	-0.17136312

bias f4 [64]
0	0x3d1f6d40	0.03892255
1	0xbdeaf543	-0.11472561
2	0xbe0ffe7b	-0.1406192
3	0x3e4a048d	0.19728298
4	0xbd6af464	-0.057361975
5	0x3da4459d	0.0802109
6	0xbda6a863	-0.08137586
7	0xbd6b2e28	-0.057417065
8	0x3db5767d	0.088604905
9	0x3b2416b9	0.0025037958
10	0xbd91a627	-0.07111769
11	0x3d06e68a	0.032934703
12	0x3cd90a99	0.026494311
13	0xbdb84295	-0.089970745
14	0x3de9cd86	0.114161536
15	0x3e975a2f	0.29560992
16	0xbcea5f58	-0.028609917
17	0x3d5dd4bd	0.05415796
18	0x3d124654	0.0357116
19	0x3d0dc9b6	0.034616195
20	0x3e36b899	0.17843856
21	0x39f5b6ff	0.00046866384
22	0x3d4ceda6	0.050031327
23	0xbdec011a	-0.115236476
24	0x3d55b2d1	0.052172486
25	0x3d252a0c	0.040323302
26	0x3e0e5c1f	0.13902329
27	0x3e02c8f8	0.12771976
28	0x3d35ec31	0.044414703
29	0x3e0b2d49	0.13591494
30	0x3d500ce5	0.050793547
31	0xbd2ff44c	-0.04295759
32	0x3d4153ed	0.04719918
33	0xbe435bbd	-0.19077964
34	0x3c69f096	0.014278552
35	0x3c94242d	0.018083656
36	0xbd7afc08	-0.061275512
37	0xbdc1775f	-0.09446596
38	0x3e1ca083	0.15295605
39	0xbdccc2e0	-0.09998107
40	0xbdd95ffa	-0.10614009
41	0xbd9ae6a7	-0.07563525
42	0xbcc72e87	-0.024314178
43	0xbe76af18	-0.2409023
44	0x3d8e8c05	0.069603
45	0xbdd2fa97	-0.103017025
46	0xbc366b40	-0.011133969
47	0x3e12112b	0.14264362
48	0xbc816a22	-0.015797678
49	0x3d2a6764	0.041602507
50	0xbde34e6e	-0.11098944
51	0x3e17b6a6	0.14815769
52	0x3c9b15ed	0.018931353
53	0x3cde58a6	0.02714188
54	0xbd2c4ec5	-0.042067308
55	0x3e211426	0.15730342
56	0xbdddc632	-0.108288184
57	0x3c629815	0.0138302045
58	0x3e26964e	0.16268274
59	0xbdacc6a3	-0.084363244
60	0x3c4ac9e5	0.012377237
61	0xbdb84beb	-0.08998855
62	0x3d8d9ef0	0.069150805
63	0xbd712557	-0.0588735

weight f4 [1, 64]
0	0xbdfdc2bd	-0.12390659
1	0x3e08e252	0.13367584
2	0x3e465588	0.19368565
3	0xbe4039a0	-0.18771982
4	0xbddde45d	-0.108345725
5	0xbe9d5595	-0.30729356
6	0x3e8fc7f7	0.2808225
7	0x3e207763	0.15670542
8	0x3e872902	0.26398474
9	0x3d69503c	0.056961283
10	0x3e79b4e4	0.2438541
11	0x3e7fb138	0.24969947
12	0xbd9f1693	-0.077679776
13	0xbd7718b6	-0.0603263
14	0xbdb8aa49	-0.09016854
15	0xbe09f9fd	-0.13474269
16	0x3e8b3db2	0.27195507
17	0x3e89cbf4	0.26913416
18	0xbe1bf05a	-0.15228406
19	0x3e2fc0ec	0.17163438
20	0xbe839dc0	-0.2570629
21	0xbb1edd62	-0.002424084
22	0x3db71bff	0.08940887
23	0x3df7d76d	0.12101636
24	0xbe4eff9e	-0.20214698
25	0xbd121179	-0.035661194
26	0xbe89dd82	-0.2692681
27	0xbdc63a4a	-0.096790865
28	0xbe0cbf2b	-0.137448
29	0xbe20de12	-0.15709713
30	0x3d89d826	0.0673068
31	0x3e40351d	0.18770261
32	0xbd6b92cc	-0.057513043
33	0x3e342be2	0.17594865
34	0x3e9b5849	0.30340794
35	0x3e52dfc7	0.20593177
36	0xbe1e7065	-0.15472563
37	0x3e9e6b3e	0.30941194
38	0xbc922b75	-0.017842988
39	0xbd94b67d	-0.072613694
40	0x3e56b791	0.20968463
41	0x3e1fd2e7	0.15607797
42	0xbe47f264	-0.19526058
43	0x3dd09926	0.10185461
44	0xbe2c7f75	-0.16845496
45	0x3e3f59fa	0.18686667
46	0x3e91a97c	0.2844962
47	0xbe2cd8ea	-0.16879621
48	0x3e515e7b	0.20446198
49	0x3ea50dad	0.32236996
50	0xbd965399	-0.07340164
51	0xbe269540	-0.16267872
52	0x3e6c91f3	0.2310255
53	0xbe00048d	-0.12501736
54	0x3e32c955	0.17459615
55	0xbebbbc1e	-0.3666696
56	0x3ec0d8d9	0.37665442
57	0xbe0875e6	-0.13326225
58	0xbe80fe64	-0.25194085
59	0x3df1fdc8	0.11815983
60	0xbd9e1d57	-0.0772044
61	0x3e0c1363	0.1367927
62	0x3e82c631	0.25541833
63	0x3ead9cfa	0.33908826
