Industrial Equipment/mlruns/0/121be6a8464b4e51a2715309fb75a9c1/artifacts/generator_model/data/model.pth (torch, 55038 bytes, 14 tensors)

weight f4 [64, 100]
0	0x3d3bdbaf	0.045863803
1	0x3d80bafd	0.06285665
2	0xbc07feeb	-0.008300523
3	0xbdbd8a5e	-0.09254907
4	0xbdd40e91	-0.10354341
5	0x3d0062a6	0.03134408
6	0xbd9bd050	-0.07608092
7	0xbdb55644	-0.088543445
8	0x3dc630dd	0.09677289
9	0xbd7b9ff9	-0.06143186
10	0xbbaaeebd	-0.005216448
11	0x3d872021	0.06597925
12	0x3a99f87d	0.0011747029
13	0xbcd886a4	-0.02643139
14	0xbd38542b	-0.045002144
15	0xbd9f69f9	-0.077838846
16	0xbd24775a	-0.040152885
17	0xbd360485	-0.044437904
18	0xbd9d674d	-0.07685719
19	0xbd46a902	-0.048501022
20	0xbd2d1f08	-0.04226592
21	0xbba0fd37	-0.004912998
22	0x3db4c447	0.088264994
23	0xbd5e0299	-0.054201696
24	0xbd94be98	-0.072629154
25	0xbd08c9fc	-0.033395752
26	0xbcb7b9a8	-0.022427395
27	0x3d6f22e3	0.05838288
28	0x3d1b795d	0.037957538
29	0x3db22e93	0.087002896
30	0xbcf10878	-0.029422984
31	0xbda54274	-0.080693156
32	0x3c875f5a	0.01652496
33	0xbdb2fc74	-0.08739558
34	0x3d6ff8a2	0.058586724
35	0xbc20473a	-0.009782607
36	0xbc9ec1fa	-0.019379605
37	0xbce044f0	-0.027376622
38	0x3cfb0351	0.03064123
39	0x3da1bd58	0.078974426
40	0x3d871c73	0.06597223
41	0x3db8bdb4	0.09020558
42	0x3c670a31	0.014101551
43	0xbd72e5cd	-0.059301186
44	0x3d457ff7	0.04821774
45	0xbdb027c7	-0.08601337
46	0x3d78a17c	0.06070088
47	0x3da19e46	0.078915164
48	0xbdd57ca4	-0.10424164
49	0xbd81303a	-0.063080266
50	0x3d69bcc0	0.05706477
51	0x3d58ff1f	0.052977677
52	0xbd5c0d14	-0.05372341
53	0xbc44e61e	-0.012017755
54	0x3c8e7a59	0.017392324
55	0x3d8695a2	0.06571509
56	0xbccfc286	-0.02536131
57	0x3da78191	0.0817901
58	0xbc6473cb	-0.013943623
59	0x3d7fb41d	0.06242763
60	0x3cda4eb8	0.026648864
61	0xbdae5e3d	-0.08514068
62	0x3d94b473	0.072609805
63	0x3d966fcc	0.07345542
64	0x3d305b84	0.043056026
65	0xbd72b48d	-0.059254218
66	0x3ca9154a	0.020640034
67	0xbd5eb821	-0.054374818
68	0x3daae777	0.0834493
69	0x3cc719c4	0.024304278
70	0xbd1a13a9	-0.037616406
71	0xbceb76f9	-0.028743254
72	0x3dab1acb	0.0835472
73	0xbda0a14c	-0.07843265
74	0x3aa092ea	0.0012250815
75	0x3b8f6abb	0.004376737
76	0x3d91e402	0.07123567
77	0xbcaf574d	-0.021403933
78	0xbc4331bd	-0.011913714
79	0x3c43b18c	0.011944186
80	0x3d5a493a	0.05329249
81	0x3d6357bc	0.055503592
82	0x3d781555	0.06056722
83	0xbda58201	-0.08081437
84	0x3dbcd185	0.0921965
85	0x3d825502	0.0636387
86	0xbcebb55a	-0.028772999
87	0x3d36b574	0.04460664
88	0xbbf17b6c	-0.0073694494
89	0xbd28f896	-0.041252695
90	0xbd895ca0	-0.0670712
91	0x3d1ede76	0.038786374
92	0x3cb3d0df	0.021950183
93	0xbd37f6ce	-0.044913106
94	0xbd9f546b	-0.07779773
95	0x3d7018d8	0.058617443
96	0x3d472011	0.048614565
97	0x3c289ac9	0.01029081
98	0xbd9c8321	-0.07642198
99	0xbce5fb56	-0.028073948
100	0xbd1ba68c	-0.03800063
101	0x3d943f26	0.07238607
102	0xbdbbcae5	-0.091695584
103	0x3daebc39	0.085319944
104	0x3cf9cd20	0.030493319
105	0x3da11875	0.07865993
106	0xbca15d66	-0.019697856
107	0x3dc5b39d	0.09653399
108	0x3cc5bc99	0.024137782
109	0xbce27e52	-0.027648125
110	0x3d92cd5a	0.07168074
111	0x3d50b09e	0.050949685
112	0xbd780258	-0.06054911
113	0x3c456630	0.012048289
114	0x3d8a5eab	0.06756338
115	0xbda3daa4	-0.08000687
116	0xbd8f78e1	-0.07005478
117	0x3dc7c4f6	0.09754364
118	0xbd46ed33	-0.048566055
119	0x3d4ad354	0.049517944
120	0xbdad4ff7	-0.08462518
121	0x3c9e42e0	0.019318998
122	0xbde42ea7	-0.11141711
123	0x3d9f6bf6	0.07784264
124	0x3db02df5	0.086025156
125	0xbc4adcf3	-0.01238178
126	0x3d82c622	0.06385447
127	0x3d01becc	0.0316761
128	0x3d67bbe6	0.05657568
129	0xbcabccfd	-0.02097177
130	0xbcde1934	-0.027111627
131	0xbd36b5d3	-0.044606995
132	0x3db30723	0.087415956
133	0xba2bb87b	-0.0006550622
134	0xbd2af441	-0.041736845
135	0xbdb027af	-0.08601319
136	0xbcb992b4	-0.022652961
137	0xbd46c3af	-0.048526462
138	0xbd9b21ad	-0.075747825
139	0x3dc47a31	0.09593619
140	0xbdc09759	-0.09403867
141	0xbd1bfd10	-0.038083136
142	0xbd2e6a60	-0.042581916
143	0xbdca9013	-0.09890761
144	0x3d9adf36	0.07562105
145	0x3be167e9	0.006878842
146	0xbd68c3a6	-0.05682721
147	0x3cca58e9	0.024700599
148	0x3d871147	0.06595092
149	0xbd7e8582	-0.06213904
150	0xbd4a7f6e	-0.049437933
151	0x3b6c9d99	0.0036104678
152	0xbd02ccc1	-0.03193355
153	0xbb040490	-0.002014432
154	0xbd723554	-0.05913289
155	0xbc0faa2f	-0.008768602
156	0x3d86314d	0.06552372
157	0xbdb1ddd0	-0.086848855
158	0x3d996a81	0.07491017
159	0x3da4990f	0.08037006
160	0xbd95ce1d	-0.073147036
161	0x3d9b997c	0.07597634
162	0xbda343cf	-0.07971918
163	0x3a91b100	0.0011115372
164	0xbdc4cf42	-0.09609844
165	0xbd30f36f	-0.043200906
166	0x3d71ee66	0.059065245
167	0xbd836dfd	-0.06417463
168	0x3d2bead2	0.04197199
169	0x3c8e493c	0.017368905
170	0xbd987df0	-0.07445896
171	0xbc41c33c	-0.011826333
172	0xbdda95ea	-0.10673125
173	0xbb35f632	-0.0027765152
174	0xbd1cd15c	-0.0382856
175	0x39930a7f	0.00028045845
176	0x3d251e37	0.04031202
177	0x3ca4cf02	0.02011824
178	0xbd2be3f3	-0.041965436
179	0x3d82dd75	0.06389896
180	0x3bfd3837	0.0077276486
181	0xbc5e55b9	-0.013570243
182	0x3d214970	0.039376676
183	0xbda32ff0	-0.07968128
184	0x3d3c4037	0.045959678
185	0xbb9473ee	-0.0045304215
186	0xbc4f81cd	-0.012665224
187	0xbd8ed3cb	-0.0697399
188	0x3d237dd8	0.039914936
189	0x3c34afed	0.011028272
190	0xbde06b52	-0.1095797
191	0xbd9765a4	-0.07392433
192	0x3da11613	0.078655384
193	0xbb8a3a6b	-0.0042183897
194	0xbd092a60	-0.033487678
195	0xbd6f2a6c	-0.058390066
196	0xbcbf9621	-0.023387017
197	0xbd9a86cb	-0.07545241
198	0xbdac1920	-0.0840323
199	0x3d70284f	0.05863219
200	0x3db9151a	0.09037228
201	0x3d60c253	0.054872822
202	0x3d625b65	0.055262942
203	0xbd6dfdc5	-0.05810334
204	0x3d1ed453	0.038776707
205	0xbd4501f5	-0.04809757
206	0xbceda85c	-0.029010944
207	0x3b88ce2d	0.0041749687
208	0xbd9195b3	-0.07108631
209	0xbd837b42	-0.06419994
210	0x3dcb33ed	0.099220134
211	0xbdb730ca	-0.08944853
212	0xbdbc60e1	-0.09198166
213	0x3dc40544	0.09571317
214	0xbd800b45	-0.062521495
215	0x3c81d613	0.015849149
216	0x3d688cbc	0.05677484
217	0xbc7a8fa2	-0.015293034
218	0xbca22c70	-0.01979658
219	0xbd9a627d	-0.075383164
220	0xbdaea16a	-0.08526881
221	0xbdd024cb	-0.10163268
222	0xbcda972a	-0.026683409
223	0xbc0bce0b	-0.008533011
224	0xbdc54970	-0.09633148
225	0xbd5c3293	-0.05375917
226	0xbd4a374b	-0.049369138
227	0xbd5aced2	-0.053419895
228	0x3d881614	0.06644836
229	0xbd6dacae	-0.05802601
230	0x3db2de06	0.08733754
231	0x3cc34b55	0.023839632
232	0x3d2adc29	0.041713867
233	0xbd9c956a	-0.07645686
234	0x3db9a04f	0.090637796
235	0x3ac7f75d	0.0015256215
236	0xbdab0b3f	-0.083517544
237	0xbde22ae4	-0.11043337
238	0x3ae13aa5	0.0017183615
239	0x3dc043fa	0.093879655
240	0xbd246cb2	-0.040142722
241	0x3d06fd99	0.032956693
242	0x3d09daa4	0.033655778
243	0xbd48d7aa	-0.0490338
244	0x3d45fdd4	0.048337772
245	0xbcbf73f8	-0.023370728
246	0xbd949f32	-0.072569266
247	0xbd455835	-0.048179824
248	0x3da3f9d1	0.08006633
249	0xbd66305a	-0.056198455
250	0xbd5327c5	-0.0515516
251	0xbd2125a9	-0.039342556
252	0xbd40f039	-0.047104094
253	0x3cb2ae18	0.02181153
254	0xbcd69eea	-0.026198823
255	0xbd642e9b	-0.05570851

bias f4 [64]
0	0xbc4b173c	-0.012395676
1	0x3cda6a56	0.026662033
2	0xbd023f93	-0.03179891
3	0xbcf17f54	-0.02947966
4	0xbd405622	-0.046957143
5	0x3d824eee	0.06362711
6	0x3db1954d	0.08671055
7	0xbd0d1156	-0.03444036
8	0x3dabcebe	0.08389042
9	0x3d8f9877	0.07011502
10	0xbdb17b61	-0.08666111
11	0xbd100fd2	-0.035171337
12	0xbd94a4e1	-0.07258011
13	0xbdc002a4	-0.09375504
14	0xbc3f7ead	-0.011687917
15	0x3abe6a4a	0.0014527526
16	0xbc549a67	-0.0129762655
17	0xbd850a99	-0.06496162
18	0xbd3ef1f9	-0.04661748
19	0x3c526f29	0.012843885
20	0x3d609d51	0.05483753
21	0xbdb97eab	-0.09057363
22	0x3d4a69d7	0.049417343
23	0xbd0eaef9	-0.034834836
24	0xbcde65da	-0.027148176
25	0x3d869bd0	0.065726876
26	0x3da4de38	0.08050197
27	0x3d5c8ca7	0.053845074
28	0x3d110563	0.035405528
29	0x3d4e4eca	0.050368108
30	0x3c8e0b30	0.017339319
31	0xbd4bad69	-0.049725924
32	0x3d93df9e	0.07220386
33	0x3d58572e	0.052817516
34	0x3d150cc1	0.036389116
35	0xbd5c373e	-0.05376362
36	0x3da5d090	0.08096421
37	0xbd50dc06	-0.05099108
38	0xbda8d82f	-0.08244359
39	0xbc165887	-0.00917638
40	0x3db38ac8	0.08766705
41	0x3d598c1e	0.05311214
42	0xbcbad472	-0.02280638
43	0x3d07b294	0.03312929
44	0xbb51d502	-0.0032017832
45	0x3d516459	0.05112109
46	0xbdbf864f	-0.09351789
47	0x3daf7e5b	0.08569022
48	0xbdc104b3	-0.094247244
49	0xbd5c5e7f	-0.053801056
50	0xbcd0f56c	-0.025507651
51	0x3dab8774	0.08375445
52	0xbdbc3d2d	-0.09191356
53	0xbc895f60	-0.016769111
54	0x3d393b42	0.04522253
55	0x3d09f5ea	0.033681788
56	0xbdb4cbca	-0.08827932
57	0xbd841509	-0.06449325
58	0xbd01f6ca	-0.031729497
59	0x3d8008b8	0.06251663
60	0x3b15e55b	0.0022872302
61	0x3b15a813	0.0022835776
62	0xbdac9b51	-0.08428062
63	0xbd404452	-0.046940155

weight f4 [64]
0	0x3f81d2dc	1.0142474
1	0x3f8342ca	1.0254757
2	0x3f811424	1.0084271
3	0x3f804179	1.0019981
4	0x3f7e564c	0.9935043
5	0x3f7fa0e8	0.998549
6	0x3f8133f8	1.0093985
7	0x3f7de778	0.9918132
8	0x3f81ba6d	1.0135018
9	0x3f7f5892	0.9974452
10	0x3f7f762d	0.99789697
11	0x3f7d5871	0.98963076
12	0x3f7c7cc2	0.98627865
13	0x3f81bf4a	1.0136502
14	0x3f802aa0	1.0013008
15	0x3f81923c	1.0122752
16	0x3f808299	1.0039855
17	0x3f7d675c	0.9898584
18	0x3f7b97c6	0.9827846
19	0x3f7ee996	0.99575174
20	0x3f7ec456	0.99518335
21	0x3f7eec83	0.9957964
22	0x3f80206a	1.0009892
23	0x3f821232	1.0161803
24	0x3f824d10	1.0179768
25	0x3f7def50	0.99193287
26	0x3f80e87c	1.0070949
27	0x3f7b0e20	0.9806843
28	0x3f7d80b0	0.99024487
29	0x3f7fb190	0.99880314
30	0x3f7b8985	0.98256713
31	0x3f79491f	0.973772
32	0x3f8087d5	1.0041453
33	0x3f7de128	0.99171686
34	0x3f7f3d5e	0.99703014
35	0x3f7e8466	0.99420774
36	0x3f7f688a	0.9976889
37	0x3f805b73	1.0027908
38	0x3f800b65	1.0003477
39	0x3f80a23b	1.0049509
40	0x3f80dafa	1.0066826
41	0x3f7f2d20	0.9967823
42	0x3f829955	1.0203043
43	0x3f800d37	1.0004033
44	0x3f7c1ec9	0.98484474
45	0x3f7e8de0	0.99435234
46	0x3f808c5a	1.0042832
47	0x3f80b138	1.0054083
48	0x3f7f1c77	0.9965281
49	0x3f7f83ad	0.99810296
50	0x3f7f5f45	0.99754745
51	0x3f7c5848	0.98572206
52	0x3f8139c2	1.0095751
53	0x3f7cb53f	0.9871406
54	0x3f7e9b6c	0.99455905
55	0x3f8107a4	1.0080457
56	0x3f7fe9a7	0.999659
57	0x3f7c68c1	0.9859734
58	0x3f82b0c2	1.0210192
59	0x3f82a050	1.0205173
60	0x3f7df42a	0.9920069
61	0x3f81d500	1.0143127
62	0x3f7c99e8	0.9867234
63	0x3f7f9d8a	0.9984976

bias f4 [64]
0	0x3ccfce22	0.025366846
1	0x3bac22cd	0.005253172
2	0xba63d499	-0.00086910423
3	0xbac1fb22	-0.0014799575
4	0xbc21fae6	-0.009886479
5	0xbba423ca	-0.005009149
6	0x3c8ca7e5	0.017169902
7	0xbb9c48f4	-0.004769439
8	0x3c77202a	0.015083352
9	0xbb83be72	-0.0040205056
10	0xbbde603b	-0.006786374
11	0xbc11ffde	-0.008911101
12	0x3b3e7af2	0.002906498
13	0x3c28b980	0.010298133
14	0x3c07ae09	0.008281239
15	0xbb6e8215	-0.0036393453
16	0x39f8e0a2	0.0004746961
17	0xbb98d3f6	-0.0046639396
18	0xbc204045	-0.009780948
19	0xbaff218f	-0.0019464957
20	0xbbc49bb1	-0.006000005
21	0x38b821ac	8.7800756e-05
22	0x3bbcaebb	0.005758134
23	0x3c38d028	0.011280097
24	0x3c0d1a5f	0.008612244
25	0x3b21dcb4	0.00246982
26	0x3ba25dbd	0.004955022
27	0xbc63249c	-0.013863709
28	0xbb8c7498	-0.00428636
29	0xbbb04c0b	-0.005380159
30	0xbc0201be	-0.007934986
31	0xbc8d4d29	-0.017248707
32	0xbb6799bf	-0.0035339443
33	0xbc1bd1df	-0.009510486
34	0xbbb3dd77	-0.005489047
35	0x3b35500f	0.0027666127
36	0xbc0d3817	-0.00861933
37	0x3b2bec48	0.0026233364
38	0xbc3acd04	-0.011401419
39	0xba9ec95a	-0.0012114451
40	0xbc1b21a3	-0.009468469
41	0xbc247b07	-0.010039098
42	0xbb0367aa	-0.0020050802
43	0x3b9e7ccc	0.0048366543
44	0xbc269e66	-0.010169601
45	0xbb8f2c3c	-0.004369287
46	0x3b44f44f	0.0030052846
47	0x3c19de70	0.009391412
48	0xbc197eae	-0.009368582
49	0xbbd9c04f	-0.0066452394
50	0xbc04a059	-0.0080948705
51	0xbb2513af	-0.0025188734
52	0x3c04a14d	0.008095098
53	0xbc231486	-0.009953624
54	0x3ab714e7	0.0013968021
55	0xbb6fc7c5	-0.0036587578
56	0x3c0ba1d3	0.008522469
57	0xbbe5eda3	-0.007016854
58	0x3c3e9808	0.011632927
59	0xbc7fd3e6	-0.015614485
60	0xbbfb192e	-0.0076629138
61	0x3bb61411	0.0055565913
62	0xbc671648	-0.014104433
63	0xbc546cfc	-0.012965437

running_mean f4 [64]
0	0xbbf8420c	-0.007576233
1	0x3cade6bc	0.021228187
2	0xbcd65e0e	-0.026167896
3	0xbccfdb83	-0.025373226
4	0xbd0c5fe6	-0.034271143
5	0x3d71a6ef	0.05899709
6	0x3dadbc0d	0.084831335
7	0xbd7b2c00	-0.06132126
8	0x3dbb0a22	0.09132792
9	0x3daf76d9	0.0856759
10	0xbdb07a6e	-0.086171016
11	0xbd727df6	-0.059202157
12	0xbd087ff3	-0.033325147
13	0xbda4d86f	-0.08049094
14	0x3c9520d1	0.018204125
15	0xbb3c8ed6	-0.002877166
16	0xbc4b7f7f	-0.012420534
17	0xbdb10ac4	-0.086446315
18	0xbcda0086	-0.026611578
19	0x3ce2f2fb	0.027703753
20	0x3d325fde	0.043548457
21	0xbdd2ebac	-0.10298857
22	0x3d62e1cc	0.055391118
23	0xbd3ab54b	-0.04558305
24	0xbd301067	-0.042984392
25	0x3d880b0d	0.06642733
26	0x3dcbd485	0.09952644
27	0x3d98f75e	0.074690565
28	0x3c808a81	0.015691044
29	0x3d55998c	0.052148387
30	0x3c256b5b	0.010096396
31	0xbd698487	-0.057011154
32	0x3c7665a7	0.015038884
33	0x3d4b1c08	0.04958728
34	0x3d302cd6	0.04301151
35	0xbca28481	-0.019838573
36	0x3d3da76c	0.046302244
37	0xbd6243f8	-0.0552406
38	0xbde0d45a	-0.10978003
39	0x3b84b716	0.004050146
40	0x3d85ada0	0.06527257
41	0x3d454908	0.04816535
42	0xbc36fea1	-0.011169107
43	0x3d40b338	0.047045916
44	0xbbc8e9a8	-0.0061313696
45	0x3d806c20	0.06270623
46	0xbdd487fa	-0.10377498
47	0x3dd1b0f6	0.10238831
48	0xbdaa3844	-0.08311513
49	0xbd1fd783	-0.039023887
50	0xbc0da56d	-0.008645398
51	0x3d576ecb	0.052595895
52	0xbdbb9d99	-0.09160919
53	0x3a53ce9c	0.00080797984
54	0x3d83a4cc	0.06427917
55	0x3d5d6323	0.054049622
56	0xbd9e750d	-0.077371694
57	0xbd2b3863	-0.04180182
58	0xbcd05d5e	-0.025435146
59	0x3db3fd0c	0.08788499
60	0x3c7f0b23	0.01556662
61	0xbc1f933e	-0.009739695
62	0xbdb7bb9b	-0.0897133
63	0xbdb1e1de	-0.08685659

running_var f4 [64]
0	0x3ea3d3d2	0.31997544
1	0x3ea93a05	0.33052078
2	0x3eb9af89	0.36266735
3	0x3eb5828a	0.35451156
4	0x3ea83459	0.32852438
5	0x3e8559bd	0.26045027
6	0x3ed9934f	0.424952
7	0x3eadb213	0.33924922
8	0x3ebe0f91	0.3712125
9	0x3eb4f504	0.35343182
10	0x3eb461f4	0.35230982
11	0x3eaa3929	0.33246735
12	0x3ea9d820	0.33172703
13	0x3ecb7bfc	0.3974303
14	0x3eac3eb6	0.33641595
15	0x3eb0e421	0.3454905
16	0x3ea82f86	0.32848758
17	0x3e9f8129	0.3115323
18	0x3ea7bdc1	0.32761958
19	0x3eaf14a3	0.34195432
20	0x3ea4935d	0.3214368
21	0x3ea8411c	0.32862175
22	0x3ea06af3	0.31331596
23	0x3ec0c2d6	0.37648648
24	0x3e9bc6c9	0.304251
25	0x3eae8067	0.34082338
26	0x3ecb61cd	0.39723054
27	0x3ea62f33	0.32457885
28	0x3ebd96c9	0.37029102
29	0x3eaac76a	0.33355266
30	0x3ea2eaf8	0.31819892
31	0x3eb46da0	0.35239887
32	0x3ea25964	0.31708825
33	0x3eacbdfa	0.3373869
34	0x3e9c706e	0.30554527
35	0x3eadf5e3	0.3397666
36	0x3ea40f91	0.32043126
37	0x3eaca45a	0.3371914
38	0x3ea93f0a	0.33055907
39	0x3eb0c2a3	0.34523496
40	0x3edb269b	0.4280289
41	0x3eb87110	0.3602376
42	0x3ea6cb4a	0.32576972
43	0x3ea38c88	0.31943154
44	0x3eba91fb	0.364395
45	0x3ead06cd	0.3379425
46	0x3e9eb511	0.30997518
47	0x3ec2f335	0.38076177
48	0x3ea02499	0.31277922
49	0x3ec1679a	0.37774354
50	0x3ea77261	0.32704452
51	0x3ec09016	0.3760993
52	0x3e987aef	0.2978129
53	0x3ec0557a	0.37565213
54	0x3eb3d4ea	0.35123378
55	0x3ea1141a	0.3146065
56	0x3ea55a68	0.32295537
57	0x3ec3f94f	0.38276145
58	0x3eb95ae4	0.36202157
59	0x3ea734e8	0.32657552
60	0x3eaf5074	0.34241068
61	0x3ea77ad9	0.32710913
62	0x3ea6dd80	0.32590866
63	0x3eacab95	0.33724657

weight f4 [64, 64]
0	0xbc298f58	-0.010349117
1	0xbca05775	-0.019572953
2	0x3d677624	0.056509152
3	0x3dfb5c71	0.12273491
4	0xbdbf713a	-0.09347768
5	0x3d2f3138	0.042771548
6	0x3c7119c1	0.014715613
7	0xbcff1469	-0.031137662
8	0xbc506872	-0.012720214
9	0x3d2b154c	0.041768357
10	0xbcbcf290	-0.023064882
11	0x3c9d1ac3	0.0191778
12	0x3dada78d	0.084792234
13	0x3e0332aa	0.12812296
14	0xbd046df3	-0.03233142
15	0xbdf4efeb	-0.11959823
16	0x3dc288c4	0.09498742
17	0xbc128be0	-0.008944482
18	0x3d9019d2	0.07036175
19	0xbe1d5339	-0.15363778
20	0xbda7348d	-0.0816432
21	0x3d9887ae	0.07447754
22	0x3dc87b58	0.09789151
23	0xbdc856fc	-0.09782216
24	0x3d9a8a27	0.07545882
25	0xbdb457f5	-0.08805839
26	0xbd5e51d9	-0.054277275
27	0x3c86f2a4	0.016473122
28	0xbdcd5264	-0.100254804
29	0x3de505b4	0.111827284
30	0x3cf29851	0.029613646
31	0x3dd22756	0.10261409
32	0x3d9bd3fb	0.076087914
33	0xbbe9d19b	-0.0071355826
34	0x3deb6c69	0.11495287
35	0x3d0ef49c	0.034901246
36	0x3dcf67e8	0.101272404
37	0xbde39150	-0.111117005
38	0x3ca30979	0.019901978
39	0xbda566de	-0.08076261
40	0xbd5cbdd3	-0.053891968
41	0xbd8cff84	-0.06884673
42	0xbdc51e49	-0.09624917
43	0x3c98b7d6	0.018642347
44	0xbd3de234	-0.046358302
45	0xbddb6ca6	-0.107140824
46	0xbd7335c4	-0.059377447
47	0x3db97577	0.09055608
48	0xbd2bc5b0	-0.041936576
49	0xbca42a9b	-0.020039847
50	0xbd0ac327	-0.033877518
51	0xbd4edb26	-0.050501965
52	0xbda11cbd	-0.078668095
53	0x3da49db2	0.080378905
54	0xbcf4007e	-0.029785391
55	0x3dce4d3a	0.100733235
56	0x3d5cf737	0.0539467
57	0x3daef751	0.085432656
58	0xbc867c28	-0.016416624
59	0x3dd1a5b9	0.10236687
60	0x3d8a4cf5	0.0675296
61	0x3de5a41d	0.11212943
62	0x3db47562	0.088114515
63	0xbe010e7b	-0.1260318
64	0xbdc7805c	-0.097412795
65	0x3ca4a74e	0.020099308
66	0xbc25cb7e	-0.010119317
67	0xbc3940d5	-0.011306961
68	0xbc7cded9	-0.01543399
69	0x3dd0e833	0.102005385
70	0x3df74dfb	0.120754205
71	0x3dce0825	0.10060147
72	0xbdac9f5b	-0.08428832
73	0xbc56b09d	-0.013103631
74	0xbba2796b	-0.004958322
75	0xbdd1ef35	-0.10250703
76	0x3dca729b	0.098851405
77	0x3d79930c	0.06093125
78	0x3d83ad7a	0.064295724
79	0xbd90d6b0	-0.070721984
80	0x3cce5b2a	0.025189955
81	0x3dbc9f08	0.0921002
82	0xbca3fb40	-0.020017266
83	0x3e009711	0.12557627
84	0xbceb388c	-0.028713487
85	0xbe02cd59	-0.12773646
86	0x3b53fafd	0.0032345646
87	0xbdbc627c	-0.09198472
88	0x3d854b9b	0.06508561
89	0x3dcc9aa6	0.09990434
90	0x3c1cfa1a	0.009581113
91	0xbd88fcbd	-0.06688831
92	0xbddd4cb9	-0.10805649
93	0xbde22a94	-0.110432774
94	0x3deb2755	0.11482111
95	0x3d023a7c	0.031794056
96	0x3d74e342	0.059787042
97	0xbd8ee00b	-0.069763266
98	0xbe09c790	-0.13455033
99	0x3c958616	0.018252414
100	0x3c6caffc	0.014446255
101	0xbbd005ba	-0.006348339
102	0xbd4f2aff	-0.050578114
103	0x3ca35a8d	0.019940639
104	0xbdf4d045	-0.11953787
105	0x3e008cdb	0.12553732
106	0x3d4870b6	0.048935615
107	0x3d9b2de6	0.07577114
108	0x3dfaabe2	0.12239815
109	0x3cc2fceb	0.023802241
110	0x3df9b844	0.12193349
111	0xbd7ee68e	-0.062231593
112	0xbdd16032	-0.10223426
113	0x3d32c109	0.043641124
114	0x3d52e104	0.051484123
115	0x3cb6c4b5	0.022310594
116	0x3dc84134	0.097780615
117	0xbd5e72ae	-0.054308586
118	0x3d8667d4	0.065627724
119	0xbcd86aa8	-0.026418045
120	0xbd2ebbde	-0.042659633
121	0x3dd3c8b7	0.10341018
122	0xbdd3cfcf	-0.10342371
123	0x3da75045	0.08169607
124	0xbda99dbf	-0.08282041
125	0x3ce47992	0.02789
126	0x3dd98625	0.10621289
127	0x3da4f83b	0.08055159
128	0xbddb804e	-0.107178316
129	0x3acaef3e	0.0015482677
130	0xbdc3c2ab	-0.09558614
131	0x3e0fd9c6	0.14047918
132	0x3c83f68c	0.016108774
133	0xbddd45fe	-0.108043656
134	0xbc13ef9f	-0.009029298
135	0xbdbb7a1d	-0.09154151
136	0x3dbc1e34	0.09185448
137	0xbd6c5433	-0.057697486
138	0xbdac2a6c	-0.08406529
139	0xbdb55747	-0.088545375
140	0xbda8a48c	-0.0823451
141	0x3cc9803a	0.024597276
142	0x3db26e0a	0.087123945
143	0x3d6b6edd	0.057478774
144	0xbd21d64b	-0.039511006
145	0x3aa62151	0.0012674724
146	0x3db8356a	0.08994563
147	0x3d9b6b68	0.075888455
148	0x3def55fa	0.116863206
149	0x3c6e65b1	0.014550612
150	0xbc9c53b3	-0.01908288
151	0xbb20fa67	-0.0024563314
152	0x3b70aae5	0.0036722955
153	0x3d95bfc4	0.07311967
154	0xbdc7742e	-0.097389564
155	0x3be66ba4	0.0070318747
156	0x3de66434	0.11249581
157	0x3dc7ccc1	0.097558506
158	0x3cf66ffe	0.030082699
159	0xbde08f61	-0.10964847
160	0x3dd31745	0.10307173
161	0x3de2a341	0.110662945
162	0x3d97e945	0.074175395
163	0x3d995ebb	0.074887715
164	0x3d2fcd69	0.042920504
165	0xbd00a6e1	-0.031409148
166	0xbd0a6b6f	-0.033793863
167	0x3d02ddfb	0.03194998
168	0xbd70af4e	-0.058760934
169	0xbcadec85	-0.021230945
170	0x3df53032	0.11972083
171	0xbd74bd3e	-0.059750788
172	0x3b3b310f	0.0028563177
173	0x3d8f9bf7	0.0701217
174	0xbdc3e22d	-0.09564624
175	0xbd75ee5f	-0.06004178
176	0xbb1b2a85	-0.0023676467
177	0x3d2f46af	0.04279202
178	0xbc9d186f	-0.01917669
179	0x3dd16104	0.102235824
180	0x3d21ded2	0.03951914
181	0xbb26c9ec	-0.0025449945
182	0x3de74dcd	0.11294136
183	0x3dec55c7	0.11539798
184	0xbd5d6907	-0.05405524
185	0xbde5c298	-0.112187564
186	0x3d39afe9	0.045333777
187	0x3c82894a	0.015934605
188	0x3ddad9dd	0.106860854
189	0xbc9a7e7d	-0.018859142
190	0x3d4d4fde	0.050124995
191	0xbcc7dd59	-0.024397539
192	0x3d906c7e	0.07051943
193	0x3dbb2af5	0.09139053
194	0xbcb17b3c	-0.021665208
195	0x3c4949e4	0.012285683
196	0x3d91c137	0.07116931
197	0xbdea6b24	-0.11446217
198	0xbdb5444f	-0.088509195
199	0x3d94fa7b	0.07274338
200	0xbda32df4	-0.07967749
201	0x3c9279a4	0.017880268
202	0xbd260334	-0.0405304
203	0x3dc09a2c	0.09404406
204	0x3d6ad05f	0.057327624
205	0xbdddbe73	-0.10827341
206	0x3d82f9f9	0.06395335
207	0x3dffc549	0.12488801
208	0xbd0fb5e6	-0.03508558
209	0x3cb77b0a	0.022397537
210	0x3d6909c3	0.056894075
211	0xbdb7067f	-0.08936786
212	0xbcfdd15a	-0.030983616
213	0xbdf7b24a	-0.12094553
214	0xbcd218fa	-0.025646675
215	0xbcb6e4e5	-0.022325942
216	0xbddeaf65	-0.108732976
217	0x3a06c559	0.00051411014
218	0xbda9a856	-0.08284061
219	0x3d935719	0.07194347
220	0xbdf8d653	-0.12150254
221	0xbd93c8ba	-0.0721602
222	0xbd154e32	-0.036451526
223	0xbc65266d	-0.013986212
224	0xbd6d8994	-0.057992533
225	0x3c55f632	0.013059186
226	0xbe03d5a6	-0.12874469
227	0xbdf3ba69	-0.11900789
228	0x3d9f46a2	0.07777144
229	0x3dad6884	0.084672004
230	0x3ddb1c82	0.10698797
231	0x3d06ddec	0.032926485
232	0x3df8e9d2	0.12153973
233	0xbd9d726c	-0.0768784
234	0x3c22e384	0.009941939
235	0xbdb4da7e	-0.088307366
236	0x3d7761aa	0.060395874
237	0x3d4f448f	0.050602492
238	0x3d037ed4	0.032103375
239	0xbdad7cb4	-0.08471051
240	0xbcd8ab68	-0.02644892
241	0x3c47e8bd	0.012201485
242	0x3da97c96	0.08275716
243	0xbdae3cf7	-0.08507722
244	0x3dd9e4b1	0.106393225
245	0x3dc0cd28	0.094141304
246	0xbd71b678	-0.059011906
247	0xbd10394c	-0.035210893
248	0x3ca72025	0.02040107
249	0x3da688d4	0.08131567
250	0x3db42b52	0.08797325
251	0x3ad50bdb	0.0016254144
252	0x3dbf48d2	0.09340061
253	0x3d66b3af	0.056323703
254	0x3d98e8d4	0.074662834
255	0x3c65eb4a	0.014033148

bias f4 [64]
0	0xbdbc653e	-0.09198998
1	0x3a687112	0.00088669464
2	0x3cd49796	0.025951188
3	0xbdf5ab8f	-0.11995613
4	0x3dd4fd39	0.10399861
5	0x3ce5c896	0.028049748
6	0x3daeaafc	0.085287064
7	0x3ddd6f55	0.108122505
8	0xbd4b364d	-0.049612332
9	0xbceb633f	-0.028733848
10	0x3d4c9885	0.04995014
11	0xbcf1a7f8	-0.029499039
12	0xbd640c41	-0.05567575
13	0x3deb9225	0.11502484
14	0x3cd7c853	0.02634064
15	0xbd9144fc	-0.07093236
16	0x3d803637	0.06260341
17	0x3dfc276e	0.12312208
18	0xbc980aba	-0.018559802
19	0x3db3d002	0.08779909
20	0xbd30d768	-0.043174177
21	0xbd9fc48a	-0.07801159
22	0x3d69aadb	0.057047706
23	0xbd261f23	-0.040557038
24	0x3dd7edd7	0.10543411
25	0x3d2fff32	0.042967983
26	0x3cf2ccab	0.029638609
27	0x3de79429	0.11307556
28	0x3cba30ce	0.02272835
29	0x3de5634f	0.11200582
30	0x3ce2b59b	0.027674487
31	0xbd876642	-0.06611301
32	0xbd9b2dc2	-0.07577087
33	0xbd1f45fa	-0.038885094
34	0x3dcd4d44	0.10024503
35	0x3dae315e	0.0850551
36	0xbd7b9215	-0.06141861
37	0xbd643eb3	-0.055723857
38	0xbdc7964a	-0.09745462
39	0xbcb3fb2f	-0.02197036
40	0xbddb8352	-0.10718407
41	0x3dea41be	0.114383206
42	0x3abe9f6f	0.0014543365
43	0x3d8f9664	0.070111066
44	0xbd0f8171	-0.035035554
45	0xbdd0845e	-0.10181497
46	0x3d269f50	0.040679276
47	0xbaae1a92	-0.0013283065
48	0x3cdf1cd6	0.02723543
49	0xbd4a1531	-0.049336616
50	0x3d2dfe3e	0.042478792
51	0x3d901553	0.07035317
52	0x3d5b9247	0.053606298
53	0x3d4c3811	0.049858157
54	0x3d544b9f	0.05182993
55	0xbd494aa5	-0.049143452
56	0xbdd5b41e	-0.10434745
57	0xbd53f38a	-0.05174593
58	0x3de57c10	0.11205304
59	0x3c79572d	0.015218538
60	0xbb95e257	-0.004574101
61	0xbd4a2d55	-0.04935964
62	0xbdff4180	-0.12463665
63	0x3b95ef35	0.004575635

weight f4 [64]
0	0x3f7785d2	0.9668857
1	0x3f850d24	1.0394635
2	0x3f7d90a2	0.9904882
3	0x3f8246aa	1.0177815
4	0x3f7e1e2c	0.9926479
5	0x3f7e30d8	0.9929328
6	0x3f7906ab	0.972758
7	0x3f7a6e63	0.97824687
8	0x3f7db81b	0.9910905
9	0x3f7e94a8	0.9944558
10	0x3f7e4fd2	0.99340546
11	0x3f7f43dd	0.99712926
12	0x3f804120	1.0019875
13	0x3f7fb5f9	0.99887043
14	0x3f824145	1.0176169
15	0x3f7c4c18	0.9855361
16	0x3f778434	0.966861
17	0x3f7dafb0	0.990962
18	0x3f77de1e	0.968233
19	0x3f7fbcd9	0.99897534
20	0x3f81a7ef	1.0129374
21	0x3f81683f	1.0109938
22	0x3f803cde	1.0018575
23	0x3f7c91c0	0.98659897
24	0x3f7c2222	0.9848958
25	0x3f80bd61	1.0057794
26	0x3f7a9ee2	0.97898686
27	0x3f7bb01c	0.98315597
28	0x3f8018d5	1.0007578
29	0x3f7fc9d2	0.9991733
30	0x3f7eb23b	0.9949071
31	0x3f7e495b	0.9933068
32	0x3f787b92	0.97063553
33	0x3f820543	1.0157856
34	0x3f8126bc	1.0089946
35	0x3f7d05fb	0.9883725
36	0x3f80e9f4	1.0071397
37	0x3f77f530	0.968585
38	0x3f81c5c4	1.0138478
39	0x3f853e49	1.0409633
40	0x3f79e9c2	0.9762231
41	0x3f7bc0cc	0.9834106
42	0x3f80f30b	1.0074171
43	0x3f80379b	1.001697
44	0x3f821f97	1.016589
45	0x3f81f260	1.0152092
46	0x3f800723	1.0002178
47	0x3f79d7c8	0.9759488
48	0x3f78afe1	0.9714337
49	0x3f7a6e34	0.97824407
50	0x3f7f89f7	0.9981989
51	0x3f7fd077	0.9992747
52	0x3f7e8df3	0.9943535
53	0x3f7e8749	0.9942518
54	0x3f808237	1.0039738
55	0x3f7ece59	0.9953361
56	0x3f7fd680	0.99936676
57	0x3f80a195	1.0049311
58	0x3f7c4f9b	0.9855897
59	0x3f813fa0	1.0097542
60	0x3f7e18d8	0.9925666
61	0x3f8026a3	1.0011791
62	0x3f7e69c9	0.99380165
63	0x3f7c7330	0.9861326

bias f4 [64]
0	0xbd02a2e5	-0.03189363
1	0x3d216592	0.039403506
2	0xbc061c08	-0.008185394
3	0x3d07fd1b	0.033200365
4	0x3bc2ab7b	0.005940852
5	0xbc099f76	-0.008399835
6	0xbcc004b7	-0.023439748
7	0xb97f988e	-0.00024375526
8	0xbba8b0de	-0.0051480373
9	0xbc0d77fd	-0.0086345645
10	0xbb8528a9	-0.004063685
11	0xbbcaa07f	-0.0061836834
12	0xbbdba48b	-0.0067029647
13	0x39d3f89c	0.00040430285
14	0x3c723c48	0.01478488
15	0xbc9d1e98	-0.019179627
16	0xbcb3e9f5	-0.021962145
17	0xbd3a5c3e	-0.045498125
18	0xbcc1c30f	-0.023652581
19	0xbc320b3d	-0.010866937
20	0x3ce4ed30	0.027945131
21	0x3c45b455	0.01206692
22	0x3c3ba0cc	0.011451911
23	0xbc6c369b	-0.014417316
24	0xbc9ec91a	-0.019383002
25	0xbbb6c49b	-0.0055776364
26	0x3b7f4c52	0.0038955403
27	0xbc94af4e	-0.018149998
28	0x3bd0a4f6	0.006367321
29	0x3c4cb278	0.012493722
30	0x3bb5fd26	0.0055538593
31	0xbc9512e2	-0.01819748
32	0xbcb73866	-0.02236576
33	0xbc1654ac	-0.009175461
34	0x3bfbae64	0.007680701
35	0x3b0f849e	0.0021899114
36	0x3c5d266b	0.013497929
37	0xbcfea9e6	-0.031086873
38	0x3cc4dd5a	0.02403133
39	0x3bec328a	0.007208173
40	0xbc09aa87	-0.008402473
41	0x3b0dba9b	0.0021626118
42	0x3cbc6d30	0.023001283
43	0x3c8f077a	0.01745962
44	0x3bfa10d8	0.0076314025
45	0xba743434	-0.000931564
46	0x3be11cba	0.0068698796
47	0xbc731136	-0.014835646
48	0xbcae6fb6	-0.021293502
49	0xbcabf973	-0.02099297
50	0xbbe89737	-0.0070981043
51	0xbb619067	-0.0034418346
52	0x3cdd6d9b	0.027029803
53	0xbb9c058e	-0.0047614044
54	0xb8cc6db4	-9.747912e-05
55	0xba48b132	-0.00076557987
56	0x3cc0d261	0.023537816
57	0x3ae9cf39	0.0017838246
58	0xbc58cabb	-0.013231928
59	0xbbb853f7	-0.0056252438
60	0xbc25c3bc	-0.0101174675
61	0x3cb0e445	0.021593222
62	0xbbaa56cc	-0.0051983353
63	0xbbf7cf34	-0.0075625423

running_mean f4 [64]
0	0x3d648f2d	0.055800606
1	0x3e7cb787	0.24679385
2	0x3e9eac46	0.3099081
3	0xbd669ad3	-0.056299996
4	0xbe08f79b	-0.13375704
5	0xbddf142e	-0.10892521
6	0xbe2d2946	-0.16910276
7	0x3f0e1956	0.5550741
8	0x3e8980f1	0.26856187
9	0x3db0aaca	0.086263254
10	0xbdae7df7	-0.0852012
11	0x3d881df4	0.06646338
12	0xbd92de56	-0.071713135
13	0xbddac8fc	-0.10682866
14	0x3dda2e18	0.10653323
15	0xbdd80d45	-0.10549406
16	0x3e07ce70	0.13262343
17	0x3ea38d59	0.31943777
18	0x3e133c6c	0.14378518
19	0x3eaced34	0.33774722
20	0xbe9d2ec1	-0.30699733
21	0xbd59caa8	-0.053171784
22	0xbe00b46f	-0.1256883
23	0xbd9b43cf	-0.07581293
24	0xbde1974e	-0.11015187
25	0xbee22a4c	-0.44172895
26	0xbe063a58	-0.13108194
27	0x3eef226a	0.46705943
28	0x3e395994	0.18100578
29	0xbda012ea	-0.078161076
30	0xbd5b5e4e	-0.053556733
31	0xbecaf876	-0.39642686
32	0x3cd3720d	0.02581122
33	0x3d44c118	0.04803571
34	0x3e9a5f7b	0.3015097
35	0x3e858faf	0.26086184
36	0xbe23dd1e	-0.16002318
37	0x3e862105	0.26197067
38	0xbf10f016	-0.5661634
39	0x3cbee311	0.023301633
40	0xbe2e0a10	-0.16996026
41	0x3dabea78	0.08394331
42	0xbcb6d70e	-0.022319343
43	0x3f251c31	0.6449614
44	0xbea902a6	-0.33009833
45	0xbf09986c	-0.537482
46	0x3de596ca	0.11210401
47	0x3e07bc93	0.13255529
48	0xbd5e92ad	-0.0543391
49	0xbe4ae56e	-0.19814083
50	0x3dd290d5	0.10281531
51	0xbf0d54de	-0.5520762
52	0x3ea1cd08	0.3160174
53	0xbe2aaf6d	-0.16668482
54	0x3ed2e4f0	0.4119029
55	0x3cbcd742	0.023051862
56	0xbf1e70fd	-0.61891156
57	0x3dcc1ca1	0.09966398
58	0x3f5b7d15	0.85737735
59	0x3ddbd0e5	0.10733203
60	0xbefc2b40	-0.49251747
61	0x3e03225e	0.12806079
62	0xbec96731	-0.3933654
63	0x3e9c1d08	0.304909

running_var f4 [64]
0	0x3e0c0898	0.13675153
1	0x3e0dbac2	0.13840774
2	0x3df35ffa	0.118835405
3	0x3ded7bc0	0.11595869
4	0x3dd843e2	0.105598226
5	0x3de72d31	0.112879165
6	0x3dddaf8c	0.108244985
7	0x3df825db	0.12116595
8	0x3dff3398	0.124610126
9	0x3dd8ccd1	0.10585941
10	0x3e085ad4	0.13315898
11	0x3dcbda6c	0.0995377
12	0x3ded124c	0.115757555
13	0x3e021dad	0.12706633
14	0x3df6d577	0.12052434
15	0x3db920df	0.09039473
16	0x3e015c27	0.1263281
17	0x3db71bb8	0.08940834
18	0x3e0699d2	0.13144615
19	0x3dd21dac	0.10259566
20	0x3e079bb2	0.13242987
21	0x3decd321	0.11563707
22	0x3df4de7e	0.119564995
23	0x3dce2342	0.10065319
24	0x3e0ac02c	0.1354987
25	0x3e2d4501	0.16920854
26	0x3e15f6cd	0.14644928
27	0x3e046f00	0.12932968
28	0x3de4208e	0.11139022
29	0x3dd7b7c9	0.10533101
30	0x3e07599b	0.13217776
31	0x3dd94ee7	0.106107526
32	0x3e00ab10	0.12565255
33	0x3e02d762	0.12777475
34	0x3de77c1a	0.11302967
35	0x3e029109	0.12750639
36	0x3df5e3d2	0.12006344
37	0x3dd18254	0.10229936
38	0x3e06bb84	0.13157469
39	0x3e026b18	0.12736166
40	0x3e050e64	0.12993771
41	0x3e024fbd	0.1272573
42	0x3e27031f	0.16309784
43	0x3e03be35	0.12865527
44	0x3df64c75	0.12026302
45	0x3dafffc5	0.08593706
46	0x3dbec330	0.09314573
47	0x3e053878	0.13009822
48	0x3dd536f2	0.104108706
49	0x3db78077	0.089600496
50	0x3df57612	0.11985411
51	0x3dc47b4a	0.09593828
52	0x3de8c6ad	0.113660194
53	0x3e2829b2	0.16422155
54	0x3dc863ad	0.09784637
55	0x3e133a95	0.14377816
56	0x3dd50092	0.104004994
57	0x3e031e2c	0.12804478
58	0x3e1e7f04	0.1547814
59	0x3de5f4fc	0.11228368
60	0x3dc13d94	0.09435573
61	0x3dfbeed7	0.123014145
62	0x3dd7095b	0.10499831
63	0x3e09c134	0.13452607

weight f4 [5, 64]
0	0x3d8d4e42	0.06899692
1	0x3dc3e4b4	0.09565106
2	0x3d3bfcc8	0.045895368
3	0xbdd6ecb5	-0.10494367
4	0x3cb6bf4b	0.022308012
5	0xbd85d303	-0.06534388
6	0xbdcebbc5	-0.10094408
7	0x3d14cbe1	0.036327247
8	0xbdbecace	-0.09316026
9	0xbb038fa6	-0.0020074635
10	0x3da445f3	0.08021154
11	0x3a8b41ee	0.0010624507
12	0x3dd15a25	0.10222272
13	0x3d61e011	0.055145327
14	0x3c5060ce	0.012718393
15	0x3d7bff98	0.06152305
16	0x3b087987	0.002082439
17	0xbd0ddd9b	-0.034635168
18	0x3ca64751	0.020297678
19	0x3cf15f96	0.029464524
20	0x3deeb2eb	0.1165522
21	0x3ded8236	0.115971014
22	0x3c21745a	0.0098544005
23	0x3c205850	0.00978668
24	0xbca66dcd	-0.020316029
25	0xbd87d9d4	-0.06633344
26	0xbdb3a3c1	-0.08771468
27	0x3c9dd7f8	0.019268021
28	0xbcf4d6de	-0.029887613
29	0xbdaec90b	-0.0853444
30	0xbd978c47	-0.07399803
31	0xbc028432	-0.007966088
32	0x3c5545f2	0.013017165
33	0x3d0d9f28	0.03457561
34	0xbd455f03	-0.048186313
35	0x3db9df90	0.09075844
36	0xbc9a1253	-0.018807566
37	0xbd8a0081	-0.06738377
38	0x3dd4725e	0.10373376
39	0xbdbdda75	-0.09270183
40	0xbd377844	-0.04479243
41	0x3d8f026a	0.06982882
42	0x3b3b9f7a	0.002862899
43	0xbd99ac11	-0.07503522
44	0x3d9b9738	0.07597202
45	0xbde3abed	-0.111167766
46	0x3dd121e3	0.102115415
47	0x3c117555	0.008878072
48	0xbdb46dc4	-0.08809999
49	0x3caca2ec	0.021073781
50	0xbdcd3826	-0.10020475
51	0x3d82bf6a	0.063841656
52	0x3b530aec	0.0032202555
53	0xbd304f8c	-0.04304461
54	0xbd187679	-0.03722236
55	0xbd90606c	-0.07049641
56	0xbd969441	-0.07352496
57	0xbdb2765e	-0.08713983
58	0x3dbf72d0	0.093480706
59	0x3d447d3d	0.047971
60	0x3db18620	0.086681604
61	0xbdc65083	-0.09683325
62	0x3bc19b2f	0.005908392
63	0xbd90b553	-0.07065835
64	0xbdd03368	-0.10166055
65	0x3ce02d26	0.027365278
66	0xbc14f746	-0.009092158
67	0x3df14f7b	0.11782738
68	0x3c58dead	0.013236684
69	0x3dde6780	0.10859585
70	0xbd19c6b1	-0.037543003
71	0x3d488fc6	0.048965238
72	0xbda32313	-0.07965674
73	0xbd959370	-0.07303512
74	0xbd5414a4	-0.051777497
75	0xbddf2854	-0.10896364
76	0xbd87b743	-0.06626751
77	0xbc400a30	-0.011721179
78	0xbdba88e1	-0.09108139
79	0xbde066bd	-0.10957096
80	0xbd9d086e	-0.076676235
81	0x3da77bc4	0.08177903
82	0xbd83aea4	-0.064297944
83	0xbddec130	-0.10876691
84	0x3df9568e	0.12174712
85	0x3d65c6e4	0.05609788
86	0x3db53575	0.08848087
87	0xbd94f390	-0.07273018
88	0xbdff053a	-0.12452169
89	0xbda2a637	-0.07941859
90	0x3d91409c	0.070924014
91	0xbd023276	-0.031786405
92	0xb9c1092f	-0.0003681867
93	0xbb836f4b	-0.00401107
94	0x3d939b66	0.07207374
95	0x3d42cda3	0.04755939
96	0x3c597914	0.013273496
97	0xbd4c82a2	-0.04992927
98	0x3c4aa9d6	0.012369594
99	0x3db60701	0.08888055
100	0x3c6b4331	0.014359281
101	0x3bf73573	0.0075442134
102	0x3d736327	0.05942073
103	0x3db67aa7	0.08910113
104	0x3d8014b5	0.062539496
105	0x3df19503	0.11796
106	0x3deb8e53	0.115017556
107	0x3c7ee907	0.015558488
108	0x3c2d218f	0.010567083
109	0x3dc0422f	0.093876235
110	0x3d142d3b	0.036175948
111	0xbd0d02dc	-0.034426555
112	0x3b95142b	0.0045495233
113	0x3c5ae513	0.01336028
114	0x3ddcf787	0.107893996
115	0x3dee8539	0.11646504
116	0x3d9c5a3e	0.076344
117	0xbd9a9771	-0.075484164
118	0x3caefe04	0.021361358
119	0xbd20da3a	-0.039270617
120	0x3d6d4398	0.05792579
121	0x3ddfb6be	0.10923527
122	0x3d862e0b	0.06551751
123	0xbd88b480	-0.06675053
124	0xbdf68a9d	-0.12038157
125	0x3cb8ef75	0.02257512
126	0x3c220070	0.0098878
127	0xbda456f7	-0.080244
128	0x3da96088	0.08270365
129	0xbd9b2713	-0.07575812
130	0x3ccf42b8	0.025300369
131	0xbdf6df87	-0.12054353
132	0x3dd612f8	0.10452837
133	0x3de18cb7	0.11013167
134	0x3cc0b0e9	0.023521857
135	0xbd00386e	-0.031303816
136	0xbd2d8594	-0.04236372
137	0x3cb8f843	0.022579318
138	0xbdeb200a	-0.1148072
139	0xbd7b0a4f	-0.061289128
140	0x3da3f8f1	0.08006466
141	0x3b24aa94	0.0025126087
142	0xbb3c638c	-0.0028745858
143	0xbd03f424	-0.032215253
144	0x3da08258	0.07837361
145	0x3d9b7925	0.07591466
146	0x3db74d43	0.089502834
147	0x3dc860a3	0.09784057
148	0xbccfedb6	-0.025381904
149	0xbd226155	-0.039643604
150	0xbd293e19	-0.041318987
151	0xbcf44b22	-0.029820982
152	0x3dbb084c	0.09132442
153	0xbde59530	-0.11210096
154	0x3d6b4723	0.057440888
155	0x3b6ec718	0.0036434587
156	0x3c69af1b	0.01426294
157	0xbd8c3576	-0.06846134
158	0xbce2c1b7	-0.027680261
159	0x3d7a3aea	0.06109134
160	0x3c997047	0.018730296
161	0x3d3c7e72	0.046019025
162	0x3d8d1437	0.06888621
163	0xbd8e0e23	-0.0693629
164	0xbcdda8f3	-0.0270581
165	0x3db18b76	0.08669178
166	0xbddc12d2	-0.10745777
167	0xbe226d96	-0.15862116
168	0x3caa6e64	0.020804591
169	0x3d298074	0.041382268
170	0xbd4d6d78	-0.050153226
171	0xbd464e41	-0.048414472
172	0xbd917aed	-0.07103524
173	0xbd92896e	-0.07155119
174	0x3c3b6538	0.011437707
175	0xbd85a01a	-0.065246776
176	0x3d954a60	0.072895765
177	0x3dcf071d	0.101087786
178	0x3dc5b8d4	0.09654394
179	0x3d171b18	0.036891073
180	0x3cb746d7	0.022372646
181	0xbd08fb60	-0.033442855
182	0x3dbeec61	0.093224294
183	0xbd690ce6	-0.056897067
184	0xbc3f21a5	-0.011665736
185	0xbdab2949	-0.08357484
186	0x3d9d4503	0.076791786
187	0xbe071eb0	-0.131953
188	0x3cf1a0cc	0.02949562
189	0xbd1291a8	-0.03578344
190	0xbc39aa46	-0.0113321
191	0xbd748f00	-0.059706688
192	0x3d931b8b	0.07182988
193	0xbc98a631	-0.018633934
194	0x3c9ca300	0.019120693
195	0xbc943235	-0.018090347
196	0xbd6ad5ec	-0.057332918
197	0xbdc37bbf	-0.09545087
198	0xbd56c9b2	-0.052438445
199	0xbc4e2730	-0.012582585
200	0x3d9ef89e	0.07762264
201	0xbd89be72	-0.06725778
202	0x3dc07a36	0.0939831
203	0xba0bab32	-0.0005327939
204	0x3de326a4	0.110913545
205	0xbcb20cf3	-0.02173469
206	0xbe0e23fb	-0.13880913
207	0x3d05ab90	0.032634318
208	0x3d52fbe1	0.05150974
209	0xbc65a939	-0.014017397
210	0x3cf3d073	0.029762482
211	0xbdfbd2c7	-0.12296062
212	0xbd8ffd20	-0.07030702
213	0xbde855bc	-0.113444775
214	0x3cad63e2	0.021165792
215	0x3d99ec01	0.07515717
216	0xbd817fe5	-0.06323222
217	0xbbd3d405	-0.0064644837
218	0x3d9f2303	0.0777035
219	0x3d489fc3	0.048980486
220	0xbdb6a1de	-0.089175925
221	0xbe010edb	-0.12603323
222	0x3dd2c696	0.102917835
223	0x3de028cb	0.10945281
224	0x3d3d2ffd	0.046188343
225	0xbdad4581	-0.084605224
226	0xbdb8727c	-0.09006211
227	0x3d8bc2cb	0.06824263
228	0xbd834b00	-0.064107895
229	0x3dadfe59	0.084957786
230	0xbd40e23c	-0.047090754
231	0x3df3760b	0.11887749
232	0xbc4f0b1d	-0.012636927
233	0x3b911be9	0.004428376
234	0xbdd45d0b	-0.10369309
235	0xbdd0ac58	-0.10189122
236	0x3d76a28f	0.06021362
237	0x3da1ae46	0.07894568
238	0xbd6c4278	-0.057680577
239	0x3cf57922	0.029964987
240	0xbc834ade	-0.01602691
241	0xbd905f9a	-0.070494846
242	0xbd95e064	-0.0731819
243	0x3cc90a1e	0.024540957
244	0xbcc628eb	-0.024189433
245	0xbcbdb75f	-0.023158727
246	0x3dc3c591	0.09559167
247	0x3d678552	0.05652363
248	0xbd92599e	-0.07145999
249	0x3d11082f	0.035408195
250	0x3d9a8278	0.07544416
251	0x3d0920e6	0.03347864
252	0x3a9e3fe9	0.001207349
253	0x3d92a351	0.071600564
254	0xbcc9053b	-0.024538627
255	0xbc16f736	-0.009214213

bias f4 [5]
0	0x3cf6a165	0.030106256
1	0xbd48f1f2	-0.049058862
2	0xbd872cb4	-0.06600323
3	0xbd43834b	-0.047732633
4	0xbcc2314d	-0.02370515
