Industrial Equipment/mlruns/0/7a6bbee696464f9daa6fe1a78afdb32c/artifacts/discriminator_model/data/model.pth (torch, 24500 bytes, 5 tensors)

weight f4 [64, 5]
0	0x3dd00441	0.10157061
1	0xbb9b701e	-0.00474359
2	0xbe12d700	-0.14339828
3	0xbf52996a	-0.8226534
4	0x3d6d358e	0.0579124
5	0x3df7eded	0.121059276
6	0x3dd5ca82	0.10439016
7	0x3f8a2c84	1.0794835
8	0x3ea889cf	0.3291764
9	0xbca7550e	-0.0204263
10	0x3f0ce792	0.5504085
11	0x3d99110d	0.07473955
12	0xbeb1091b	-0.3457726
13	0xbe92611e	-0.2858972
14	0xbc5c594d	-0.013449025
15	0x3dbade5f	0.09124445
16	0xbf75f64b	-0.9607894
17	0xbcd3f6b6	-0.025874477
18	0x3dcde84f	0.10054075
19	0xbd32409d	-0.04351865
20	0x3f3561ad	0.70852166
21	0x3cef9674	0.029246546
22	0xbdaa5db3	-0.08318653
23	0x3dd28f27	0.102812104
24	0xbbb7dcee	-0.0056110537
25	0xbd9fee3b	-0.07809111
26	0x3def6ffb	0.116912805
27	0xbf000329	-0.5000482
28	0xbdd36abe	-0.10323094
29	0x3de4711e	0.11154388
30	0xbf18e767	-0.5972809
31	0x3f08dc02	0.53460705
32	0x3d47d696	0.04878863
33	0x3d440ff0	0.04786676
34	0x3d826b3c	0.063681096
35	0x3e5025b6	0.20326886
36	0xbe868305	-0.26271835
37	0xbdcbf1ab	-0.09958204
38	0xbeb0c96c	-0.34528673
39	0x3ec78cb0	0.38974524
40	0xbe8b6002	-0.27221686
41	0x3e8df972	0.27729374
42	0xbebf4bae	-0.37362427
43	0x3ed33e0d	0.41258278
44	0x3e8d0c79	0.27548578
45	0xbf693557	-0.91097015
46	0xbd9ea4bd	-0.07746265
47	0xbb84df93	-0.0040549724
48	0xbd447037	-0.04795858
49	0xbd70aa6c	-0.058756277
50	0xbf0cfc78	-0.55072737
51	0x3ef585c3	0.47953615
52	0x3e2a4735	0.16628726
53	0x3d54ecff	0.05198383
54	0x3d3aac0f	0.045574244
55	0xbd62ba8f	-0.055353697
56	0x3e37627a	0.1790866
57	0x3e401472	0.187578
58	0xbe7d1f79	-0.24719037
59	0x3f6d092d	0.92592126
60	0x3f1d2c2e	0.6139554
61	0xbbfe9871	-0.0077696373
62	0x3e256301	0.16151048
63	0xbe22f57f	-0.15913962
64	0xbc0947be	-0.008378921
65	0x3ba0893a	0.004899171
66	0x3e28c0c5	0.16479786
67	0xbea0ff73	-0.31444892
68	0x3e889660	0.26677227
69	0x3f46dfef	0.77685446
70	0x3f151bba	0.5824543
71	0xbf0e9845	-0.55701095
72	0xbcccbd1a	-0.024992514
73	0x3c1ff1e6	0.009762263
74	0xbc2f7944	-0.010710064
75	0xbc16171b	-0.009160782
76	0xbbd2226a	-0.006412794
77	0xbeceda42	-0.40400892
78	0x3ed6d5aa	0.41959888
79	0xba864bcb	-0.0010245977
80	0x3dd7c12c	0.105348915
81	0xbe321103	-0.17389302
82	0xbef62956	-0.48078412
83	0x3ec7d9d5	0.3903338
84	0xbde3d402	-0.11124422
85	0x3c91a660	0.01777953
86	0xbca6b30e	-0.020349052
87	0x3e73b5fe	0.23799893
88	0xbe3f2e18	-0.18669927
89	0x3e297463	0.16548304
90	0xbe97dce9	-0.2966073
91	0xbf066d34	-0.5251038
92	0xbeccdec4	-0.40013707
93	0xbe45a032	-0.19299391
94	0xbf44c816	-0.76867807
95	0x3d413ebf	0.04717898
96	0xbf0ea307	-0.5571751
97	0xbd8e3787	-0.06944185
98	0xbf003c3f	-0.5009193
99	0x3f06735f	0.5251979
100	0xbce1a217	-0.02754311
101	0xbd54d61e	-0.05196201
102	0x3ef89f95	0.4855925
103	0xbee0ab2b	-0.4388059
104	0x3cdb9918	0.0268064
105	0xbb95c06f	-0.004570059
106	0x3bc66124	0.0060540605
107	0x3cb9c56e	0.02267715
108	0xbf148c01	-0.5802613
109	0xb7864372	-1.6005451e-05
110	0xbee356a4	-0.4440204
111	0x3c81e734	0.015857317
112	0x3ea6b641	0.32560924
113	0x3e853bc1	0.2602215
114	0x3f06bf00	0.5263519
115	0x3e158ffb	0.14605705
116	0xbe3b8678	-0.18313015
117	0x3e944474	0.28958476
118	0x3f0808fb	0.53138703
119	0x3e86f842	0.2636128
120	0xbdc0a8da	-0.09407206
121	0xbd742b1c	-0.059611425
122	0xbe978e41	-0.2960072
123	0xbf39b294	-0.72538114
124	0xbe32125e	-0.17389819
125	0x3f2da07d	0.6782301
126	0x3e5ec1f6	0.21753678
127	0x3dbf2bab	0.09334501
128	0xbde734ae	-0.11289345
129	0xbd164386	-0.03668549
130	0x3cfdf50e	0.03100064
131	0x3f0e6eac	0.5563762
132	0x3ee7f9c1	0.45307735
133	0x3d152751	0.03641445
134	0xbee6b48b	-0.45059618
135	0x3e0fedd1	0.14055564
136	0x3d6d10eb	0.057877462
137	0xbf1030f8	-0.5632472
138	0x3ee73dde	0.45164388
139	0xbcd7bc54	-0.026334919
140	0xbeb02617	-0.3440406
141	0xbca232b2	-0.019799564
142	0x3eea7f5d	0.45800295
143	0xbd8d8bc7	-0.06911426
144	0x3ea68af4	0.32527888
145	0xbe097056	-0.13421759
146	0xbe4952ff	-0.19660567
147	0x3f5861ba	0.8452412
148	0x3da3203e	0.07965134
149	0x3dd60e4f	0.10451948
150	0x3ea4bbd6	0.32174557
151	0x3e0025e8	0.1251446
152	0x3daf91ae	0.08572708
153	0x3e397443	0.18110757
154	0xbf39b8cb	-0.72547597
155	0xbed2da5e	-0.41182226
156	0x3eca98c4	0.39569676
157	0x3cba4974	0.022740103
158	0x3f22619c	0.6343019
159	0x3ed714e4	0.42008126
160	0xbbf0bef9	-0.0073469845
161	0xbca237a7	-0.019801928
162	0x3ef599ad	0.47968808
163	0xbef9f1b9	-0.48817232
164	0x3c3cbbbf	0.0115193715
165	0x3dbdb432	0.09262885
166	0x3e51a89b	0.20474474
167	0x3d06e6bb	0.032934885
168	0x3e42504e	0.18975946
169	0xbdf0c0e5	-0.11755542
170	0x3e4ce358	0.200086
171	0x3e64235f	0.22279118
172	0x3eaaf95d	0.33393374
173	0xbf491c8e	-0.78559196
174	0xbefba1b8	-0.4914682
175	0x3eae902d	0.34094372
176	0xbe032143	-0.12805657
177	0x3ee14268	0.43995976
178	0xbe3a5529	-0.18196549
179	0x3eb561df	0.35426232
180	0x3e468e38	0.1939019
181	0xbebb61e3	-0.3659812
182	0x3ed66ee2	0.41881472
183	0x3e89a8f7	0.26886722
184	0xbf015bba	-0.5053059
185	0x3e937658	0.28801227
186	0x3ebc2970	0.36750364
187	0x3ca81bab	0.020521006
188	0xbeffa6ef	-0.49932048
189	0x3f286913	0.6578533
190	0x3e26e4bd	0.16298194
191	0xbedc43d5	-0.43020502
192	0xbea8694d	-0.32892838
193	0x3eac693c	0.33674037
194	0x3f0b2bdd	0.54363805
195	0x3d470420	0.04858792
196	0xbf17bf57	-0.59276336
197	0xbf319725	-0.69371253
198	0x3d954d09	0.07290084
199	0xbd47c305	-0.04876997
200	0xbc87c380	-0.016572714
201	0x3c73a721	0.01487139
202	0x3d42f690	0.04759842
203	0x3f1406c0	0.578228
204	0x3e6a0a6a	0.22855535
205	0xbded8f91	-0.11599649
206	0xbd9c9110	-0.07644856
207	0x3d94ef63	0.07272222
208	0xbe69933d	-0.22810073
209	0x3e905299	0.28188017
210	0xbeb5b3a5	-0.3548862
211	0x3ef5f4f8	0.4803846
212	0x3f062967	0.52406925
213	0xbdae4c6b	-0.08510669
214	0x3ed24b63	0.4107314
215	0x3f0f3a3a	0.5594822
216	0x3eaafeb6	0.33397454
217	0xbec52f4e	-0.38512653
218	0x3c4f2ed2	0.01264544
219	0xbe08ff4e	-0.13378641
220	0x3f431e29	0.76217896
221	0xbbb4ab1a	-0.005513561
222	0xbc8d51b9	-0.017250882
223	0x3dc4810b	0.095949255
224	0x3d80c565	0.0628765
225	0xbe2b2cb6	-0.16716275
226	0x3eca0604	0.39457715
227	0x3eb38133	0.3505951
228	0xbe3cc57d	-0.18434711
229	0xbec28909	-0.37995175
230	0x3e96e530	0.2947173
231	0x3e962395	0.29324022
232	0x3f148026	0.5800804
233	0xbed93187	-0.424206
234	0x3e4b2fea	0.19842497
235	0x3ea321a7	0.31861612
236	0x3d270792	0.040778704
237	0x3da27cb2	0.0793394
238	0x3cd8af8c	0.026450895
239	0xbf130973	-0.57436293
240	0x3e9ca03c	0.30591
241	0xbf02ee41	-0.51144797
242	0xbf0a8d0c	-0.5412147
243	0xbe18b5b5	-0.14913066
244	0x3e9fcada	0.3120945
245	0xbe51028e	-0.20411131
246	0xbece8e0a	-0.40342742
247	0x3f0c28e4	0.54749894
248	0xbc15f20d	-0.009151948
249	0xbdc7950a	-0.09745224
250	0xbf084ce1	-0.5324231
251	0xbe97410a	-0.29541808
252	0xbe2e80e8	-0.17041361
253	0x3d0fc33b	0.035098296
254	0xbf30cf4e	-0.6906632
255	0xbc609373	-0.01370703

bias f4 [64]
0	0x3b8e70ee	0.0043469584
1	0x3e8bf7b9	0.27337435
2	0x3eefc17d	0.46827307
3	0x3bbb10eb	0.005708804
4	0x3dcacf02	0.09902765
5	0x3ef504ef	0.47855327
6	0xbd6f45c1	-0.058416132
7	0x3def7240	0.11691713
8	0xbeac5de7	-0.33665392
9	0x3e1968c9	0.14981379
10	0xbe2d60de	-0.16931483
11	0x3cc221c2	0.023697738
12	0x3f0071f1	0.5017386
13	0xbedf9487	-0.43668005
14	0x3a3ee4c9	0.00072820164
15	0x3c69a537	0.014260582
16	0xbd8a9795	-0.06767193
17	0x3f331197	0.69948715
18	0x3e1e9de2	0.15489915
19	0x3caa8571	0.020815583
20	0x3d297d1c	0.04137908
21	0xbf0dc479	-0.5537792
22	0xbe13eb37	-0.14445196
23	0x3eecf3e7	0.46279833
24	0x3e629930	0.22128749
25	0x3ef7905e	0.4835233
26	0xbe8e59e3	-0.27802953
27	0xbd1e68e7	-0.03867426
28	0x3f2cfb56	0.6757101
29	0xbcda2b78	-0.026632056
30	0xbec6c17e	-0.38819498
31	0x3edbc4db	0.42923626
32	0xb9c3b5c3	-0.0003732872
33	0x3f2fda0b	0.6869208
34	0xbe9d3739	-0.30706194
35	0xbd22538e	-0.039630465
36	0x3dc16edf	0.09444975
37	0x3e33659c	0.1751923
38	0x3edec76a	0.43511516
39	0x3d9094b1	0.07059611
40	0x3ecd4dfa	0.40098554
41	0x3f2ec104	0.6826327
42	0x3e7541bd	0.23950858
43	0x3ed96330	0.42458487
44	0x3d30da0f	0.043176707
45	0xbe05c8d5	-0.13064893
46	0x3c98cab1	0.018651338
47	0x3e24e4f1	0.16102959
48	0xbcf654f7	-0.030069811
49	0x3e232c25	0.15934809
50	0x3e4536de	0.19259211
51	0x3c18c512	0.009324329
52	0xbf1b894c	-0.60756373
53	0x3ecc2dad	0.39878598
54	0x3f00b935	0.50282604
55	0x3e06b409	0.13154615
56	0x3cb6d38b	0.022317668
57	0xbd8a0366	-0.067389295
58	0x3bbd2238	0.0057719015
59	0x3f2fd855	0.6868947
60	0x3ed5f9a1	0.41792014
61	0xbe31f566	-0.17378768
62	0xbe6350ba	-0.22198763
63	0xbeb9f63c	-0.36320674

weight f4 [64, 64]
0	0xbe9f38c6	-0.31098002
1	0xbef84c90	-0.48495913
2	0x3e3ce104	0.18445212
3	0xbdcc26de	-0.09968351
4	0x3dd66a7c	0.10469529
5	0x3d691ccf	0.05691224
6	0x3ebfce02	0.3746186
7	0xbcabc00d	-0.0209656
8	0xbd2f3da3	-0.04278339
9	0x3cc9a68c	0.024615549
10	0xb9992805	-0.0002921225
11	0xbc74d9b3	-0.014944482
12	0x3e88d984	0.2672845
13	0xbddf1c69	-0.10894091
14	0x3e7a212e	0.2442672
15	0x3ebc0e9e	0.36729902
16	0x3e503d11	0.20335795
17	0x3da86db9	0.08224053
18	0x3e91d92d	0.28486004
19	0x3cd2045c	0.025636844
20	0x3d8c2c2f	0.06844365
21	0x3ee32f8d	0.44372216
22	0xbcca91d5	-0.024727741
23	0xbcab37be	-0.020900603
24	0x3e7e11b3	0.24811439
25	0x3e1a2167	0.15051804
26	0xbe3832f3	-0.17988186
27	0x3e060f04	0.13091666
28	0x3d499903	0.04921819
29	0xbebd0a0b	-0.36921725
30	0xbd527693	-0.051382612
31	0x3e107004	0.1410523
32	0x3e332d84	0.17497832
33	0x3e2f9b8e	0.17149183
34	0xbdbc6e82	-0.09200765
35	0xbe83690e	-0.25666088
36	0xbe916d24	-0.2840358
37	0xbdd4e048	-0.10394341
38	0x3e92c4a3	0.28665647
39	0x3e21f6da	0.15816823
40	0xbd84bce3	-0.0648134
41	0x3d804366	0.06262855
42	0xbc9bf897	-0.019039435
43	0x3e455fa4	0.19274765
44	0xbe87d100	-0.26526642
45	0xbd7897ca	-0.060691632
46	0xbe597acb	-0.21238248
47	0xbdc0da21	-0.09416605
48	0xbde3949f	-0.111123316
49	0xbd885e79	-0.06658644
50	0x3e5891e6	0.21149406
51	0x3ed9a96f	0.4251208
52	0x3f4f1ef7	0.80906624
53	0xbc5c8cb7	-0.013461283
54	0x3e7470d6	0.23871168
55	0x3e620de2	0.22075608
56	0x3eb06713	0.3445364
57	0xbdf1b442	-0.118019596
58	0x3d8d957d	0.06913278
59	0x3eac1b6a	0.33614665
60	0xbdb35298	-0.08755988
61	0xbca9239a	-0.020646859
62	0x3ea9b1bc	0.33143413
63	0xbd51f49c	-0.05125867
64	0x3e0f23f5	0.1397856
65	0x3ea7782d	0.32708874
66	0x3d6c974b	0.05776147
67	0x3ecf12dd	0.4044408
68	0x3e021524	0.12703377
69	0xbdb1450c	-0.08655748
70	0xbe89c346	-0.26906794
71	0x3b32a612	0.002725963
72	0x3d717a8f	0.05895477
73	0x3e0d5d76	0.13805184
74	0x3cf48b2d	0.02985152
75	0x3e2166d9	0.1576189
76	0xbbfc8949	-0.0077067954
77	0xbd61377a	-0.054984547
78	0xbe63b4e4	-0.22236973
79	0xbdf7933e	-0.12088631
80	0x3da17e8d	0.07885466
81	0x3d9aa88d	0.0755168
82	0x3e1d8f54	0.15386707
83	0x3e40a3e6	0.18812522
84	0xbd39ad9c	-0.045331582
85	0xbe47e2db	-0.19520132
86	0xbe180f0f	-0.14849494
87	0x3a04e22a	0.00050691015
88	0x3e8aed02	0.27133948
89	0x3d6ee196	0.058320604
90	0x3e16c3a4	0.14723068
91	0xbe78bf6b	-0.2429177
92	0x3e24df6e	0.16100857
93	0xbcc233b7	-0.0237063
94	0x3e5a7850	0.21334958
95	0x3e387430	0.18013072
96	0xbdba7ac8	-0.0910545
97	0x3e0aa3de	0.13539073
98	0xbd88d4d1	-0.066812165
99	0xbe328636	-0.1743401
100	0x3dd00d70	0.10158813
101	0x3d954971	0.072893985
102	0x3dd7bc06	0.105339095
103	0x3d9b1d07	0.07573896
104	0x3e0f95ff	0.14022063
105	0x3e355418	0.1770786
106	0x3e6aad42	0.22917655
107	0x3d3d0387	0.046145942
108	0x3e28b3a7	0.16474782
109	0x3dd44e1b	0.1036646
110	0xbd9cad44	-0.07650235
111	0x3e855c38	0.2604692
112	0xbe126999	-0.14298095
113	0xbd148554	-0.036259964
114	0x3e54de35	0.2078789
115	0xbe30b968	-0.17258227
116	0xbf3cec73	-0.7379829
117	0x3dc3c88d	0.095597364
118	0xbd3a675b	-0.045508724
119	0xbde77deb	-0.11303314
120	0xbe05d907	-0.1307107
121	0x3e6138e5	0.2199436
122	0x3e0db69f	0.13839196
123	0x3d4080d7	0.04699787
124	0x3d200e28	0.039076
125	0x3dbba359	0.091620155
126	0x3c78aa19	0.015177273
127	0xbe934374	-0.287624
128	0x3ea55a94	0.32295668
129	0x3e2537b7	0.16134535
130	0x3daa85a8	0.08326274
131	0x3ee8e80b	0.45489535
132	0x3e7421aa	0.23840967
133	0x3e10782a	0.14108339
134	0xbdd70575	-0.10499088
135	0x3dcc7cf2	0.09984769
136	0x3c2dbfd8	0.010604821
137	0x3e9b765f	0.30363747
138	0xbe178776	-0.14797768
139	0x3ea7ef9e	0.328
140	0xbdb63cf4	-0.08898345
141	0xbe3fd977	-0.187353
142	0xbd589d72	-0.052884527
143	0xbe1e9569	-0.15486683
144	0xbdd4754a	-0.103739336
145	0x3dec4f30	0.11538541
146	0x3e4280ce	0.18994448
147	0x3e44759b	0.19185488
148	0xbe0391d9	-0.12848605
149	0xbe79dbf7	-0.24400316
150	0xbe1379aa	-0.1440188
151	0xbddc5108	-0.10757643
152	0x3d222f90	0.03959614
153	0xbbc5d6d7	-0.006037574
154	0x3e218e3c	0.15776914
155	0xbe853f8f	-0.26025054
156	0x3e549bff	0.20762633
157	0x3e4b796c	0.19870538
158	0x3e61f9e9	0.2206799
159	0x3e23ba12	0.15988949
160	0xbe4e5882	-0.2015095
161	0x3de4eeca	0.11178358
162	0x3d8ddcce	0.06926881
163	0xbe0c16a2	-0.13680509
164	0x3e31a74c	0.17348975
165	0x3e505b6b	0.20347373
166	0x3d9ff563	0.07810476
167	0xbd9d493d	-0.07679985
168	0x3b6188a5	0.0034413722
169	0xbcfe5993	-0.031048572
170	0x3ceb4909	0.02872135
171	0xbc9d2484	-0.019182451
172	0x3e360bbd	0.17777915
173	0x3de2d706	0.11076169
174	0xbd65a289	-0.05606321
175	0x3e8553f9	0.2604063
176	0xbdb7c310	-0.08972752
177	0x3dee75d2	0.11643566
178	0x3e6e1282	0.23249248
179	0xbdb28576	-0.08716862
180	0xbf3f85b9	-0.7481342
181	0x3da21306	0.07913785
182	0xbca2cb1b	-0.019872239
183	0xbdc3bf08	-0.09557921
184	0x3cd1c555	0.02560679
185	0x3e88446f	0.2661471
186	0x3e36c3ff	0.17848204
187	0x3d65677f	0.056006905
188	0x3da0790f	0.0783559
189	0xbd4c0d4c	-0.04981737
190	0xbddcb296	-0.1077625
191	0xbe194507	-0.14967738
192	0x3d673b23	0.05645288
193	0xbe6c666f	-0.2308595
194	0xbe0f9651	-0.14022185
195	0x3e1695c6	0.14705572
196	0xbece7ce5	-0.40329662
197	0xbe25105e	-0.16119525
198	0x3e5c390b	0.21506135
199	0x3e59b350	0.21259809
200	0x3da06ce9	0.07833273
201	0x3e6152e7	0.22004281
202	0x3e9ec46f	0.31009242
203	0xbdb28515	-0.0871679
204	0x3b88349f	0.0041566635
205	0x3e8cb5a0	0.2748232
206	0x3e6ab0f8	0.2291907
207	0x3f01f4bc	0.5076406
208	0x3e5dca41	0.21659185
209	0xbe7ecd9f	-0.24883126
210	0xbd77043b	-0.06030677
211	0x3e055a6f	0.13022779
212	0x3e536893	0.2064536
213	0x3f54a666	0.83066404
214	0x3f02f5d5	0.5115636
215	0xbd1826ab	-0.03714625
216	0xbd7eae92	-0.062178202
217	0xbd77ff4c	-0.060546204
218	0x3ed8b410	0.42324877
219	0x3e7f331e	0.24921843
220	0xbe13edd2	-0.1444619
221	0x3cc791af	0.02436146
222	0x3d2c443d	0.042057265
223	0x3c2e444c	0.0106364
224	0x3e71ea87	0.23624621
225	0xbe85e8ae	-0.26154083
226	0x3dedbdb6	0.1160845
227	0x3e9c44e1	0.305213
228	0xbb5c77ef	-0.0033640822
229	0xbcadc9c1	-0.021214368
230	0x3d8a960a	0.06766899
231	0x3ec1ec22	0.37875468
232	0x3cf12fb7	0.029441698
233	0xbe3a1c21	-0.18174793
234	0xbd8affa1	-0.067870386
235	0x3d3b1e3d	0.045683134
236	0xbe735fc1	-0.23766996
237	0x3e8e0bed	0.27743474
238	0x3d475939	0.048669074
239	0xbe4cdc92	-0.20006016
240	0x3ea1ecb0	0.3162589
241	0x3e78fcf4	0.24315244
242	0x3d47fb08	0.048823386
243	0x3ea103b4	0.31448138
244	0x3f181052	0.593999
245	0xbe14e136	-0.14539036
246	0x3d95df1d	0.07317946
247	0x3e75ff4f	0.24023174
248	0x3ed3d741	0.41375163
249	0x3dab4678	0.0836305
250	0x3e183ca1	0.14866878
251	0xbc0f044f	-0.008729055
252	0xbc088299	-0.008331918
253	0x3ea0d516	0.31412572
254	0x3e089a12	0.13340023
255	0x3f2507f5	0.64465266

bias f4 [64]
0	0x3e7ae466	0.2450119
1	0x3e37b9d3	0.1794198
2	0x3e402bb6	0.18766674
3	0xbe9e6fbf	-0.3094463
4	0xbe49911d	-0.19684263
5	0xbd92a51a	-0.07160397
6	0xbd634bcf	-0.05549222
7	0x3dc76127	0.09735327
8	0x3d0c9547	0.03432205
9	0x3b80af96	0.0039271815
10	0x3cbaca1f	0.022801457
11	0xbe59efe5	-0.21282919
12	0x3e0515eb	0.12996642
13	0xbe113438	-0.14180076
14	0x3b321d30	0.0027178042
15	0xbe77966b	-0.24178474
16	0xbdcd919b	-0.10037538
17	0x3e0af387	0.13569461
18	0x3d0889a3	0.033334386
19	0xbe3b26d5	-0.18276532
20	0x3dedf297	0.11618536
21	0xbea2638a	-0.31716567
22	0x3dafe2ed	0.085882045
23	0xbd9193a0	-0.07108235
24	0xbed322c2	-0.41237456
25	0xbd71b95b	-0.05901466
26	0x3e87ada9	0.2649968
27	0xbe4c4d09	-0.19951262
28	0xbda6c78d	-0.0814353
29	0xbd63cc53	-0.05561478
30	0x3e3e8889	0.18606772
31	0xbe03a089	-0.12854208
32	0xbda4bcb6	-0.08043806
33	0xbdb33eb6	-0.087521955
34	0xbdef89ea	-0.11696227
35	0xbe235d91	-0.15953662
36	0x3e267485	0.16255386
37	0xbcd07bf2	-0.025449727
38	0x3e28e3af	0.16493104
39	0xbd549122	-0.051896222
40	0xbe499d8f	-0.1968901
41	0xbd6eda97	-0.058313932
42	0xbdca27f5	-0.098709024
43	0xbd98a47c	-0.07453248
44	0x3e66f711	0.22555186
45	0xbec03398	-0.37539363
46	0xbbbcbe48	-0.005759988
47	0xbb3a9190	-0.002846811
48	0xbd7f4cb9	-0.062329028
49	0x3e1f2574	0.15541631
50	0x3dad79ea	0.08470519
51	0x3e284d89	0.16435827
52	0xbe8f4d7e	-0.2798881
53	0x3e0de77c	0.13857836
54	0xbde3e233	-0.111271285
55	0x3d617fdf	0.055053588
56	0xbe8be2a6	-0.27321357
57	0x3e0a61f0	0.13513923
58	0xbcab08d2	-0.02087823
59	0xbd962792	-0.07331766
60	0x3d4cac19	0.049968813
61	0x3d8b9ab6	0.06816618
62	0x3b4e4c59	0.0031478612
63	0x3ce6e323	0.02818448

weight f4 [1, 64]
0	0x3f20a7b5	0.627559
1	0xbe3a85c1	-0.18215086
2	0xbe701fb0	-0.23449588
3	0x3f540073	0.82813185
4	0x3f040169	0.5156465
5	0x3f44ce37	0.7687716
6	0xbe9594d0	-0.29215097
7	0xbeb3aaf6	-0.3509137
8	0xbe3a12a6	-0.18171176
9	0x3f0e4465	0.5557311
10	0x3ec1bf19	0.37841108
11	0x3ec45268	0.3834412
12	0xbe8f35ab	-0.27970633
13	0x3f1029da	0.5631386
14	0x3ef5c5bc	0.48002422
15	0x3f4b34f7	0.7937769
16	0xbca1f44e	-0.019769814
17	0xbf0ec2cb	-0.5576598
18	0xbd38e99a	-0.045144655
19	0x3ef99bc5	0.48751655
20	0xbea48bc2	-0.32137877
21	0x3f1e84ea	0.6192156
22	0xbea2b2cc	-0.31777036
23	0x3f15f3e4	0.5857527
24	0x3f0bfb3b	0.5468022
25	0x3ee95aff	0.45577237
26	0x3e8d85a4	0.27641022
27	0x3f4f2f2e	0.80931365
28	0xbd017779	-0.03160808
29	0x3f1bc347	0.60844845
30	0xbe862c2f	-0.26205584
31	0x3ee33262	0.44374377
32	0xbda8e5d9	-0.08246965
33	0xbcbe4968	-0.023228362
34	0xbde0cbbd	-0.1097636
35	0x3ec5c15e	0.3862409
36	0x3ec6dada	0.38838845
37	0x3eb4d95e	0.35322088
38	0xbe5eb252	-0.21747711
39	0xbdae82ae	-0.08521019
40	0x3ea96828	0.33087277
41	0xbdd778c6	-0.105210826
42	0xbe99a3de	-0.30007833
43	0xbdaf90ed	-0.08572564
44	0x3f1dd88f	0.6165857
45	0x3f3b2279	0.73099476
46	0x3ed9cffa	0.42541486
47	0x3f157bb1	0.58391863
48	0x3f131a50	0.57462025
49	0xbec585c8	-0.3857863
50	0x3f152a1a	0.58267367
51	0xbebdc91c	-0.37067497
52	0x3ebec329	0.3725827
53	0x3ea57cae	0.32321686
54	0x3f408614	0.75204587
55	0x3efdd25d	0.49574557
56	0x3f2312eb	0.6370074
57	0xbe905b89	-0.28194836
58	0x3f0b8892	0.54505265
59	0xbc84821d	-0.016175324
60	0x3e9e1dec	0.30882204
61	0x3ea4dbe6	0.3219902
62	0xbf1cfcc0	-0.61323166
63	0x3e874e35	0.26426855
