Industrial Equipment/mlruns/0/6dd231b9aaab4043a75071c323c3a8ed/artifacts/discriminator_model/data/model.pth (torch, 24500 bytes, 5 tensors)

weight f4 [64, 5]
00000000: c39c 17be 6817 b53d 0711 973f 4aaf 68bd
00000010: b128 35be 3051 0f3f f4de cdbe e44c 76be
00000020: 8b4e 873e 6d7b e7be f537 e5be a52e 1dbe
00000030: 3404 f33d d795 c03e aaa4 f2bc ace2 d5be
00000040: 4199 083e dcdc f7be 56e2 d13e 571a 18bf
00000050: c052 f1bd 0d4d 6abf 9076 6abe 2b27 293e
00000060: 87d5 cebd 79e0 c4be 8dc6 ac3e 13e9 2bbd
00000070: 4cd4 1abe f125 063f 249c 0cbf ad22 d23e
00000080: b161 323e 0e8e c13c 5b43 183f 2830 f6be
00000090: 77d4 73bc f735 38bf 3401 eb3e 8302 ebbd
000000a0: 12d9 023f 0f74 583b 6065 db3e e36e c93d
000000b0: 9385 183f a349 653e 2416 d13e 17f6 853e
000000c0: 7761 0ebe 59f8 083f f94a 2e3f 0a0b 793d
000000d0: 6454 943d 8595 8f3e e440 1a3e 188e 85be
000000e0: 530c a0be 7080 41be 9d0f f0be 037b b23e
000000f0: 2777 b33a 2043 8fbd 3cd2 b1bd 5fb7 6e3d
00000100: 929f 5a3f 4b2c 5e3e 37a3 1b3f 2a2c 173e
00000110: 1b60 6b3f 5409 d7bd 0abd 49be 5a39 64bd
00000120: 8c43 d33e 2bd7 753e 29e5 d9be 4c8d 6abc
00000130: ef42 213f 6abd 7cbe a6f5 a43e 82bc 863d
00000140: 8b22 1b3f ca67 8ebc d0d1 293e 2d63 07bf
00000150: f951 6c3e f488 a73e 044a 903e 6f1e f53e
00000160: 12e2 b1be 89da cabe 2279 b9be ccdd e4be
00000170: c741 a33e 6d02 d83e afaa df3e 88da ff3e
00000180: 52cf 74be 60f0 05bf 5581 8dbe 84d8 433e
00000190: cd48 4c3f 858a c3be 72ff e3bd e0b7 723e
000001a0: 2201 27bb cd03 09bf 19df 16ba 1e7d 643d
000001b0: 8171 b7bb caa5 153f caea 1abf 7dee 12bc
000001c0: fce3 ddbb 1862 5dbc b427 9e3a 09cc 0ebf
000001d0: 296f 993e ccdd 6bbc 2c7b e93c d3ff 0b3f
000001e0: 1fb0 9dbe 424b f63e 0d37 e4be cc8c 21bf
000001f0: e454 d5be 8576 88be 1140 cabe 3e46 b93e
00000200: 6af2 9a3e f0a3 2b3f 9149 193f 1992 903d
00000210: 926d 95be bddf 9a3e 88ec 70bb 6287 9c3b
00000220: e6b5 df3e cebc e0be 02bd c43c 09e9 ea3e
00000230: 2839 253f bc30 9dbe 9257 543e c2c4 55be
00000240: c015 6c3e 899e 7ebe baf2 933e 0041 0d3f
00000250: 860e 11bf 1804 933e 212b fb3e bb47 c13e
00000260: f13a d7bd a785 3d3f 835a 84be abc0 cebd
00000270: 9af5 bbbe 9a2a ccbe 4a40 4fbf 26dc df3d
00000280: bc7e d3be fa70 eebd 076b b33e a362 85be
00000290: 24a9 1ebd e22b d03e 1892 53bf 3ebe ebbe
000002a0: 2287 a3be b489 983e 11b1 fa3e 9cb8 16bf
000002b0: 5565 813e 4332 053f 66ab 923e 0d40 133f
000002c0: 05b8 14bd 44e1 8a3d 1436 b03e 3d57 273f
000002d0: a714 4e3c bec3 febd f90f 9b3c c70a 1a3f
000002e0: 94de 36bf ee31 b63e af19 343e f855 c13e
000002f0: 9acd a43e a10f 0bbe 78ee 11be 5578 cd3d
00000300: 29ec 37be e14e 683e 845e 553f b72a 513e
00000310: 48b3 27be 8747 e0be a60c 883e 3230 a43e
00000320: b57e 3fbf 6d95 873d 04ef e13b d7eb f9bd
00000330: 1a4f 5fbd e9cd 18be a6ab c13d dd93 51bf
00000340: 4a91 383e a0e7 a8bd efe1 5ebe 2caf 86bd
00000350: ced0 0b3d 9bfc 883f eac9 ce38 6ce9 f2bc
00000360: 5712 8b3e a49e dcbe cab3 6ebe c34d a6be
00000370: 5421 38be 7ecc 58bf c94e 4d3e a173 123c
00000380: 069f 9dbd e41c 5d3b 6d3c fb3e a4b2 b93d
00000390: 270e fd3e b33c 823d 1d1f 36bf 080c 7cbe
000003a0: 9cac 333d 6605 863d 56b4 e43e 53aa 363e
000003b0: 7975 3a3f 9a48 0d3f bdcd b23d 8ad0 25be
000003c0: 10fe 77bc ee29 0d3f f7f7 6ebc 4573 02bf
000003d0: 8627 b63d 4d7d 1dbe 18b5 22bd 232b 89be
000003e0: a4ff 983e 07c3 11bf 1d5b d73d 09e4 1abd
000003f0: f43a 0d3f bb5d 323c 5fad 1d3f f735 02bd
-0.14805894 0.08842355 1.1802071 -0.056807794 -0.17691304 0.5598326 -0.40209162 -0.24052769
0.2642711 -0.45211354 -0.44769254 -0.15349825 0.11866036 0.3761432 -0.029619534 -0.417745
0.13339712 -0.4841069 0.40992993 -0.5941519 -0.117833614 -0.9152382 -0.2289679 0.16518848
-0.10099321 -0.3845251 0.33745232 -0.041970324 -0.15120047 0.52401644 -0.5492575 0.4104208
0.17420079 0.023627307 0.59477776 -0.48083615 -0.014882199 -0.71957344 0.45899355 -0.114750884
0.51112473 0.003302816 0.4285078 0.09835603 0.5957882 0.22391371 0.40837204 0.26164314
-0.13904367 0.5350395 0.6808315 0.060801543 0.07242659 0.28043762 0.15063816 -0.2608497
-0.31259403 -0.18896651 -0.46886912 0.34859475 0.0013692126 -0.06995225 -0.08682677 0.058280345
0.85399735 0.21696584 0.6079592 0.14762941 0.9194352 -0.10499826 -0.19701019 -0.055718757
0.41262472 0.24007861 -0.42557648 -0.014315914 0.6299276 -0.2468163 0.32218665 0.06578924
0.60599583 -0.017383475 0.16583943 -0.52885705 0.23078145 0.32721674 0.2818147 0.4787478
-0.3474279 -0.39619854 -0.3622523 -0.44700468 0.31886122 0.4218935 0.4368491 0.49971414
-0.23907211 -0.5231991 -0.27637735 0.19125563 0.79798585 -0.3819162 -0.11132707 0.23702955
-0.0025482853 -0.53521425 -0.000575529 0.055783384 -0.0055982475 0.584561 -0.6051451 -0.008967993
-0.0067715626 -0.013512157 0.0012066276 -0.5578008 0.2996762 -0.014396142 0.028501116 0.5468723
-0.30798432 0.48104292 -0.4457325 -0.63105464 -0.4166633 -0.26652923 -0.39502004 0.36186403
0.30263072 0.67047024 0.5987788 0.07059116 -0.29185158 0.30248824 -0.0036762077 0.004776881
0.43693465 -0.43894047 0.024015907 0.45880917 0.6454034 -0.30701244 0.2073653 -0.20875838
0.23055172 -0.24865164 0.28896123 0.5517731 -0.56662786 0.2871406 0.49056342 0.37750039
-0.10509289 0.7403206 -0.25850305 -0.10095342 -0.36710817 -0.39876252 -0.8095747 0.10930662
-0.41307628 -0.11642642 0.35042593 -0.26051816 -0.038735524 0.4065848 -0.82644796 -0.4604358
-0.31939036 0.2979256 0.48963216 -0.5887544 0.25272623 0.5202982 0.28646392 0.5751961
-0.036308307 0.06781247 0.34416258 0.6536749 0.012578166 -0.124396786 0.018928515 0.60172695
-0.7143338 0.35584968 0.17587923 0.377609 0.32188112 -0.1358018 -0.14251125 0.10032717
-0.17961182 0.2268634 0.83347344 0.2042645 -0.16376984 -0.4380457 0.2657215 0.3206802
-0.74802715 0.066202976 0.006894948 -0.12203186 -0.054518797 -0.14922298 0.094565675 -0.81866246
0.18024173 -0.08247304 -0.21765874 -0.0657638 0.03413468 1.0702089 9.860455e-05 -0.02965232
0.2716243 -0.43089783 -0.23310772 -0.32481202 -0.17981464 -0.8468703 0.20049585 0.008938701
-0.07696347 0.0033739144 0.4906954 0.09067276 0.4942486 0.06359234 -0.71141225 -0.24613965
0.043865785 0.065439984 0.44668835 0.17838411 0.728355 0.55188906 0.08730648 -0.16192833
-0.015136257 0.55142105 -0.014585487 -0.5095714 0.08894257 -0.1537983 -0.039723486 -0.26790723
0.29882538 -0.56938213 0.10515425 -0.037815128 0.5516808 0.010886605 0.6159267 -0.031789746

bias f4 [64]
00000000: 0419 b73d 8dbd 3a3e 00db 163e 84bd fb3e
00000010: 4ff4 3a3c 344c ac3e 8f2e 9b3e 0039 79be
00000020: 58ca c5be 00a0 263f 2e68 923e 308f 82bd
00000030: 0a5e c93d ae12 033f dca4 283f 7714 d23e
00000040: df26 123f bba5 9bbe f69a d63e 26d0 d73c
00000050: f634 f0bd 0964 59bc f7bf 13bf 52a6 1ebe
00000060: 0ff0 bf3e 1cbf 483d 0e7d 373f 9bf1 d83e
00000070: fe74 fdbd 3a37 0c3f 6f1c 14be 33ae dd3e
00000080: e2e2 2c3f 6df6 d0bd e7c3 133f a393 443f
00000090: 6c20 42bd 0b09 75be 6a99 b83d 141e aabe
000000a0: fb50 8b3d b54e 543e efcc d2bd 92c1 363e
000000b0: 427e 81be 2d59 ec3d 16be 55be f7c0 0b3f
000000c0: 4448 223d 48fe 98bd b7fb 3e3c 55d0 923e
000000d0: 2713 c93d a6d0 5dbd bb11 c13e 39f8 fdbd
000000e0: 44c1 e4bd c1b7 2e3e 773c 1539 db25 b63d
000000f0: 854a 77be 4144 253f d45b d43c a622 a9be
0.08940318 0.1823637 0.1473198 0.49168026 0.011410787 0.33651888 0.3030896 -0.2433815
-0.3863094 0.6508789 0.28595108 -0.06374967 0.0983239 0.5120038 0.65876555 0.41031238
0.5709056 -0.3039988 0.419151 0.02634437 -0.117288515 -0.013268479 -0.5771479 -0.15493134
0.37487838 0.04901038 0.71675193 0.4237183 -0.1237583 0.5477177 -0.14463972 0.43296966
0.67533696 -0.10203252 0.577208 0.76787776 -0.0473942 -0.23929231 0.090136364 -0.33226073
0.06802555 0.2073315 -0.10292994 0.17847279 -0.2529164 0.115404464 -0.20873293 0.54591316
0.0396197 -0.07470375 0.011656693 0.2867457 0.09818106 -0.05415406 0.3770884 -0.1240086
-0.11169675 0.17062284 0.00014232272 0.08893939 -0.2414952 0.6455727 0.025922693 -0.33034247

weight f4 [64, 64]
00000000: 7f39 0abe 3d83 673e 0f48 573e a87c debd
00000010: c7b3 b93e 85e3 0dbe 7fba 85be 125c f0bd
00000020: 3529 1cbb 7a65 88be acfd b2bd 3377 5c3d
00000030: 75d7 16bc e28d efbe 38c2 4abe a9f4 24bf
00000040: 0025 febd 0f54 27bd 941e 8f3e a3ff 0dbb
00000050: d422 9f3e 9005 193e 9722 d73e 2c54 0ebe
00000060: c3ae 48be cca6 d83d aefc 77be 960c c6be
00000070: e312 003e 022c 64be 9488 bfbd e687 3abd
00000080: 2413 19be 7a48 8e3e ce30 673e d4f8 54be
00000090: 9851 993e 4912 2d3e bdfa b6bd 184a 013e
000000a0: 0aa0 3cbe 01f9 8cbe 99ff 60be a0fc 44be
000000b0: d13d 0d3f 1824 b7be 4561 593e 14c8 aabe
000000c0: 124b babd 62a1 26be 697f b6bd ca9d 6c3e
000000d0: 03e1 a0be 6977 61be 434c 6f3e 5bf5 92bc
000000e0: f3c4 f9bd c811 133e 9cf7 153e 9b42 bebc
000000f0: e184 cc3e bd73 89be 525e 93be 7822 7abd
00000100: 5480 68be 2b50 8d3e 1e54 5f3d 39fc f33d
00000110: 63d2 ac3d 9b10 44be c1c0 5a3e d6fa 26bd
00000120: c548 24be 38b3 d3bc dce5 cf3e 36be b4be
00000130: a51f d33d 18f3 ae3e 0f0a b83e 59d7 b73e
00000140: 90e7 6fbe 4d8c e0bd cfbb 903d 8353 eebd
00000150: d776 043e 05bf 543e 15e7 353f 2cb1 013c
00000160: 04a8 afbd 3a80 973e 4909 913e f0cf 4b3d
00000170: a24e b6be b289 c7bd 21d8 d33d aa76 96be
00000180: 6489 053e a961 763d 8501 c13e e0af a03e
00000190: 6c19 7c3c 0146 33bc 21b6 6e3e ef8e 893d
000001a0: 0795 27bc 6945 283e 925e 1bbe 9e04 5f3d
000001b0: 5231 04be 97a9 c83e 5fcb bebd 7411 663e
000001c0: 50be fbbe 4d87 e63b c023 683c 9cfc 7abe
000001d0: f9c5 68bc edde 75be affe 5d3d 7050 8f3e
000001e0: 6a3a 19be add9 4a3d 5b4c 04bd bd45 16bc
000001f0: f039 c0bc 6430 363e ec15 3e3e 52d5 85be
00000200: 794f 3a3e d8c8 81bc de7c 45be 9da4 073e
00000210: b952 753d 1c1d 27bd 7df1 263c 8583 263e
00000220: 1734 2f3e 67ea 1cbe 02d6 83be 1785 283e
00000230: 8869 b5be a347 413b 272e 293d c6bf 1fbe
00000240: fc6e 10be 9f1c 293e 317f 99bd dc5f 1bbd
00000250: 7be9 4dbe 1e2c 0dbe 4ac9 223f 6857 41be
00000260: e10c 843e e373 bdbc 4272 27be 84d7 023d
00000270: 87df 19bc b47b e7bc 6fb9 4bbe 99ba 153e
00000280: b29e 5a3d 2d5c d73d e76e 4b3d 3b2a f0bc
00000290: 54d2 88bd aeb7 443e 8358 82be 2f47 9f3e
000002a0: 7622 fd3c 8d2f 8abd 0fe6 01bf 0a67 813e
000002b0: 121c 2d3a e5ca 3d3e 2678 0dbe 0a21 6ebc
000002c0: 4004 773e 6894 ed3c 5345 073e 8a66 403e
000002d0: 554e 8a3d d916 033e 8292 d33d efaf 473e
000002e0: 3d6a 2e3e 0757 293e c451 553e e57e e33d
000002f0: dd74 863d 66ee b43d 2953 253c ca52 16be
00000300: 58bd 94bd 7f50 113d 8d1d 9abc acc7 16be
00000310: 24d4 43be 5507 993d bf28 063e 9b13 9f3e
00000320: 78b8 1e3e b103 efbc b032 07be 3741 06be
00000330: 4605 91be ad8f a3bb da92 833d 502b 1ebd
00000340: bc85 0b3e fa2a 963e f202 2c3d 9467 123d
00000350: 2b99 f13d 20a5 fb3d f5ac 4d3f df51 573d
00000360: 33c3 5b3e a708 ce3d 8619 1dbe 5037 ae3e
00000370: 8e42 323e eb42 1d3e e1e9 cfbd 2e51 8b3c
00000380: 7209 243e 91e8 0bbe c9d7 d8bd ef24 583d
00000390: ee6d fb3b 9406 313e 9ab9 5fbe 740d 853e
000003a0: 441c 47bd 50a2 21be 36e2 c9be 42de ba3e
000003b0: 0109 5ebc f961 e6bd 5543 2fbe c142 b6bd
000003c0: 9f9e de3e 74b4 b73b f6b6 b53d d542 1c3d
000003d0: 8e3e 153d 44c8 733d 131d 213d d60d 793e
000003e0: acfa 7e3d 5a94 e13c d8e3 2b3e 508f 433e
000003f0: 38f1 123d 20df 393e dcbc d4bc 38d5 2b3e
-0.13498496 0.22608657 0.21023582 -0.1086362 0.36269972 -0.13856323 -0.26118848 -0.11736311
-0.0023828272 -0.2663992 -0.0873979 0.053824615 -0.009206642 -0.46787935 -0.19800651 -0.6443582
-0.12409401 -0.04085165 0.27953017 -0.0021667264 0.3108126 0.14943528 0.42018577 -0.13899297
-0.19597916 0.10578689 -0.24217483 -0.38681477 0.12507205 -0.22282413 -0.09352222 -0.04553976
-0.14948708 0.2778967 0.22577211 -0.20798045 0.29945064 0.16901506 -0.08934543 0.12625921
-0.18420425 -0.27533725 -0.21972503 -0.19236994 0.5517245 -0.35769725 0.21228512 -0.33355772
-0.0909635 -0.162725 -0.0891102 0.23107067 -0.3142167 -0.22018208 0.23368935 -0.01793926
-0.12195768 0.14362252 0.14645237 -0.02322512 0.3994513 -0.26846114 -0.28782898 -0.06106803
-0.22705203 0.27600226 0.05452358 0.11913342 0.084385656 -0.1914696 0.21362592 -0.04076656
-0.16043384 -0.025842294 0.40605056 -0.3530137 0.1030877 0.3416984 0.35945174 0.35906485
-0.23428178 -0.1096426 0.07067072 -0.11637022 0.12935959 0.20775993 0.7105573 0.007915776
-0.08576968 0.29590017 0.28327397 0.04975885 -0.35606867 -0.0974306 0.10343958 -0.29387408
0.13040692 0.06015173 0.37696472 0.31384182 0.01538692 -0.010941983 0.23311664 0.067167155
-0.010228402 0.16432728 -0.15172794 0.054447763 -0.12909439 0.39191887 -0.09316134 0.22467595
-0.49168634 0.007035172 0.01416868 -0.24510425 -0.014207357 -0.2401082 0.054197963 0.27991056
-0.1496369 0.049523998 -0.03229938 -0.0091719 -0.023465127 0.17791897 0.1856305 -0.26139313
0.18194379 -0.01584284 -0.19285914 0.13246389 0.059893344 -0.040799245 0.010189411 0.16261108
0.17109714 -0.15323792 -0.25749213 0.1645702 -0.35432076 0.0029492162 0.04130378 -0.156005
-0.14104837 0.16514824 -0.07494963 -0.037933215 -0.20108597 -0.1378636 0.6358839 -0.18880999
0.25791076 -0.023126548 -0.1635218 0.031943813 -0.009391672 -0.028257228 -0.19894956 0.14621963
0.053374 0.10515628 0.04966631 -0.029317012 -0.06680742 0.19210693 -0.25458154 0.31108996
0.030900221 -0.06747351 -0.50741667 0.25273925 0.0006603609 0.1853443 -0.13815364 -0.014534244
0.24122715 0.02900143 0.13210039 0.18789116 0.06753222 0.12801684 0.103306785 0.19500707
0.17032714 0.16537105 0.20831972 0.111081876 0.06565259 0.088345334 0.010090628 -0.14680019
-0.07262677 0.035477158 -0.018812919 -0.14724606 -0.19123894 0.074721016 0.13101481 0.31069645
0.15500057 -0.029176565 -0.1320293 -0.13110815 -0.28324336 -0.0049914927 0.06424494 -0.038615525
0.13625234 0.29329664 0.041994996 0.03574331 0.117967926 0.122873545 0.80342036 0.052568313
0.21461181 0.10060244 -0.15341768 0.34026575 0.17408201 0.15357558 -0.10152031 0.017006483
0.16019228 -0.13662936 -0.10588033 0.052769598 0.0076730167 0.17287666 -0.21848145 0.25986826
-0.04861094 -0.15784574 -0.39430398 0.36497694 -0.013551951 -0.112491556 -0.17115529 -0.08899451
0.43480393 0.0056062285 0.08872788 0.038149673 0.03643661 0.05951716 0.039334368 0.24321684
0.062250778 0.02753656 0.16786134 0.19097638 0.035874575 0.18151522 -0.025968961 0.16780555

bias f4 [64]
00000000: 4cac 57be e686 413e 52e6 ea3c 01fc 25be
00000010: 4dec bfbd 75bb 56be 29d0 7abd de1b bbbc
00000020: dcb5 e0bd cdce 4e3c d1e7 b5bd b5c2 a23d
00000030: 3ba6 98be 6842 86be 0eaa 80be 1451 103e
00000040: 656f e33d a111 ca3c 1a00 aabd ecb5 e63c
00000050: afe1 ac3d 93db a2bd 9af7 523d cc6c 083e
00000060: 49e2 a8be 73dd 6cbe 5f9e a1be 7886 5abe
00000070: 5e18 a3bd 330c aabe d8ec 73bc f124 eabe
00000080: d70c 703d c961 2a3e 4b71 f3bd 26f1 463e
00000090: fc7d 1f3e 7d14 c4bd 0492 a6be b34d be3c
000000a0: 7326 dfbd 26dd 0ebe 1984 0e3e 8ad3 453e
000000b0: ca6f 38bc 0892 233e ea6f 683e 48a3 4b3e
000000c0: 72e2 63be 0d91 b7be e256 983d 6800 003e
000000d0: 698f b53d 207a cdbb c1a2 8ebd 3cc4 8ebe
000000e0: f3ca dcbe bada 3d3e 5fc9 d3bc e6da ddbd
000000f0: 5bfa adbe febe adbe c093 edbd 8455 cdbe
-0.2106182 0.18899116 0.028674278 -0.16209413 -0.09371243 -0.20969947 -0.061233673 -0.022840437
-0.10972187 0.012622547 -0.08882106 0.07947294 -0.29814324 -0.2622254 -0.2512974 0.14093429
0.11105231 0.02466661 -0.083008006 0.028162919 0.08441483 -0.07952037 0.051505663 0.13322753
-0.32985142 -0.23131351 -0.3156614 -0.21340358 -0.07963632 -0.33212432 -0.014888011 -0.4573131
0.058605995 0.16638865 -0.11886843 0.19427928 0.15575403 -0.0957422 -0.32533276 0.02323041
-0.108960055 -0.13951549 0.13917579 0.19318977 -0.011257121 0.15973675 0.22698942 0.19886506
-0.22254351 -0.35852852 0.074384466 0.12500155 0.08865244 -0.006270662 -0.069646366 -0.2788409
-0.43123588 0.18540469 -0.025852857 -0.10832767 -0.3398007 -0.33934778 -0.11600447 -0.40104306

weight f4 [1, 64]
00000000: dff7 573f a4ec c03e d38d d53e 73ba d63e
00000010: d08c a4bd b014 063f fcb0 b23e c21d a2bd
00000020: 8d21 cfbc 6e1f f33e 6ab9 9f3e 2b3d d6bd
00000030: 587f 593f 1b75 b43e ce9a 193f 17a4 c13e
00000040: 43e4 27be 3635 d2bd 82a9 a73e 44f3 9fbe
00000050: c0dc db3e aeac b8bc 654a f4be 0dcd 76bd
00000060: 62b5 583f 7c7f c43e cedf 393f dd07 2b3f
00000070: ed63 813e 2402 3d3f a6c7 753e a457 4d3f
00000080: 5655 013f 9346 62bd 19bb a4bd b75c 4dbe
00000090: 7bee 65be 9841 3bbd 8354 243f 3a25 aebd
000000a0: eed3 d83e 9ae6 8abe 44e0 8cbe 1231 ecbd
000000b0: 907f e4bd f623 0dbd 8e7f 01be 173c 2dbe
000000c0: a0be 0c3f 4ea3 3e3f 1ff9 abbe 899e 5bbe
000000d0: 3463 913e 81fc 03bf c238 f1be 5c7a 503f
000000e0: a5d3 243f f662 123f a1fa 8fbc a605 99be
000000f0: 03e2 823f 7781 2a3f 6b3d 16bd 0da6 283f
0.84362596 0.37680542 0.41709766 0.41939124 -0.0803467 0.52375317 0.34900653 -0.07915832
-0.025284553 0.47484916 0.31196147 -0.104608856 0.84959936 0.35245594 0.6000184 0.37820503
-0.16395669 -0.102640554 0.32746512 -0.31240284 0.42941856 -0.022543278 -0.4771301 -0.060254145
0.8465177 0.38378513 0.72607124 0.66808873 0.2527155 0.7383139 0.24001941 0.80211854
0.5052084 -0.055243086 -0.080434985 -0.20054899 -0.22454254 -0.045716852 0.64191455 -0.08503194
0.4234919 -0.2712906 -0.2751485 -0.11532797 -0.11157143 -0.034458123 -0.12646315 -0.16917454
0.5497837 0.74467933 -0.33588502 -0.21447195 0.28395998 -0.51557165 -0.47113615 0.81436706
0.64385444 0.5718225 -0.017575564 -0.29887122 1.0225223 0.666038 -0.036679666 0.65878373
