Industrial Equipment/mlruns/0/2ca7761abca24d81975b7ae0cde0e839/artifacts/generator_model/data/model.pth (torch, 49844 bytes, 6 tensors)

weight f4 [64, 100]
00000000: eb27 cebd 4f6f 953d 9166 c0bc ccde 59bd
00000010: 6e43 9c3d eab5 2f3e e1c6 f5bc a18e a93d
00000020: 1a9f cebd e525 27bd 0e4c 3e3e ec81 0b3d
00000030: 867d edbd 9355 82bd 916a 013e 2850 233d
00000040: ed41 163e d7b6 61be e27c 2f3e 01ca 84be
00000050: 154e 06bd f6ba 70bc 3854 473c f958 0abd
00000060: f9fa fcbb c1f5 4e3e 391c 81bd b0d9 25be
00000070: 0edc 473d d6cd 5ebe 50b6 44bd f4ed ba3a
00000080: cd16 73bd 0a22 5c3d e5ac 163e 3784 8c3d
00000090: bdaf 5cbe 5e60 303d 6f18 003c 6d12 3e3e
000000a0: e75f b5bd 2664 4e3d 67de fdbd a896 b23d
000000b0: 7664 c03c e039 2b3e b5c9 67be d41a 8bbe
000000c0: 5cd5 df3c 73fa ebbd c1de 03bd bc18 1cbe
000000d0: a8a6 e33d 4742 babd 5f1e 50be bf46 1a3e
000000e0: f466 1b3e 40a1 213d 75b3 cc3c 7206 88bd
000000f0: 2768 36bd 9c0f 4dbe 86cb 5cbe e512 873d
00000100: 403c d13d 0540 4fbe 837f 15ba d697 8ebd
00000110: f758 973d 904d 883d daf0 0aba ad22 84bc
00000120: 368f cc3d e1f2 4e3e 0b35 383d 77b9 86bd
00000130: 3b8b f73d 3e22 9fbd 332a 5bbe 347c 043d
00000140: e748 463e f4a5 57be 8bd5 693e 5ee8 8bbc
00000150: 580c 783e 6ee4 9fbd 032b 263d 62b8 bc3d
00000160: db41 2d3e 7961 66bd 2512 573d 0bff 3abe
00000170: 6d3d a7bd 43b6 58bb 58ff ec3c accf d1bc
00000180: 03d9 d2bd 059c 7bbc 25a7 383d bd46 973d
00000190: 35c4 ed3d 5459 703d dd25 003e c230 253d
000001a0: 3501 18be 1f2d 1ebe ffa9 233b df63 b9bb
000001b0: 928e 003e da3e 873c 5e99 52bd 8390 533d
000001c0: 0e05 92bc 1378 963d e636 12bd 8ac4 1abe
000001d0: 5ade 1ebe cecb c1bc 43a9 17bd e14d 393e
000001e0: c4a4 723c de30 a1bd a8ac 86bd df08 f7bc
000001f0: 273b af3d 5add 15be 715f a1bc 8dd9 1d3e
00000200: 1dd8 28be f2b1 afbd 2ccd 05bd cd3e ff3d
00000210: 8d77 113d 838b a23d f996 05be 5aa5 0a3d
00000220: a844 e23d 2800 97bc c432 943d 849a c6bd
00000230: e42c bb3c 0389 c63d 2b07 db3d 3d0b 8dbd
00000240: 6c72 d8bc ba1c c3bc 99ee da3d 3220 1a3d
00000250: 0717 03be 2650 b33d 7218 923d 2f9a 483d
00000260: 52ce 683d 7ab3 fa3c 4d27 c23d c005 e33c
00000270: e59f f0bd 71c1 c9bd 22cb fc3c b4ef 9f3c
00000280: fd10 e5bd 0e80 1d3d 048a 8e3d 45fd b5bd
00000290: 957d 8fbc 6e76 103e f80e b7bd ccae aa3d
000002a0: 60fe 4dbc 95a5 39be f166 95bd 657c e8bc
000002b0: 70b8 33be 4011 26be 5828 04bd 21c7 3bbb
000002c0: 1d04 03be 6181 07bd 54b9 7c3d be31 093e
000002d0: bc72 36be b347 333d afac dbbd b0b5 1dbd
000002e0: 5c0b 35be 869a 313e af8a 87bc c372 78bd
000002f0: d1c0 57bd 3a3c 91bd 127d 04be 5c44 103e
00000300: e8b6 b33d b070 e73c d2e2 a1bd ec9f a1bd
00000310: 180e c5bc 6a01 a4bd cca8 fabd 6103 34bd
00000320: e907 7e3d 3ff0 233e 0d3a 053e 90b2 123d
00000330: d68a ed3d b7c9 a73b cb18 f3bd bc88 8a3d
00000340: f442 5abd 036e b0bd 6f3e e73d 9983 d1bd
00000350: 9b71 3f3d 031d 5f3c f949 c43d d93c ecbc
00000360: 4741 473e 1500 edbd 9bc7 273e 3b8c 36bd
00000370: 9d68 193e 7f3d 563d 3670 acbd 2fa6 98b8
00000380: 2a44 e43c dd5e 913d 25ee 12be 3b07 9dbd
00000390: 2755 00bd 58ed 32bd 5795 963d 3cb4 903d
000003a0: b7cc b8bd 8741 e03c 986b d3bc 32d2 ce3d
000003b0: c651 46be 49da d0bd 2ef4 ec3b 16c5 eb3d
000003c0: 44fd 053e 8b92 08be 3e67 b3bd b698 563d
000003d0: 091a a23d bc53 3dbd cb80 04be 5bb8 38bb
000003e0: 2374 debd 3daa c4bd 6a85 67bb 4629 8c3d
000003f0: 7baf bb3d 6e33 6f3d 7534 47bd 3e59 f33d
-0.100662075 0.07296621 -0.023486407 -0.05319099 0.07630049 0.17159238 -0.03000206 0.082791574
-0.1008894 -0.040807623 0.185837 0.03405945 -0.11596207 -0.06363978 0.12638308 0.039871365
0.14673586 -0.22042404 0.17137483 -0.25935367 -0.03278931 -0.014693012 0.012166075 -0.033776257
-0.007720348 0.20210935 -0.06304211 -0.16196322 0.048793845 -0.21758208 -0.04802543 0.0014261589
-0.059347916 0.0537434 0.14714392 0.068611555 -0.21551414 0.043060653 0.007818325 0.18561716
-0.088561825 0.050388478 -0.123959355 0.08720142 0.023485404 0.16721296 -0.22635539 -0.27168906
0.027323417 -0.11522379 -0.032194857 -0.1524381 0.111157715 -0.09094673 -0.20324086 0.1506605
0.15175992 0.03946042 0.024987916 -0.06641854 -0.04453292 -0.20025486 -0.21562013 0.06595401
0.1021657 -0.20239265 -0.00057028997 -0.06962554 0.073900156 0.06655419 -0.0005300172 -0.016129816
0.09988253 0.20209838 0.04497246 -0.06578343 0.12087103 -0.07770203 -0.21402816 0.03234501
0.19363748 -0.210594 0.22835366 -0.017078575 0.24223459 -0.078072414 0.040568363 0.09214856
0.16919653 -0.0562453 0.05250754 -0.18261354 -0.08166013 -0.003306762 0.028930351 -0.025611721
-0.10295298 -0.015357022 0.045081276 0.07386539 0.11609689 0.05867894 0.12514444 0.040329702
-0.1484421 -0.154469 0.0024973152 -0.0056576575 0.12554386 0.016509462 -0.051415794 0.05165149
-0.017824676 0.07347121 -0.035696886 -0.15114036 -0.15514508 -0.023656752 -0.037026655 0.18096115
0.014809791 -0.07870649 -0.065759 -0.030155597 0.08556204 -0.1463522 -0.01969883 0.1541502
-0.1648869 -0.08578862 -0.03266637 0.1246315 0.035514403 0.07936766 -0.13045873 0.033849098
0.110482514 -0.018432692 0.07236245 -0.0969744 0.022848554 0.09694102 0.106947266 -0.06886909
-0.026421748 -0.023817409 0.1069004 0.03762836 -0.12801753 0.087555215 0.07133569 0.048975166
0.056837387 0.03060316 0.09480152 0.027712703 -0.117492475 -0.09851349 0.03085858 0.019523479
-0.11184881 0.0384522 0.06959918 -0.08886198 -0.017515937 0.14107677 -0.08938402 0.08334121
-0.012572855 -0.18129571 -0.07295025 -0.028379628 -0.17550826 -0.16217518 -0.032265037 -0.0028652626
-0.12794538 -0.03308237 0.06170018 0.13397881 -0.17817205 0.04376955 -0.10726296 -0.03850335
-0.17680115 0.17344102 -0.016545622 -0.06065632 -0.05267412 -0.070915654 -0.12938336 0.14088577
0.08775121 0.028251976 -0.07904591 -0.07891831 -0.024054572 -0.08008082 -0.12239227 -0.043948535
0.062019262 0.16009615 0.13010426 0.03581482 0.115987465 0.005120482 -0.11869963 0.06764361
-0.053286508 -0.08614733 0.11291205 -0.102301784 0.046739202 0.013617757 0.09584422 -0.028837608
0.19458495 -0.11572281 0.16384737 -0.044567328 0.14981313 0.05230474 -0.0841984 -7.278879e-05
0.027864534 0.07098172 -0.14348657 -0.07667395 -0.031331208 -0.04368338 0.07352703 0.07065627
-0.09023421 0.027374996 -0.02580814 0.10098685 -0.19367132 -0.101978846 0.007231257 0.115122005
0.13084894 -0.13337152 -0.08759926 0.05239173 0.07915122 -0.046222433 -0.12939756 -0.0028186056
-0.10861995 -0.09602783 -0.0035327324 0.0684381 0.091643296 0.058398657 -0.04863401 0.11882256

bias f4 [64]
00000000: 80f1 d83d 8e96 f73d ee81 943c f03e 823d
00000010: 5f0d 0f3e d604 b23d deda a63d 0017 f13d
00000020: 096d 763c 90d4 2c3e ff3d 163e 309e c9bc
00000030: 739b 83bb 8e45 1d3e f9f1 f03c 8cc6 1d3e
00000040: b67d 203e 7b13 183e 90ec 203e c8d6 2c3e
00000050: 47c3 be3d 372e 573d 0d29 133e ef2d f33d
00000060: bfef 403d 8443 513e 7247 fa3d 0a56 183e
00000070: 7aff a93d b1b0 3c3d 06ba 3c3c 02e5 e53d
00000080: c40e 1f3e edae 613e bbf3 413d 33ce 5c3e
00000090: 2974 173d bc7a 513e b6a2 48bd dafc ef3d
000000a0: 2b6d 543d 4993 283e 0b0a 463e 774e 9e3d
000000b0: c688 bb3d 095f 0a3e d38f 07bc a44f 59bd
000000c0: efc3 733b 4086 1d3e 163b 253e 5eb6 393e
000000d0: 629f b139 c18b f53d 2c54 2f3d 4d2b b83d
000000e0: ff19 05be 9169 a33d a942 263d 5bb7 083e
000000f0: f506 123c 5ec5 ed3c 6ecd fa3c d5aa ab3d
0.105929375 0.12089263 0.018128362 0.063596606 0.13969944 0.08692329 0.08147214 0.11771965
0.015040644 0.16877961 0.14672087 -0.024611562 -0.0040163337 0.15358564 0.029412257 0.15407771
0.15672955 0.14851181 0.15715241 0.16878808 0.0931459 0.05253431 0.14371128 0.118739955
0.04710364 0.20435911 0.12220658 0.14876571 0.083006814 0.046066944 0.011518961 0.112253204
0.15532976 0.22039385 0.04735158 0.21563034 0.036976013 0.20456976 -0.0489833 0.117181495
0.051861923 0.16462435 0.19339769 0.0772981 0.09156947 0.13512816 -0.008274036 -0.053054467
0.0037195643 0.15383244 0.16135821 0.18135974 0.0003387882 0.119895466 0.042804882 0.08992634
-0.12998198 0.079791196 0.040590916 0.13351195 0.0089127915 0.029024776 0.030615535 0.08382193

weight f4 [64, 64]
00000000: a131 3a3d 5165 54bb 94ec 153e 177a 39be
00000010: 2847 87bd 4c04 6fbd 023a 863e 6d66 463e
00000020: 809c 37bd b597 ea3d 3470 d33d d84f 16be
00000030: c01f 503d 12be 083e 7247 11bc 5122 c0bd
00000040: 7786 023e d973 693d 9646 54bd 77bc c5bd
00000050: 2757 1e3e feb8 df3d 381c d73b 9393 b1bd
00000060: a908 07be ba21 5e3e 91a5 953d 3ee2 de3d
00000070: db16 86bd e376 36bd 56e0 6a3e f9b1 57bd
00000080: f804 40bd 3d92 293d 8dd4 ddba dd86 a43c
00000090: bafd 8c3d 05d3 113e bfb6 b7bd 4d89 e33c
000000a0: 3687 6d3e 3698 88bd 2f49 d4ba 728b ea3c
000000b0: eae6 8ebd fddb 553e 04fd b63d 688a cfbd
000000c0: 55b1 a4bd 2bdd 7bbb 41f7 08be b406 4a3e
000000d0: 8dae 853d 9fb9 f53d bff5 f73c 9eeb 333e
000000e0: c4ef eb3d a1db a43d f6e8 c23c 64b1 f33d
000000f0: ed43 393e ac9f 573e 820c 3ebe 43bc a0bc
00000100: 3211 de3c f6d3 573e 05b7 0fbd 3548 de3d
00000110: d29d 0e3d ebff b43d 6e80 fdbd 4367 813d
00000120: 841e 123e a1f4 67bd 754a 253e cd58 503e
00000130: 4db5 bd3d e2dd d0bd 3ed5 f13d 1505 473d
00000140: f2ee ee3d 9dcd 003d d631 33b9 d6b8 b8bc
00000150: fdaf ea3c f10e 483c 0d1f 343d 09c5 5ebc
00000160: 9411 f03d cdcc 373a 9b28 563d 0b8c 7bbd
00000170: 1413 853e 735c f9bd 201e d7bd 635f f83d
00000180: ff65 9f3d 3d4e 913b 1447 79bd 1a9f cebc
00000190: fb03 633d 0aa3 21be ed12 093e 7e2a 8dbd
000001a0: 40d2 ca3b 1fe1 2b3e dc36 4dbc a348 7abc
000001b0: 497c bd3d 466e b73b 3a3a ebbd 17a3 43bb
000001c0: c4df 563e aff6 8d3e 8d49 bc3c eea3 c73d
000001d0: 6ca0 82bd 72c4 903e d5b6 803e 69e8 b7bd
000001e0: a696 35bc 4202 2d3c 560b d53c b156 383d
000001f0: 0bc2 9e3d c491 6fbd e8ed 1c3e de35 d83d
00000200: 5bea d83d da6f 183e 6acd 0b3e d08b 1a3e
00000210: 4e23 dc3c 8960 d03d eb12 9f3d 8e05 10bd
00000220: 0059 883e 020c 80bd eabb f3bd 0d72 28bd
00000230: c30e 713d 6656 103c f58c 09bc 1546 2f3e
00000240: 7f5a d8bb b271 b83d 105e b8bd 072d b33d
00000250: ee97 bf3d 18e7 373d 834f df3d aa9e 453e
00000260: fae2 d8bc 2be5 87bd 678f 0f3e 3e3f 2ebd
00000270: 288e a43d f3c1 acbc 03ee e53d c807 ac3d
00000280: a25c 803d a93a 063c f609 223d 7247 fa3b
00000290: 9fb7 1c3d e216 d43d cf5d 2f3e e95c e5bd
000002a0: 7589 11bd d076 25bd f847 5e3d 7801 0c3e
000002b0: 7fd8 1cbc 91d7 6d3e 89ea 1f3e 3c36 94bc
000002c0: 45ad 963c 83ba a63d 30b9 ee3c 771e c73b
000002d0: 86eb e6bb 56b3 81bc 016e f2bd 0cc8 2a3e
000002e0: 122f 0a3e 767a 11bc 71a4 563e 9d05 e03b
000002f0: 7fcb ce3d 2333 ad3d 5924 703e 2bc0 b73d
00000300: 5f88 81bd dda2 b9bc 5725 08bd bb83 873d
00000310: 9d78 20bc f5ca f4bd 5e6d a23d f820 343e
00000320: 8c88 8f3b 49d3 4b3e af78 8fbd 1471 a43d
00000330: 021c 1b3e e956 833d d337 813d ddf1 3c3e
00000340: 93e0 ea3d a2f8 69bd 1749 db3d c17f 8f3d
00000350: 1d5e 0dbd 4545 363e 10c9 e1bd 7f65 2a3d
00000360: 76fb 5f3e ea27 b9bd 34dc ca3d 692c 6ebd
00000370: 3c24 093b 8cc6 083e 3982 d6bc 7746 1cbd
00000380: a141 053e 18f2 473e 1f33 c73d 2dca 9f3d
00000390: 4601 e93c 7d35 6ab8 8760 703d adfa afbc
000003a0: f802 683d 6080 913d f9cb 603d 2383 f8bd
000003b0: b334 f13d f089 58bc e819 323e 55a3 a2bc
000003c0: c506 adbb bbf7 c43d db13 243e 2899 e1bd
000003d0: c110 c2bd 5c46 803d 45b5 15bd 606a de3c
000003e0: b20f ce3d 10c3 a9bd 6e53 22bd 430a 8f3d
000003f0: fece 393c 1548 5c3c 8c3e dc3d 494a 383d
0.045457486 -0.0032409022 0.14641029 -0.1811298 -0.06605369 -0.058353707 0.2621613 0.1937501
-0.044826984 0.11454717 0.103241354 -0.14678895 0.05081153 0.13353756 -0.008867132 -0.09381545
0.12746607 0.056995247 -0.05182513 -0.096550874 0.15462933 0.10923956 0.0065646432 -0.08670726
-0.13186897 0.21692553 0.0730697 0.10882996 -0.06547328 -0.044546973 0.2293714 -0.052659962
-0.04687974 0.04139923 -0.0016924307 0.02008384 0.06884332 0.14240654 -0.08970403 0.027775431
0.2319611 -0.06669657 -0.0016196127 0.028630946 -0.06977637 0.208847 0.08934978 -0.10133821
-0.08041636 -0.0038431387 -0.1337557 0.1972912 0.065274335 0.11998295 0.030268548 0.1757035
0.11520341 0.080497034 0.023792725 0.11899069 0.18092318 0.21057004 -0.18559459 -0.01962102
0.027107809 0.2107695 -0.03508665 0.10853616 0.034818478 0.08837875 -0.12378012 0.06318524
0.14269453 -0.05662978 0.16141684 0.20346375 0.09263096 -0.10198571 0.11808251 0.04858883
0.11666669 0.031446088 -0.00017089336 -0.022549074 0.02864837 0.012210594 0.043974925 -0.0135967815
0.11722103 0.00070114137 0.05228482 -0.061412852 0.25991118 -0.121758364 -0.10503793 0.121275686
0.07783126 0.0044343756 -0.0608588 -0.02522235 0.055423718 -0.1578485 0.13386126 -0.0689287
0.0061896145 0.16785096 -0.0125252865 -0.015276107 0.09252221 0.0055978624 -0.11485715 -0.0029851848
0.20983797 0.27727267 0.02298429 0.09748064 -0.06378254 0.28274876 0.2513949 -0.089798756
-0.011083281 0.01055962 0.026006382 0.04500455 0.077518545 -0.058488622 0.15325129 0.10557149
0.10591575 0.14886418 0.13652578 0.15092397 0.026872303 0.101746626 0.0776728 -0.035161547
0.26630402 -0.0625229 -0.11901076 -0.041124392 0.05885197 0.0088096615 -0.008395423 0.17116578
-0.006602585 0.09006061 -0.09002316 0.08748823 0.0935515 0.044898123 0.109038375 0.19298807
-0.026475418 -0.06635507 0.14019547 -0.04254078 0.08034927 -0.021088576 0.11227038 0.08399922
0.06267668 0.008192697 0.03956028 0.0076379115 0.038261052 0.10355927 0.17125629 -0.11199362
-0.03553148 -0.04039651 0.054267853 0.13672435 -0.009573101 0.23226763 0.15616812 -0.018092267
0.018393168 0.08141043 0.029141039 0.0060766297 -0.0070471196 -0.015832584 -0.11837388 0.16677874
0.13494518 -0.008879295 0.20961167 0.0068366067 0.100974075 0.08457019 0.23451366 0.089722
-0.06324839 -0.022660667 -0.033238735 0.066169225 -0.009794381 -0.119527735 0.079310164 0.17590702
0.0043802913 0.19904818 -0.070054404 0.080293804 0.15147403 0.06413061 0.06309476 0.18451639
0.114686154 -0.05712188 0.107073 0.07006789 -0.03451358 0.17799862 -0.11024678 0.0416007
0.21873268 -0.09040816 0.09905282 -0.05814782 0.0020926138 0.1335699 -0.026185142 -0.038153138
0.13013317 0.19525945 0.097265474 0.07802234 0.02844299 -5.5839762e-05 0.058685806 -0.021481836
0.056643456 0.07104564 0.054882023 -0.12134387 0.1177763 -0.013216481 0.17392695 -0.019853273
-0.005280348 0.09617563 0.160232 -0.1101554 -0.09475852 0.0626342 -0.036549825 0.027150333
0.100615874 -0.08289158 -0.039630346 0.06984379 0.011340855 0.01344492 0.10754117 0.04499272

bias f4 [64]
00000000: 520c f73d f02f 60bc b466 48bd 39e2 85bd
00000010: b93a 2dbd fa79 123d ebcc 1d3e 09b7 94bd
00000020: 3eb2 f0bc 9c89 71bc 85b8 dc3c bd57 3f3d
00000030: e4fc e7bb 2b44 44bd 187f d9bc 2f7a 953d
00000040: c396 05bb b230 bcbd 7bd2 2abd 0152 293c
00000050: 92f0 ca3d 6264 d03d ee03 9fbd d9e2 fb3d
00000060: 0b0d a3bd 7e1a 023e 4b9b f93d ea7d 3ebc
00000070: b822 f73d e553 80bd f813 9d3c cfd3 8c3d
00000080: c298 213e 572a a8bd 5673 2d3e 4df8 1c3d
00000090: 4f27 4fbc 81c8 f53d c48a d7b9 17f1 92bd
000000a0: ead6 a8bb fefe 883d 3f80 983d a760 023e
000000b0: dc16 89bd 865b edbc 4a02 0cbd 311e d73d
000000c0: 3982 b1bd af98 343b 7858 223e 8326 143e
000000d0: fa4e 3c3e 369c 2d3e e75b e33d b5d1 423d
000000e0: 56b7 303e fc55 b43d 2da6 8b3c e14d b53c
000000f0: aaf0 34bb e455 a9bd 1e09 80bd c678 1b3e
0.12062897 -0.013683304 -0.04892607 -0.06537289 -0.04229233 0.035760857 0.15410201 -0.07261474
-0.029381867 -0.014742281 0.026943455 0.046714533 -0.0070797075 -0.047916573 -0.02654986 0.07298695
-0.002038405 -0.091889754 -0.041704636 0.010334493 0.099091664 0.101753965 -0.077644214 0.12299127
-0.07961472 0.12705418 0.12187823 -0.0116267 0.12067169 -0.062660016 0.01917456 0.06876337
0.15780929 -0.08211201 0.16938528 0.038322736 -0.012643649 0.12001134 -0.00041111384 -0.071748905
-0.005152573 0.06689261 0.07446336 0.12732182 -0.06693813 -0.028974306 -0.03418187 0.105038054
-0.08667416 0.0027556827 0.1585406 0.14467816 0.18389502 0.16954121 0.11101513 0.047563273
0.17257437 0.08805463 0.017047012 0.022131862 -0.0027609267 -0.082683355 -0.06251739 0.1518279

weight f4 [5, 64]
00000000: 60e3 b73d d090 af3d 1655 6bbb ca0d 0cbe
00000010: 29c5 90be e383 d73d 4cc6 05be 0842 293e
00000020: e7b1 e1bc 6ed8 22bd 833a fdbc 1105 84bd
00000030: 84f4 8dbd b72e cabc 9958 1dbe d0a1 833d
00000040: 3ecf c23a 0d68 cebc 3af9 3b3b 4769 223d
00000050: f200 8c3d 9c19 8abd f0b2 bf3d 27e4 c13d
00000060: 0f57 3dbd b9d3 b93c 512a b63d 4c75 b43d
00000070: 5d51 45bd 29a9 73bd 79e7 a3bc 1658 dcbc
00000080: c3fc 963d 9d3e bf3c 60ad 88bd 0c98 39bd
00000090: 290d eebd 03ea 563e dd63 c03c 455c 34bd
000000a0: 81bb 77bc bc25 033e 8c47 463e 7fa7 80bd
000000b0: 4147 8c3d ab3e 803d a231 5b3d ed88 30be
000000c0: 98a0 103d 71c1 41be b89c fdbd 1f70 22be
000000d0: e202 b83d a90c 5abd 3d1d 433d 5084 acbc
000000e0: f048 853b 2f95 a9bd dd2e 113e 78ee 313d
000000f0: 2c11 2cbe 898f fcbd d24d c63d 569c 803c
00000100: 9e2d 75bd cd26 5fbd 4b88 273e ef55 edbd
00000110: 3160 e3bd c64e a538 751a 873d bf81 973c
00000120: 00cb ffbb 35e3 80bd afe0 543d 5cba a83b
00000130: e14a 093e 2ccb c13d bb28 a6bd 82bb 483d
00000140: c7b6 9cbc 8a13 093e e724 bc3c 7592 f8bd
00000150: 2ff9 56bd a865 68bd 7915 213d dfcf 69bd
00000160: 0799 6d3e f176 45bd 5a1d 5fbd b2b7 b63d
00000170: 4c7f 523b 8a0c 9d3c 30c3 5dbe f19c eabb
00000180: 8f03 0fbc 28a0 793e aa4f 8bbc 3b83 2d3e
00000190: 6421 4cbe 7e2b aabd d399 58bc 9e4b 6c3d
000001a0: 8163 853d be38 6d3e f5a4 c43d 24e1 953d
000001b0: 74cd b0bd 6bb2 edbd 7604 aabd 1d3c 0d3e
000001c0: 404e 373e f33f 31be 048e 5b3d f589 babc
000001d0: 3b69 ebbd 7740 f4bc d0a8 c4bd f134 a2bd
000001e0: 8635 80be a1c0 04be 1c36 b93d 7c27 7e3d
000001f0: f7e8 2abe 3d65 183d 3bf3 ac3c 4f4f 0ebd
00000200: b3da ef3d 117a dabd 920d b4bd 8c2e 17be
00000210: 735b f5bc 243a 58be 8c65 943d eeb8 d8bb
00000220: 1ead 00be 2620 043e a851 293e 37e5 8dbe
00000230: afa2 4b3d 5cd4 4e3d e2f3 0d3e 11c2 1c3e
00000240: 20aa 973e 26be 0dbe 9596 28bd 0564 5a3d
00000250: 8177 0dbe 69e0 113e 08ad e3bd 938f 43bc
00000260: a841 ae3d 8b18 5cbe 94ca 1e3e aeca 363e
00000270: 2995 acbd ee43 1a3d 1248 92bd fe4c 333d
00000280: 1240 133e e8ff aabc 3cea ef3d d71e eb3b
00000290: 9a80 893d 833c 86bd 27be b3bd dd8c 43be
000002a0: 109b d8bd 9eec e73d d0c4 3bbd f606 103e
000002b0: 05de 83bd 77d5 ae3d f6c6 ff3c 8573 403c
000002c0: efd9 003d 0467 e93b 0945 c23d 1cfb 2ebd
000002d0: 2c31 873d 3ab0 fcbc 3c80 e13d 3516 913e
000002e0: fedc ab3d a3f3 8b3d 485b 16be 7f4d 513e
000002f0: efc6 4bbd fab9 febd 07d9 e1bd 28be 21be
00000300: 866f cebd 7275 f43c fcf8 433e 740c 5d3d
00000310: 094a dabc 15b7 d83d 64f5 233d cbef 153d
00000320: a1f7 cb3d 0691 37be deef 2e3e fca6 dbbc
00000330: 4436 68be 3181 1b3d 1d30 f8bc c0f1 e8bd
00000340: 7b30 02bd 5d52 65bb 46a7 363e 340f 3ebe
00000350: 2f4e dc3d ae43 3a3e ce54 8bbc b17b fcbd
00000360: 9dd9 b53d ee97 19be 0b2b 533d b10b 69bd
00000370: c981 c93d 9451 fbbc 830f 65bc 1fb1 9cbd
00000380: 2ec0 fc3d b98b 98bd 70a9 f0bd b87c b03d
00000390: da61 10be bb97 86bd a996 113d 7fbb 7ebd
000003a0: 8c89 e5bc 296b 873d b97c a6bc acee 043d
000003b0: 8d5c 483e bcba 083e 53bc 0bbc 513d e33d
000003c0: bd1e 13bd 2a05 0ebe 99df d03d 276e 193d
000003d0: bf8b 033d 1f30 573e eaa6 4e3e aa6e 32bd
000003e0: 62c9 b0bd 53d8 003e 5fb9 63bc 6c8d 90bd
000003f0: 540e ee3d cc7e 0fbe 12ab 043d abd0 e43d
0.08978915 0.08572543 -0.003590887 -0.13677135 -0.2827542 0.10523202 -0.13063926 0.16529095
-0.02755065 -0.039757185 -0.03091169 -0.06446279 -0.06931403 -0.024680478 -0.15365829 0.06427348
0.0014862788 -0.0251961 0.0028682486 0.03965118 0.06836118 -0.06743166 0.093603015 0.09467345
-0.046225604 0.022683965 0.0889479 0.08811435 -0.048173297 -0.059487496 -0.020007836 -0.026897471
0.07372429 0.023345286 -0.06673694 -0.04531102 -0.11623604 0.20987706 0.023485119 -0.044033308
-0.015120388 0.12807363 0.1936323 -0.06281947 0.06849528 0.06261953 0.05351413 -0.17239733
0.035309404 -0.18921448 -0.12383407 -0.15863083 0.08984925 -0.05323473 0.047635306 -0.021059185
0.0040675327 -0.08280408 0.14178033 0.043440312 -0.16803426 -0.12332065 0.09682812 0.015699547
-0.059857957 -0.054480363 0.16360585 -0.11588656 -0.111023314 7.882486e-05 0.06596843 0.018494485
-0.007806182 -0.06293336 0.051972087 0.005149169 0.1340747 0.0946258 -0.081132375 0.049006946
-0.019130124 0.1338636 0.022966815 -0.121373095 -0.052483734 -0.056737572 0.03932712 -0.057083007
0.23202907 -0.048209134 -0.05447135 0.08921756 0.0032119332 0.019171018 -0.2165649 -0.007159822
-0.008728876 0.24377501 -0.01700576 0.16944592 -0.19934613 -0.08309077 -0.013220268 0.0576893
0.065131195 0.23166177 0.096017756 0.07318333 -0.08632937 -0.11606296 -0.08301632 0.13792463
0.17900944 -0.17309551 0.053602234 -0.022770861 -0.114946805 -0.029815895 -0.09602511 -0.07920254
-0.25040835 -0.12964107 0.09043524 0.062049374 -0.16690432 0.037205923 0.021112075 -0.034743603
0.117116354 -0.106678136 -0.08791651 -0.1476385 -0.029950833 -0.21115929 0.07245931 -0.006613842
-0.12566039 0.12902889 0.16535056 -0.2771394 0.049715694 0.05049549 0.13862565 0.15308405
0.29621983 -0.13842067 -0.04115923 0.053318042 -0.13815118 0.14245762 -0.111169875 -0.011936086
0.08508617 -0.21493737 0.15506965 0.17850754 -0.084268875 0.03766244 -0.071426526 0.043774597
0.1437991 -0.020873979 0.117145985 0.0071753073 0.06713982 -0.065545104 -0.08776503 -0.19096704
-0.10576451 0.11324428 -0.045841992 0.14065155 -0.06438831 0.08536809 0.031222802 0.011746292
0.031457838 0.007122876 0.09485824 -0.042719945 0.06601176 -0.03084575 0.11010787 0.28337255
0.0839176 0.068335794 -0.14683259 0.20439719 -0.049750265 -0.12437816 -0.11027723 -0.15795195
-0.10079865 0.029841159 0.19137949 0.053966954 -0.02664663 0.10581795 0.040028945 0.036605638
0.09959341 -0.17926416 0.1708369 -0.026813023 -0.2267695 0.037965003 -0.03029638 -0.11374235
-0.031784516 -0.003499172 0.17837247 -0.18560487 0.107571 0.1818988 -0.017008211 -0.1232828
0.08879397 -0.14999363 0.05155472 -0.056895915 0.09839208 -0.030678548 -0.013980749 -0.07650971
0.12341343 -0.07448525 -0.11751068 0.08617538 -0.14099827 -0.06571909 0.03554407 -0.06219053
-0.028019689 0.06612236 -0.020323144 0.032454178 0.19566555 0.13352484 -0.008528787 0.110956796
-0.035917986 -0.13869157 0.10198898 0.037458565 0.032115694 0.2101445 0.2018086 -0.04356257
-0.08632161 0.12582521 -0.013899176 -0.07058224 0.116238266 -0.14013213 0.032389708 0.11172613

bias f4 [5]
00000000: cd09 d63d 41fa 9a3d 2f5c 293e b2f9 61bd
00000010: 4154 83bd
0.10451088 0.075672634 0.16539072 -0.05516977 -0.064125545
