Industrial Equipment/mlruns/0/44aa2478e0174c63a503ea06e4f1ce80/artifacts/generator_model/data/model.pth (torch, 49844 bytes, 6 tensors)

weight f4 [64, 100]
000000 26 ec d4 bd 0f 41 ab 3d bc 12 a0 bd 78 da 7f bd
       -0.10396604 0.08362018 -0.07816073 -0.062464207
000010 48 42 20 bb 87 9e 31 bd 15 32 fd bd 35 b8 1d be
       -0.002445357 -0.043364074 -0.12363068 -0.154023
000020 ac b2 1b bc 03 7a 0e be b1 cf 24 3d bb b8 a4 bd
       -0.009503048 -0.13913731 0.040237132 -0.08043047
000030 36 a4 c8 bd f9 ea 0c 3e c9 a5 3e bd 68 14 e1 3a
       -0.09796946 0.1376151 -0.046544824 0.0017172219
000040 f8 c0 5a bd ce d7 d2 3b e9 9a cb bc 1e 3d bb bd
       -0.053406686 0.0064344173 -0.02485414 -0.091425166
000050 e1 7e 02 3e 9d 77 47 bd e6 3f 1b 3c 59 17 ae 3d
       0.12743713 -0.048698056 0.009475684 0.08500547
000060 f3 0e 16 be 9b c9 1b 3e 18 31 a9 bd 0d f3 14 3e
       -0.1465414 0.15213625 -0.08261317 0.14545842
000070 e1 f4 94 3d cd d8 03 be cb 5c 0c be 7c 2b 94 3c
       0.072732694 -0.12875672 -0.13707273 0.018087141
000080 bf 8e 4b 3d cd 81 eb bd 17 64 f3 bd 96 fc 11 bd
       0.04969668 -0.11499367 -0.11884325 -0.035641275
000090 0c 2f 82 bd a3 c1 df 3d 15 68 a3 bd dd 64 e2 3d
       -0.0635663 0.10925605 -0.079788364 0.110543944
0000a0 83 bf b6 3d d4 35 c7 bd 27 b5 9d bd ca a2 26 3e
       0.08923247 -0.09727064 -0.07700568 0.16273037
0000b0 9e 0d 90 3d a0 4d 05 be 10 a8 e7 3d 55 e1 7b 3d
       0.07033847 -0.13017893 0.11311352 0.06149419
0000c0 5c b1 ea bd e6 a0 4a bd 1d 06 0c bd bb b7 0f 3d
       -0.1145961 -0.04946985 -0.034185518 0.03508733
0000d0 78 b4 02 3e d5 5c f6 3d 99 64 58 3d a1 1a 91 3c
       0.12764156 0.12029425 0.052830312 0.017712893
0000e0 ab 20 2f bd 93 be 28 3e 9d e3 b7 bc 1b 52 41 bd
       -0.042755764 0.16478948 -0.022447402 -0.047197443
0000f0 b6 97 9f bd 38 0b 69 bd 48 07 11 bd 78 d3 0e 3e
       -0.077926084 -0.056895465 -0.035407335 0.13947856
000100 30 1c bd bc f2 b4 be bc 27 38 51 3d e6 3b 1a be
       -0.02308473 -0.02327964 0.05107894 -0.15061912
000110 41 ae 5d bc 90 4d 90 bd 6d 8d 21 be 1f 4a fd bb
       -0.013530315 -0.07046044 -0.15776606 -0.007729783
000120 a5 d0 ad 3d 10 88 01 be c9 93 bb bd 4d 04 54 bd
       0.084870614 -0.1264956 -0.09159047 -0.051761914
000130 38 bc a0 bb 99 83 8c bd 87 5b f1 3d 0c 95 10 3e
       -0.00490525 -0.06861038 0.117850356 0.14119357
000140 e1 34 d2 bc 6a 57 c7 3d 2c cf ef bd c4 66 46 3d
       -0.02565998 0.0973347 -0.11709437 0.04843785
000150 90 9d 46 3d 24 c8 22 3e 87 69 a7 3d e6 7c 1c bb
       0.048490107 0.1589666 0.081744246 -0.0023878156
000160 94 db 63 3c 7a 18 08 be 81 32 ab 3b 77 6c e9 bd
       0.013907332 -0.13290587 0.0052245264 -0.11397641
000170 6c 3e ae bd c1 fb 04 3e b1 77 26 3e 5b dc 20 3e
       -0.08508 0.12986661 0.16256596 0.15709059
000180 98 d8 5f bd d9 de 99 3c 1e 5c 9c 3d 2b ae 8b bd
       -0.05464992 0.01878302 0.076347575 -0.06820329
000190 db 70 c2 38 af f6 98 3d 35 9f 2c 3e 97 b4 31 3c
       9.271662e-05 0.07468926 0.16857608 0.010846279
0001a0 18 aa a6 3d ff 3f 55 bd 78 ef cb bd b6 97 c0 3d
       0.081379116 -0.052062985 -0.099577844 0.094039366
0001b0 05 d6 34 bd 98 3a 59 bd 69 89 0a be a7 c9 35 bd
       -0.044149417 -0.053034395 -0.1352898 -0.044381764
0001c0 45 cc 99 bc 0c d9 b5 3c 94 79 01 bd 85 59 70 bd
       -0.018774161 0.022198223 -0.031610087 -0.058679122
0001d0 8c a4 b1 bd 51 20 e1 3d 82 4a 14 3e b7 9c 07 bd
       -0.08673963 0.10992492 0.14481547 -0.03310844
0001e0 40 b2 b7 3d f2 58 3c bd c9 e3 cd bd 36 a8 97 3d
       0.08969545 -0.045983262 -0.10053212 0.074051306
0001f0 11 0a f6 bd 81 37 f1 bd 3c fe f2 bd bc 37 aa bd
       -0.12013639 -0.11778165 -0.118648976 -0.08311412
000200 2a 19 7d 3d b5 69 08 be f7 c3 6a 3d b7 00 09 be
       0.061791576 -0.13321574 0.057315793 -0.13379179
000210 28 52 a5 3c cc 60 ea 3d 66 ad 95 3d 67 43 27 bd
       0.020180777 0.11444244 0.07308464 -0.040835764
000220 80 e0 b4 3c 15 6f 06 3e d8 34 47 3d fb 25 f9 3d
       0.022079706 0.13128312 0.04863438 0.12165447
000230 4f be 41 39 a7 54 d8 bb 08 3a 21 bd d4 64 8c bd
       0.0001847681 -0.006601888 -0.039361984 -0.06855169
000240 cc 1f 8c bc f0 74 d4 3c 36 c1 f3 3c f1 0d 06 be
       -0.017105006 0.025934666 0.029755216 -0.13091256
000250 b0 2d 0e 3e 99 fd ab bc 67 0f f9 3d a3 74 07 be
       0.13884616 -0.020994948 0.12161141 -0.13228087
000260 d1 00 7e 3d 9a 17 5d 3d 56 cd b0 bd 31 a1 56 3d
       0.062012497 0.053977586 -0.08632915 0.052399818
000270 e0 6e f1 3d c0 99 ea bd 4a f5 e8 bd a2 95 08 38
       0.11788726 -0.11455107 -0.1137491 3.2564283e-05
000280 71 63 31 3e 17 f9 63 bb d7 de d7 3d 44 c4 cc 3d
       0.1732309 -0.003478592 0.1054055 0.09998372
000290 ad 61 13 be 8a 5f 7b 3d 50 69 05 be 40 78 a5 3d
       -0.14392729 0.06137041 -0.13028455 0.080795765
0002a0 a8 b7 a3 3b 13 a7 39 bd 21 21 a2 3d d0 3f 03 be
       0.0049962588 -0.04532535 0.07916475 -0.12817311
0002b0 2f 64 60 bd be dc 1e be 05 55 bb 3d 2e 22 4c bd
       -0.054783043 -0.15513894 0.091470756 -0.049837284
0002c0 5d 95 02 be 41 34 ac bd 5b d5 8a bd 7e 6b 6f 3c
       -0.1275229 -0.08408404 -0.067789756 0.0146130305
0002d0 55 65 8f 3d 04 a6 9a 3d 1c 37 03 3e bc f1 b6 3d
       0.070017494 0.07551196 0.12813991 0.08932826
0002e0 e5 a0 82 bd e8 b1 ba bd 7d 32 be bd 22 d7 8a 3d
       -0.063783444 -0.09115964 -0.092869736 0.067793146
0002f0 28 95 ea 3d 26 83 07 be a9 38 94 bd 8b 40 02 be
       0.114542305 -0.13233623 -0.072373696 -0.12719934
000300 aa 7b 2b bd 67 bc b9 bd ce b1 cc bd b0 1f 3e 3c
       -0.041865982 -0.09069138 -0.09994851 0.011604235
000310 03 52 05 3e 83 7d 91 bd 6b 21 19 3e 4d 2c 4e 3c
       0.13019566 -0.071040176 0.14954154 0.012583804
000320 05 d9 3a be e8 b4 08 3e 3f 7f c9 3a f5 82 3c be
       -0.18246849 0.1335026 0.0015373005 -0.18409331
000330 f6 a3 34 be ce d0 03 3e 8b 3a 3c 3e 64 cc 01 3e
       -0.17640671 0.12872621 0.18381707 0.12675625
000340 b3 0f af 3d e5 f5 96 3d e0 bf 2d bd 21 8a 62 3c
       0.08547916 0.073711194 -0.042419314 0.013826878
000350 26 33 10 3e ac ad 00 3e 97 18 18 3e 81 8c 61 3d
       0.14082012 0.1256625 0.1485313 0.055065636
000360 e8 d2 3d 3d e0 fe 80 bc e7 95 2c bd b0 63 3d bb
       0.046343714 -0.015746534 -0.042135146 -0.002889853
000370 b2 15 f3 3d f7 04 79 bd d1 98 bc bd 62 a0 3b 3d
       0.118693724 -0.06079575 -0.09208835 0.04580725
000380 90 fb 94 3d 85 27 30 3e 9e 1e 31 3e a1 ab 47 bc
       0.07274544 0.17202576 0.17296836 -0.012186916
000390 2e 4b 43 be 4e 10 67 bc 66 4f 89 3d d8 03 67 bd
       -0.19071648 -0.014103008 0.06704597 -0.05640015
0003a0 a1 81 04 3e b0 28 21 3d 3c 04 f9 3d 65 d1 cf 3d
       0.12940075 0.039345443 0.12159011 0.10147361
0003b0 2a 49 96 3d be ce 05 be d1 4b f4 3d e8 40 98 3b
       0.07338174 -0.13067147 0.11928523 0.0046464093
0003c0 68 26 32 bd c5 8d 4c 3e 43 24 8e 3d d6 3e f7 bd
       -0.04349366 0.19975956 0.0694051 -0.12072532
0003d0 14 93 1b 3e ca 4f 5e bd e1 89 c7 3d 94 66 23 be
       0.15192825 -0.05427531 0.09743095 -0.15957099
0003e0 e3 1e 33 bd 4b 18 fc bd 8b 8c 75 bd 27 e1 d1 bc
       -0.043730628 -0.12309321 -0.059948485 -0.025620056
0003f0 c2 87 d4 bc c1 31 b7 3d e7 9a c1 bd 07 fd a6 bd
       -0.02594364 0.08945037 -0.094533734 -0.0815373

bias f4 [64]
000000 12 a0 18 3e 1f c9 2f 3e 09 24 b1 3d c9 49 e6 3d
       0.14904812 0.17166565 0.08649451 0.11244542
000010 01 31 21 3e e8 79 6a 3c 6d 29 00 3e 3f 8c c7 3d
       0.1574135 0.014311291 0.12515803 0.09743547
000020 85 11 20 3e 7c f3 cf 3d 58 cf a7 3d e0 65 fd 3d
       0.15631683 0.10153863 0.081938446 0.12372947
000030 40 43 07 3d 47 41 4a 3e dc 8e 8b 3e 7d e7 84 ba
       0.03302312 0.19751464 0.2725743 -0.001013979
000040 d8 85 e4 3d a8 ae f9 3d b6 b5 12 3e 5f ca cd 3d
       0.11158341 0.12191516 0.1432713 0.10048365
000050 6d b8 3b 3e f2 b0 4d 3e 42 c1 d5 3d 5c 89 a1 3d
       0.18332072 0.2008703 0.104372516 0.07887527
000060 43 78 49 3e bf f3 1f 3d 7b dd 64 3e 87 5f 44 3e
       0.19674782 0.039050814 0.22350113 0.19177066
000070 85 39 2b bd f5 03 10 3e 9e 6a 49 3e 2f 96 94 3d
       -0.0418029 0.1406401 0.19669577 0.07255208
000080 da 37 ed 3d 44 df d9 bc 57 ad 78 3d d4 00 d2 3d
       0.115829185 -0.02659572 0.060712185 0.10254064
000090 24 b4 47 3e f1 a8 a7 3d 76 67 be 3c 14 ef 61 3e
       0.19502312 0.0818652 0.023242693 0.22063857
0000a0 f3 7f dd 3d ee af b1 3d d4 0c 06 3e cd db 0e 3e
       0.1081542 0.08676134 0.13090831 0.13951035
0000b0 7f 7b e9 3c 5b b0 d4 3d f2 bb ac 3d 15 dc d4 3d
       0.02850127 0.103852 0.08434285 0.1039354
0000c0 cc 62 93 3d b3 be ca 3d 09 e3 0a 3e 9e 22 15 3e
       0.071965784 0.09899654 0.1356317 0.14563987
0000d0 96 f6 76 3d 3c a4 1b 3e a5 93 91 3d ab 1d a1 3d
       0.060293756 0.15199369 0.07108239 0.07866987
0000e0 84 42 da bc 0c f2 13 3e 65 77 9c 3d 41 dc dd 3d
       -0.026643045 0.14447802 0.0763996 0.10833026
0000f0 7c 7a 92 3d fb 22 ae 3d ba 77 fe 3d 64 75 e9 3d
       0.07152268 0.08502766 0.1242518 0.113993436

weight f4 [64, 64]
000000 00 a9 12 3e c7 1d 0a bd 89 7f bf 3d be 9b 34 3d
       0.14322281 -0.033719804 0.09350497 0.04409384
000010 79 2a 61 3d fd 9e d7 bc 1c c3 63 3d d0 26 38 3d
       0.054972146 -0.026320929 0.055605993 0.04495889
000020 38 63 1d 3d 3c de d7 3c 7b dd 15 bd 49 83 07 3e
       0.0384247 0.026351087 -0.036588173 0.13233675
000030 1c 02 e2 3d 6d 3e 90 bd b0 b4 c2 bc 16 5d 6e 3b
       0.110355586 -0.07043157 -0.0237678 0.0036371402
000040 13 72 04 3e fe 69 0f 3d d7 e3 c2 3b f3 82 08 3e
       0.12934141 0.03501319 0.005947571 0.13331203
000050 b7 93 a8 bb 98 87 15 3e 47 e3 f7 bc 0e 9d b7 3d
       -0.005144562 0.14602506 -0.030259741 0.08965503
000060 4e cf 13 3e 6f d1 cc 3d 68 f4 62 bb 1a 80 2b 3d
       0.14434549 0.10000884 -0.003463054 0.041870214
000070 b9 5e 5e bd 51 3d 98 bc b1 e9 b4 3d 20 80 45 bc
       -0.054289553 -0.018583925 0.088336356 -0.012054473
000080 8b 95 a4 3c 00 36 e6 3c 45 2c f3 3d 76 71 b5 3d
       0.020090839 0.028101921 0.11873678 0.088595316
000090 37 21 7b bd b8 dc a2 bd 27 6c e4 3c 25 e2 21 bd
       -0.061310973 -0.07952255 0.027883602 -0.03952231
0000a0 8a da 22 bd b9 24 7d 3d 39 52 58 3d 0d 30 36 3d
       -0.039759196 0.0618026 0.05281279 0.04447942
0000b0 e0 9f 2f bd a5 35 69 bc 94 11 9c 3d 9a e0 2f 3c
       -0.042877078 -0.014233981 0.0762054 0.0107347015
0000c0 9c 99 3c bd e9 33 02 3e 3d 5c a9 3d fc ee 1f bd
       -0.04604493 0.12715115 0.08269546 -0.039046273
0000d0 67 68 19 ba d6 d7 e1 3d 61 0f fb 3d 0a 1a a4 3d
       -0.0005852044 0.110274956 0.12258793 0.08012779
0000e0 89 c3 3d bd b7 b0 97 bd d0 07 0e bc 80 61 ff 3c
       -0.046329055 -0.074067526 -0.008668855 0.031174421
0000f0 e9 8d 6c 3d 08 89 0e 3e 4d 54 16 3d 53 24 54 bd
       0.057752524 0.13919461 0.03670149 -0.051792454
000100 94 40 40 bd ce 7a c5 3d 0b 96 ec 3d ec 8c bc 3d
       -0.046936586 0.09642564 0.11552056 0.09206566
000110 5d f1 09 bd 33 10 00 3e 33 5d 4c bd 0b 5e 03 3d
       -0.033677448 0.1250618 -0.04989357 0.03207211
000120 ba ce f1 3c 6a 25 bb 3d d0 ec e5 3d 79 6a 82 bb
       0.02951752 0.091379955 0.11226809 -0.0039799777
000130 25 23 41 3d 6f d8 2d bd 04 1c 8c 3d a5 56 e4 3c
       0.047152657 -0.042442735 0.06841281 0.027873347
000140 cf 05 1e 3e 0f 8c e0 3c b0 eb b0 bb 5d c7 d3 3d
       0.15431903 0.027410535 -0.00539919 0.1034076
000150 c8 3f e9 3d 72 8c d8 3d 1e 36 67 bd 41 d5 d6 bc
       0.113891184 0.10573663 -0.056448095 -0.026224734
000160 0d bc b3 3c 50 68 1d 3e 24 89 ee bc 1d 96 d4 3d
       0.021940256 0.15371823 -0.029118128 0.10380194
000170 1b dd dc 3d dd 41 e2 3c 3f 57 49 3d 30 13 69 3d
       0.1078436 0.027619297 0.04915547 0.056903064
000180 ae 25 28 3e 97 c6 e2 3d 99 1b f0 3c 87 9d d7 3c
       0.16420624 0.11073034 0.029310035 0.026320232
000190 0c 3c 4e bd 43 31 e1 3d 96 61 1d bd 9a d0 52 bd
       -0.050350234 0.10995724 -0.038423143 -0.05146847
0001a0 aa 3d 8b 3c 3d c9 69 3d 52 72 93 bc 3b de 8f 3d
       0.016997177 0.05707668 -0.017998848 0.07024809
0001b0 2b c9 4a 3d 2b e5 2a bd bc ce 15 bd f9 1f 15 3e
       0.049508255 -0.041722458 -0.03657411 0.14562978
0001c0 a8 bb d9 3c 99 42 3a 3d b3 83 2e bd ab f8 d1 3d
       0.02657874 0.04547367 -0.042606067 0.10252508
0001d0 6a 4b 05 bc 8b 2d 08 3b 00 53 ca 3d 92 38 e7 3d
       -0.008135656 0.00207791 0.09879112 0.11290087
0001e0 24 09 b0 3d 96 30 12 3e df c8 a1 3d 64 ca a4 3d
       0.085954934 0.14276347 0.07899641 0.080464154
0001f0 08 a1 01 3e 87 33 0f 3c dc b7 2e 3d 17 b7 50 bd
       0.12659085 0.008740312 0.04265581 -0.050955858
000200 f5 72 9e 3d cb 95 01 3d ac 45 37 bd 59 4c 2e bb
       0.0773677 0.031636994 -0.04474418 -0.00265958
000210 e8 48 68 3d 52 20 9d 3c 25 60 ba bc 84 e0 cc bc
       0.056710154 0.01918045 -0.022750923 -0.025009401
000220 75 1b 05 3e 3e e1 15 3e 01 89 45 3d df ae 35 bd
       0.12998755 0.14636704 0.04822636 -0.044356223
000230 42 e3 ca 3d 33 7c eb 3c 2c 7d e8 3d 62 04 24 3d
       0.09906627 0.028745746 0.11352 0.040043242
000240 b2 ce 39 3e a9 7e 95 bc 50 8c 19 3e e1 6e d8 3d
       0.18145254 -0.018248873 0.14994931 0.105680235
000250 29 36 23 bc 21 f7 b6 3c f8 74 1e 3d d5 72 88 bc
       -0.009961643 0.022334637 0.03868577 -0.016656319
000260 f7 2e 1e bd 23 db 2e 3c 3a 9b 90 3d 4c bd 15 3e
       -0.038619008 0.010672363 0.07060857 0.14622992
000270 63 30 7d 3d 28 8a 16 3e 90 03 00 3e 6c 09 79 bd
       0.061813723 0.1470114 0.12501359 -0.0608
000280 08 c7 18 3e ec b9 38 bd 6f 3f 42 3d bf ac 01 3e
       0.14919674 -0.045099184 0.047423776 0.12663554
000290 42 41 1f 3e 24 0c b0 3d a2 2a 10 3e 51 f9 d8 3d
       0.15552238 0.08596066 0.14078763 0.10594428
0002a0 2e 56 df 3d 62 d7 c7 3d 2b 29 63 3c f0 ab 24 3e
       0.10905109 0.09757878 0.013864796 0.16081214
0002b0 b9 86 a9 3d a5 25 f2 3d 3c b8 7d bd b2 1e 84 3d
       0.082776494 0.118235864 -0.061943278 0.06451167
0002c0 8b ce ab 3d fc 26 69 bd f9 4a 12 bd 95 99 0b 3e
       0.08389004 -0.056921944 -0.03571603 0.13632806
0002d0 33 5c af 3d 70 21 ab bc f3 67 c0 3c 36 8a 81 3d
       0.085625075 -0.020889968 0.023487067 0.0632519
0002e0 7a 74 19 3e 3f e8 74 3c 05 43 24 3d 4e 72 05 39
       0.14985839 0.01494795 0.040102977 0.0001272645
0002f0 3d 1f e7 3d b3 f4 de 3d d4 6a 28 3d bc 18 ab 3b
       0.11285255 0.108865164 0.041117504 0.0052214544
000300 b2 48 f0 3c 91 9c b0 bc e7 18 d4 3d bd 17 e9 3d
       0.029331539 -0.021559032 0.10356312 0.11381481
000310 34 91 ca 3d 56 ac 01 3e 3f 55 bd 3c de 7c 0e 3d
       0.098909765 0.12663397 0.023111938 0.03478705
000320 91 66 57 3c 7b db 0d bd 7c 4c 2c 3e 74 92 0b 3e
       0.013147012 -0.03463314 0.16826051 0.13630086
000330 31 87 33 3e ad 00 e3 3d ca 14 19 3c 51 93 20 bd
       0.1753204 0.11084113 0.009343335 -0.039202992
000340 1f 9f 4e bc 7f 1f 28 bc 4c 74 cb bc b3 3d 18 3c
       -0.01261118 -0.0102614155 -0.024835728 0.009292054
000350 84 b6 30 3e 79 f7 0b bd 72 9e 1a 3e 1c 0f 80 bc
       0.17257124 -0.034171555 0.15099505 -0.015632205
000360 5b 63 9c 3d 5a 22 a2 3d 7f ed 53 bd f2 32 e3 3d
       0.07636138 0.07916708 -0.051740166 0.110937014
000370 f6 9e 25 3e e7 fb 62 bd c6 b5 b9 bc 0a 3b 0b 3e
       0.1617392 -0.055416014 -0.022669684 0.1359674
000380 a3 66 11 3b 8a 3b 4d bd 22 a9 74 3c b2 90 81 3d
       0.002218642 -0.05010561 0.0149329025 0.063264266
000390 10 81 49 3e 30 e1 90 3d 8e 80 bf 3d 41 7d a3 bc
       0.1967814 0.07074201 0.09350692 -0.019957187
0003a0 2a 95 97 3b c7 b0 2a 3e 5e d0 12 3e b9 5c 1f 3e
       0.004625936 0.16668998 0.14337298 0.15562715
0003b0 27 8a 2c 3e ac 58 1b 3e 15 68 70 3d 2b 70 2e 3c
       0.16849576 0.15170544 0.05869301 0.01064686
0003c0 1c 2f e5 3d 9c 9a 4b 3d 49 76 0d 3e 26 a8 eb bc
       0.11190626 0.049707994 0.13814653 -0.028766703
0003d0 db 1c 10 bd 1f 2e 88 3d bb 26 cc 3d 71 12 8b 3d
       -0.03518377 0.06649422 0.09968325 0.06790627
0003e0 70 cd 10 3d 99 72 3c bd e3 98 f5 3d aa 43 24 3e
       0.03535217 -0.046007726 0.119920515 0.16041437
0003f0 58 b6 80 bd 97 a8 59 3d 47 a4 33 3e 80 30 b0 bc
       -0.06284779 0.053139295 0.17543136 -0.021507502

bias f4 [64]
000000 91 3e 49 3d 6c 3d fa 3d 40 64 b5 3d 9e 41 82 3d
       0.049131934 0.122187465 0.08857012 0.06360172
000010 a2 9b 27 bd 8a fc d2 3d 41 d3 ef 3a 05 ba a1 bc
       -0.040919907 0.10302074 0.0018297211 -0.019742021
000020 2d 04 24 bc 8b 6d e4 3b 93 5f 0c 3e de 0c 6f 3d
       -0.010010761 0.0069710664 0.13708334 0.05836188
000030 12 1a 06 bd 99 5a 06 3c 34 35 00 3e 4e 6f ee 3d
       -0.032739706 0.008200311 0.12520295 0.116423234
000040 32 75 e4 bc de d3 7e bd 0f 5a 0d 3e 5e 84 54 bd
       -0.027887914 -0.06221377 0.13803886 -0.051884048
000050 49 27 0f 3e 2c 9c 93 3d 70 5c 5f 3c c9 d1 f3 3d
       0.1397983 0.07207522 0.013632879 0.11905248
000060 ef 7a 49 bd 36 65 b7 3d e5 1a f5 3d a2 ba cb 3d
       -0.049189504 0.08954851 0.1196802 0.09947707
000070 6f 64 af bc 1b e6 2a 3d 59 cb 7b 3d 79 e1 72 3d
       -0.021410195 0.041723352 0.061473224 0.05929706
000080 0e 68 47 3d 7a 6b 18 3e c5 55 2e bd f1 b4 ed 3d
       0.04868322 0.14884749 -0.042562265 0.116067775
000090 81 1c 1b 3d 20 7d 93 bc e0 35 f7 3d 71 8d cc 3d
       0.03786898 -0.018004 0.12070823 0.09987915
0000a0 fa cc c4 3d 3d 9e 4e bd 27 92 c9 3d e9 88 b8 3d
       0.09609409 -0.050443877 0.098423295 0.090104885
0000b0 db c2 27 3e f6 38 8c 3d eb 4f c8 bd d1 62 0c 3e
       0.16382925 0.06846802 -0.09780868 0.1370957
0000c0 b1 55 8a bd d0 d4 00 3e 4f 83 31 3e 72 39 1d 3d
       -0.067546256 0.12581182 0.17335247 0.038384862
0000d0 65 ea a0 bd e1 c1 bf 3d aa 4c cf 3d bf 83 91 3d
       -0.07857207 0.09363151 0.101220444 0.07105207
0000e0 e3 ef dc bd 92 a9 be 3d 1b 01 91 bd 78 c7 ad bd
       -0.10787942 0.09309687 -0.07080289 -0.08485311
0000f0 c3 b7 b3 bd 00 07 a9 3d 07 e0 a7 3d 9f 0c d2 3d
       -0.08775284 0.08253288 0.08197027 0.102563135

weight f4 [5, 64]
000000 df 0f f6 bd f9 7d 0e bc ec 5a 48 bd 7e e4 f4 3d
       -0.12014746 -0.008697026 -0.048914835 0.11957644
000010 13 60 7d bd e9 38 53 3c 92 8c bd bd 8b d0 d2 bc
       -0.0618592 0.012891986 -0.09255327 -0.025734207
000020 ee d7 20 bd 40 65 dd bc e6 fa a1 bd e4 10 37 3d
       -0.039268427 -0.027025819 -0.07909183 0.044693843
000030 79 cb 22 bd 6f 8d dc 3d f9 ee fa 3d 30 97 20 3e
       -0.039744828 0.10769164 0.12252612 0.15682673
000040 b7 5b 07 bd 30 b4 2a bd 8d 4b e5 bd 87 c8 72 bd
       -0.03304645 -0.041675746 -0.11196051 -0.05927327
000050 02 57 e1 3d 99 2e a7 bd e7 93 01 3c 56 78 3a bd
       0.110029235 -0.08163185 0.007908798 -0.045524918
000060 e1 cb 2b 3c 7e 36 9a bd 4a ed ce bd 5b 27 27 3d
       0.01048562 -0.07529925 -0.10103853 0.040809017
000070 80 d3 70 bc 23 3c 22 3e 4f 3a 31 3d 6e 5b 92 3d
       -0.014698863 0.15843253 0.043268498 0.07146345
000080 0c 61 07 be cd 4d 04 3e e4 dd 74 bc a0 84 29 3c
       -0.13220614 0.12920304 -0.014945481 0.010346562
000090 a2 c8 f6 3c 12 84 7e bc 45 17 f2 3d fb 84 40 3d
       0.030124966 -0.015534418 0.118208446 0.04700182
0000a0 80 db 25 3d 07 5e 3e 3d 7f 60 da bd c3 a7 bb 3d
       0.040492535 0.04647639 -0.106629364 0.091628574
0000b0 63 ea ab 3d 4e a3 16 bd 00 a2 13 bd 51 29 f7 bd
       0.08394315 -0.036776833 -0.036043167 -0.12068427
0000c0 ef ec f6 bd 71 5e f4 3d f2 a2 08 3e ef 7c 24 3e
       -0.1205691 0.11932076 0.13343409 0.16063283
0000d0 09 c8 95 bd 4b 7e 77 bd a3 10 be 3c 52 62 04 3e
       -0.07313544 -0.060423177 0.023201292 0.12928131
0000e0 dc c3 21 bc 64 ea ff bd 3f 35 bf bc 94 8f 90 bd
       -0.009873357 -0.12495878 -0.02334082 -0.07058635
0000f0 d0 9e 1d bd 2e bc d5 3c 21 b4 c1 3d 2e df a5 3c
       -0.038481534 0.026090708 0.09458185 0.020248022
000100 9a 21 1a be 89 b3 60 bd cc 8d df 3d b4 26 86 3d
       -0.1505188 -0.054858718 0.109157175 0.06550351
000110 0b f9 97 bd 8e 05 67 3d 02 f4 7b 3d 09 ea 18 3e
       -0.07420548 0.05640178 0.061512 0.14933027
000120 0b b0 7e bc 6c e3 31 3e 9f f9 01 3e 40 28 8d bd
       -0.015544902 0.17371911 0.12692879 -0.06892443
000130 95 73 ea bd c4 10 34 bb a3 43 30 bd dd dd 6c 3d
       -0.11447827 -0.0027475813 -0.043033253 0.057828773
000140 18 4d c4 bc d8 c2 1b 3e 78 e8 de 3d 80 39 b8 bd
       -0.023962542 0.15211046 0.10884184 -0.08995342
000150 f5 4b 97 3d 28 20 9a bd cb 6d 16 3c b1 d1 0b 3d
       0.073875345 -0.075256646 0.00918145 0.034135524
000160 84 f9 b0 bd 38 33 f4 3d 29 e7 2e 3e 9d 45 c8 bd
       -0.08641341 0.11923832 0.17080368 -0.09778903
000170 bd c2 c8 bd 55 9d e0 3d cf c3 b7 3d 4b 81 4d 3c
       -0.098027684 0.10967509 0.089728944 0.012543033
000180 8f 43 0d 3d 97 9f b4 bd 97 21 98 3c aa 5e 21 bd
       0.034488257 -0.08819502 0.018570704 -0.03939692
000190 9d 4a 1a bd 57 70 8a 3d 26 c1 1e bd 80 90 27 3e
       -0.037668813 0.067597084 -0.03875842 0.16363716
0001a0 65 4b b6 3b 09 ea 81 bd 50 b0 7b bc 8d 89 f5 bd
       0.005563187 -0.06343467 -0.01536186 -0.11989126
0001b0 ee 74 59 3d a7 95 80 3d d4 09 d5 bc 45 52 a0 3d
       0.05309003 0.06278544 -0.026005663 0.07828192
0001c0 46 45 35 3e 14 32 41 3d a2 2d ff 3d c8 d9 9c bd
       0.17702207 0.0471669 0.12459876 -0.07658726
0001d0 b4 03 36 bd 2a 76 a2 3d 17 1b 13 3e d2 d8 8b bd
       -0.044437125 0.07932694 0.14365803 -0.068284646
0001e0 50 26 c6 bd 78 68 34 3e 5d 84 b3 bb ce b8 07 3e
       -0.09675276 0.17617977 -0.0054784254 0.13254091
0001f0 3e f0 5a bd 17 b6 25 3e 42 0c 07 bd e2 0d 20 3e
       -0.05345177 0.16182743 -0.032970674 0.15630296
000200 bc 96 79 bd ae d1 d6 bd 52 4d 3b 3d 5d bb ac bd
       -0.060934767 -0.10489212 0.045728035 -0.08434174
000210 81 14 ef 3d c7 47 aa bd 1b b8 36 3e 57 b9 80 3d
       0.11673833 -0.08314472 0.17843668 0.06285351
000220 8d fa 2a bd a5 a0 a9 3d 22 2b bf 3c 03 a1 96 3c
       -0.04174285 0.08282594 0.023335997 0.018387323
000230 1c 3c 71 3d 99 34 8f bd 26 27 9f bc 3d a3 3b be
       0.058895215 -0.06992454 -0.019427847 -0.18323989
000240 f2 ea af bd a9 c5 90 bd d6 82 88 bd fc 8a 03 bd
       -0.08589734 -0.07068951 -0.0666558 -0.032114968
000250 21 eb 1b be d2 72 1a be 1f 69 26 3d 66 20 82 bc
       -0.15226413 -0.15082863 0.040627595 -0.01588459
000260 fd ae ac bc f9 07 1b 3e c4 84 c5 3c 94 a2 8c bd
       -0.021079535 0.1513976 0.02411116 -0.06866947
000270 2a c1 22 be 84 6e 5f bc 36 9c f1 3b ba d3 88 bd
       -0.15893999 -0.013637189 0.007373358 -0.06681009
000280 d7 4d f0 3c 5e aa 86 bd e6 df 7d bc 18 b2 0c be
       0.029333992 -0.06575464 -0.015495276 -0.13739812
000290 27 de 89 3d 4c 29 d5 bd 66 27 10 bd 9a 3c 49 bd
       0.06731825 -0.104082674 -0.035193823 -0.04913006
0002a0 f5 43 e1 3d 59 a3 bc bd bc 47 5f 3d 79 f8 bf bd
       0.1099929 -0.092108436 0.05451177 -0.09373564
0002b0 23 27 16 be a2 42 ce 3d 35 8b a0 3c 5f 18 84 bb
       -0.14663367 0.10071303 0.01959763 -0.0040312256
0002c0 18 e0 de 3c fc 8a b0 bd bb a5 4f bd 0a 11 c4 bd
       0.027206466 -0.08620259 -0.050695162 -0.095735624
0002d0 e1 7b dd bc 66 17 37 3c 86 44 2b 3c 38 e7 d9 bd
       -0.02703661 0.011175012 0.010453349 -0.106398046
0002e0 e7 f4 eb bb b9 3d 43 bd 72 cb 0c 3e 4a 5b 0e 3e
       -0.0072008255 -0.047666285 0.13749483 0.13902012
0002f0 b7 43 c7 bd 54 5d d5 bd 15 50 3b 3d 37 e7 a2 bd
       -0.097297125 -0.104181916 0.04573067 -0.07954257
000300 31 f4 0c 3d 77 91 2a 3d 66 67 8e 3d 86 8a 2e 3e
       0.034412567 0.041642632 0.069533154 0.1704503
000310 a6 98 cf 3d 43 d4 fb 3d 2d da 95 3c 24 c6 3e 3d
       0.10136537 0.12296345 0.01829251 0.04657568
000320 65 31 ae bd ef da a5 3d 2a 85 87 bc 58 a7 e5 bd
       -0.08505515 0.08098399 -0.01654299 -0.11213559
000330 6d c3 22 3d 1f 24 a6 bd 74 bb 91 bc 91 d2 f7 3d
       0.039737154 -0.08112358 -0.01778958 0.12100709
000340 d1 eb 0e 3e e0 08 0c be d1 aa 10 3e 6b 51 d2 bd
       0.13957144 -0.1367526 0.14127661 -0.102694355
000350 22 ce 66 bd 5a aa 00 3e d3 69 d1 3d 9e 1e 42 3e
       -0.056348927 0.12564984 0.102252625 0.18956992
000360 e4 ce 0a 3b 7f 3f 06 3d bc 90 8e 3a 32 db c8 3d
       0.0021180445 0.0327754 0.0010876874 0.09807433
000370 80 71 c7 bd 39 bf 40 bc 53 fb 0b 3e 1a 29 45 bd
       -0.09738445 -0.011764341 0.13670091 -0.0481349
000380 07 2f 81 3d 8e d3 da bd a4 ff d5 bd be 04 7b 3d
       0.06307798 -0.10684882 -0.1044915 0.06128382
000390 d2 c8 fa bd 75 ff 7d 3d 31 89 b8 bd 15 9b cb 3d
       -0.12245335 0.0620112 -0.09010542 0.09941689
0003a0 26 96 4e 3d 67 10 b4 3d 36 1a 9d 3a 7b 3f b9 bc
       0.05043616 0.08792191 0.0011985961 -0.022613278
0003b0 0d 4a 33 bc 39 01 8f 3d d5 55 dc bb df a6 94 3d
       -0.010942948 0.06982655 -0.006724099 0.07258391
0003c0 c1 05 19 bc 9c e9 08 bb 30 ca 3d bd df 2e e9 bd
       -0.009339751 -0.0020891195 -0.0463354 -0.11385893
0003d0 f3 fd 96 bd 27 26 7d bd 46 76 b7 3d bf 68 f0 3d
       -0.07372656 -0.061803963 0.08958106 0.11738729
0003e0 58 a1 7f bc ab fe 78 bd 72 9e e6 bb 22 92 19 bc
       -0.015602432 -0.060789745 -0.007037931 -0.00937322
0003f0 7b 3c 35 bd 3f e0 bc bd 59 8d 1c 3e 7d 4e db bc
       -0.04424713 -0.09222459 0.15288295 -0.026770825

bias f4 [5]
000000 32 ab b2 3c f9 c0 b7 bd 98 c8 db 3d f6 47 ce 3a
       0.021810148 -0.089723535 0.107316196 0.0015737999
000010 e0 95 21 bd
       -0.039449573
