Industrial Equipment/mlruns/0/ee4eb9561f24423eb1a2ad7bec41e54d/artifacts/generator_model/data/model.pth (torch, 55038 bytes, 14 tensors)

weight f4 [64, 100]
0	0xbbaccd9f	-0.0052735354
1	0xbdc326c4	-0.09528878
2	0xb9633e45	-0.00021671604
3	0xbc8f9846	-0.017528664
4	0x3d98f87c	0.0746927
5	0x3d22b3e3	0.039722335
6	0xbcf8791b	-0.030331185
7	0x3bb2086d	0.0054331333
8	0x3dae8529	0.08521492
9	0xbd94afef	-0.07260119
10	0xbcbf57c1	-0.023357274
11	0xbd9cb801	-0.076522835
12	0xbcfe26de	-0.031024393
13	0x3c54ca69	0.0129877115
14	0x3c970d69	0.018439012
15	0x3dc57f5f	0.09643435
16	0x3d5af704	0.05345823
17	0xbcfd007b	-0.030884018
18	0xbda22580	-0.07917309
19	0x3cb2dfb1	0.02183518
20	0x3d3b3af3	0.045710515
21	0x3cfaa1a8	0.030594662
22	0x3d1f2ba1	0.038859967
23	0x3d07c002	0.033142097
24	0x3c911c25	0.017713616
25	0xbbcd31dd	-0.0062620477
26	0x3d8bd1eb	0.06827148
27	0xbd3ec991	-0.046578947
28	0xbdc4adb8	-0.09603447
29	0xbcb6f04d	-0.022331381
30	0x3cd85f4e	0.026412632
31	0x3d9fc73f	0.07801675
32	0xbd59dc9c	-0.053188905
33	0xbd901865	-0.07035903
34	0xbd8183f5	-0.06323997
35	0x3c61feb6	0.013793638
36	0xbd0cec7b	-0.034405213
37	0xbd3dca75	-0.046335656
38	0xbdb8b933	-0.09019699
39	0xbd122154	-0.035676315
40	0x3d4b4c45	0.049633283
41	0xbba3ec0e	-0.005002505
42	0x3d4051cc	0.046953008
43	0x3c80f3b5	0.015741209
44	0x3d59d121	0.053177956
45	0xbcd7c5f0	-0.026339501
46	0x3d974b23	0.07387378
47	0x3cd28da2	0.025702301
48	0x3dc5fc44	0.096672565
49	0x3d057c08	0.03258899
50	0x3d0d2e77	0.03446814
51	0xbd61aa6b	-0.055094164
52	0xbdbf72be	-0.09348057
53	0x3d6e7219	0.05821428
54	0xbd581868	-0.05275765
55	0x3dae36ed	0.0850657
56	0xbcba133e	-0.022714254
57	0xbdb0dd65	-0.08635978
58	0xbaf1fa31	-0.0018461404
59	0x3d59b309	0.053149257
60	0x3d7f49c8	0.062326223
61	0xbbc85285	-0.0061133527
62	0xbc47c524	-0.012192998
63	0x3d9bbf65	0.07604865
64	0x3cd3a870	0.025837153
65	0xbd1b9c20	-0.03799069
66	0xba570a64	-0.00082031474
67	0x3d766ede	0.060164325
68	0x3cdde285	0.027085552
69	0xbde47bee	-0.1115645
70	0xbc0e86f8	-0.008699171
71	0xbd95e9cb	-0.07319983
72	0xbdb8b4a5	-0.0901883
73	0x3dc3074a	0.09522875
74	0x3d1823ab	0.03714339
75	0x3d1df4b5	0.03856345
76	0xbccaf9c9	-0.02477731
77	0xbc9ccd8e	-0.019140985
78	0x3cbca883	0.023029571
79	0x3d8afd3b	0.06786581
80	0xbdbad4c6	-0.091226146
81	0x3db715b6	0.08939688
82	0x3d7c7725	0.061637063
83	0xbbfd23a8	-0.007725198
84	0x3dabaf82	0.08383085
85	0x3d5883f6	0.052860223
86	0x3dd17379	0.10227103
87	0x3c48eaf8	0.012263052
88	0x3c128d49	0.008944818
89	0xbc3797b9	-0.011205607
90	0x3dad7c1e	0.08470939
91	0xbc7a462f	-0.015275522
92	0xbdb0b769	-0.08628733
93	0x3d297bf3	0.041377973
94	0xbdb3cac5	-0.087789096
95	0x3d802d57	0.06258648
96	0xbda62b2b	-0.081137024
97	0x3d6760df	0.056488868
98	0x3d0e6794	0.03476675
99	0xbd8cb390	-0.06870186
100	0xbdb396c4	-0.08768991
101	0xbc8daa21	-0.017293038
102	0x3cf0bddc	0.029387407
103	0xbdaa9c8b	-0.083306395
104	0xbd9200f6	-0.071290895
105	0x3d32b336	0.04362794
106	0xbbe8b69b	-0.0071018464
107	0xbd98598c	-0.07438955
108	0xbde49f9a	-0.11163254
109	0xbcb80fb0	-0.022468418
110	0x3d9563cf	0.072944276
111	0x3d85c5ec	0.06531891
112	0xbd57a841	-0.052650694
113	0x3d1a8165	0.037721056
114	0xbd7bb69d	-0.06145345
115	0xbda34eac	-0.0797399
116	0x3d9cbe6b	0.07653507
117	0xbce01dad	-0.0273579
118	0xbcde1e23	-0.02711398
119	0x3d2494dc	0.040181026
120	0xbdca5c03	-0.09880831
121	0xba0c48eb	-0.0005351442
122	0x3ba3773c	0.004988579
123	0x3d8a0acc	0.067403406
124	0x3d53d278	0.05171439
125	0xbcb7ddbf	-0.022444604
126	0x3c97a98d	0.018513465
127	0x3ca0e8ab	0.019642195
128	0xbd479b3c	-0.048732027
129	0xbcf6d68b	-0.030131599
130	0xbca45817	-0.020061536
131	0x3d66ace1	0.056317214
132	0xbd9ac8d9	-0.0755784
133	0xbc6d43b6	-0.014481476
134	0xbd39d25b	-0.045366626
135	0xbc86b013	-0.01644138
136	0x3d9f582d	0.0778049
137	0x3db1b2b2	0.086766616
138	0xbda5527d	-0.08072374
139	0x3d9ab9f7	0.07555001
140	0x3d307177	0.04307696
141	0x3bcee3d5	0.006313781
142	0x3d606f50	0.054793656
143	0x3cfcc64e	0.030856278
144	0x3b94ff88	0.0045470633
145	0xbdaf8ba0	-0.08571553
146	0xbd9c8cb3	-0.07644024
147	0x3d8fad7b	0.07015511
148	0xbda9a976	-0.08284275
149	0x3d8f43df	0.06995367
150	0x3d64015c	0.05566536
151	0xbd9e9859	-0.07743902
152	0xbd8a5dad	-0.067561485
153	0xbd8d3d97	-0.06896513
154	0x3d80599f	0.06267094
155	0xbd071dff	-0.03298759
156	0xbd8a5748	-0.06754929
157	0xbd8d8c21	-0.06911493
158	0xbdc82e0f	-0.0977441
159	0xbbf9431c	-0.007606877
160	0xbd58618c	-0.052827403
161	0xbb6ec7e7	-0.003643507
162	0xbd6abb1a	-0.05730734
163	0x3d75c066	0.05999794
164	0x3d86d0da	0.06582804
165	0x3c67beda	0.014144624
166	0x3d69c369	0.057071123
167	0xbd9f6825	-0.07783536
168	0xbd88197a	-0.06645484
169	0x3d972c9a	0.07381554
170	0xbd3268e2	-0.043557055
171	0x3ddee252	0.10883011
172	0x3c2c4597	0.010514638
173	0x3d70cae5	0.058787245
174	0xbd03bc02	-0.03216172
175	0xbceafc31	-0.028684707
176	0xbc85a204	-0.016312607
177	0x3d4ff4bd	0.05077051
178	0x3dabbe0b	0.08385857
179	0x3bbe6c16	0.0058112247
180	0xbd5ad77a	-0.05342815
181	0xbc886243	-0.016648417
182	0x3cf181d5	0.029480854
183	0x3d5d04dd	0.053959716
184	0xbd1ef208	-0.038805038
185	0xbd720b44	-0.059092775
186	0xbdaaf3bd	-0.08347271
187	0x3ddb35a3	0.1070359
188	0xbd818245	-0.06323675
189	0xbdc130dc	-0.09433147
190	0x3cdd706d	0.027031148
191	0x3dadad8c	0.08480367
192	0x3da66377	0.0812444
193	0xbd642adf	-0.055704948
194	0xbd89457b	-0.067027055
195	0xbd50b5e4	-0.050954714
196	0x3ab08ae0	0.0013469122
197	0x3be8582b	0.0070905886
198	0x3d6291e8	0.05531493
199	0xbcada618	-0.021197364
200	0x3d9caea7	0.076505
201	0xbdc5ec94	-0.09664264
202	0x3d9d380e	0.07676707
203	0xbda9cfe7	-0.08291607
204	0x3dcfafbc	0.101409405
205	0x3d80d457	0.062905006
206	0xbd984e5d	-0.074368216
207	0x3d934296	0.07190435
208	0x3d431469	0.047626887
209	0x3dbf154a	0.093302324
210	0xbdb45514	-0.0880529
211	0x3d168cf9	0.036755536
212	0x3bbca60b	0.0057570986
213	0xbc8f790c	-0.017513774
214	0xbdaea033	-0.08526649
215	0xbdb72b05	-0.08943752
216	0x3d26eabc	0.040751204
217	0x3d77c9e5	0.060495276
218	0xbd9acf29	-0.07559044
219	0xbd59629c	-0.053072557
220	0xbc9e652a	-0.019335348
221	0xbd8c2952	-0.06843819
222	0xbc7ced68	-0.015437461
223	0xbd9f127c	-0.077671975
224	0x3d00e1a9	0.031465206
225	0xbd394304	-0.045229927
226	0x3daf1525	0.08548955
227	0xbda46a9d	-0.08028147
228	0xbcd20b0a	-0.02564003
229	0xbc891d69	-0.016737657
230	0xbd92ede8	-0.07174283
231	0x3db9b295	0.09067265
232	0xbd4ff740	-0.050772905
233	0x3d27e86b	0.040993135
234	0x3d344acc	0.044016644
235	0xbd6c4c5f	-0.05769002
236	0x3bee9a01	0.0072815423
237	0xbc5dfaa1	-0.013548524
238	0x3d5d12ff	0.053973194
239	0xbcff9fa2	-0.031204049
240	0x3d98d599	0.074626155
241	0xbdc29162	-0.09500386
242	0xbd1057cf	-0.03523999
243	0x3daab987	0.08336168
244	0x3dba7389	0.09104068
245	0xbc8529ff	-0.016255377
246	0xbdbe3c9b	-0.09288903
247	0xbca97cfc	-0.02068948
248	0x3dcc2449	0.09967858
249	0x3b54c7ac	0.0032467647
250	0x3da414f9	0.08011813
251	0x3d3f85e6	0.046758555
252	0x3c8f2d7f	0.017477749
253	0x3d81966f	0.06327521
254	0xbda18b38	-0.07887882
255	0x3cc32630	0.02382192

bias f4 [64]
0	0x3d802dab	0.062587105
1	0x3cd0445c	0.025423221
2	0xbd0e96ea	-0.03481189
3	0xbdb28813	-0.0871736
4	0x3d86fe09	0.06591422
5	0xbd6e5b9b	-0.05819283
6	0xba939ffe	-0.0011262891
7	0xbd1e5f89	-0.03866533
8	0x3dabfbbe	0.083976254
9	0xbd60da18	-0.05489549
10	0x3d2c9c33	0.04214115
11	0x3da33e70	0.079708934
12	0xbdb7a9a4	-0.08967903
13	0x3c4ab744	0.0123727955
14	0xbd2188da	-0.039437152
15	0x3c2f2c36	0.010691693
16	0xbcfb9a8e	-0.030713346
17	0x3db59e54	0.08868089
18	0xbc85d63c	-0.016337506
19	0x3d593a1e	0.05303394
20	0xbd5ca7e0	-0.053871036
21	0xbd3cfa80	-0.046137333
22	0xbcc41a40	-0.023938298
23	0x3dbbbba5	0.0916665
24	0x3cd164d4	0.025560774
25	0x3ce2a0e7	0.027664615
26	0xbd62e738	-0.05539629
27	0x3d60ec8e	0.054913096
28	0xbd2f3188	-0.042771846
29	0x3da191e9	0.07889158
30	0xbdade77f	-0.0849142
31	0xbbc38e4b	-0.0059678904
32	0xbc012557	-0.007882438
33	0xbdb9c12f	-0.0907005
34	0x3dc9b5c2	0.09849121
35	0xbd1d1de4	-0.038358584
36	0xbdbe095b	-0.09279128
37	0x3da703e8	0.08155042
38	0xbd1939bf	-0.037408587
39	0x3db9f31a	0.09079571
40	0xbc429fc7	-0.011878914
41	0xbd3f6349	-0.046725545
42	0xbcb80dd9	-0.02246754
43	0x3d120c6d	0.03565638
44	0x3c700504	0.014649633
45	0xbd551825	-0.05202498
46	0xbda7f2b4	-0.08200589
47	0x3dada907	0.08479505
48	0xbdaedf37	-0.085386686
49	0xbb7fed9e	-0.0039051543
50	0xbccb27aa	-0.024799187
51	0x3d34276b	0.043982904
52	0x3cb1f096	0.021721166
53	0xbd7ab4e6	-0.061207674
54	0x3b32d9e4	0.0027290517
55	0x3d4d869c	0.0501772
56	0xbd0dd5dc	-0.03462778
57	0xbd046017	-0.0323182
58	0x3c35a027	0.011085547
59	0x3cff6200	0.03117466
60	0xba5df720	-0.00084673055
61	0x3d40925b	0.047014575
62	0xbd61df02	-0.055144317
63	0xbdc6ae0e	-0.09701167

weight f4 [64]
0	0x3f7f0646	0.9961895
1	0x3f7dd0ea	0.991469
2	0x3f85fcdb	1.046779
3	0x3f816a7a	1.0110619
4	0x3f7f6b2d	0.9977291
5	0x3f7dbeed	0.99119455
6	0x3f7df4f3	0.9920189
7	0x3f822603	1.016785
8	0x3f81bd5d	1.0135914
9	0x3f7bf448	0.9841962
10	0x3f809a97	1.0047177
11	0x3f7edc7d	0.9955519
12	0x3f81d6c0	1.0143661
13	0x3f7e8d97	0.994348
14	0x3f7f43cd	0.9971283
15	0x3f803fd0	1.0019474
16	0x3f7fabce	0.9987153
17	0x3f8022bc	1.00106
18	0x3f804f70	1.0024242
19	0x3f7f5f67	0.9975495
20	0x3f7d5485	0.9895709
21	0x3f7e9dcb	0.9945952
22	0x3f81c52b	1.0138296
23	0x3f7a590e	0.97792137
24	0x3f7ed29a	0.995401
25	0x3f83c7b3	1.0295318
26	0x3f7f29af	0.9967298
27	0x3f82050f	1.0157794
28	0x3f7c6d5e	0.9860438
29	0x3f811b43	1.0086445
30	0x3f820f42	1.0160906
31	0x3f7e887e	0.9942702
32	0x3f85ede6	1.0463226
33	0x3f7ef792	0.9959651
34	0x3f809277	1.0044698
35	0x3f7f7b91	0.9979792
36	0x3f7cbadf	0.9872264
37	0x3f7be489	0.9839559
38	0x3f7d1cc5	0.98872024
39	0x3f800acf	1.0003299
40	0x3f7e26de	0.99278057
41	0x3f7fa2d3	0.99857825
42	0x3f7b3d59	0.98140484
43	0x3f7bff1f	0.9843616
44	0x3f8463d9	1.0342971
45	0x3f8007d9	1.0002395
46	0x3f8115a5	1.008473
47	0x3f80d839	1.0065986
48	0x3f806091	1.002947
49	0x3f81815f	1.0117606
50	0x3f81714e	1.0112703
51	0x3f7c9359	0.98662335
52	0x3f7caf8d	0.9870537
53	0x3f77a133	0.96730345
54	0x3f7fad14	0.9987347
55	0x3f80c127	1.0058945
56	0x3f79e716	0.97618234
57	0x3f8088aa	1.0041707
58	0x3f806b8f	1.0032824
59	0x3f80ea98	1.0071592
60	0x3f7d4fab	0.9894969
61	0x3f79e11c	0.97609115
62	0x3f815122	1.0102885
63	0x3f804843	1.0022053

bias f4 [64]
0	0xbb4ad2b4	-0.0030948343
1	0xbc6d92c0	-0.01450032
2	0x3c1b0b0b	0.009463082
3	0x3c3b9c14	0.011450786
4	0x3bad45c1	0.0052878563
5	0xbc6ce31f	-0.014458447
6	0xbbffacff	-0.007802605
7	0x3c8cbb57	0.017179174
8	0xbba75331	-0.0051063527
9	0xbc04bbfb	-0.008101459
10	0xbc068d4e	-0.008212401
11	0xb9f3f3b5	-0.00046530148
12	0x3c5b6066	0.013389682
13	0xbbeb18b2	-0.007174575
14	0xbb4803ed	-0.0030519918
15	0xbc5ab6b9	-0.013349229
16	0xbbd39dc4	-0.006458016
17	0xbbb85c29	-0.0056262207
18	0xbbc26ee0	-0.0059336275
19	0xbb1c2e84	-0.0023831436
20	0x3bb31e3f	0.005466252
21	0x3af575f1	0.0018727166
22	0x3aa91dac	0.001290252
23	0xbc131aa5	-0.0089785205
24	0x3b6fefe6	0.0036611496
25	0x3c1c4cfd	0.00953984
26	0xbbf221e7	-0.0073892954
27	0x3a91e7d2	0.001113171
28	0xbc65629f	-0.014000564
29	0xbb66942e	-0.0035183537
30	0x3c8efca2	0.01745445
31	0xbc4ffe0a	-0.012694845
32	0x3bed0ed0	0.007234432
33	0x3a0c6e5d	0.00053570216
34	0xbb84242a	-0.0040326314
35	0xbbdb0c7b	-0.0066848374
36	0xbbad5b31	-0.005290412
37	0xbcb4aa20	-0.022053778
38	0xbbd5d6c9	-0.0065258485
39	0x3be225fd	0.006901501
40	0xbc38be88	-0.011275895
41	0x3b64541c	0.0034840172
42	0xbc63c7e4	-0.013902638
43	0xbbda7dd9	-0.0066678342
44	0x3c7ad7c7	0.015310234
45	0x3be02d73	0.0068413555
46	0x3b0a5ac6	0.0021111234
47	0x3b910c83	0.0044265403
48	0x3c0c6935	0.008570005
49	0xbc808fe3	-0.01569361
50	0x3b1a4506	0.0023539676
51	0xbc83c90c	-0.016087078
52	0xbc4db55e	-0.012555448
53	0xbcf93e33	-0.030425167
54	0xbbc02935	-0.0058642873
55	0x3b76ebf8	0.003767727
56	0xbca5b697	-0.020228667
57	0xbb732da9	-0.0037106073
58	0xbc4aae30	-0.012370631
59	0x3b9c7a0d	0.004775292
60	0xbb722e56	-0.0036953888
61	0xbc351b06	-0.011053806
62	0xbc508c62	-0.012728782
63	0xba738ef4	-0.0009291016

running_mean f4 [64]
0	0x3dc0f18b	0.09421071
1	0x3c94d33d	0.018167133
2	0xbca3e425	-0.020006249
3	0xbdb7ae57	-0.089687996
4	0x3d94f0da	0.07272501
5	0xbdd423bb	-0.103583775
6	0xbc0bb03c	-0.008525904
7	0xbd80b909	-0.06285293
8	0x3d88fb4d	0.06688557
9	0xbd6ae41e	-0.057346456
10	0x3d3cf4ba	0.046131827
11	0x3d9899bd	0.07451198
12	0xbdb6c1ba	-0.08923669
13	0xbb9078f8	-0.004408952
14	0xbcedc704	-0.029025562
15	0x3cc87cc8	0.024473563
16	0x3c127316	0.008938571
17	0x3d89aea8	0.06722766
18	0xbd1daa0b	-0.038492244
19	0x3d3ff047	0.046860006
20	0xbd62ca4e	-0.055368714
21	0xbd2e4383	-0.042544853
22	0xbcff6c1a	-0.031179477
23	0x3dddbbf6	0.10826866
24	0x3cae353c	0.021265619
25	0x3d175950	0.03695041
26	0xbd296c56	-0.041363083
27	0x3d8008a4	0.06251648
28	0xbce3f772	-0.027827952
29	0x3d9356d1	0.07194293
30	0xbdad7474	-0.08469477
31	0x3c0fd98d	0.0087798955
32	0xbd187623	-0.03722204
33	0xbd9f72a9	-0.077855416
34	0x3e09289f	0.13394402
35	0xbcd11802	-0.025524143
36	0xbd9c4071	-0.07629479
37	0x3dd7bd16	0.10534112
38	0xbd2b6d8f	-0.04185253
39	0x3db53b8d	0.08849249
40	0xbc9ba721	-0.019000592
41	0xbd5c2826	-0.053749226
42	0xbc44b461	-0.012005896
43	0x3d317f6e	0.043334417
44	0x3cd12866	0.025531959
45	0xbd4b031e	-0.04956352
46	0xbd8d45f1	-0.06898106
47	0x3d84dbf7	0.064872675
48	0xbd8e3086	-0.06942849
49	0x3c20881a	0.009798074
50	0xbb5770f0	-0.0032873712
51	0x3d77c525	0.060490746
52	0x3b7d8c15	0.0038688232
53	0xbdbf8bdc	-0.09352848
54	0x3cadf369	0.021234231
55	0x3d432354	0.047641113
56	0xbce2f710	-0.0277057
57	0xbca95070	-0.020668238
58	0xbba960b0	-0.0051689968
59	0x3d1d08c0	0.038338423
60	0x3b5865bb	0.003301962
61	0x3d06dbd8	0.032924503
62	0xbd6ab2b1	-0.05729932
63	0xbdc19120	-0.094515085

running_var f4 [64]
0	0x3e9fbf27	0.31200525
1	0x3eaf3c64	0.34225762
2	0x3ed9e18f	0.425549
3	0x3e9b6a86	0.30354708
4	0x3e9f5c3c	0.31125057
5	0x3ea3e2be	0.32008928
6	0x3ea35278	0.31898856
7	0x3e98e1f6	0.29859895
8	0x3ec9934a	0.39370185
9	0x3eaf436b	0.34231123
10	0x3ea8b94f	0.3295388
11	0x3e9915ca	0.29899436
12	0x3eb90fc3	0.36144838
13	0x3e8d6a2d	0.27620068
14	0x3eaebdff	0.3412933
15	0x3ea9ef89	0.33190563
16	0x3eb156e4	0.34636605
17	0x3e96f647	0.2948477
18	0x3eadcfb9	0.33947542
19	0x3eaa4fb0	0.33263922
20	0x3ea54024	0.32275498
21	0x3ebec408	0.37258935
22	0x3e9a0766	0.3008377
23	0x3e992219	0.29908827
24	0x3eadc184	0.33936703
25	0x3ea42999	0.32062986
26	0x3eacfe9c	0.33788002
27	0x3ec74d25	0.38926044
28	0x3eb43d0d	0.35202828
29	0x3eb158c3	0.34638032
30	0x3eb05f74	0.34447825
31	0x3e97f7c2	0.29681212
32	0x3eaaf914	0.33393157
33	0x3ea3e538	0.32010818
34	0x3ebcb182	0.36854178
35	0x3e9c9511	0.3058248
36	0x3eb98b37	0.36239025
37	0x3ead89b9	0.33894137
38	0x3eb0c621	0.3452616
39	0x3ea289c2	0.31745726
40	0x3ee06ad2	0.43831497
41	0x3ec3fd8b	0.38279375
42	0x3e9daf48	0.3079779
43	0x3eb47b1a	0.3525017
44	0x3eb73e78	0.35789847
45	0x3eac44c8	0.33646226
46	0x3ea7df43	0.32787523
47	0x3eae9de0	0.34104824
48	0x3eb68285	0.35646453
49	0x3eade821	0.33966163
50	0x3ebe9747	0.3722479
51	0x3eadad67	0.33921358
52	0x3eb7f8ab	0.35931906
53	0x3ec70370	0.3886981
54	0x3e7e456c	0.2483117
55	0x3ebb1f08	0.36547112
56	0x3ea72562	0.32645708
57	0x3eb4b84e	0.35296863
58	0x3ec0cc55	0.37655893
59	0x3ea466a3	0.32109556
60	0x3e984c4e	0.29745716
61	0x3ea49dfb	0.3215178
62	0x3eaf38ed	0.34223118
63	0x3ecdc79c	0.40191352

weight f4 [64, 64]
0	0x3d92a2a9	0.07159931
1	0x3d399891	0.045311514
2	0x3dcec1b3	0.10095539
3	0xbda4649f	-0.080270045
4	0x3dea7dbe	0.11449765
5	0xbd55f657	-0.05223688
6	0x3ddf7acf	0.10912096
7	0xbd8363e9	-0.06415541
8	0x3d7c6522	0.061619885
9	0x3d1db40f	0.038501795
10	0x3c8cc537	0.017183883
11	0x3dd357de	0.10319494
12	0xbdf94cfb	-0.12172886
13	0x3ddc5f36	0.107603475
14	0xbd9c20b9	-0.07623429
15	0x3dd164b2	0.10224284
16	0x3d83341f	0.06406426
17	0x3b4959b0	0.0030723624
18	0x3d9bd3e6	0.07608776
19	0xbd855ff9	-0.06512446
20	0x3d904dde	0.07046102
21	0xbd9bc20f	-0.07605373
22	0x3d937a2b	0.07201036
23	0x3d8be885	0.06831459
24	0x3d2afd2e	0.041745357
25	0xbdf4df57	-0.11956661
26	0x3dc4cba1	0.09609152
27	0xbd439faa	-0.04775969
28	0xbd84f99f	-0.06492924
29	0x3d0ed528	0.03487125
30	0x3df73d1a	0.12072201
31	0x3dee96dc	0.11649868
32	0x3da56f31	0.08077849
33	0xbdbb71dd	-0.09152577
34	0x3e001827	0.12509213
35	0xbbedc548	-0.007256184
36	0xbda6b5c4	-0.08140138
37	0x3d0baa72	0.034098096
38	0x3c0cd4fc	0.008595701
39	0xbcec6998	-0.028858945
40	0xbbef4e1e	-0.0073030135
41	0x3d8f5caa	0.07000096
42	0xbaf6618c	-0.0018797382
43	0xbde06c0e	-0.1095811
44	0xbbafaddc	-0.005361302
45	0xbd3d635e	-0.046237342
46	0x3d4b2ef7	0.049605336
47	0xbde1f9e8	-0.11033994
48	0xbbfd2f39	-0.0077265766
49	0x3aa41bae	0.0012520456
50	0xbdd9158d	-0.105998136
51	0x3bd842c2	0.006599755
52	0xba76a821	-0.00094092084
53	0x3bae13fa	0.00531244
54	0x3dee6f70	0.11642349
55	0x3dc5bff0	0.0965575
56	0xbdb5e4b8	-0.08881515
57	0x3d6a72b3	0.057238292
58	0xbd7ded5e	-0.06199395
59	0xbd48474c	-0.04889612
60	0xbe0f4f91	-0.13995196
61	0xbdc23824	-0.09483364
62	0x3d9806bd	0.0742316
63	0x3d435426	0.047687672
64	0xbd2d52b2	-0.042315193
65	0x3d9651b1	0.073398
66	0xbd8a8bba	-0.06764932
67	0xbda51309	-0.08060271
68	0x3d6dfb3f	0.058100935
69	0x3c21985f	0.009862988
70	0xbde4ecbe	-0.111779675
71	0xbdb9937a	-0.09061332
72	0x3db27f12	0.08715643
73	0xbd1afd36	-0.037839137
74	0x3da3f210	0.08005154
75	0xbd67345b	-0.056446414
76	0x3c2bcf8b	0.010486494
77	0x3d1b506a	0.037918486
78	0xbb89781f	-0.0041952278
79	0x3d161c42	0.036648043
80	0x3c9ff5e4	0.01952643
81	0x3d410f4e	0.047133736
82	0x3cc87f7c	0.024474852
83	0x3d89ec8b	0.0673457
84	0x3db13a14	0.08653656
85	0x3bcc6d68	0.006238628
86	0x3d384eac	0.044996902
87	0xbde908bf	-0.11378621
88	0x3de3ac82	0.11116888
89	0xbc458698	-0.012056015
90	0xbd683f47	-0.05670097
91	0xbd4e1ada	-0.050318576
92	0xbda6f8a6	-0.08152895
93	0xbdb3444f	-0.08753263
94	0xbdc43ff5	-0.09582511
95	0xbd04af75	-0.03239389
96	0x3d8ea768	0.06965524
97	0xbd800562	-0.06251027
98	0xbd857c36	-0.06517832
99	0xbc5b2651	-0.013375835
100	0xbcb30f3d	-0.021857852
101	0x3c27a6a3	0.0102326
102	0xbd0fbb8a	-0.03509096
103	0xbdd7eb0c	-0.105428785
104	0x3d871a19	0.065967746
105	0xbc5a3a6e	-0.013319595
106	0xbde5595b	-0.11198684
107	0xbd16f5d6	-0.03685554
108	0x3d334e76	0.043775998
109	0x3c48cf5a	0.012256468
110	0x3de2b392	0.110694066
111	0xbdd4bf3c	-0.103880376
112	0xbdc1bdf8	-0.09460062
113	0xbc58e3c1	-0.0132378945
114	0x3e0173a1	0.12641765
115	0x3dd5ea7e	0.104451165
116	0x3d878880	0.06617832
117	0xbdaf454d	-0.0855814
118	0xbd9e311d	-0.07724211
119	0xbd229ebe	-0.03970217
120	0xbdedbc0e	-0.11608134
121	0xbce492c1	-0.027902009
122	0x3dbdcbbf	0.09267377
123	0x3dd4498f	0.10365593
124	0xbc0d8b81	-0.008639217
125	0xbdea54c2	-0.114419475
126	0x3cb59678	0.022166476
127	0xbdeb6e1e	-0.114956126
128	0xbbdc681c	-0.006726278
129	0xbd3da909	-0.046303783
130	0x3d1a6e5f	0.037702914
131	0x3b7ae921	0.0038285928
132	0x3d085eff	0.03329372
133	0x3dda52a5	0.106602944
134	0xbddcb2ac	-0.107762665
135	0x3dcf90dc	0.101350516
136	0x3d92edef	0.071742885
137	0xbc824b9b	-0.015905192
138	0xbd9cdb8f	-0.07659065
139	0xbc27e8b0	-0.010248348
140	0x3bfe4f29	0.0077609015
141	0xbdadae77	-0.08480542
142	0xbdc8e04b	-0.098084055
143	0xbb10b0a2	-0.0022077938
144	0xbca557ef	-0.020183532
145	0xbd3fae05	-0.046796817
146	0x3d26f03c	0.04075645
147	0x3daa513e	0.08316277
148	0x3d3121f7	0.043245282
149	0xbc86aa4d	-0.016438628
150	0x3ddcecfe	0.1078739
151	0xbda3183b	-0.07963606
152	0x3d4b3acd	0.049616624
153	0xbd514482	-0.051090725
154	0x3df1d344	0.11807874
155	0xbd30f077	-0.043198075
156	0xbdc69bcc	-0.09697685
157	0x3d73c3a7	0.05951276
158	0xbda9b19c	-0.082858294
159	0x3d088bff	0.033336636
160	0x3e05b78f	0.13058303
161	0xbd345a4b	-0.044031423
162	0x3d30e030	0.04318255
163	0xbcc8b2ba	-0.024499286
164	0x3dce80d8	0.10083169
165	0x3dd5b8f0	0.10435665
166	0x3b5a6a75	0.0033327613
167	0xbdb3806f	-0.08764731
168	0x3db4117f	0.087923996
169	0xbda3001f	-0.079590075
170	0x3d5f0bea	0.05445472
171	0xbce0fa10	-0.02746299
172	0xbd23a1cd	-0.039949227
173	0xbdd05c8e	-0.101739034
174	0x3dae9435	0.08524362
175	0x3d8bb911	0.06822408
176	0x3dcfee80	0.10152912
177	0x3e069269	0.13141789
178	0xbbf14b99	-0.0073637483
179	0x3d6dc407	0.058048274
180	0x3d09734d	0.033557225
181	0x3c5c0444	0.013428751
182	0x3d9b97af	0.07597291
183	0x3d292b57	0.041301098
184	0x3ce37a38	0.02776824
185	0xbda37ba3	-0.07982566
186	0xbd79ace1	-0.060955886
187	0x3c3749cb	0.011187027
188	0xbd2bb779	-0.04192302
189	0xbd849f40	-0.06475687
190	0x3da02034	0.07818642
191	0xbd8f6bdf	-0.07002997
192	0x3dde859d	0.108653285
193	0x3aab33e5	0.001306173
194	0xbdd4847d	-0.10376833
195	0xbd806749	-0.062697
196	0x3e065a05	0.13120277
197	0x3da09da2	0.07842566
198	0x3d60ede0	0.054914355
199	0x3defe550	0.1171366
200	0xbdf02b94	-0.11727062
201	0x3d899314	0.06717506
202	0x3d43e02a	0.0478212
203	0xbc3f6df6	-0.011683932
204	0x3ddaf383	0.106909774
205	0xbb8db666	-0.004324722
206	0xbcaa6f05	-0.020804891
207	0x3da281bc	0.07934901
208	0xbd02c111	-0.031922404
209	0xbd2084d3	-0.03918917
210	0x3da24f1f	0.079252474
211	0xbd6b7e63	-0.05749358
212	0x3ce75bb3	0.028241968
213	0x3ce2c878	0.027683482
214	0xbd699120	-0.057023168
215	0xbc7d3e07	-0.015456683
216	0x3de07465	0.109597005
217	0xbb688f36	-0.003548575
218	0xbe013a55	-0.12619908
219	0x3db510bb	0.08841082
220	0x3dbd84bc	0.09253833
221	0x3dcdfb57	0.10057705
222	0xbe097894	-0.13424903
223	0xbcb6ffe0	-0.022338808
224	0xbd7267fe	-0.059181206
225	0x3c259d0f	0.0101082465
226	0xbdb3980d	-0.08769236
227	0xbdd09189	-0.10184009
228	0xbd1f02b9	-0.038820956
229	0xbcc3a468	-0.023882106
230	0xbc01b5f9	-0.007916921
231	0xbbd5b3fe	-0.006521701
232	0xbd88d3d5	-0.06681029
233	0xbb5a7be9	-0.0033338016
234	0xbcdda271	-0.027054997
235	0x3cbceb76	0.023061495
236	0x3dc644fc	0.096811265
237	0xbdb082fc	-0.08618733
238	0xbda00384	-0.078131706
239	0x3e05f7e1	0.1308284
240	0x3dfb34c8	0.122659266
241	0x3d962117	0.0733053
242	0xbd22cbd6	-0.039745174
243	0xbd86fb48	-0.06590897
244	0x3d354425	0.04425444
245	0xbc06b647	-0.008222169
246	0x3dc16305	0.094427146
247	0x3d93ce3d	0.07217071
248	0x3d412205	0.047151584
249	0xbce527e1	-0.027973117
250	0x3d8e5dd4	0.0695149
251	0xbd254246	-0.040346406
252	0xbdadf421	-0.084938295
253	0x3d3db61b	0.046316247
254	0xbd2c591a	-0.04207716
255	0xbdf4c109	-0.11950881

bias f4 [64]
0	0xbdb0a9fe	-0.086261734
1	0x3de227d9	0.110427566
2	0x3db22c8b	0.08699902
3	0x3de1047b	0.10987183
4	0xbdd65723	-0.10465839
5	0xbcd857f9	-0.026409136
6	0x3d1fefaf	0.03904694
7	0x3ceac459	0.028658079
8	0x3de7b5ba	0.113139585
9	0xbc96e05a	-0.018417526
10	0xbdf615be	-0.12015866
11	0x3ded51ed	0.11587892
12	0xbde40e79	-0.11135573
13	0x3cd19efa	0.025588501
14	0xbd6ab2b4	-0.05729933
15	0xbd7b0650	-0.061285317
16	0xbdb7eb42	-0.08980419
17	0xbdd461dc	-0.10370228
18	0xbdebaa8d	-0.11507139
19	0xbd6a473f	-0.05719685
20	0xbd4fba34	-0.050714687
21	0x3c8eae81	0.017417194
22	0x3c7b061e	0.015321283
23	0x3d7ed183	0.062211525
24	0xbcd54ccc	-0.026037596
25	0x3df7c016	0.12097184
26	0x3dd19ba7	0.102347665
27	0xbc26426c	-0.010147672
28	0x3ca8a96d	0.020588601
29	0x3bb3e322	0.005489723
30	0x3d851009	0.06497199
31	0x3dfc2f78	0.123137414
32	0x3d158379	0.036502335
33	0x3da71dda	0.081599906
34	0xbc137ece	-0.009002401
35	0x3d82e0a4	0.06390503
36	0xbda6d715	-0.081464924
37	0x3cf2a238	0.029618368
38	0xbc4317af	-0.011907502
39	0xbda7740b	-0.0817643
40	0xbd2435f6	-0.040090524
41	0x3d6eb540	0.058278322
42	0xbd706547	-0.058690336
43	0xbdf895db	-0.12137958
44	0x3da19dc0	0.078914165
45	0xbdec3370	-0.115332484
46	0x3dd6d784	0.10490325
47	0x3d9f6677	0.077832155
48	0x3daef5e2	0.08542992
49	0xbd97ab7b	-0.07405754
50	0xbdb5f507	-0.08884626
51	0x3df4a72f	0.1194595
52	0x3c59d4d6	0.013295373
53	0xbd322739	-0.043494437
54	0x3dcf6803	0.101272605
55	0xbd8327ab	-0.064040504
56	0xbddd8a61	-0.10817409
57	0x3d60279d	0.05472528
58	0x3cec7a28	0.028866842
59	0xbdd5b4ce	-0.104348764
60	0xbcf7c24e	-0.030244019
61	0x3dfdb182	0.123873726
62	0xbaaee344	-0.0013342877
63	0xbde4d5e0	-0.11173606

weight f4 [64]
0	0x3f81f7a7	1.0153702
1	0x3f7f0403	0.99615496
2	0x3f83d9a9	1.03008
3	0x3f79b189	0.9753652
4	0x3f7d7720	0.99009895
5	0x3f7c8cec	0.9865253
6	0x3f784858	0.9698539
7	0x3f83d24c	1.0298553
8	0x3f7d7d29	0.99019104
9	0x3f84f897	1.0388364
10	0x3f814b56	1.0101116
11	0x3f7d6a03	0.98989886
12	0x3f7b7345	0.9822276
13	0x3f7e809c	0.9941499
14	0x3f7ca581	0.9869004
15	0x3f7b3d59	0.98140484
16	0x3f7e177c	0.99254584
17	0x3f79f7a4	0.97643495
18	0x3f7721c3	0.9653589
19	0x3f794527	0.97371143
20	0x3f7c2a18	0.9850173
21	0x3f7dff4c	0.9921768
22	0x3f82919b	1.0200685
23	0x3f809708	1.0046091
24	0x3f7fcc7d	0.999214
25	0x3f7ecc67	0.99530643
26	0x3f7d4dba	0.98946726
27	0x3f7d4d02	0.9894563
28	0x3f7cd90e	0.987687
29	0x3f785fb0	0.9702101
30	0x3f7dc841	0.9913369
31	0x3f7d87b6	0.99035203
32	0x3f7f79b7	0.997951
33	0x3f77c64c	0.9678695
34	0x3f823c5c	1.017467
35	0x3f7c395d	0.9852503
36	0x3f81be28	1.0136156
37	0x3f80668f	1.0031298
38	0x3f81f8ff	1.0154113
39	0x3f7a37de	0.97741497
40	0x3f80e613	1.0070213
41	0x3f7eff53	0.99608344
42	0x3f7de360	0.9917507
43	0x3f7cfd16	0.9882368
44	0x3f7e16f5	0.9925378
45	0x3f79de3b	0.9760472
46	0x3f7aec47	0.9801678
47	0x3f7f0cf0	0.99629116
48	0x3f7dd0cd	0.9914673
49	0x3f7bb59e	0.98324
50	0x3f803ff2	1.0019515
51	0x3f7cdef4	0.987777
52	0x3f78f4a8	0.97248316
53	0x3f828939	1.0198127
54	0x3f79e3e5	0.97613364
55	0x3f7c1eaa	0.9848429
56	0x3f7c3dbb	0.98531693
57	0x3f75f636	0.96078813
58	0x3f7578de	0.95887554
59	0x3f808727	1.0041245
60	0x3f7af543	0.9803049
61	0x3f7e6648	0.9937482
62	0x3f7b74b8	0.98224974
63	0x3f7b90b8	0.982677

bias f4 [64]
0	0x3bc2a69b	0.005940271
1	0xbc9bfd00	-0.019041538
2	0xbc9b9327	-0.018991066
3	0xbc4e5f6b	-0.012595992
4	0xbd5450be	-0.051834814
5	0xbd00ec18	-0.031475157
6	0xbd1a5581	-0.0376792
7	0xbabc7f5c	-0.0014381218
8	0xbc7dc6f5	-0.01548933
9	0x3cfcebdf	0.03087419
10	0x3cc39b4f	0.023877768
11	0xbbd0ddf5	-0.0063741156
12	0xbbc5df08	-0.0060385503
13	0xbc60c4e0	-0.013718814
14	0xbd0223ed	-0.031772543
15	0xbbadc347	-0.00530282
16	0x3ba71259	0.0050986228
17	0xbcb68a2c	-0.022282682
18	0xbd03f9d7	-0.032220688
19	0xbc677a7b	-0.014128323
20	0xbb35e7c1	-0.0027756544
21	0xbba22206	-0.0049479036
22	0x3bd778bc	0.006575672
23	0x3b1443cd	0.002262342
24	0x39fed749	0.00048607055
25	0x3c465387	0.012104875
26	0xbbcda871	-0.0062761833
27	0xbc1db76e	-0.009626253
28	0xbbd15b8d	-0.0063890875
29	0xbcd715ce	-0.026255514
30	0xbcdb0ac8	-0.02673854
31	0xbcd16d76	-0.02556489
32	0x3a80e240	0.0009833053
33	0xbc6a8495	-0.014313837
34	0x3b1c7950	0.0023876019
35	0xbc53268a	-0.012887606
36	0xbbf138b6	-0.007361497
37	0xbd03d51b	-0.032185655
38	0xbb86cc8b	-0.004113739
39	0xbbdf6816	-0.006817828
40	0x3c1cf19f	0.009579091
41	0xb9ee352e	-0.0004543452
42	0xbba18a20	-0.004929796
43	0xbc1dee9b	-0.0096394075
44	0xbc008254	-0.007843573
45	0xbca354bd	-0.019937867
46	0xba079635	-0.0005172224
47	0x3bb9d163	0.005670713
48	0x38447430	4.683825e-05
49	0xbbbd57c1	-0.0057782833
50	0x3c993f84	0.018707044
51	0xbb04d359	-0.0020267575
52	0xbb8742b5	-0.004127825
53	0x3919c688	0.00014665176
54	0xbc8c2380	-0.017106771
55	0xbc90c05b	-0.017669847
56	0xbc50c2e0	-0.012741774
57	0xbd1abb36	-0.037776195
58	0xbd043b4d	-0.032283116
59	0xba4b2f75	-0.0007750907
60	0xbca93986	-0.020657312
61	0x3b1e2a41	0.0024134072
62	0xbbc41107	-0.005983475
63	0xbcdc27bc	-0.026874416

running_mean f4 [64]
0	0x3e1f1c80	0.15538216
1	0xbe12d799	-0.14340056
2	0x3e9ae2fc	0.302513
3	0x3e7346a9	0.23757423
4	0x3e8bf6fb	0.2733687
5	0x3e9ac6d0	0.30229807
6	0x3e4fa03e	0.20275971
7	0x3e03cf6f	0.12872098
8	0x3e1baa95	0.1520179
9	0x3ed92c4f	0.42416617
10	0xbe4abf52	-0.19799545
11	0xbca40bb4	-0.020025112
12	0x3e8ae394	0.27126753
13	0xbefaf9c4	-0.4901868
14	0x3d9b0a6c	0.07570347
15	0x3e6f68ad	0.23379774
16	0xbc9096a1	-0.01764995
17	0xbe283b47	-0.16428863
18	0xbca7cd3e	-0.02048361
19	0xbe25950b	-0.16170137
20	0x3e5896f6	0.21151337
21	0xbe4cd033	-0.20001297
22	0x3e4f401f	0.20239304
23	0x3da600df	0.08105635
24	0x3e50798c	0.20358866
25	0x3dc7f926	0.09764318
26	0x3d8c73c0	0.06858015
27	0xbdc970c7	-0.09835964
28	0x3e6988ae	0.22806045
29	0x3e0da1ca	0.13831249
30	0x3d54344e	0.051807694
31	0x3f076c65	0.5289977
32	0xbe538502	-0.20656207
33	0x3d032a9d	0.03202306
34	0x3e250a1a	0.16117135
35	0xbc91543f	-0.017740367
36	0x3db92f98	0.09042281
37	0x3eee034b	0.46486887
38	0xbe7a238d	-0.24427624
39	0xbf23de8a	-0.6401144
40	0x3ea50b42	0.32235152
41	0x3dfd09a6	0.12355356
42	0x3d7cc708	0.06171325
43	0xbf10062b	-0.5625941
44	0x3e33229b	0.1749367
45	0x3e092cea	0.1339604
46	0xbe2677cd	-0.16256638
47	0x3d4f94a8	0.05067888
48	0x3ddfca28	0.1092723
49	0xbe6fd30c	-0.23420352
50	0xbe42ec26	-0.19035396
51	0xbe49ac94	-0.1969474
52	0xbd8bf041	-0.06832934
53	0x3e5f0b1e	0.21781585
54	0x3ebb38ef	0.36566874
55	0xbea78de2	-0.32725435
56	0xbc33bb3e	-0.010969935
57	0xbb90d308	-0.004419688
58	0x3ec1e8a2	0.37872797
59	0xbc64b828	-0.013959922
60	0x3e88671f	0.26641175
61	0xbd180c90	-0.037121356
62	0xbee0b2d3	-0.43886432
63	0x3e769ecc	0.24084014

running_var f4 [64]
0	0x3dfe0a4b	0.12404307
1	0x3dc87069	0.097870655
2	0x3dcf6aef	0.10127818
3	0x3e0cfd56	0.13768515
4	0x3e06889b	0.13138048
5	0x3df9b02d	0.12191806
6	0x3e0634ee	0.13106129
7	0x3e1cfa32	0.15329817
8	0x3dffe3bc	0.12494609
9	0x3dd69e6c	0.10479435
10	0x3e0911a9	0.13385643
11	0x3dd551d3	0.10415997
12	0x3e27eb7b	0.16398422
13	0x3dea3caa	0.11437352
14	0x3e05686b	0.13028114
15	0x3e038604	0.12844092
16	0x3dc70ada	0.09718867
17	0x3e0541f1	0.13013436
18	0x3ded4de8	0.11587125
19	0x3deac91a	0.11464138
20	0x3e201a26	0.15634975
21	0x3dcf6fc1	0.10128737
22	0x3e0ceede	0.13762996
23	0x3de766b0	0.11298883
24	0x3dc14b1b	0.09438153
25	0x3dd7d275	0.10538188
26	0x3de87311	0.11350072
27	0x3dd5970b	0.104292
28	0x3dfca73a	0.123365834
29	0x3dd51fef	0.104064815
30	0x3deaf2ad	0.11472068
31	0x3dd79a22	0.105274454
32	0x3e09df6e	0.13464138
33	0x3e0534a7	0.13008367
34	0x3dae5c77	0.0851373
35	0x3e1e1189	0.15436377
36	0x3dc70681	0.097180374
37	0x3dc41187	0.095736556
38	0x3dcaa9dd	0.0989568
39	0x3dfaeb28	0.12251884
40	0x3e05640e	0.13026449
41	0x3ddf76da	0.10911341
42	0x3e104799	0.14089812
43	0x3e04ed86	0.12981233
44	0x3e177588	0.14790928
45	0x3e1b198e	0.15146467
46	0x3de1e4cd	0.110299684
47	0x3e1921a1	0.14954235
48	0x3dbc6c7c	0.09200379
49	0x3dd2b1ff	0.10287856
50	0x3dee2444	0.11628011
51	0x3dc17779	0.09446616
52	0x3e07bca0	0.13255548
53	0x3e04e15c	0.12976593
54	0x3df842ba	0.12122102
55	0x3e113155	0.14178975
56	0x3ddee2b2	0.108830824
57	0x3dbe883b	0.09303328
58	0x3df9bfb2	0.12194766
59	0x3df5242f	0.11969792
60	0x3dd92cbe	0.10604237
61	0x3df2893e	0.11842583
62	0x3e0c8c24	0.13725334
63	0x3dd59a75	0.10429851

weight f4 [5, 64]
0	0xbdc48816	-0.09596269
1	0x3d029b5e	0.03188645
2	0x3d5dbf13	0.0541373
3	0x3d4a16eb	0.049338263
4	0x3d7c66f1	0.06162161
5	0xbddb7fd6	-0.10717742
6	0x3cc62728	0.024188593
7	0x3e1b15a8	0.1514498
8	0xbc06be1a	-0.008224035
9	0x3d4cb902	0.049981125
10	0xbc9c66ad	-0.019091928
11	0x3d25edfa	0.040510155
12	0xbdd5a347	-0.10431533
13	0x3db7801d	0.089599825
14	0xbd5b7c2d	-0.05358522
15	0x3d4f6ae9	0.050639067
16	0x3cbdeeb2	0.023185108
17	0x3cd9de26	0.026595186
18	0x3c40d0fb	0.011768575
19	0xbcd629bc	-0.026142947
20	0xbd6c95aa	-0.05775992
21	0x3c37fbf3	0.011229503
22	0x3c8849f9	0.016636835
23	0x3d236a8f	0.039896544
24	0xbd3a8abd	-0.045542467
25	0xbd599df9	-0.05312917
26	0xbde4b187	-0.11166673
27	0xbd80e14a	-0.062929705
28	0xbcc76f8e	-0.024345186
29	0x3d5f3ab9	0.05449936
30	0xbbd28a1f	-0.0064251567
31	0x3d6aaf5c	0.057296142
32	0xbc64975d	-0.013952103
33	0x3d885ec0	0.06658697
34	0x3d11cd22	0.03559602
35	0x3d672f01	0.05644131
36	0xbdfa92c3	-0.12235024
37	0xbd4289a7	-0.047494557
38	0xbdf14324	-0.11780384
39	0x3d8918ea	0.06694205
40	0xbc74d23f	-0.014942705
41	0x3d444421	0.047916535
42	0xbddb3bbc	-0.10704753
43	0xbdb0d87f	-0.08635043
44	0xbdbc795c	-0.09202835
45	0x3d1663f7	0.036716428
46	0xbcc0c46b	-0.02353116
47	0xbdf66345	-0.12030653
48	0xbdb381ac	-0.08764967
49	0xbda3aad9	-0.07991571
50	0xbc3130b8	-0.010814838
51	0x3b25f902	0.0025325422
52	0xbc729ecc	-0.014808368
53	0x3d4b4859	0.049629543
54	0xbd2156fd	-0.0393896
55	0xbd87e75c	-0.06635925
56	0x3cd5df4d	0.026107455
57	0xbd313381	-0.04326201
58	0x3d9027d0	0.07038844
59	0xbcc20730	-0.023685068
60	0x3daa0b93	0.08302989
61	0x3bf0bd21	0.0073467647
62	0x3c9dab9d	0.01924687
63	0x3dbfefc2	0.09371902
64	0x3ceea20e	0.029130008
65	0xbe0103b7	-0.12599073
66	0xbd136778	-0.035987347
67	0xbdb7236a	-0.089423016
68	0xbd885eb2	-0.06658687
69	0x3d43ee99	0.047834966
70	0xbd54d145	-0.051957387
71	0x3c773b68	0.015089847
72	0x3dc84342	0.097784534
73	0xbdc2902f	-0.09500157
74	0x3d85ce3d	0.065334775
75	0xbde637c9	-0.11241109
76	0x3d175669	0.03694764
77	0x3cd83316	0.026391547
78	0xbda3449e	-0.07972072
79	0x3d85d496	0.06534688
80	0x3ddda805	0.10823063
81	0xbcde14f1	-0.027109595
82	0x3d959436	0.073036596
83	0x3d095de7	0.033536818
84	0xbdce8d28	-0.10085517
85	0x3a8d64f3	0.0010787532
86	0xbc5f5105	-0.013630156
87	0x3d0e710f	0.03477579
88	0x3cf891fc	0.030343048
89	0xbc12dc01	-0.008963586
90	0x3b2ca2ee	0.002634223
91	0x3cdca175	0.026932457
92	0xbba7df0c	-0.005123025
93	0x3dba5fb6	0.09100287
94	0xbd79e1bc	-0.061006293
95	0xbdb12406	-0.08649449
96	0x3cdf1187	0.027230037
97	0x3de05bfd	0.10955045
98	0xba40914b	-0.0007345869
99	0xbc8e2723	-0.017352646
100	0xbd814b64	-0.06313208
101	0xbd9ce272	-0.076603785
102	0xbdc24cf7	-0.09487336
103	0x3c13c414	0.009018917
104	0x3ba4a11b	0.005024088
105	0xbdb33734	-0.087507635
106	0x3d90ac20	0.0706408
107	0xbc919091	-0.01776913
108	0xbc8c5c92	-0.017133985
109	0x3da975e9	0.08274443
110	0x3cea5bde	0.028608259
111	0x3d41f803	0.047355663
112	0x3d8d5c8d	0.06902418
113	0x3de29ad3	0.110646866
114	0x3d64a7ec	0.055824205
115	0xbda4a30d	-0.08038912
116	0x3d80b256	0.06284015
117	0xbd882e9c	-0.06649515
118	0x3dcc9b79	0.099905916
119	0x3da056d1	0.07829059
120	0xbd1ddaab	-0.038538616
121	0x3d4b146a	0.049580015
122	0xbdc8fdb7	-0.09814017
123	0xbcdb45bc	-0.02676665
124	0xbc970bb8	-0.018438205
125	0x3dcec1c2	0.1009555
126	0xbdf05f6e	-0.11736952
127	0x3dc1a8a4	0.09455994
128	0x3dc75c6e	0.097344264
129	0xbb26c955	-0.0025449593
130	0xbde6057b	-0.11231514
131	0x3cafc9fd	0.02145862
132	0x3dcf7dc4	0.1013141
133	0xbdbb4923	-0.09144809
134	0xbdb542eb	-0.08850654
135	0x3d4288d4	0.04749377
136	0x3c341aa2	0.010992678
137	0xbc95e0d0	-0.018295676
138	0x3d6701f7	0.05639836
139	0xbd8bc383	-0.068244
140	0x3de09d27	0.109674744
141	0xbdb5a504	-0.08869365
142	0xbce609bf	-0.02808082
143	0x3bcb8dff	0.0062119956
144	0x3d1b6994	0.037942484
145	0xbb88eb3b	-0.0041784323
146	0xbdb2470d	-0.08704958
147	0xbcbfc1c0	-0.023407817
148	0xbd5de82f	-0.054176506
149	0xbdbbdffe	-0.091735825
150	0x3ddd89cd	0.10817299
151	0xbdb26c3b	-0.087120496
152	0x3d8dca23	0.0692332
153	0x3da7892c	0.0818046
154	0x3cbd8bc1	0.023137929
155	0x3d23285f	0.039833423
156	0xbc3deedd	-0.011592594
157	0xbd3e38de	-0.04644095
158	0xbd139e4c	-0.036039636
159	0x3cdc67a2	0.026904885
160	0xbc955430	-0.01822862
161	0xbdb56174	-0.08856478
162	0x3e056769	0.13027729
163	0x3dc2be42	0.09508945
164	0xbd0a06b3	-0.033697795
165	0x3d9d623d	0.07684753
166	0xbdda00d7	-0.106446914
167	0x3df3d68a	0.119061545
168	0xbddb363b	-0.10703703
169	0x3da31121	0.079622515
170	0xbd3e386f	-0.046440538
171	0xbcc69c4f	-0.024244456
172	0xbd649266	-0.05580368
173	0xbd65287c	-0.055946812
174	0x3d2da415	0.04239281
175	0x3da9355e	0.08262132
176	0x39ea79bc	0.00044722657
177	0x3c3d1323	0.011540207
178	0x3dff6089	0.124695845
179	0x3e04a4da	0.12953511
180	0x3d8f1b0e	0.06987582
181	0x3cd5f31d	0.026116902
182	0xbc992ba6	-0.018697571
183	0xbda9772b	-0.082746826
184	0xbd6584e6	-0.056034945
185	0xbd187140	-0.03721738
186	0xbcd05263	-0.02542991
187	0x3dde96b4	0.10868588
188	0x3ded7cd9	0.115960784
189	0xbdca24c7	-0.09870296
190	0x3dbe062e	0.092785224
191	0xbd871e4b	-0.06597575
192	0x3dc9bef5	0.09850875
193	0xbdda25ac	-0.106517166
194	0x3db23d63	0.08703115
195	0xbdb5a5db	-0.08869525
196	0x3bca1b94	0.0061678383
197	0xbdd997ae	-0.10624634
198	0xbddddf1b	-0.108335696
199	0x3c6a2ae7	0.014292455
200	0xbdd0f782	-0.10203458
201	0x3d035eaa	0.0320727
202	0xbd51a77b	-0.051185112
203	0xbdadf414	-0.0849382
204	0x3db98251	0.09058059
205	0x3dc7f192	0.09762873
206	0xbdc06063	-0.09393384
207	0xbd498dee	-0.04920762
208	0xbd2ada84	-0.0417123
209	0x3c8e4d37	0.017370803
210	0xbc995472	-0.018717024
211	0xbd08e6e6	-0.033423327
212	0x3dcaf5b5	0.09910146
213	0x3dae06ac	0.08497366
214	0x3dc68e75	0.0969514
215	0xbdc65c6f	-0.09685599
216	0x3dd47b43	0.10375073
217	0x3d566227	0.0523397
218	0xbdbb36de	-0.091413245
219	0xbd16dff4	-0.036834672
220	0xbc1acaa0	-0.009447724
221	0x3c12586b	0.008932213
222	0x3beeecfc	0.0072914343
223	0x3de645ea	0.11243804
224	0xbdb9c082	-0.09069921
225	0xbd9682be	-0.07349156
226	0xbd8712ea	-0.065954044
227	0x3d728cb7	0.059216227
228	0x3cb22906	0.021748077
229	0xbd5058dd	-0.050865997
230	0x3d3271bb	0.043565493
231	0x3d479d2a	0.048733868
232	0x3dc6a25b	0.096989356
233	0x3dc948d1	0.09828342
234	0x3d0d50f2	0.034501024
235	0xbd500482	-0.05078555
236	0x3dec5b67	0.11540871
237	0xbcc97fe5	-0.024597118
238	0x3db8c7c3	0.090224765
239	0xbde15364	-0.110022336
240	0x3df78cdb	0.12087413
241	0x3dabdb43	0.0839143
242	0x3c65fbed	0.014037115
243	0xbde44e6a	-0.11147769
244	0x3d6dbeda	0.05804334
245	0xbd930b1a	-0.07179852
246	0xbd848eab	-0.06472524
247	0xbd821b9a	-0.06352921
248	0xbc2cb6aa	-0.010541597
249	0x3d99889f	0.074967615
250	0xbd7d01fa	-0.061769463
251	0xbcd03be6	-0.025419187
252	0xbd4522c0	-0.048128843
253	0x3d997738	0.07493442
254	0x3cfc6fa1	0.030814948
255	0x3bde9ea5	0.0067938142

bias f4 [5]
0	0x3d1cbe13	0.038267206
1	0xbe1478cd	-0.14499207
2	0x3c960392	0.01831225
3	0xbd785a54	-0.06063302
4	0x3ca2b3ba	0.01986109
