Industrial Equipment/mlruns/0/706b5f650fd84325b289537f357730de/artifacts/discriminator_model/data/model.pth (torch, 30142 bytes, 13 tensors)

weight f4 [64, 5]
000000 9c cc 40 3e 92 ea bc 3e d0 80 5b 3e c0 5a c9 3d
       0.18828052 0.36897713 0.21435857 0.09831762
000010 76 6e 99 3e bc b7 a9 3e 6a 8c c7 be 20 af ad be
       0.29967088 0.3314799 -0.38974315 -0.33922672
000020 66 4c 4b be 3c 6b bd bd cd 03 c4 bd e5 a7 40 3e
       -0.19853362 -0.09248969 -0.095710374 0.18814047
000030 bf 79 8a 3d 3d 14 e6 bd 00 c3 e3 3e f4 e2 e5 be
       0.067615025 -0.11234329 0.4448471 -0.44899714
000040 c2 88 c4 3e 26 75 23 be 4a 2f 18 3d c2 9f 46 bd
       0.38385588 -0.15962657 0.037154473 -0.0484922
000050 ee 5c 7c be e0 aa d0 3e 30 48 65 3e 37 dc b6 be
       -0.24644825 0.40755367 0.22390819 -0.35714886
000060 e3 d8 cf 3e 5f a2 3f 3e e0 18 cc be c0 07 81 be
       0.4059516 0.18714283 -0.39862728 -0.25201225
000070 c6 b0 ca be c3 0b 01 3e a6 8f 67 3e 23 7c 45 be
       -0.39587992 0.12602143 0.22613391 -0.19285636
000080 2d d0 a4 be 32 8e 68 bd fd e9 07 3e ea c5 9f be
       -0.32190076 -0.056776233 0.13272853 -0.31205684
000090 8e d2 d1 bd 8f f1 d2 be 9d 8e 67 3d f6 bb c7 3d
       -0.10245238 -0.4119992 0.05653249 0.097526476
0000a0 82 5a ce 3e 5c 0d bf be 8a 38 40 3d 7c 7f 35 bd
       0.40303427 -0.3731488 0.04692892 -0.04431103
0000b0 b6 63 96 3e 7a 43 5e be 54 00 7b be e2 5e b6 3e
       0.29372948 -0.21705428 -0.24511844 0.35619265
0000c0 2e 8f e7 bc e9 c4 70 3d 93 b1 a0 3d 51 81 34 be
       -0.028266516 0.05878154 0.078463696 -0.17627455
0000d0 d2 d0 fd 3d 39 a4 24 3e 46 ec 89 be 35 0d 42 be
       0.12393345 0.16078271 -0.26938075 -0.1895035
0000e0 98 db dd be 7f a3 c5 3e 5b 1a 6d 3e c3 ce b0 be
       -0.433316 0.386013 0.23154585 -0.34532747
0000f0 ed 2a c8 3e 0b 18 ce be ab 93 43 3c 2b aa 71 3e
       0.3909525 -0.40252718 0.011937062 0.2360007
000100 c4 07 4b bd 4f dc dc 3e 0c 0b a1 3e eb 7e 18 3e
       -0.049567953 0.43136832 0.3145374 0.14892165
000110 44 6e 10 be 6d 3f 8b be 70 cb 8f bc 5d 19 ed be
       -0.14104563 -0.27196828 -0.017553061 -0.46308413
000120 ee f1 3c be b8 73 10 be ff 9f a7 3e c6 ef b3 3e
       -0.18451664 -0.14106643 0.32739255 0.3514387
000130 67 1e 31 3d 28 8c 60 3e 35 4d 5e 3d 66 72 98 3d
       0.043241885 0.21928465 0.05427285 0.07443695
000140 82 8f 56 be 80 62 a9 3d 24 31 5d 3e 31 06 aa be
       -0.20953181 0.082707405 0.21600777 -0.3320785
000150 22 61 db bd a7 5a 3f be 50 da a7 be 7b d1 58 bd
       -0.10711886 -0.18686925 -0.32783747 -0.05293415
000160 a0 6f f0 3a db 86 0a bc a6 26 9d be b3 24 f2 bd
       0.0018343814 -0.008455004 -0.3069355 -0.11823406
000170 5b a6 4a be 3b 47 ae 3e 0b f2 3d 3d 59 af 11 be
       -0.19790022 0.3403872 0.04637341 -0.14227046
000180 e3 a0 82 be a0 5b 42 3d cb 5c e9 3e 3b 3f a7 3e
       -0.25513372 0.04745066 0.45578608 0.3266543
000190 f3 e2 60 3e 09 87 ce be f9 0f 95 bd 66 30 51 3e
       0.21961574 -0.403374 -0.07278437 0.20428619
0001a0 3e 63 a7 3e 19 85 ba 3e 65 1f 96 be f4 8f 38 bd
       0.32692903 0.3642967 -0.29320827 -0.04505916
0001b0 ce b0 22 3d bd 8c 9a 3e ed 9b b4 be 50 15 86 3e
       0.039719395 0.301855 -0.35275212 0.26188135
0001c0 23 13 d9 3d 34 26 37 be f0 b2 bc be b1 45 37 be
       0.10599353 -0.17885667 -0.36855268 -0.17897679
0001d0 4b 9a 3a 3e 11 d4 95 3d 29 cc 9a be 33 83 97 3e
       0.1822292 0.07315839 -0.30233887 0.29592285
0001e0 f6 ea c0 3e 81 e7 ec 3e ad 65 b7 3e 5c 81 81 be
       0.3767926 0.46270373 0.3581976 -0.25294006
0001f0 13 c1 9e 3e 21 26 ab 3e bb cd 8d 3e 08 6b 0e 3e
       0.3100668 0.33427528 0.27696022 0.13908017
000200 67 3d c0 3b 93 1a 84 bd 3b 3c aa be a0 22 1f be
       0.0058666947 -0.06450381 -0.33249077 -0.15540552
000210 45 b8 85 be a3 61 ba 3e 59 fc cd 3e fe ba 48 3d
       -0.2611715 0.36402616 0.40231588 0.049006455
000220 48 d3 0f be cd f1 87 be 8b ac c0 3e 0e a8 92 3e
       -0.14045441 -0.26551667 0.3763164 0.2864384
000230 0d 9b 8a bc 1d 0c e4 3e 00 a5 91 3e 91 3f 44 3e
       -0.016919637 0.44540492 0.28446198 0.19164874
000240 7b 69 be 3d ca b6 d1 be af cf b1 be e8 1e 7a be
       0.092974626 -0.4095977 -0.34728763 -0.24425852
000250 bf 93 53 be a1 c6 e8 3d 34 da a5 3e c3 2a 40 be
       -0.2066183 0.113660105 0.32393038 -0.18766312
000260 55 f5 a3 bd de 40 d0 3e 09 e2 e7 be 24 b5 25 3e
       -0.08005778 0.4067449 -0.4528964 0.16182381
000270 8d 12 76 be e6 8a b4 3e 64 7a cd bd ce cc c4 3d
       -0.24030514 0.3526222 -0.1003311 0.09609376
000280 0b 26 16 3d 00 52 b0 3e c9 e5 ae be 4f 77 95 3e
       0.036657374 0.3443756 -0.34159687 0.29192588
000290 97 2f 86 3e 2b 16 ad 3e c9 ed 9c 3c 08 39 e6 be
       0.26208183 0.33805975 0.019156354 -0.44965386
0002a0 5d 1a b2 3d 31 92 aa be cd 3d 8b be ab a9 db bd
       0.08696435 -0.3331466 -0.27195588 -0.10725721
0002b0 15 e6 64 3e b1 12 57 3e c1 f3 fc 3d 83 bc 84 3e
       0.22353394 0.21003224 0.1235118 0.25925073
0002c0 56 13 f9 be 84 5a 23 3e 7b 96 b4 3d f9 77 1c be
       -0.48647565 0.15952498 0.08817764 -0.15280141
0002d0 4b 03 12 be 01 1d c9 bd 65 41 81 3e fe 27 70 3e
       -0.14259069 -0.09819985 0.25245205 0.23452756
0002e0 a6 f7 2e be 1a 60 ab 3d 00 46 c1 3e 44 4d 5e 3d
       -0.17086658 0.08367939 0.37748718 0.054272905
0002f0 a0 e5 6e 3e 17 0e 9e be 8e b3 1f 3e fb 13 e8 be
       0.23329782 -0.30870125 0.15595838 -0.45327744
000300 76 21 32 be 22 5b 8a 3e a1 87 2d be 4c 00 4a be
       -0.17395577 0.27022654 -0.1694627 -0.19726676
000310 24 87 f3 bd 32 1c d4 3e 10 b9 a9 3d 4b 69 d3 3e
       -0.118910104 0.4142776 0.08287251 0.4129127
000320 a1 0f c8 be 0e e4 30 be db 11 25 3d 43 30 d8 bc
       -0.39074424 -0.17274496 0.04030023 -0.0263902
000330 e0 12 c6 3e c7 2d a3 bd 6a f3 f2 bd 18 84 af 3e
       0.38686275 -0.07967716 -0.11862834 0.34280467
000340 6f f8 8a bd 3d 41 c0 3d d7 72 b3 3e 3f 51 88 bd
       -0.06785666 0.09387443 0.35048553 -0.066561215
000350 5d 35 c3 3e 57 5e ef 3c ef a5 b8 bb 9b 75 a8 3e
       0.3812665 0.02921979 -0.005635015 0.32902226
000360 eb f9 3d 3d f7 a1 ac 3e 63 1d 45 3d 1f a0 76 3d
       0.04638092 0.3371732 0.04812373 0.060211297
000370 bd c0 92 3e 3f e3 c8 3e 1e f8 97 3e b9 fd 95 3e
       0.28662673 0.39235875 0.29681486 0.29295138
000380 74 7d b2 3e 8a ad d7 3d b4 07 2b 3d 28 76 a1 3e
       0.34861338 0.10531147 0.041755393 0.3153546
000390 c8 87 95 bd 5a 61 5e 3d 5c 6d 42 be 82 da 92 be
       -0.07301289 0.05429206 -0.1898703 -0.28682333
0003a0 d1 0d c5 3e 7e 13 cc be 5a c5 57 3e 47 6d 8e be
       0.38487104 -0.3985862 0.21071377 -0.27817747
0003b0 c4 b3 03 3f 57 75 23 3e b5 94 2a be 3c 7a 95 3e
       0.51446176 0.1596273 -0.1665829 0.2919482
0003c0 e9 3b 99 3e 8d 68 88 be 19 50 2b bd 70 63 b7 be
       0.2992852 -0.26642266 -0.041824434 -0.35818052
0003d0 98 33 a6 bb a8 05 39 be b1 89 c6 be f8 85 e0 3d
       -0.0050720684 -0.18068564 -0.38776925 0.109630525
0003e0 f8 04 35 3e 33 a1 68 3e b9 33 89 bd ea 6e 0c 3e
       0.17677677 0.22717743 -0.066993184 0.13714185
0003f0 a6 17 ac 3e 72 5b cf be 77 77 6a be ce cd c0 3d
       0.33611792 -0.40499455 -0.22897135 0.09414254

bias f4 [64]
000000 75 43 62 3e 79 16 9a bd 41 68 64 be 71 34 34 3e
       0.22096045 -0.075238176 -0.22305395 0.1759813
000010 4e 6c cf 3e 9f 68 8f 3e 82 b3 78 be 27 fd 7e be
       0.40512317 0.28009507 -0.24287227 -0.24901257
000020 6c 83 b5 be b1 79 da 3d f8 b3 8f 3e 83 df b3 3c
       -0.3545183 0.10667742 0.28066993 0.021957165
000030 48 72 2a 3e 6b 21 df bd 58 98 37 be 83 ee 67 3d
       0.16645157 -0.10895046 -0.17929208 0.056623947
000040 b4 d0 88 3e e7 15 ba 3e b4 82 aa 3c 5f 57 72 3e
       0.26721728 0.36344835 0.020814277 0.23666142
000050 dc e4 c5 3d 7e e7 1b be 10 70 99 bc 4d cd b6 bd
       0.09662792 -0.15225026 -0.018730193 -0.08925877
000060 f6 92 c5 be ff 2f 99 3d 9d f1 b0 3e 0d e5 9d be
       -0.38588685 0.07479858 0.34559336 -0.30838814
000070 e4 25 bb bb e6 25 39 bd 5b 47 d8 be 6f fc f6 bd
       -0.005711304 -0.04520216 -0.4224194 -0.12059867
000080 a5 0f 62 3e 38 53 e4 be 4c 4e cc 3e 91 3c 19 be
       0.2207628 -0.4459474 0.39903486 -0.1496451
000090 4b 9f f2 bd 30 ea fc 3d 95 2a db be 24 40 81 be
       -0.11846789 0.12349355 -0.42805925 -0.25244248
0000a0 1a d2 43 bd c9 e7 7e bd 1c 96 4d 3e 50 bf c3 bd
       -0.04780779 -0.062232766 0.20076793 -0.09557974
0000b0 92 c4 12 3e 37 ff b6 be 2e e9 f3 bd f9 5c 95 3e
       0.14332798 -0.35741588 -0.1190971 0.29172495
0000c0 f8 44 83 3e 7c 73 57 3d 38 01 b5 3c 80 a7 c7 3e
       0.25638556 0.05260037 0.022095308 0.3899498
0000d0 3c 20 50 3e f3 7f cc 3e 6c d4 dc 3e fc 33 2c 3e
       0.20324796 0.39941368 0.43130815 0.16816705
0000e0 de c5 dd be e3 fc 86 3e ec a5 25 be c1 70 68 3e
       -0.43315023 0.26364812 -0.16176575 0.22699262
0000f0 ba 25 aa bd 27 31 d3 3e a5 92 88 bd d6 53 23 be
       -0.08307977 0.41248438 -0.06668595 -0.1594995

weight f4 [64]
000000 de 02 80 3f 66 ba 7a 3f 34 d1 7c 3f 6e b7 7e 3f
       1.0000875 0.9794067 0.9875672 0.9949864
000010 e5 75 7f 3f ba cd 81 3f e4 c7 76 3f f7 ab 80 3f
       0.9978927 1.0140908 0.9639876 1.005248
000020 23 98 82 3f 9a da 80 3f 7c cd 7f 3f b6 0b 84 3f
       1.0202678 1.0066712 0.9992292 1.0316074
000030 a2 2d 7c 3f 25 21 7e 3f 97 47 7d 3f 9c ea 85 3f
       0.9850713 0.99269325 0.9893736 1.0462222
000040 5e fb 81 3f ed 20 83 3f b3 3c 7c 3f 0c f8 7f 3f
       1.0154836 1.0244423 0.9853012 0.99987864
000050 50 cc 7f 3f b7 f2 85 3f c0 12 7b 3f c6 35 78 3f
       0.9992113 1.0464696 0.98075485 0.9695705
000060 d1 06 7f 3f 2a ac 81 3f b7 13 80 3f d0 74 83 3f
       0.99619776 1.0130665 1.0006016 1.0270023
000070 88 60 7f 3f 65 a4 7b 3f 35 77 84 3f a2 fb 83 3f
       0.9975667 0.9829772 1.0348879 1.0311167
000080 04 cb 82 3f 94 75 7a 3f 63 c2 7c 3f f9 66 81 3f
       1.0218205 0.9783566 0.9873411 1.010955
000090 4d 4d 83 3f 91 d5 85 3f 55 f5 82 3f 64 3d 81 3f
       1.0257965 1.04558 1.0231119 1.009686
0000a0 23 18 76 3f e0 b2 81 3f b6 20 82 3f bd 8c 81 3f
       0.9613058 1.0132713 1.0166233 1.0121075
0000b0 f6 85 7d 3f 96 22 7f 3f 51 b4 7e 3f 21 3d 80 3f
       0.99032533 0.9966215 0.9949389 1.0018655
0000c0 14 67 7b 3f 9b 33 7e 3f 60 51 7d 3f 0f a9 7d 3f
       0.9820416 0.99297494 0.98952293 0.9908609
0000d0 a6 3f 81 3f 5c 1d 79 3f 3c df 79 3f d3 17 76 3f
       1.0097549 0.97310424 0.97606254 0.961301
0000e0 6f 60 81 3f 88 dd 80 3f 76 be 7b 3f 69 52 7b 3f
       1.0107554 1.0067606 0.98337495 0.9817262
0000f0 20 4b 7b 3f ad 80 7c 3f 76 4c 7c 3f aa 5f 7e 3f
       0.98161507 0.98633844 0.9855417 0.9936472

bias f4 [64]
000000 cf 96 6c 3c 7f 61 b2 3b af d9 98 bc e9 0a f6 3c
       0.014440252 0.0054437513 -0.018658487 0.0300345
000010 a6 13 77 3c 7f be 36 bc c0 ef cc bc 5b 4f 92 bc
       0.015080368 -0.011153816 -0.025016665 -0.017860105
000020 10 1b e6 39 01 b9 03 bd b3 95 f1 bc 2a 6c 4d 3d
       0.00043889182 -0.032158855 -0.029490327 0.05015198
000030 e6 f3 b9 3c 53 43 92 bc a3 72 e7 bc fe 1c 1c 3c
       0.022699308 -0.017854368 -0.028252905 0.009528397
000040 59 62 a3 3b e6 ff 9c bb fc 87 0b bd cc 7d 5b bb
       0.004986089 -0.0047912477 -0.03406523 -0.0033491729
000050 5a 49 2f bc 3f f4 08 bc fb 95 19 bd f9 cf fd bc
       -0.010698641 -0.008359014 -0.03749655 -0.030982958
000060 28 6d 49 bc 79 a2 1b bc 46 95 dd bc 2d 13 9a 3b
       -0.012294091 -0.009499186 -0.027048718 0.004701993
000070 70 b3 07 bd 2c e2 3a bc 20 d4 de 3c 64 91 7f 3c
       -0.03313011 -0.011406463 0.027200758 0.015598629
000080 6f b9 a3 3b e5 a3 08 bc 23 d2 62 bc ce 5a bd 3c
       0.0049964706 -0.008339857 -0.013844046 0.023114588
000090 d6 63 94 3a 41 9b ee ba f4 39 9c 3b 75 38 ea 3b
       0.0011321257 -0.0018204228 0.0047676507 0.0071478435
0000a0 98 64 3e bd bc d9 b7 bc cb e5 4a 3c 74 0b 88 bc
       -0.046482652 -0.022442691 0.0123838885 -0.016607024
0000b0 48 9c f8 bc bb 15 44 bc 46 6e 9e bc b7 09 5c 3b
       -0.030347958 -0.011968072 -0.019339692 0.0033575126
0000c0 85 80 09 bc fb da ce bc 9f eb 81 bc 7b 0d 39 bc
       -0.008392458 -0.025250902 -0.015859423 -0.011294718
0000d0 24 04 89 3c 47 fe fa bc e1 2e 6a bb 67 13 a7 bb
       0.016725607 -0.030638827 -0.0035733508 -0.0050987485
0000e0 55 68 34 bb e9 07 17 bd 63 c0 bd bc ee 74 92 bc
       -0.0027528007 -0.036872778 -0.023163026 -0.017878022
0000f0 19 96 38 bc 2b f1 99 bc 94 23 d1 bc 47 3e 15 bc
       -0.011266255 -0.018791756 -0.02552966 -0.009109086

running_mean f4 [64]
000000 8e e0 50 3e 4b 77 81 bd cf a1 40 be cf 01 49 3e
       0.20398161 -0.063215815 -0.18811725 0.19629596
000010 6a dd d5 3e d9 c5 a0 3e 6d 55 56 be 03 4e 35 be
       0.41770488 0.31400946 -0.20931025 -0.1770554
000020 e1 f8 ac be 35 59 e1 3d 1b 4f 7f 3e 56 7e c6 bb
       -0.3378363 0.11003343 0.2493252 -0.006057541
000030 9d 27 22 3e 4d 4e 4a be cf 99 dd bd f4 66 a9 3c
       0.15835424 -0.19756432 -0.10820352 0.020678975
000040 b1 22 78 3e fe 0c cb 3e 35 9b 9a 3d c7 51 98 3e
       0.24231984 0.3965835 0.07549135 0.2974989
000050 4a eb 14 3e 4c ff 01 be 5c 71 6c bd 46 5e 8a bd
       0.1454288 -0.12695044 -0.057725295 -0.067562625
000060 40 46 e0 be f1 bd a0 3c 39 6a e4 3e de 15 7c be
       -0.43803596 0.019621821 0.4461229 -0.24617717
000070 42 b7 1a bd 6b e4 eb 3c c1 4b ef be f5 2a 10 be
       -0.037772425 0.028795442 -0.46737483 -0.14078887
000080 41 d0 85 3e 94 4a ee be 49 ab d7 3e 07 11 2e be
       0.26135448 -0.46541274 0.42122868 -0.16998683
000090 1e 10 0d be 5e 8a 88 3d 06 c5 d3 be 08 af 64 be
       -0.1377568 0.066670164 -0.41361254 -0.22332394
0000a0 43 73 c2 3c e4 f9 90 bd 04 e8 17 3e 9b e6 10 be
       0.023736602 -0.07078913 0.148346 -0.14150469
0000b0 6b 23 f6 3d f8 0b c7 be 67 91 df bd 48 b2 98 3e
       0.12018474 -0.3887632 -0.10916405 0.29823518
0000c0 6f 88 7b 3e 5f 7c d1 3d be ab 20 bd b9 77 a5 3e
       0.24563764 0.102288 -0.039226286 0.32317904
0000d0 96 6c 74 3e e9 3a bc 3e 15 db d1 3e 6c 14 f3 3d
       0.23869547 0.36763695 0.4098746 0.118691295
0000e0 09 71 e7 be c0 39 76 3e 5d ef 67 be cc ff 19 3e
       -0.45203426 0.24045467 -0.22649904 0.15038985
0000f0 a5 7d 12 bd d1 f4 c5 3e 19 a4 c8 bd f3 5c 20 be
       -0.035764355 0.38663343 -0.09796924 -0.15660457

running_var f4 [64]
000000 28 07 e4 3d b5 d9 19 3e a9 06 b5 3d 7b c0 08 3e
       0.111341774 0.15024455 0.08839161 0.13354675
000010 a3 19 47 3e 41 1d 24 3e 4a eb 8b 3d 5b 1b cc 3d
       0.19443373 0.16026784 0.06831987 0.09966155
000020 81 1a 0c 3e a4 fb ac 3d 05 2e 4b 3d 7e ac 30 3e
       0.13681985 0.08446434 0.049604435 0.172533
000030 78 16 02 3e 74 df 0e 3e 0f ee 09 3e dc 01 87 3d
       0.12703884 0.13952428 0.13469718 0.065921515
000040 f3 07 90 3d c1 37 50 3d 21 45 b8 3d f0 4f 10 3e
       0.07032766 0.05083442 0.0899756 0.14092994
000050 fb 3d f6 3d 7f 5e d5 3d 08 f9 f2 3d 5e b6 b3 3d
       0.120235406 0.10418414 0.11863905 0.08775018
000060 ea 83 5f 3e 7d 8b 9a 3d aa 3e 26 3e 08 11 c7 3d
       0.21827665 0.075461365 0.16234842 0.09720045
000070 9a 9d f2 3d 55 41 1a 3e b5 59 3d 3e 3b c5 ab 3d
       0.11846466 0.15063985 0.18491252 0.08387228
000080 a1 0b 01 3e 98 88 24 3e 40 f7 90 3d 17 b9 fa 3d
       0.12602092 0.16067731 0.07078409 0.12242334
000090 26 d2 72 3d 5a f8 eb 3d 90 dd f4 3d 83 a9 1d 3e
       0.059282444 0.11521979 0.11956322 0.15396695
0000a0 55 f2 fb 3d 52 fb 60 3d e7 93 c9 3d a5 03 ac 3d
       0.123020805 0.054927178 0.09842663 0.08399133
0000b0 bf 1b 47 3e 72 a8 2d 3d 5a 74 35 3e 58 19 25 3e
       0.19444178 0.04239697 0.17720166 0.16122949
0000c0 df e4 da 3d 4e 12 cd 3d 1c 6c de 3d 70 04 b1 3d
       0.10688185 0.10013257 0.10860464 0.086434245
0000d0 0a b8 b5 3d 94 ed e1 3d c7 a1 2f 3d b3 b0 da 3d
       0.08872993 0.110316426 0.042878892 0.10678234
0000e0 e9 28 a3 3d ba 01 05 3e bc 37 fa 3d 99 94 50 3e
       0.07966787 0.1298894 0.12217662 0.20369186
0000f0 6f b1 70 3d c9 d3 0a 3e c6 6c 0b 3e 6e 0f 23 3e
       0.058762964 0.13557352 0.13615713 0.15923855

weight f4 [64, 64]
000000 04 a5 c5 bd ac e0 42 3d 1d 2a b4 bd 0f 18 29 3e
       -0.09650615 0.047577545 -0.08797095 0.16513084
000010 f1 d5 b7 bd c8 83 1f 3d 51 9c a3 bd 83 59 67 3d
       -0.08976353 0.038944036 -0.07988799 0.05648185
000020 31 b0 51 bd 42 2b 2b 3b 12 b7 63 3c c4 84 8c bd
       -0.05119342 0.0026118313 0.013898628 -0.068612605
000030 78 bb 86 3d ba 1f 8e bc 3b ed ee ba 22 7a e6 3d
       0.065787256 -0.017349113 -0.0018228659 0.11253764
000040 f0 f9 ac 3d f0 ab fb 3d 79 ad c8 bd 30 00 b1 3c
       0.08446109 0.12288654 -0.09798712 0.021606535
000050 3a 4d e6 3d cc 07 7b 3d 1c 5e 64 bd 2f b5 9f 3d
       0.112451985 0.061286733 -0.055753812 0.0779823
000060 9b c8 ab 3d 40 64 ce 3b 19 37 c3 bc 24 7c 97 bd
       0.08387872 0.006298572 -0.023829984 -0.07396725
000070 3c 2d 50 3d 1a 0d 90 bd e0 71 33 3d 0e 63 e3 3d
       0.05082439 -0.07033749 0.04380977 0.111028776
000080 ca e2 71 3c c7 9b a4 bd e0 7e e9 3b 5e 57 ed bd
       0.014763543 -0.08037525 0.0071257204 -0.115889296
000090 eb 00 db 3c 92 00 53 bd 37 cc 85 bb 3d c0 53 3d
       0.026733836 -0.051514216 -0.004083182 0.051697005
0000a0 f2 cc af 3d 73 ba b6 bd 7a 99 91 bd df 36 fa b9
       0.08584012 -0.08922281 -0.071093515 -0.00047724598
0000b0 6c 28 f5 bd c1 6e 14 3c 3f aa f5 3d 64 7c a2 3d
       -0.119706005 0.009059609 0.119953625 0.07933882
0000c0 15 79 35 3d 5a 96 90 3d 36 94 9a bc 98 8f 78 3c
       0.044304926 0.07059927 -0.0188695 0.015170954
0000d0 47 0a 95 3b e3 9a 7b 3b 9d fc 60 bd bf c9 e1 3d
       0.0045483443 0.003839188 -0.05492841 0.11024808
0000e0 0d b8 71 bc 46 36 a1 3d ab 21 2d be bc 3d a2 bd
       -0.014753354 0.0787168 -0.16907375 -0.07921931
0000f0 e0 a0 a3 3d 15 6b 26 bc 91 a0 b8 3d 02 6e ac 3d
       0.07989669 -0.010157366 0.090150006 0.0841942
000100 c1 d2 c2 3d 0b cd e2 bd fe 21 06 3d 74 1a 24 3d
       0.09512854 -0.11074265 0.03274726 0.04006429
000110 ff bc 47 3d 40 96 bf 3b fd 95 10 bd f0 5b 10 bd
       0.048764225 0.0058467686 -0.03529929 -0.03524393
000120 03 64 2f bd 28 11 95 bd be f9 c1 3d a4 94 b8 bd
       -0.042819988 -0.07278663 0.09471463 -0.09012726
000130 de aa 59 bd d7 33 a3 3d 83 61 e8 bd 1e df 84 3d
       -0.053141467 0.07968872 -0.11346724 0.06487869
000140 bc 85 66 bd 52 a2 9c bd 4d 68 fc ba b5 70 ed bd
       -0.056279883 -0.07648148 -0.0019257158 -0.11593763
000150 9c 3d f1 bc bb 51 ee bd a5 59 b1 3c e3 02 ac bc
       -0.029448323 -0.116366826 0.021649191 -0.02099747
000160 c0 24 a8 bd 53 6b b3 3d 62 f1 ac bd 75 2d a0 bc
       -0.082101345 0.08760705 -0.084444776 -0.019552926
000170 49 c2 46 bd ec 36 26 bd f0 71 a2 3d 92 07 90 bd
       -0.04852513 -0.04057972 0.07931888 -0.07032694
000180 d5 3d 0b 3e ca 36 2b 3b 6e 44 58 bd 95 ba 54 3c
       0.13597806 0.0026125186 -0.052799635 0.012983938
000190 49 f4 e0 3d 71 2b 42 bd cf 25 04 be 57 58 96 bd
       0.10984094 -0.04740471 -0.12905048 -0.07341068
0001a0 63 d7 63 3d 11 a0 70 3d c3 92 c8 bd 91 e7 a6 3d
       0.05562533 0.0587464 -0.097936176 0.081496365
0001b0 ab 15 c2 bc 14 04 3e bd e6 82 44 3d 1a ba 23 3d
       -0.023691973 -0.046390608 0.047976397 0.039972402
0001c0 d4 0a 88 bc 26 94 b2 bd 07 ab 13 bd 82 38 9a 3d
       -0.016606726 -0.08719663 -0.036051776 0.07530309
0001d0 fb ae e9 3c e1 5a a5 ba 95 31 b5 3d 37 51 c5 bd
       0.02852582 -0.0012615585 0.08847348 -0.09634631
0001e0 4e ce 8a bc 87 ab 74 bd 2f c6 ca bd 65 70 eb 3d
       -0.016944077 -0.059733894 -0.09901082 0.11496047
0001f0 b4 27 84 3d 0c 52 d8 bd 7c d7 8f 3d 61 30 fc 3d
       0.06452885 -0.10562524 0.07023522 0.12313915
000200 52 af 09 3d fb 14 87 bd 5a cc a5 bd b7 c9 ae 3d
       0.033614464 -0.065957986 -0.080956176 0.08534568
000210 dd 30 04 bd 78 a8 04 be 14 c4 c1 3d 67 99 16 bd
       -0.032273162 -0.1295489 0.09461227 -0.03676739
000220 85 0d a5 3d a9 66 48 bd 41 0c 14 be b8 0d 75 bc
       0.08059219 -0.04892603 -0.144578 -0.014956884
000230 72 3e 13 be c0 2e e8 3d 09 4f cc 3d fe 26 49 3b
       -0.1437929 0.11337042 0.09976012 0.0030693407
000240 8d 99 43 3c fc 11 cf bd 98 42 8a 3d fc 52 f0 3c
       0.011938465 -0.10110852 0.06750983 0.029336445
000250 df c2 b5 bc bd 3d 80 3d 8f 3d 42 bd 16 1a c6 3d
       -0.022187648 0.06261776 -0.047421988 0.09672944
000260 d6 77 b7 3d 6e 04 90 3d bd a8 24 3c eb fc 91 3d
       0.08958404 0.07032095 0.010049996 0.071283184
000270 cc 72 8d bd e0 c2 91 3d da 6f 89 bd 75 60 2c bd
       -0.069066614 0.071172476 -0.06710787 -0.042084176
000280 3e 55 af 3d 12 8c 82 bd 9f 10 94 3d bc a5 80 bd
       0.085611805 -0.063743725 0.07229733 -0.06281611
000290 af d3 8a bd 1c 9b b6 3d 6f ea ec bd 17 32 55 3d
       -0.06778657 0.089163035 -0.11568152 0.052049723
0002a0 ef 1c 86 3c 6a b7 88 3c 0a 31 13 bd e4 05 8f bc
       0.016371218 0.016689021 -0.03593544 -0.017458864
0002b0 da cb a5 3c 43 e2 4a ba 9e da 8d bc 72 a3 ab 3d
       0.020238806 -0.0007739404 -0.017316159 0.08380784
0002c0 cd 7f 84 bd dc 01 df bd 5c 01 13 3e c9 a2 89 bb
       -0.064696886 -0.108890265 0.14355987 -0.0042003137
0002d0 d1 5f e3 3d f6 cc f7 bd fe 42 7e bd ef c6 e1 bd
       0.1110226 -0.1209964 -0.062075607 -0.11024272
0002e0 2c 15 11 bd d6 55 12 3e dd b4 f7 3c 01 55 c1 3d
       -0.03542058 0.14290556 0.03023761 0.09440041
0002f0 3d 18 8f bd 9b 2a 93 bd c5 c6 1d bc 2a ce 37 bd
       -0.06987045 -0.07185861 -0.00962991 -0.044874348
000300 bb 28 2c bb 53 09 b1 3c 67 21 bd 3d 6f b2 f9 3d
       -0.0026269394 0.021610891 0.092348866 0.12192237
000310 eb ba 8e 3c c4 fc 6c bd 10 1b bb bc 8a 9b 96 bc
       0.017423114 -0.057858244 -0.022840053 -0.018384714
000320 02 5a 80 bd c8 70 b4 bd 97 3c 8d bd 91 66 c6 bd
       -0.06267168 -0.08810574 -0.06896322 -0.09687532
000330 46 ce 57 3d 10 ba 7a bd 16 01 1d 3c 70 5e 05 3e
       0.052686952 -0.0612126 0.009582778 0.13024306
000340 2a d1 16 3d 23 c3 92 3d 75 8e 80 3d e8 5c 40 bd
       0.03682057 0.071661256 0.062771715 -0.046963602
000350 94 3b 3d 3d b5 05 b0 bd e9 20 34 3d fb 26 5f 3d
       0.046199396 -0.085948385 0.043976698 0.054480534
000360 ba 64 00 3e e3 f2 62 3d 83 8c 09 bd ba 65 78 3d
       0.12538424 0.055407416 -0.033581268 0.06064389
000370 06 9d 41 3c 5a 1b 68 3c 9d 54 dc 3c b9 41 7c 3d
       0.011817222 0.014166677 0.026895816 0.061586116
000380 b1 3f 89 3d a5 7e 4a 3d 27 05 57 bd 52 11 01 be
       0.06701601 0.049437184 -0.052495148 -0.12604263
000390 f6 7e a2 3b 0b 45 c3 3d c1 0c 46 3c c3 dd e5 bd
       0.0049589826 0.09534653 0.012088002 -0.11223938
0003a0 0c 4a d3 bd 67 dc da bd 87 2b 01 3e 74 8c f0 bc
       -0.10316858 -0.1068657 0.1261426 -0.029363848
0003b0 65 f7 04 bd a4 31 04 3e d1 56 80 bd 4f 44 c2 3d
       -0.032462496 0.12909561 -0.06266559 0.09485685
0003c0 a6 0f b0 3d 33 7a 1e be ec d2 ec 3c 76 31 ce bd
       0.08596735 -0.15476303 0.02890917 -0.10068028
0003d0 3b bb c0 bd 97 9d 4e 3c 21 8a 50 bd 5c e3 40 bd
       -0.094107114 0.0126108145 -0.05091298 -0.047091827
0003e0 9a 41 18 be 46 86 8e 3d ff d1 38 bd 14 76 b7 bc
       -0.14868775 0.069592044 -0.045122143 -0.022395171
0003f0 a6 94 bd bd f9 c1 16 be 2f b1 0c 3d 63 b0 b9 bd
       -0.09256868 -0.14722432 0.034348663 -0.09066846

bias f4 [64]
000000 4c dd 3c 3d 7f 58 74 bd 48 b6 35 3d 2c a7 11 3d
       0.046109483 -0.05965471 0.04436329 0.03555982
000010 3d 02 e2 3d 5b 67 9e 3d 9d ef 3b bd ac 77 17 3d
       0.11035583 0.07734557 -0.04588281 0.036979362
000020 65 81 0c bc 76 b9 98 bd fc 05 e1 3d d3 a6 a8 3d
       -0.008575772 -0.07457249 0.109874696 0.08234944
000030 f2 7d e7 bd 28 90 b9 bc 7f 2c 6b bd 7a f1 ff bd
       -0.11303319 -0.022651747 -0.05741548 -0.1249723
000040 11 08 1b 3b b1 3d e2 3d c0 2b da 3d 69 86 7f bd
       0.002365593 0.11046923 0.10652876 -0.062384043
000050 25 e6 91 3d 9a 3c f1 3d e8 20 8d 3d 53 99 87 bd
       0.07123975 0.11779137 0.06891042 -0.06621041
000060 e8 2e 8b bd 04 a6 db 3d 28 12 40 bd 5b 4e d7 bd
       -0.06796056 0.10725024 -0.046892315 -0.10512992
000070 ee 0d 9a bd ef 41 e7 3d 4e 5c 6d bd 81 84 9b 3d
       -0.07522188 0.11291873 -0.057949357 0.075936325
000080 ea 21 fb 3d c1 a6 eb 3d 96 74 d7 bd 37 3e ef bd
       0.12262328 0.11506415 -0.10520284 -0.116817884
000090 6a 21 f7 3d 20 0d 5f 3c ec 9b e9 3c 6b 33 dc 3d
       0.1206692 0.013613969 0.028516732 0.10751995
0000a0 81 b1 77 3d 6d ad e4 3d b5 c2 17 3d 53 8c a8 bb
       0.060472015 0.11165891 0.03705092 -0.005143681
0000b0 c7 96 86 3c 68 6a 3d 3d b6 8a cd 3d 79 af a5 bd
       0.016429318 0.046244055 0.10036223 -0.080901094
0000c0 c3 1f 5c bd 7e 38 c0 bd 10 eb b0 3a 53 f1 e0 bd
       -0.053741228 -0.09385775 0.0013497788 -0.10983529
0000d0 fa 7f b1 3d 37 13 65 3d ab d3 a3 bd 55 a3 e1 3d
       0.08666988 0.055926528 -0.07999357 0.11017481
0000e0 d0 a9 1e 3d 4b 74 a8 3d 94 4b a1 3d 03 bf d9 bd
       0.038736165 0.08225306 0.078757435 -0.10632136
0000f0 91 bd ef 3c 2e f6 38 3d 4c 5f ba 3c 7e a0 96 bd
       0.029265197 0.04515665 0.02275052 -0.0735483

weight f4 [64]
000000 9d ae 7e 3f 0e 8f 6e 3f d5 7f 7f 3f 07 42 78 3f
       0.9948519 0.93187034 0.9980443 0.9697575
000010 15 76 74 3f 46 07 6c 3f 5e 83 74 3f ee a4 72 3f
       0.9549268 0.921986 0.9551295 0.9478291
000020 58 98 7d 3f 44 36 77 3f 1f 4e 6d 3f 40 ce 71 3f
       0.99060583 0.9656718 0.9269733 0.9445534
000030 b0 28 6d 3f 36 82 73 3f d7 7b 6e 3f 45 b6 73 3f
       0.9264021 0.9512056 0.93157715 0.95199996
000040 ac 01 81 3f 96 cf 6f 3f 62 61 70 3f ae 38 70 3f
       1.0078635 0.93676126 0.93898594 0.93836486
000050 47 1b 69 3f 1d 68 6d 3f d8 8e 73 3f 87 49 80 3f
       0.91057247 0.9273699 0.9513984 1.0022439
000060 4e df 77 3f 8b cd 7a 3f 44 41 74 3f a6 c9 6d 3f
       0.9682511 0.97969884 0.9541209 0.92885816
000070 7a 3c 7a 3f ac da 79 3f 99 94 80 3f 4f 0f 75 3f
       0.9774853 0.9759929 1.0045348 0.95726484
000080 f2 50 68 3f 53 0e 7d 3f ab 26 80 3f 3a 7e 6b 3f
       0.9074851 0.9884998 1.00118 0.9198948
000090 aa 46 76 3f 8c 10 7d 3f 42 82 78 3f c3 c8 78 3f
       0.96201575 0.98853374 0.9707376 0.9718134
0000a0 92 8b 6c 3f d8 e2 7a 3f 6a b6 72 3f 32 40 6e 3f
       0.9240047 0.98002386 0.9480959 0.93066704
0000b0 67 4c 74 3f 4c 3c 6e 3f 5c 55 6a 3f d9 8e 7b 3f
       0.9542908 0.93060756 0.915365 0.98264843
0000c0 5b 22 7b 3f 9f df 7b 3f d0 52 7b 3f 0c eb 77 3f
       0.980993 0.98388094 0.98173237 0.9684303
0000d0 13 cd 71 3f 25 79 7a 3f e9 41 70 3f 21 e6 6b 3f
       0.94453543 0.978411 0.9385057 0.92148024
0000e0 3e 50 71 3f a3 21 6f 3f 86 6a 71 3f 5e a4 71 3f
       0.94263065 0.934107 0.94303167 0.9439143
0000f0 3a cf 6a 3f 9d df 70 3f a2 07 6c 3f 8f 9d 7e 3f
       0.9172245 0.94091207 0.92199147 0.99459165

bias f4 [64]
000000 7c 0e 95 bb 9d 2a c5 bd fc f4 90 bc 3f ba 10 bd
       -0.004548846 -0.096272685 -0.017694943 -0.035333868
000010 9d c4 6b bd b6 66 4d bd 38 d2 79 bd e0 bd de bc
       -0.057560552 -0.05014678 -0.060991496 -0.027190149
000020 85 dd 95 3b 9c 9d 0c bd b7 33 a5 bd 0d 63 a3 bd
       0.0045735263 -0.034329996 -0.080665044 -0.07977877
000030 6f a4 c2 bc 68 95 85 bd 99 0f 9c 3a 72 7f 92 bd
       -0.023760049 -0.065226376 0.0011906504 -0.071532145
000040 bd f1 72 bd 46 00 e6 bb ab 4d b0 bc 76 25 a3 b7
       -0.05931257 -0.0070190756 -0.02152141 -1.9448558e-05
000050 f6 6f 26 bd 15 b2 26 bd 2c 54 25 bd bf 08 07 3c
       -0.040634118 -0.040697176 -0.040363476 0.008241831
000060 41 c4 e1 bc 34 bb 81 3c f7 3b 36 bd 46 69 ba bc
       -0.027559401 0.015836336 -0.04449078 -0.022755276
000070 23 0d 45 bd fb 91 2d bd 1a e5 f4 bc ec 7e 57 bd
       -0.04810823 -0.042375546 -0.0298944 -0.052611277
000080 4d d7 75 bd 19 74 b4 bc 27 a5 ad bb e3 5b 51 bd
       -0.06001978 -0.022028016 -0.0052992287 -0.05111302
000090 ea 32 30 bd 4a 3e 30 bd 67 27 16 3c 97 c5 71 bd
       -0.043017305 -0.043028153 0.009164668 -0.059026327
0000a0 e4 41 0c bd 9f c0 2d bd a2 9d 01 bd b5 61 7a bd
       -0.034242526 -0.042420026 -0.03164447 -0.061128337
0000b0 16 53 19 bd 1e 00 7e 3c a0 d2 81 bd 68 06 a2 bc
       -0.037432753 0.015502958 -0.06339002 -0.019778445
0000c0 02 ab 59 bd 7c 93 3f bd 98 52 74 bd a0 9e b6 bc
       -0.0531416 -0.04677151 -0.05964908 -0.022292435
0000d0 a4 e6 84 bd ab 23 94 bc b0 49 5c bd 6d 3f b0 bd
       -0.06489304 -0.018083414 -0.05378121 -0.086058475
0000e0 cd 62 f0 bc cc 9c 48 bd e7 fd 52 bd 9c 26 8f 3c
       -0.029343987 -0.04897766 -0.05151167 0.017474465
0000f0 7f ca 05 bd e2 ee 82 bd c6 8e 7b bd 33 5e 98 bd
       -0.03266382 -0.063932195 -0.061415456 -0.07439842

running_mean f4 [64]
000000 04 51 8c 3e d5 4e 91 be fc 7d 62 3b 65 67 9d bd
       0.2740556 -0.28380457 0.0034559956 -0.076857366
000010 9a 2b ec 3d fe ac 60 3d 49 4b 89 be 2c 30 d0 bc
       0.11531754 0.05485248 -0.2681525 -0.025413595
000020 2e 0e 03 3d df 93 dd be d0 a8 86 be 1f 18 c6 3e
       0.031995945 -0.4327688 -0.2630067 0.38690278
000030 82 47 a1 3d 3c 26 07 bf 5b 09 24 bf fd 55 a0 be
       0.07874967 -0.52792716 -0.64076775 -0.31315604
000040 2b 5b fe be 9d 6a 51 3e 6e da 8b be d4 5d 8c be
       -0.4967893 0.20450826 -0.27315086 -0.27415335
000050 f9 f9 e9 3c 73 aa 33 3e da 62 33 3e 0c 25 bf be
       0.028561579 0.1754549 0.17518178 -0.37332952
000060 63 e0 8d be d5 5a 8c 3e 29 a1 c3 3e ac ae de bd
       -0.27710256 0.2741305 0.38208893 -0.1087316
000070 2d 17 69 be b0 d0 4a 3e 09 23 a2 be 75 12 64 3e
       -0.22762747 0.1980617 -0.31667355 0.22272666
000080 d8 d2 67 be df eb 19 3f 0c 10 00 3c 42 5e aa be
       -0.22639024 0.60125536 0.007816326 -0.33275038
000090 0c 10 07 3d 37 b1 66 3e ec d6 61 3c 6e 99 2b be
       0.032974288 0.2252854 0.0137841515 -0.16757748
0000a0 98 73 c8 bd 3c 81 ad 3e b3 d5 5a 3d 81 46 d3 3e
       -0.09787673 0.3388766 0.053426456 0.41264728
0000b0 72 85 cf bc 44 a6 cb 3d 70 96 0a bf 96 01 ca be
       -0.025332186 0.09943822 -0.541358 -0.39454335
0000c0 25 df d6 be cb 2a 62 be 09 41 23 be 45 dd b3 bc
       -0.4196712 -0.22086637 -0.15942778 -0.021956095
0000d0 73 a6 8e 3b 0a 55 97 bd e8 53 3c bf 6b 3c 01 3e
       0.0043533384 -0.07389267 -0.7356553 0.12620704
0000e0 5e f0 46 be 78 4f 9d 3e ad 27 65 be 94 86 22 be
       -0.1942763 0.30724692 -0.22378416 -0.1587165
0000f0 25 78 bf be 4f 8a ed be 49 70 26 3b 35 a3 86 be
       -0.3739635 -0.46394584 0.0025396517 -0.26296392

running_var f4 [64]
000000 b5 bb 2b 3e d5 b2 a3 3e 81 b4 b7 3e 67 e9 9e 3e
       0.16770823 0.31972376 0.358799 0.31037447
000010 0f aa d1 3e 8d 74 9e 3e 31 af 93 3e f2 c5 7e 3e
       0.40950057 0.30948296 0.28844598 0.24880198
000020 21 69 90 3e 32 a9 00 3f 46 35 90 3e 03 a6 7f 3e
       0.28205207 0.5025817 0.28165644 0.24965672
000030 aa 0d 85 3e 73 d3 8f 3e 9e 9e 91 3e f3 00 db 3e
       0.25986987 0.2809101 0.28441328 0.42774162
000040 7d 96 71 3e e6 5f f9 3d 3e 7f 4d 3e 54 d2 b2 3e
       0.23592563 0.12176494 0.2006807 0.34926093
000050 aa 9c a1 3e 8e 1a 52 3e 35 3d 81 3e 3c 1c 4b 3e
       0.31564838 0.20517942 0.2524201 0.1983499
000060 0f 69 92 3e b9 bf 2d 3e 32 ee 53 3e e3 3d 79 3e
       0.28595778 0.16967668 0.20696333 0.24340014
000070 0e 29 6f 3e e2 4c b3 3e c3 91 2a 3e aa 13 77 3e
       0.23355505 0.35019594 0.16657166 0.24128595
000080 97 cb 90 3e 9d 31 22 3e be 4a 36 3e 97 3c b6 3e
       0.28280327 0.15839238 0.1780195 0.355931
000090 8c ce 15 3e 51 1d 5e 3e a5 9c 2e 3e 76 5f 6b 3e
       0.14629573 0.21690871 0.17051943 0.22985634
0000a0 77 cb 8e 3e c7 36 b7 3e 04 37 f9 3e dd f0 b0 3e
       0.27889606 0.3578398 0.48674786 0.34558764
0000b0 30 ef 5c 3e 6a 44 2c 3e 4c 31 b6 3e d9 7d f5 3e
       0.21575618 0.16822973 0.35584486 0.47947577
0000c0 fe 53 b6 3e 94 4c a3 3e 3e 00 4d 3e c4 f3 ca 3e
       0.35610956 0.31894362 0.20019624 0.39639103
0000d0 d0 be ab 3e 93 b4 de 3e db 7d bd 3e 03 8a b8 3e
       0.33544016 0.43497142 0.37010083 0.36042795
0000e0 a6 5b a9 3e bf 46 11 3e 0e d2 9a 3e 22 55 6e 3e
       0.33077735 0.14187144 0.30238384 0.23274663
0000f0 34 c9 98 3e d0 15 7c 3e 2e 28 b0 3e f3 8b 67 3e
       0.29841006 0.24617696 0.34405655 0.2261198

weight f4 [1, 64]
000000 26 af db 3b cf 86 8f bc 6d 6a 15 bc 7c 1b 54 3c
       0.006704229 -0.017520336 -0.009119612 0.012946006
000010 00 4f 8e 3c a2 c8 a3 3c 89 8b e5 bb 95 aa 70 3b
       0.017371655 0.01999313 -0.0070051593 0.0036722769
000020 46 8b 0a 3b 04 87 a6 bc 5d 31 a9 bc b3 ef 50 3c
       0.0021140142 -0.020328052 -0.020653421 0.012752461
000030 10 b5 89 ba 40 e2 8b 3c fa e6 7a bc 00 af b7 bc
       -0.0010506231 0.017075658 -0.015313858 -0.022422314
000040 68 a9 13 bc 6f 0b ff 3b 5d c7 0d 3c b4 cd 9b bc
       -0.009012558 0.0077833454 0.008653489 -0.019018985
000050 cd bf d2 bb 57 9e 60 3c ef 3d 87 3c 6c fe e0 bb
       -0.006431556 0.013709626 0.016509024 -0.006866267
000060 58 44 ed 39 e9 01 94 bb 07 63 a2 bc ee 42 03 bc
       0.00045255083 -0.0045168293 -0.01982261 -0.008011563
000070 b4 19 43 bc 7b 34 03 3c 4c ac 3e 3c 0f 1f 2b 3b
       -0.011907984 0.008008118 0.011637758 0.0026111042
000080 b5 b5 4f 3c a8 bc 28 3a 92 4d ea 3a 86 5b d6 3b
       0.0126776 0.00064368034 0.0017875901 0.006541672
000090 62 b7 5e bc ef 8c 8e b9 75 f7 5d 3c 65 ce 75 bc
       -0.013593527 -0.00027189354 0.013547768 -0.015002822
0000a0 03 1d 23 bc 96 23 83 bc 00 75 8b 3c 00 2c 81 bc
       -0.009955647 -0.01600818 0.017023563 -0.015768051
0000b0 fc 94 91 3b c5 c0 03 3b 16 9b 41 bc 7f cd 87 bc
       0.004442809 0.0020103913 -0.0118167605 -0.01657748
0000c0 db cd 61 bc c8 e7 92 bb e9 e9 b6 3c e1 a4 28 bc
       -0.01378199 -0.004483197 0.022328334 -0.010293216
0000d0 bf 5c 9c 3c 0d cd 3d bc ac 74 32 bc cf b2 ce bb
       0.019087194 -0.011584532 -0.010892075 -0.0063079367
0000e0 2c 84 7c 3c e9 85 81 3b 05 1c 8a 3c 36 14 26 bc
       0.015412372 0.003952731 0.016859064 -0.010136655
0000f0 10 a4 ae 3b 1d db 9d 3c 72 d4 3f bc 45 44 39 3c
       0.0053296164 0.01926952 -0.011708366 0.011307781
