Industrial Equipment/mlruns/0/218ed5083f7c44c391ca4907da6f3850/artifacts/discriminator_model/data/model.pth (torch, 30142 bytes, 13 tensors)

weight f4 [64, 5]
0	0xbebb1e41	-0.3654652
1	0x3eae906d	0.34094563
2	0x3e82fed6	0.2558505
3	0x3eac26d4	0.33623374
4	0xbdcf62ec	-0.1012629
5	0xbeae922e	-0.340959
6	0xbd3f0d6c	-0.04664366
7	0x3ea0f710	0.31438494
8	0x3e22ece3	0.15910678
9	0xbe4b509d	-0.1985497
10	0x3ebff3f2	0.37490803
11	0xbec7ddcf	-0.39036414
12	0x3ecac0b5	0.3960015
13	0xbed68a40	-0.4190235
14	0xbe4052ab	-0.18781535
15	0xbecfc7ba	-0.40582067
16	0xbe25676b	-0.16152732
17	0x3ea797e0	0.3273306
18	0x3e3f2fd5	0.1867059
19	0x3e93a980	0.28840256
20	0x3eef0a8d	0.46687737
21	0x3c611a3b	0.013739164
22	0xbdde1203	-0.10843279
23	0xbba48a7c	-0.0050213914
24	0x3e96f687	0.2948496
25	0xbdef06f5	-0.11671249
26	0xbea109b4	-0.31452715
27	0x3e3375d7	0.17525421
28	0xbe89d53b	-0.26920494
29	0x3dca4213	0.09875884
30	0x3d692df9	0.05692861
31	0x3e117eb5	0.14208491
32	0xbec1929e	-0.37807173
33	0x3b2fd488	0.002682956
34	0x3e9c9bbe	0.30587572
35	0xbebc7fa6	-0.36816138
36	0xbeb13b71	-0.34615663
37	0x3e3725b5	0.17885478
38	0x3e90252a	0.28153354
39	0x3db1be2c	0.086788505
40	0x3e42f954	0.19040424
41	0x3ec45582	0.38346487
42	0xbd389f59	-0.04507384
43	0x3d648b86	0.055797122
44	0xbe31bdc1	-0.17357542
45	0x3dd0816a	0.10180934
46	0xbed2262b	-0.41044745
47	0x3a4ce332	0.0007815837
48	0x3e3c542c	0.18391484
49	0xbd868030	-0.065674186
50	0xbc6544c9	-0.01399345
51	0x3eb2b09a	0.3490036
52	0xbebdbd9b	-0.3705872
53	0xbe1ae80b	-0.1512758
54	0xbd9955df	-0.07487082
55	0x3ecb4d3f	0.39707372
56	0xbed5d914	-0.4176718
57	0x3d4b7050	0.049667656
58	0x3b7bc83f	0.0038418917
59	0x3e92a30f	0.2864003
60	0x3ed35224	0.41273606
61	0x3e9a443c	0.30130184
62	0x3e8f982f	0.28045794
63	0xbeb8018f	-0.3593869
64	0xbee099d1	-0.43867353
65	0x3e0e3dd3	0.13890772
66	0xbe8f562a	-0.27995425
67	0x3d0730d4	0.03300555
68	0x3e6c41ee	0.23072025
69	0xbce5ea85	-0.02806593
70	0x3c8a8fc4	0.016914256
71	0xbd54c974	-0.051949933
72	0xbe4703c0	-0.19435024
73	0xbe0ccd35	-0.13750155
74	0xbdced308	-0.10098845
75	0xbe3ab647	-0.18233596
76	0x3e55aa3f	0.20865725
77	0x3eccd39e	0.400052
78	0x3e749966	0.23886642
79	0x3ec9f751	0.394465
80	0xbcc6965d	-0.02424162
81	0xbe9fddc9	-0.31223896
82	0xbda22a37	-0.07918208
83	0xbe7183cc	-0.23585433
84	0x3dd2d5f4	0.102947146
85	0xbea7b165	-0.3275253
86	0xbd893650	-0.066998124
87	0xbdca3acf	-0.09874498
88	0x3ecd0083	0.40039453
89	0x3e7b95f8	0.24568927
90	0x3e988951	0.29792264
91	0x3e94481a	0.2896126
92	0xbd19bbf0	-0.037532747
93	0x3e8bfde5	0.27342144
94	0x3eb71477	0.357578
95	0x3d49d6bb	0.04927705
96	0x3d47c830	0.048774898
97	0x3e98fa45	0.2987844
98	0x3ea3f9c9	0.32026508
99	0xbea1b7e2	-0.31585604
100	0xbe3a7a69	-0.18210758
101	0x3cd70f37	0.026252372
102	0x3e737857	0.23776375
103	0x3e3f648c	0.186907
104	0xbd2648e2	-0.04059685
105	0xbdeb07f4	-0.11476126
106	0xbeaff071	-0.3436313
107	0x3ee958d1	0.45575574
108	0xbe1e4b5a	-0.15458432
109	0xbeb795d2	-0.3585649
110	0xbead1a5a	-0.33809167
111	0xbc44e993	-0.012018579
112	0xbea16cf3	-0.31528434
113	0x3c941b07	0.018079294
114	0x3eac57ec	0.3366083
115	0xbe2b7b33	-0.16746216
116	0x3d4ae956	0.049538933
117	0x3e630029	0.2216803
118	0xbd7d8a05	-0.061899204
119	0xbd4b6075	-0.049652535
120	0x3ec80cd3	0.39072284
121	0x3e304baf	0.17216371
122	0xbe501ede	-0.20324275
123	0x3ed21cab	0.41037497
124	0x3c14c509	0.00908018
125	0xbecff7c8	-0.4061873
126	0xbe94f9f5	-0.29096952
127	0xbe85722f	-0.26063678
128	0xbc89d670	-0.016825885
129	0x3ea8998d	0.3292965
130	0x3e854d45	0.26035514
131	0xbed2946a	-0.41128856
132	0xbe22acc7	-0.15886222
133	0x3eb8aa91	0.36067632
134	0xbea61cf5	-0.32443967
135	0x3eac5c5c	0.33664215
136	0x3ed72813	0.42022762
137	0xbe90f057	-0.28308365
138	0xbe78159b	-0.24226992
139	0xbe8fa09e	-0.2805223
140	0x3e0a51a1	0.13507701
141	0x3d199ad2	0.037501164
142	0x3e6bbd14	0.23021346
143	0x3d89d822	0.06730677
144	0x3d5a7498	0.05333385
145	0xbe9b80de	-0.30371755
146	0xbeaf3ae2	-0.34224612
147	0xbda55fa0	-0.0807488
148	0xbe9a15af	-0.30094668
149	0x3eabe7ed	0.33575383
150	0x3ec2e1d5	0.3806292
151	0xbeaeb02c	-0.34118783
152	0xbe7bbc3a	-0.24583521
153	0x3ecc3c0c	0.39889562
154	0x3e1061f8	0.14099872
155	0xbe25883d	-0.16165252
156	0xbedb91b6	-0.42884606
157	0xbca6a77c	-0.020343535
158	0x3eb8a7eb	0.3606561
159	0xbe8a3e1b	-0.27000508
160	0x3d69f6c2	0.057120092
161	0x3de54828	0.11195403
162	0x3c7d484c	0.015459131
163	0xbd4c0cf6	-0.049817048
164	0x3c936be6	0.017995786
165	0x3e3a00ba	0.1816434
166	0xbe7e0817	-0.24807774
167	0x3e84c1dc	0.25929153
168	0x3e84efaf	0.25964114
169	0xbdc3a987	-0.09553819
170	0x3d9ec1f1	0.07751835
171	0x3dc4548d	0.09586439
172	0xbe5932ea	-0.21210828
173	0xbec172b7	-0.37782833
174	0xbe6d8123	-0.23193793
175	0x3ed98e8b	0.42491564
176	0xbec1417c	-0.37745273
177	0x3ea79128	0.32727933
178	0x3ea632d6	0.3246066
179	0xbe3c3c02	-0.18382266
180	0x3ec260ca	0.3796447
181	0x3e36ae8d	0.17840023
182	0x3e84f1c9	0.25965717
183	0xbe6dd522	-0.23225835
184	0x3d9e9b46	0.0774446
185	0x3e65372e	0.2238433
186	0xbe2927b6	-0.16519055
187	0xbe97324b	-0.29530558
188	0x3d1f9862	0.038963683
189	0x3dd44306	0.10364346
190	0xbe441b98	-0.19151151
191	0xbcb2957e	-0.021799799
192	0xbeb8c9ee	-0.3609156
193	0xbe5a7461	-0.21333458
194	0x3d6003cc	0.05469112
195	0xbe9efc8a	-0.31052047
196	0x3eb0a3cf	0.34499976
197	0x3ea8ae5b	0.32945523
198	0xbdfcb5eb	-0.123393856
199	0xbe0d6c7e	-0.13810918
200	0xbe013c81	-0.12620737
201	0xbee25cd1	-0.44211438
202	0x3e9e6556	0.30936688
203	0xbdd10d02	-0.10207559
204	0x3e8e8238	0.27833724
205	0x3e8cd8ad	0.2750906
206	0x3dbd4a68	0.092427075
207	0x3d28bad7	0.04119381
208	0xbd5b5fca	-0.05355815
209	0xbec5b373	-0.3861347
210	0x3d66b681	0.056326393
211	0xbeecf650	-0.46281672
212	0x3e3bb85e	0.18332049
213	0xbe82bc88	-0.25534463
214	0x3e968aed	0.29402867
215	0x3e9a6def	0.30161998
216	0x3e786561	0.24257423
217	0xbeb68f38	-0.35656142
218	0x3ead02fc	0.3379134
219	0xbea903dc	-0.33010757
220	0xbe2887a1	-0.16457988
221	0xbebb007c	-0.36523807
222	0xbde5325f	-0.11191248
223	0x3d832b13	0.064047
224	0x3e63ad1b	0.22234003
225	0xbe17d471	-0.14827134
226	0xbeb9ade2	-0.36265475
227	0x3e887528	0.26651883
228	0x3d86c146	0.06579833
229	0x3eadd8f3	0.33954582
230	0xbe39edcc	-0.18157119
231	0x3edd3f8d	0.43212548
232	0x3e76c916	0.24100146
233	0xbe34d8b0	-0.17660785
234	0xbec2e681	-0.38066486
235	0xbec74185	-0.38917175
236	0xbc96bb9c	-0.018400006
237	0x3edd5888	0.43231606
238	0x3e0bd805	0.13656624
239	0x3ce4df1d	0.02793842
240	0x3e4e9400	0.20173645
241	0xbe974643	-0.29545793
242	0xbee080c2	-0.43848234
243	0xbed468b4	-0.41486132
244	0xbe7a0b74	-0.24418432
245	0xbe3e33ec	-0.18574494
246	0xbedfd049	-0.43713596
247	0x3e95d4c4	0.2926389
248	0x3dc0bd82	0.09411146
249	0xbe8b0478	-0.27151847
250	0x3e1e5a52	0.15464142
251	0x3e8dc1ae	0.27686828
252	0x3e8753b3	0.26431045
253	0x3eb23587	0.34806463
254	0x3ec6c76a	0.38824016
255	0xbed7c59d	-0.42142954

bias f4 [64]
0	0xbe7e9216	-0.24860415
1	0xbc8dc1fc	-0.017304413
2	0x3e77f3e3	0.24214129
3	0xbed3d54e	-0.41373676
4	0x3ee2a681	0.44267657
5	0xbe9d82c1	-0.3076382
6	0xbe38c7fa	-0.18045035
7	0x3cf67f65	0.030090043
8	0xbed73e9a	-0.4203995
9	0x3ec8f21f	0.39247224
10	0xbec70fe6	-0.38879317
11	0xbee0b0d2	-0.43884903
12	0x3d66cf97	0.056350317
13	0xbed8a5d0	-0.42314005
14	0x3e5218a9	0.2051722
15	0x3e3e0040	0.18554783
16	0x3de952d2	0.1139275
17	0xbe76d7fd	-0.2410583
18	0x3e5bbf91	0.21459796
19	0xbea2749f	-0.317296
20	0xbeaa6980	-0.33283615
21	0xbd8d64d2	-0.069039956
22	0xbeb102d2	-0.34572464
23	0x3ec3c0e2	0.38233095
24	0xbe9bdfca	-0.30444175
25	0x3decfd49	0.11571748
26	0x3e3791f8	0.17926776
27	0xbe3554ac	-0.17708081
28	0x3d6d1855	0.057884533
29	0x3e1755a2	0.1477876
30	0xbe6a0492	-0.22853306
31	0x3dec7370	0.115454555
32	0xbe480afb	-0.19535439
33	0xbe8f48eb	-0.2798532
34	0xbe5cad15	-0.215504
35	0x3eabf239	0.3358324
36	0x3e0816b0	0.13289905
37	0xbe0eafe1	-0.1393428
38	0xbdcd8d3d	-0.10036705
39	0xbd29ab6e	-0.041423254
40	0xbe77d832	-0.24203566
41	0xbc86ca17	-0.016453786
42	0x3ecce441	0.40017894
43	0x3ee23ae3	0.44185552
44	0x3e81bc55	0.25338998
45	0x3e565cf0	0.2093389
46	0xbe6784fb	-0.22609322
47	0x3e446120	0.19177675
48	0x3e21d8a0	0.15805292
49	0x3e277f3c	0.1635713
50	0xbd4abd01	-0.049496654
51	0x3c70059f	0.014649778
52	0x3e3a3b92	0.18186787
53	0x3e51d5f6	0.20491776
54	0xbe63ff7e	-0.22265431
55	0xbebc2a2d	-0.36750928
56	0xbe850254	-0.2597834
57	0xbd71170c	-0.05885987
58	0x3da31c81	0.07964421
59	0x3ed7b78f	0.42132232
60	0x3e61ed44	0.22063166
61	0xbe2c18f0	-0.16806388
62	0x3eacd81c	0.33758628
63	0x3e944cd5	0.28964868

weight f4 [64]
0	0x3f81a44d	1.0128266
1	0x3f7c2ca4	0.98505616
2	0x3f810a85	1.0081335
3	0x3f7e51d5	0.99343616
4	0x3f874413	1.056765
5	0x3f85f8fd	1.046661
6	0x3f827179	1.0190879
7	0x3f71f60c	0.9451606
8	0x3f802ffc	1.0014644
9	0x3f81a033	1.0127014
10	0x3f815e2c	1.0106864
11	0x3f8211ef	1.0161723
12	0x3f7f090a	0.9962317
13	0x3f81e354	1.01475
14	0x3f80c7d6	1.0060985
15	0x3f7a6f9a	0.9782654
16	0x3f7ed26a	0.99539816
17	0x3f827608	1.019227
18	0x3f7e8885	0.9942706
19	0x3f7a7e3a	0.97848856
20	0x3f7ae20d	0.98001176
21	0x3f852356	1.0401409
22	0x3f7da02d	0.99072534
23	0x3f804714	1.0021691
24	0x3f848fd0	1.0356388
25	0x3f7a1585	0.97689086
26	0x3f780692	0.96885026
27	0x3f768613	0.9629833
28	0x3f7c6e94	0.9860623
29	0x3f7ad97e	0.97988117
30	0x3f7c9596	0.9866575
31	0x3f76cb5c	0.9640405
32	0x3f7c8da0	0.986536
33	0x3f82eb71	1.0228101
34	0x3f799723	0.9749624
35	0x3f7b61cb	0.98196095
36	0x3f760380	0.9609909
37	0x3f80238b	1.0010847
38	0x3f7f4b2d	0.99724084
39	0x3f82bc54	1.0213723
40	0x3f7ee54c	0.9956863
41	0x3f8061b0	1.0029812
42	0x3f827654	1.0192361
43	0x3f820590	1.0157948
44	0x3f81f77e	1.0153654
45	0x3f7cb2c1	0.98710257
46	0x3f7e47cd	0.9932831
47	0x3f82bd8a	1.0214093
48	0x3f80ce98	1.0063047
49	0x3f81f037	1.0151433
50	0x3f7fe384	0.99956536
51	0x3f8429c8	1.0325251
52	0x3f794ee5	0.9738601
53	0x3f7eadb0	0.99483776
54	0x3f793dd4	0.9735997
55	0x3f7c62dd	0.98588353
56	0x3f7ad4c4	0.97980905
57	0x3f83c884	1.0295568
58	0x3f7d0ffd	0.9885252
59	0x3f8300aa	1.0234578
60	0x3f81193f	1.008583
61	0x3f83f2c7	1.0308465
62	0x3f7e0686	0.99228704
63	0x3f7dfffe	0.9921874

bias f4 [64]
0	0xbbd9dda3	-0.0066487356
1	0xbcb59d22	-0.022169653
2	0xbc4a5442	-0.01234919
3	0xbc8daead	-0.017295206
4	0x3d0933ba	0.033496596
5	0x3b9534a9	0.0045533967
6	0x3cab3e0b	0.020903608
7	0xbd3a4fc5	-0.04548623
8	0xbbdb4ab9	-0.0066922572
9	0xbc62b59c	-0.013837244
10	0xbc4fe13d	-0.012687978
11	0x3c3ddc7b	0.011588211
12	0xbc8a4ca4	-0.016882248
13	0x3bed8f4c	0.0072497483
14	0xbbc4a186	-0.0060007004
15	0xbd46f25c	-0.048570976
16	0xbcc95486	-0.024576437
17	0x3c299c3c	0.010352191
18	0xbcb49297	-0.022042556
19	0xbd112dc0	-0.03544402
20	0xbd43b20c	-0.04777722
21	0x3bbb23bd	0.0057110474
22	0xbc8fa6a8	-0.017535523
23	0x3c9cc643	0.019137507
24	0x3cefdf0e	0.029281165
25	0xbd09520b	-0.033525508
26	0xbcee908f	-0.029121665
27	0xbc1498aa	-0.009069601
28	0xbc9afe0e	-0.01891997
29	0xbc23509d	-0.00996795
30	0xbd0249eb	-0.031808775
31	0xbd2482da	-0.040163852
32	0xbc8aee99	-0.016959475
33	0xbb2e1ef7	-0.002656875
34	0xbd0f7c7f	-0.035030838
35	0xbc7a394c	-0.01527245
36	0xbd5fff49	-0.05468682
37	0x3c95586a	0.018230636
38	0xbc75d422	-0.01500419
39	0x3c961d01	0.018324377
40	0xbbe01832	-0.006838822
41	0xbd6079c7	-0.054803636
42	0xb9a17ea0	-0.00030802656
43	0x3c3db1e3	0.011578056
44	0xbc878d6b	-0.016546926
45	0xbc51183a	-0.012762124
46	0x3a8d3577	0.001077338
47	0x3ce758fe	0.028240677
48	0xbce5c2bb	-0.028046956
49	0xbbb12a41	-0.0054066484
50	0xbcf3d285	-0.02976347
51	0x3c5fb876	0.013654819
52	0xbc8b456b	-0.017000875
53	0xbcf792e6	-0.030221414
54	0xbca12f26	-0.019675802
55	0xbd291fac	-0.04128997
56	0xbcd18bd7	-0.025579376
57	0xbb431442	-0.0029766713
58	0xbd112946	-0.035439752
59	0xbb0c491c	-0.0021405881
60	0xbd29880d	-0.041389514
61	0x3c905a2f	0.017621128
62	0xbd0d89bc	-0.03455518
63	0xbc581033	-0.013187456

running_mean f4 [64]
0	0xbe0eb573	-0.13936405
1	0xba983edf	-0.0011615417
2	0x3ce19f6f	0.027541844
3	0xbea7a05b	-0.3273953
4	0x3ece3e6b	0.40281996
5	0xbeafcf80	-0.34337997
6	0xbdc30eb7	-0.09524291
7	0x3d83b356	0.0643069
8	0xbed6f5fc	-0.41984546
9	0x3e9cc33c	0.30617702
10	0xbea55fbb	-0.322996
11	0xbf0b5b4e	-0.54436195
12	0xbdae1d74	-0.085017115
13	0xbefb60ad	-0.49097195
14	0x3e3e4233	0.1857994
15	0x3e98750e	0.29776806
16	0x3da4ce8e	0.0804721
17	0xbdf86937	-0.12129443
18	0x3e8a1a3a	0.26973134
19	0xbebfe54c	-0.37479627
20	0xbe9ced5a	-0.30649835
21	0xbe4797d5	-0.19491513
22	0xbe505fdc	-0.20349067
23	0x3ecb7a5f	0.397418
24	0xbea48815	-0.32135072
25	0x3e62c030	0.22143626
26	0x3d277843	0.040886175
27	0xbe5ab3ac	-0.21357602
28	0x3cfd0204	0.03088475
29	0x3e4bf57c	0.19917864
30	0xbe9a0d03	-0.30088052
31	0x3d6f0d4e	0.058362298
32	0xbe42bd95	-0.19017632
33	0xbec0f5fe	-0.37687677
34	0xbe821f98	-0.2541473
35	0x3e1d71a1	0.15375377
36	0x3d866539	0.065622754
37	0xbe2f84bc	-0.17140478
38	0xbd24c5d4	-0.040227726
39	0x3cc98eaa	0.02460416
40	0xbe8a5714	-0.2701956
41	0xbdfb2a6c	-0.12263951
42	0x3eac0f47	0.33605406
43	0x3ed1d36d	0.40981618
44	0x3e8cd0e2	0.27503115
45	0x3e5fbc16	0.21849093
46	0xbe52d46f	-0.2058885
47	0x3e7d1df0	0.24718451
48	0x3d3bdc2e	0.045864277
49	0x3d987da8	0.07445842
50	0x3c9ba60c	0.019000076
51	0x3e26f3cf	0.16303943
52	0x3e8181b2	0.25294262
53	0x3df375a0	0.118876696
54	0xbe3b9e3c	-0.1832208
55	0xbea1a2f3	-0.31569633
56	0xbe073e7d	-0.13207431
57	0xbb47f8ce	-0.003051329
58	0x3ce10847	0.027469767
59	0x3e8dedab	0.2772039
60	0x3dad6a3c	0.08467528
61	0xbd9a337d	-0.07529352
62	0x3ea40d8f	0.32041594
63	0x3eb499c6	0.3527357

running_var f4 [64]
0	0x3e0e965c	0.13924545
1	0x3dd7fec7	0.10546642
2	0x3e810f4f	0.25206992
3	0x3e1efcb3	0.15526085
4	0x3e02cb3b	0.12772839
5	0x3d9d4870	0.07679832
6	0x3dd3b93d	0.10338066
7	0x3e1e6448	0.15467942
8	0x3da5d3e0	0.080970526
9	0x3db5dac6	0.08879618
10	0x3dee15bb	0.116252385
11	0x3e20e17a	0.15711012
12	0x3e840d5a	0.25791436
13	0x3d77eb39	0.06052706
14	0x3cc193e8	0.023630098
15	0x3e232199	0.15930785
16	0x3d568b9b	0.052379232
17	0x3e08af49	0.13348116
18	0x3e20c552	0.15700272
19	0x3dc04304	0.09387782
20	0x3d2e2ab1	0.042521182
21	0x3e51fc56	0.20506415
22	0x3df69df9	0.1204185
23	0x3cf32dcf	0.02968493
24	0x3e0b0839	0.13577355
25	0x3e1a1a0f	0.15049003
26	0x3e3d16ad	0.18465681
27	0x3e50c466	0.2038742
28	0x3ce6e3c6	0.028184783
29	0x3e05d80f	0.13070701
30	0x3e3c362c	0.1838004
31	0x3e32730f	0.17426704
32	0x3c0389d8	0.00802847
33	0x3dbbcd37	0.09170001
34	0x3dc76177	0.09735387
35	0x3e5eb467	0.21748506
36	0x3df50a27	0.11964827
37	0x3d73f609	0.05956081
38	0x3d926790	0.07148659
39	0x3dfe0daa	0.1240495
40	0x3e158f33	0.14605407
41	0x3db608d5	0.08888403
42	0x3e0d4d4c	0.13799018
43	0x3e27f4da	0.16401997
44	0x3dad906f	0.08474814
45	0x3e0797ea	0.13241544
46	0x3e2c6d97	0.1683868
47	0x3e00902d	0.12554999
48	0x3e39f2ed	0.18159075
49	0x3e315fc5	0.1732169
50	0x3e2c19f3	0.16806774
51	0x3e5a3a05	0.21311195
52	0x3e39f83d	0.18161102
53	0x3e61dd4a	0.22057071
54	0x3e425a19	0.18979682
55	0x3e030c74	0.12797719
56	0x3e016e8e	0.1263983
57	0x3d2ab1c5	0.04167344
58	0x3dd29002	0.102813736
59	0x3e05193f	0.12997912
60	0x3e60bd6a	0.21947256
61	0x3e043031	0.12909009
62	0x3dabbcd3	0.08385625
63	0x3de3aafe	0.111165985

weight f4 [64, 64]
0	0xbd8aa5dc	-0.067699164
1	0xbcdb172d	-0.02674445
2	0xbdc11107	-0.09427076
3	0xbda0c83e	-0.07850693
4	0xbd3302fd	-0.04370402
5	0xbd0cc8f6	-0.03437134
6	0x3cf89230	0.030343145
7	0x3d5e365a	0.054251052
8	0xbdc8d7c4	-0.09806779
9	0x3c4be6f6	0.012445202
10	0x3c4ebc90	0.012618199
11	0xbddad9b3	-0.10686054
12	0x3ddad414	0.10684982
13	0x3c83cda0	0.01608926
14	0x3d7e202e	0.062042408
15	0xbd24037e	-0.040042393
16	0xbcebafbc	-0.02877032
17	0x3dc5a415	0.09650437
18	0x3dc7dd9b	0.09759065
19	0xbde3f6b3	-0.111310385
20	0xbd740d2c	-0.059582874
21	0x3c8a0610	0.016848594
22	0x3d473d5a	0.048642494
23	0x3d2416f5	0.040060956
24	0x3c8d6dbf	0.017264245
25	0x3c2ae5bc	0.0104307495
26	0xbd80178a	-0.0625449
27	0xbd7da274	-0.061922505
28	0xbd532617	-0.051549997
29	0xbd3e9bd0	-0.046535313
30	0x3d8b2224	0.06793621
31	0xbddebf51	-0.108763345
32	0xbd85c00a	-0.06530769
33	0x3ca4aa0c	0.020100616
34	0xbd3d339f	-0.046191808
35	0x3d4be899	0.04978237
36	0xbdcc9f3c	-0.09991309
37	0x3cc59564	0.024119087
38	0xbc7587ea	-0.014986018
39	0xbd0293a3	-0.03187908
40	0xbdef8d28	-0.11696845
41	0x3de0ad2c	0.1097053
42	0xbb9c81b2	-0.004776203
43	0xbda9ee15	-0.08297364
44	0xbbd1a514	-0.0063978527
45	0x3ac4b33b	0.0015007028
46	0xbd44c9c1	-0.04804397
47	0xbc2d21df	-0.0105671575
48	0xbce1b230	-0.027550787
49	0xbd49681a	-0.049171545
50	0xbd0d16bb	-0.034445506
51	0x3d811e12	0.063045636
52	0x3cdf06ff	0.027225016
53	0x3d60c95d	0.054879535
54	0x3d1ce6d0	0.038306057
55	0x3d99e3b0	0.07514131
56	0xbd8bb95d	-0.068224646
57	0xbd5c6edb	-0.053816658
58	0xbd927a67	-0.07152253
59	0xbd795dbd	-0.06088041
60	0xbdbe5bb9	-0.092948385
61	0xbd99487b	-0.07484528
62	0xbd1d61e4	-0.038423434
63	0xbe057589	-0.13033117
64	0x3cdaa427	0.026689602
65	0x3d20a7d8	0.03922257
66	0x3c569ad9	0.013098442
67	0x3dbd33cf	0.09238397
68	0x3c66d30f	0.014088406
69	0x3ceaa49a	0.028642941
70	0xbd0a2d32	-0.033734508
71	0x3bece85d	0.0072298483
72	0x3da183d4	0.07886472
73	0x3db3ec58	0.08785313
74	0x3da86c10	0.08223736
75	0x3dd8a2f8	0.10577959
76	0xbde13b09	-0.10997588
77	0xbdc3df06	-0.09564023
78	0xbda933ef	-0.08261859
79	0x3cb313a6	0.021859955
80	0xbdd4e6e4	-0.103956014
81	0x3bd20c8a	0.006410186
82	0x3d417106	0.04722693
83	0x3d4558d5	0.04818042
84	0x3e03d164	0.12872845
85	0x3da7ac64	0.08187178
86	0x3dd6c71e	0.10487197
87	0x3c852845	0.016254554
88	0x3a55e86f	0.00081599405
89	0xbb11ad3b	-0.0022228498
90	0x3dcb9c23	0.0994189
91	0x3d32fe1a	0.04369936
92	0xbcaaee71	-0.02086565
93	0xbd9415e1	-0.072307356
94	0x3d3788fe	0.04480838
95	0xbd614a2c	-0.055002376
96	0x3dfe4f65	0.12417487
97	0xbda377cf	-0.07981836
98	0x3a98d09b	0.0011658849
99	0x3d911a7f	0.07085132
100	0xbddb42f7	-0.10706132
101	0xbe0b5d1d	-0.13609739
102	0xbdeaedff	-0.114711754
103	0xbb886648	-0.0041625835
104	0x3cf63025	0.030052254
105	0xbc0effbf	-0.008727967
106	0x3bc9842f	0.0061497907
107	0xbd6c60e9	-0.05770961
108	0xbcdd79f1	-0.027035685
109	0xbd8487f6	-0.06471245
110	0x3da01982	0.07817365
111	0x3dadc0a5	0.0848401
112	0xbdd1e2c0	-0.10248327
113	0xbdc84c0c	-0.0978013
114	0xbd456b84	-0.048198238
115	0x3d6ee783	0.058326256
116	0x3cff2eb6	0.031150203
117	0xbd31d13a	-0.043412425
118	0xbdba7040	-0.09103441
119	0x3ce96e3c	0.028494947
120	0xbd786b99	-0.060649488
121	0xbd69a52c	-0.057042286
122	0x3d756ca4	0.05991806
123	0xbe08e01a	-0.13366738
124	0xbe0e02af	-0.13868211
125	0x3dba084a	0.09083612
126	0xbc5e3850	-0.013563231
127	0xbcd260de	-0.025680955
128	0xbdcb8aed	-0.09938607
129	0xbd6390c3	-0.055557977
130	0x3e1f2b18	0.15543783
131	0xbdc4b26c	-0.09604344
132	0xbda25a4b	-0.07927378
133	0x3d77fa02	0.06054116
134	0x3d01bd24	0.03167452
135	0x3d79f783	0.06102706
136	0xbb7205e7	-0.0036929788
137	0xbdb00379	-0.08594412
138	0x3c2b7eb3	0.010467219
139	0x3dbb8eea	0.09158118
140	0x3d14dc0d	0.03634267
141	0x3d06ca64	0.03290786
142	0xbce792eb	-0.028268298
143	0x3de540af	0.11193978
144	0x3df7322a	0.12070115
145	0x3d4a85b8	0.04944393
146	0xbddc7dd8	-0.1076619
147	0x3cfc4213	0.030793225
148	0xbce37113	-0.027763879
149	0x3cb9e0e0	0.022690237
150	0x3d3ddaec	0.04635136
151	0xbd8e4914	-0.06947532
152	0x3de8d7b4	0.11369267
153	0x3a994ad4	0.0011695274
154	0x3dbab6dd	0.0911691
155	0xbc8d3492	-0.017236982
156	0x3dd289ac	0.10280165
157	0x3d38e83e	0.04514336
158	0x3ce1deca	0.027572054
159	0x3d596773	0.053077172
160	0x3df83cfc	0.12121007
161	0x3e076d76	0.1322535
162	0xbd62a14e	-0.055329613
163	0xbbf5c085	-0.0074997568
164	0x3c7091b2	0.014683174
165	0x3c878ae8	0.016545728
166	0x3a191988	0.0005840291
167	0x3dd6e268	0.10492402
168	0xbdd2b0a8	-0.10287601
169	0x3c2d8600	0.01059103
170	0x3dff8fe8	0.1247862
171	0x3b33dd82	0.0027445261
172	0x3d564003	0.05230714
173	0xbd35e538	-0.044408053
174	0x3da34e57	0.079739265
175	0x3d1c9b6a	0.038234152
176	0x3c161e12	0.009162443
177	0xbd855b83	-0.06511595
178	0x3d3e79af	0.046502765
179	0xbd86f279	-0.06589217
180	0x3d76fc8f	0.060299452
181	0x3c290d24	0.010318074
182	0x3cd1c084	0.025604494
183	0x3d69b216	0.0570546
184	0xbd7ff034	-0.062484935
185	0xbdde8867	-0.108658604
186	0xbdb6ccbf	-0.08925771
187	0xbde2f660	-0.110821486
188	0x3b90a126	0.0044137416
189	0xbd5d0463	-0.05395926
190	0x3ca50eac	0.020148598
191	0xbda45d46	-0.08025603
192	0x3a43eab7	0.0007473635
193	0xbd02bc47	-0.031917837
194	0x3c59a68d	0.013284338
195	0xbb8a72b4	-0.0042250995
196	0xbdba54a9	-0.09098179
197	0xbcfa7e9e	-0.030577954
198	0x3dd33fb5	0.103148855
199	0x3d3ca151	0.04605228
200	0x3dd40b4b	0.103537165
201	0xbcefe729	-0.02928503
202	0xbc6419df	-0.013922184
203	0xbd53987b	-0.05165909
204	0x3c315b7c	0.010825034
205	0xbd016ba6	-0.031596802
206	0xbd235966	-0.03988018
207	0xbd2c277a	-0.042029835
208	0x3d9d1775	0.0767049
209	0x3de6e05f	0.11273264
210	0xbdac54c2	-0.08414604
211	0xbd7a616c	-0.061128065
212	0xbbc21d89	-0.005923931
213	0x3d14db50	0.036341965
214	0xbdc5ae6a	-0.096524075
215	0xbdb144b8	-0.08655685
216	0x3d93edca	0.07223089
217	0xbd5fde31	-0.054655258
218	0x3d150559	0.036382053
219	0x3cccdb6d	0.025006974
220	0xbdad6f24	-0.08468464
221	0x3cd8efd3	0.026481545
222	0x3b5d370a	0.003375473
223	0x3d99a8aa	0.07502873
224	0x3d802bd5	0.0625836
225	0xbdde2d16	-0.10848443
226	0xbe01c84f	-0.12674068
227	0xbd8a4468	-0.06751329
228	0x3cfc0617	0.030764623
229	0xbdbf1a0a	-0.093311384
230	0x3d7daad8	0.061930507
231	0x3d98c6e4	0.074598104
232	0x3d02d9f6	0.031946145
233	0x3d9b5cac	0.07586035
234	0xbd0f5324	-0.0349914
235	0xbd2486ba	-0.040167548
236	0xbc424ac6	-0.011858648
237	0xbd55a67a	-0.052160718
238	0xbcac1fce	-0.02101126
239	0xbd1534f2	-0.036427446
240	0xbdabd106	-0.083894774
241	0x3d70ab76	0.058757268
242	0xbdcabe8e	-0.09899627
243	0xbb131ebd	-0.0022448741
244	0x3d1ffdf6	0.039060555
245	0xbd2eb7f8	-0.042655915
246	0x3db6c474	0.08924189
247	0x3dd2fdb2	0.10302295
248	0x3d53213b	0.051545363
249	0x3ab7ca26	0.0014022037
250	0xbcf3e7d5	-0.029773632
251	0x3dafd939	0.08586354
252	0xbd1af5bc	-0.037832007
253	0xbc5b3955	-0.013380368
254	0x3c2fe433	0.010735559
255	0xbd82348d	-0.063576795

bias f4 [64]
0	0xbdc0bdd3	-0.09411206
1	0x3c1d5917	0.00960376
2	0x3d78fff3	0.060790967
3	0x3d922243	0.07135441
4	0x3d9122c6	0.07086711
5	0x3cd279fa	0.025692929
6	0x3da38579	0.07984442
7	0x3d26ca34	0.04072018
8	0xbd9bf28e	-0.07614623
9	0xbd366a95	-0.04453524
10	0x3dc6cd0f	0.097070806
11	0xbd5b8dc3	-0.05360199
12	0xbdd43227	-0.10361128
13	0xbcb1a792	-0.021686349
14	0xbd95fddd	-0.07323811
15	0xbbb89f22	-0.0056342045
16	0x3cba00cd	0.02270546
17	0x3ce132c4	0.027490027
18	0x3d875cdf	0.06609511
19	0xbdd86044	-0.10565236
20	0x3d19f6cb	0.037588876
21	0x3d8a0b5b	0.06740447
22	0x3d2d45f3	0.042303037
23	0xbd06b3c6	-0.03288629
24	0x3d87e38d	0.06635199
25	0xbd2f0b79	-0.04273555
26	0xbd4dde61	-0.050260905
27	0x3bf423a5	0.007450538
28	0x3d057066	0.032577895
29	0xbda2ee2c	-0.07955584
30	0x3d370b95	0.04468878
31	0x3d998258	0.07495564
32	0xbdcc1c46	-0.0996633
33	0x3b894493	0.004189083
34	0xbdaee929	-0.085405655
35	0x3d3a3b05	0.04546644
36	0x3cf765b4	0.030199863
37	0xbd2e12a3	-0.042498242
38	0x3d35c67f	0.044378754
39	0xbcf687d4	-0.030094065
40	0xbd57466a	-0.052557386
41	0x3da32e5e	0.07967828
42	0x3de92a37	0.11385005
43	0x3d2c2137	0.042023864
44	0xbdb99936	-0.09062426
45	0xbd3ee85e	-0.04660832
46	0x3db5ca96	0.08876531
47	0x3d838166	0.06421165
48	0xbdd7c515	-0.10535637
49	0x3df8560d	0.12125788
50	0x3da891f4	0.08230963
51	0xbba5d93f	-0.005061298
52	0xbc337f7d	-0.010955689
53	0xbdf137cb	-0.1177822
54	0x3de11bcb	0.10991629
55	0xbd86b4ca	-0.065774515
56	0xbd935205	-0.07193378
57	0x3d8936a7	0.06699877
58	0xbd88ceeb	-0.066800915
59	0x3da218cd	0.079148866
60	0xbd932b34	-0.07185975
61	0xbdd24caa	-0.10268529
62	0xbd2775e0	-0.0408839
63	0x3d561264	0.052263632

weight f4 [64]
0	0x3f6b0def	0.91818136
1	0x3f752c9a	0.9577118
2	0x3f7a7f09	0.9785009
3	0x3f6919a6	0.9105476
4	0x3f7d35e3	0.9891035
5	0x3f713dbc	0.94234824
6	0x3f7cbdac	0.98726916
7	0x3f718d94	0.94356656
8	0x3f721868	0.9456849
9	0x3f7adb18	0.9799056
10	0x3f73308c	0.9499595
11	0x3f81f5e8	1.015317
12	0x3f704386	0.9385303
13	0x3f69c687	0.91318554
14	0x3f776aa2	0.96647084
15	0x3f6d3c1f	0.9266986
16	0x3f6c9a6f	0.92423147
17	0x3f74852d	0.9551571
18	0x3f71b8cc	0.944226
19	0x3f77d486	0.9680866
20	0x3f7cdf3b	0.9877812
21	0x3f7dadf1	0.9909354
22	0x3f7301e0	0.94924736
23	0x3f7815c6	0.96908224
24	0x3f702f0a	0.93821776
25	0x3f7d7fea	0.99023306
26	0x3f705252	0.9387561
27	0x3f6adc98	0.9174285
28	0x3f6c7222	0.9236165
29	0x3f6b6dcf	0.9196443
30	0x3f6c64f0	0.9234152
31	0x3f6a2c51	0.9147387
32	0x3f788769	0.9708162
33	0x3f671bf5	0.90277034
34	0x3f7cacb2	0.9870101
35	0x3f7cdee9	0.98777634
36	0x3f6cebdd	0.925474
37	0x3f73e0f3	0.9526512
38	0x3f6950a6	0.91138685
39	0x3f793e42	0.9736062
40	0x3f7ab33b	0.97929734
41	0x3f6cb309	0.92460686
42	0x3f785450	0.9700365
43	0x3f70e145	0.94093734
44	0x3f727a11	0.9471751
45	0x3f6c4727	0.9229607
46	0x3f76d6ad	0.9642132
47	0x3f6b0702	0.9180757
48	0x3f6c9251	0.9241076
49	0x3f68d284	0.9094622
50	0x3f771b77	0.96526283
51	0x3f6936b6	0.9109911
52	0x3f7782eb	0.9668414
53	0x3f76ae57	0.9635977
54	0x3f7337bb	0.9500691
55	0x3f7df1cf	0.99197096
56	0x3f7c11bf	0.9846458
57	0x3f7bd576	0.9837259
58	0x3f76b6b7	0.9637255
59	0x3f7f4e01	0.997284
60	0x3f78588f	0.9701013
61	0x3f6b6002	0.9194337
62	0x3f7e7930	0.9940367
63	0x3f6bb584	0.92073846

bias f4 [64]
0	0xbd2983e7	-0.041385558
1	0x3a51f3a2	0.00080090214
2	0xbd013e7a	-0.031553723
3	0xbd828176	-0.06372349
4	0xbd8a4bf2	-0.06752767
5	0xbd77b64f	-0.060476597
6	0x3c369e86	0.011146193
7	0xbd23070c	-0.039801642
8	0xbc9d94c6	-0.01923598
9	0xbc3c0bdf	-0.01147744
10	0xbda2089e	-0.079118
11	0xbd7c9f27	-0.061675217
12	0xbc9a32ae	-0.018822994
13	0xbc89f32e	-0.01683959
14	0xbd2e4d82	-0.042554386
15	0xbd3e9ba4	-0.04653515
16	0xbd4c334b	-0.049853604
17	0xbd21749d	-0.03941785
18	0xbcb70f2e	-0.022346105
19	0x3c519dc2	0.01279396
20	0x3d6e2302	0.058138855
21	0xbda6be92	-0.08141817
22	0xbc8c0c4a	-0.017095704
23	0xbcf56dc4	-0.029959567
24	0xbc21cc6c	-0.009875398
25	0xbcb4ab67	-0.022054387
26	0xbd36e7ac	-0.044654533
27	0xbdc84264	-0.09778288
28	0xbdd96dd2	-0.1061665
29	0xbd01b640	-0.031667948
30	0xbdafbbe5	-0.0858076
31	0xbce4baec	-0.027921163
32	0xbc2cca92	-0.010546343
33	0xbd3a1442	-0.045429476
34	0xbd9c6311	-0.07636083
35	0xbd534b6a	-0.051585592
36	0xbd1ddfbf	-0.03854346
37	0xbc45637f	-0.0120476475
38	0xbd75f3ac	-0.060046837
39	0xbd0d9a95	-0.03457125
40	0xbd411a75	-0.047144372
41	0xbd7f8c81	-0.062389854
42	0x3ad1d7f0	0.0016009789
43	0xbd78d60c	-0.060751006
44	0xbd0a7962	-0.033807166
45	0xbda77f9a	-0.08178635
46	0xbd8ee899	-0.06977958
47	0xbd617ee3	-0.05505265
48	0xbd79c025	-0.06097426
49	0xbd7f3c73	-0.06231351
50	0x3d199d15	0.03750332
51	0xbdfe87e3	-0.12428262
52	0xbe129b2f	-0.1431701
53	0xbd57700d	-0.052597094
54	0xbda86820	-0.08222985
55	0xbd1939cd	-0.03740864
56	0xbc5362b7	-0.012901953
57	0xbb441720	-0.002992101
58	0xbccf0a9f	-0.02527362
59	0xbd264bca	-0.04059962
60	0xbd16aecc	-0.036787793
61	0xbd41aea5	-0.047285695
62	0x3cd685d7	0.026186867
63	0xbd4f5cd0	-0.050625622

running_mean f4 [64]
0	0xbf0ee349	-0.5581556
1	0xbd025b2a	-0.031825222
2	0x3eaf05d0	0.34184122
3	0xbd22a359	-0.03970656
4	0xbdcf05c8	-0.101085246
5	0xbe0526f2	-0.13003138
6	0x3f478a9c	0.77945876
7	0x3e4f2940	0.2023058
8	0xbeb29cc4	-0.34885228
9	0x3d21d420	0.03950894
10	0xbe640db4	-0.22270852
11	0xbf1524d0	-0.58259296
12	0x3c662674	0.014047254
13	0xbe27a1b5	-0.1637028
14	0xbe8505f9	-0.2598112
15	0xbef3b3d4	-0.47598135
16	0xbea2f38b	-0.31826434
17	0xbf0a1464	-0.53937364
18	0x3e5563b2	0.20838812
19	0x3dd51f80	0.10406399
20	0x3e9faf24	0.3118831
21	0xbeddf628	-0.43351865
22	0x3e32bc18	0.17454565
23	0xbc900a16	-0.017582934
24	0x3f171bf2	0.59027016
25	0x3e60c1e1	0.21948959
26	0x3d5d3898	0.05400905
27	0xbe7977c8	-0.24362099
28	0xbe012553	-0.12611894
29	0xbf092444	-0.5357096
30	0x3e0de7fc	0.13858026
31	0x3d89163a	0.066936925
32	0x3e5da6be	0.21645638
33	0xbdd88e46	-0.105740115
34	0xbe1b4bb8	-0.15165603
35	0xbe067051	-0.13128783
36	0x3e4015c6	0.18758306
37	0xbe945f92	-0.28979164
38	0x3cda299c	0.026631169
39	0x3e550b99	0.20805205
40	0xbe46a184	-0.19397551
41	0xbe6ecbca	-0.23319927
42	0x3f0c7af7	0.5487513
43	0x3ec774a3	0.38956174
44	0xbdc32c85	-0.09529976
45	0x3dc96af2	0.09834851
46	0x3d036f8a	0.032088794
47	0xbe1d72f0	-0.15375876
48	0xbe06486d	-0.13113566
49	0xbe2228b3	-0.15835838
50	0x3e6bfcb3	0.23045616
51	0xbe970820	-0.29498386
52	0xbee1274d	-0.43975297
53	0xbe9f7a1c	-0.3114785
54	0x3f00cb07	0.50309795
55	0x3d13e866	0.036110304
56	0xba2c4e8b	-0.0006572983
57	0x3f044436	0.5166658
58	0xbe4243bd	-0.18971153
59	0x3e08a907	0.13345729
60	0xbe59da97	-0.21274792
61	0xbe44b0cc	-0.19208068
62	0xbe57cd87	-0.21074496
63	0xbe32aa95	-0.17447884

running_var f4 [64]
0	0x3e0b0ac7	0.1357833
1	0x3e7aa274	0.24476033
2	0x3e117d2f	0.1420791
3	0x3ded965e	0.11600946
4	0x3e9b45c4	0.30326664
5	0x3e4b193e	0.19833848
6	0x3e4958e2	0.19662812
7	0x3e106bda	0.14103642
8	0x3ec1fcb8	0.37888122
9	0x3e271c73	0.16319446
10	0x3e85d2fd	0.26137534
11	0x3ee64046	0.44970912
12	0x3e794e20	0.24346209
13	0x3e6a9c88	0.22911274
14	0x3e386132	0.18005827
15	0x3e89c73f	0.26909825
16	0x3ec8faf2	0.39253956
17	0x3e7dca27	0.24784146
18	0x3e8ab6b2	0.2709251
19	0x3e633a46	0.22190198
20	0x3e96e068	0.29468083
21	0x3e23d470	0.15999007
22	0x3e4c21fd	0.1993484
23	0x3e3604c1	0.17775251
24	0x3e3b9e0d	0.1832201
25	0x3e025762	0.12728646
26	0x3e093c35	0.13401873
27	0x3e87c8e3	0.26520452
28	0x3f13f840	0.57800674
29	0x3e8908c2	0.26764494
30	0x3e3de482	0.185442
31	0x3df6f521	0.120584734
32	0x3dec53fb	0.115394555
33	0x3e2672fe	0.16254804
34	0x3e20fbab	0.15721004
35	0x3e846581	0.2585869
36	0x3e406105	0.1878701
37	0x3e925920	0.28583622
38	0x3eba9e6a	0.36448985
39	0x3e1074be	0.14107034
40	0x3e940ce2	0.2891608
41	0x3e7b1a28	0.24521697
42	0x3e818fbc	0.25304973
43	0x3e9ca845	0.3059713
44	0x3e3d76f8	0.18502414
45	0x3e755209	0.23957075
46	0x3e8652a2	0.2623492
47	0x3e1d547a	0.15364257
48	0x3e8d55bb	0.2760447
49	0x3e89d0c2	0.26917082
50	0x3e912f13	0.28356227
51	0x3e5b5ecc	0.21422881
52	0x3e65967b	0.22420685
53	0x3e9d16cc	0.30681455
54	0x3e8ded4b	0.27720103
55	0x3ed9f57e	0.42570108
56	0x3e483dc4	0.19554812
57	0x3e5cb683	0.21553998
58	0x3e5961cf	0.21228717
59	0x3e5d228b	0.21595208
60	0x3e12479a	0.14285126
61	0x3e91215a	0.28345758
62	0x3e9eff54	0.31054175
63	0x3e3d6aef	0.18497823

weight f4 [1, 64]
0	0xbb59b522	-0.0033219536
1	0x3ba6c6ac	0.0050896015
2	0xbc007343	-0.007839981
3	0x3c2539dd	0.010084596
4	0x3bb8d996	0.0056411726
5	0x3c5a4bb4	0.013323713
6	0xbc0d1ab6	-0.008612325
7	0x3c39a57a	0.011330957
8	0xbc613969	-0.013746598
9	0x3b978aec	0.004624715
10	0x3c81aa33	0.015828228
11	0x3c778a96	0.015108725
12	0xbc7b6934	-0.015344907
13	0xbb88ecd6	-0.0041786237
14	0x3c49ed92	0.012324708
15	0xbc48b107	-0.012249238
16	0xbcae0aa7	-0.021245314
17	0xbcacdbab	-0.02110084
18	0xbbbe41fe	-0.0058062067
19	0xbc5f9a56	-0.013647636
20	0x3ba92715	0.0051621296
21	0x3c906b1c	0.017629199
22	0xbb15d9a6	-0.0022865324
23	0x3cdb3990	0.026760846
24	0x3bf2d60b	0.00741077
25	0x3c05f6fe	0.008176563
26	0x3bb3ffcc	0.00549314
27	0x3ca61277	0.020272477
28	0x3d05c00f	0.032653864
29	0xbbb4a862	-0.005513237
30	0x3c4f1fdf	0.012641876
31	0xba3c7e62	-0.00071904634
32	0xbba53ecf	-0.0050428878
33	0x3b6bb38c	0.0035965173
34	0x3bc61031	0.0060444106
35	0x3bbf9a78	0.0058472715
36	0x39be03af	0.00036242369
37	0xbc3a9d42	-0.011390032
38	0xbc92054c	-0.017824791
39	0x3b24e8aa	0.0025163093
40	0xbc8eae8c	-0.017417215
41	0xbc34db1d	-0.011038569
42	0xbc05b5dd	-0.008161035
43	0xbc966ccc	-0.018362425
44	0xbbcc488a	-0.0062342333
45	0xbbe614ef	-0.0070215384
46	0xbc669828	-0.014074363
47	0x3c4b2fef	0.012401565
48	0xbbe54475	-0.006996686
49	0xbc1d98a0	-0.009618908
50	0x3c3ee2f8	0.011650793
51	0x3cde2539	0.027117359
52	0x3c91bdc9	0.017790692
53	0x3ca08dcf	0.01959887
54	0xbc87c370	-0.016572684
55	0x3c560681	0.013063074
56	0x3bd8d7df	0.0066175307
57	0x3b4f2d92	0.0031612855
58	0xbc10adad	-0.00883047
59	0xbc19749f	-0.009366184
60	0x3b862d4c	0.0040947553
61	0x3c1d6cf9	0.009608501
62	0x3c3baade	0.011454312
63	0xbc4a19c1	-0.012335242
