Industrial Equipment/mlruns/0/1b0194120cc74837b0902f9583f276b1/artifacts/discriminator_model/data/model.pth (torch, 30142 bytes, 13 tensors)

weight f4 [64, 5]
0	0x3e183c47	0.14866744
1	0x3df2d22d	0.11856494
2	0xbed8eaa9	-0.42366531
3	0x3e4ec1ef	0.20191167
4	0x3ed7465c	0.42045867
5	0x3e68f5a5	0.22749956
6	0xbe7cbd9d	-0.24681707
7	0x3e50240d	0.20326252
8	0xbe80eac4	-0.25179112
9	0xbdd6fbee	-0.104972705
10	0xbe3f1ce2	-0.18663362
11	0xbeb9abc1	-0.3626385
12	0x3ed02ba2	0.4065829
13	0x3eb251e1	0.34828094
14	0x3ea27e79	0.31737116
15	0x3e421585	0.18953522
16	0x3ee2bcc4	0.44284642
17	0xbd5504d9	-0.052006576
18	0x3e904b6e	0.28182548
19	0xbee9dc7b	-0.45676026
20	0x3d8211a3	0.0635102
21	0x3ec655eb	0.38737425
22	0xbedf348f	-0.43594787
23	0x3e8ebf20	0.27880192
24	0xbe9e047e	-0.30862802
25	0x3c019bb8	0.007910661
26	0xbddabf2f	-0.106809966
27	0x3ec8e85f	0.39239785
28	0xbeaa19f3	-0.33222923
29	0x3eafee22	0.34361368
30	0x3ee1bb56	0.44088238
31	0x3e92d0b5	0.28674856
32	0x3eceb8f0	0.4037547
33	0xbe15cfff	-0.14630125
34	0xbe4bdb99	-0.19907989
35	0x3ebdbc8f	0.3705792
36	0x3e98702a	0.29773074
37	0x3ea5e72e	0.3240294
38	0xbe57b76d	-0.21066065
39	0xbe5638ba	-0.20920077
40	0xbe995846	-0.2995016
41	0x3e5b6ef2	0.21429041
42	0xbe8ee3d0	-0.27908182
43	0x3cd2bf65	0.02572603
44	0x3e951600	0.29118347
45	0xbed9988f	-0.42499205
46	0x3ed83503	0.42227945
47	0xbea27ebe	-0.31737322
48	0xbe8d410c	-0.2758869
49	0xbec63fb7	-0.38720486
50	0xbe372dd3	-0.17888574
51	0x3e0c3158	0.13690698
52	0xbead689c	-0.33868873
53	0x3ecebeec	0.40380037
54	0xbde162c8	-0.11005169
55	0xbe4c71aa	-0.19965234
56	0xbd61fcb7	-0.05517265
57	0x3ea4ab7c	0.32162082
58	0xbd8153c5	-0.06314806
59	0x3b9b36b4	0.0047367457
60	0x3dcb51ec	0.09927735
61	0xbed5a4f6	-0.41727418
62	0xbef03566	-0.4691574
63	0xbead34e3	-0.33829412
64	0xbe9a8494	-0.30179274
65	0xbda6bab2	-0.08141078
66	0x3edbe32c	0.42946756
67	0x3ebbe7bf	0.36700246
68	0xbe8f263d	-0.2795886
69	0xbee3605d	-0.44409457
70	0xbe4d42c2	-0.20044997
71	0xbe5aec92	-0.21379307
72	0xbebee796	-0.3728606
73	0x3c5f4cd0	0.013629153
74	0x3de8c2d0	0.113652825
75	0x3ee4df69	0.44701698
76	0x3e4adb76	0.1981028
77	0x3da0ca68	0.07851106
78	0xbce2b9a5	-0.027676413
79	0x3e3d363e	0.18477723
80	0xbdbf8b44	-0.09352735
81	0x3d928036	0.071533605
82	0x3e380652	0.17971161
83	0x3e852487	0.2600443
84	0xbeaad586	-0.3336603
85	0xbcf7330c	-0.030175708
86	0xbe681456	-0.22664008
87	0x3e7e35d4	0.24825221
88	0x3eb5488d	0.35406914
89	0x3bb6b1d6	0.005575399
90	0xbe39ede1	-0.1815715
91	0xbd608702	-0.054816253
92	0x3eaaa684	0.33330166
93	0x3e7ca82f	0.24673532
94	0x3ecb1001	0.39660648
95	0x3c1498fd	0.009069678
96	0x3eba04ca	0.3633178
97	0x3ea06a62	0.31331164
98	0x3ebbe288	0.36696267
99	0x3e8bdf90	0.27319002
100	0xbe6f32a5	-0.23359163
101	0xbe969eda	-0.2941807
102	0xbe8e7335	-0.2782227
103	0x3df1e8af	0.11811959
104	0x3e8c78fb	0.2743605
105	0xbdc4b2f9	-0.09604449
106	0xbe84e40d	-0.2595524
107	0x3ea49ad9	0.3214939
108	0x3e58035a	0.21095029
109	0xbeab44a1	-0.33450797
110	0x3e91d924	0.28485978
111	0xbeaea8f4	-0.34113276
112	0x3dedc301	0.1160946
113	0x3e1ebc35	0.15501483
114	0xbec1af69	-0.3782914
115	0xbea05c3e	-0.31320375
116	0x3c093591	0.008374588
117	0xbda20c9e	-0.07912563
118	0xbee05641	-0.43815807
119	0xbea3ac06	-0.3196718
120	0x3ec908d2	0.39264542
121	0xbd5f88b1	-0.05457372
122	0x3e09e25b	0.13465254
123	0xbed3c474	-0.4136082
124	0xbe0e67a2	-0.1390672
125	0x3e74abd7	0.23893677
126	0x3ac8c3ae	0.0015317106
127	0xbe9c498c	-0.30524862
128	0x3eae0a24	0.33992112
129	0x3d356db3	0.04429407
130	0xbead0586	-0.33793277
131	0x3ecbb0c9	0.39783314
132	0xbe639d0c	-0.22227877
133	0x3eb4c25c	0.35304534
134	0xbe2fc66c	-0.17165536
135	0xbe94257f	-0.28934857
136	0x3e950fad	0.29113522
137	0xbd52bece	-0.051451497
138	0x3e4606d7	0.19338547
139	0x3e6ea6c0	0.23305798
140	0x3b96dcce	0.0046039587
141	0xbe2a648e	-0.16639921
142	0xbe77e999	-0.24210204
143	0xbdcc181a	-0.099655345
144	0x3eabd612	0.3356176
145	0x3ed0b100	0.4076004
146	0xbe3834d8	-0.17988908
147	0xbe8e5fe9	-0.2780755
148	0x3e5e89f1	0.21732308
149	0xbd5835a1	-0.05278552
150	0x3ed0d371	0.40786317
151	0xbee25d89	-0.44211987
152	0x3dbc0d78	0.091822565
153	0x3e937589	0.2880061
154	0x3d65a9de	0.0560702
155	0x3d7b3677	0.06133124
156	0x3ebe4a3d	0.37166014
157	0xbe72c9fa	-0.2370986
158	0xbeb8324d	-0.35975876
159	0xbea9c259	-0.33156088
160	0xbd70803c	-0.058716044
161	0x3ed49de3	0.41526708
162	0x3e618039	0.2202157
163	0x3e82c894	0.25543654
164	0xbed0ef2a	-0.40807468
165	0x3ee7fc5a	0.45309716
166	0xbe86ca34	-0.26326144
167	0xbecf8872	-0.40533787
168	0xbdb52cfc	-0.08846471
169	0x3ec99843	0.3937398
170	0xbdcc8cb4	-0.099877745
171	0x3db4fbf8	0.08837122
172	0xbeea2ce5	-0.45737377
173	0xbe10a980	-0.14127159
174	0x3ebaff93	0.36523113
175	0x3debe783	0.11518767
176	0x3cc040ad	0.02346834
177	0x3e714c9d	0.23564382
178	0xbdeba771	-0.11506546
179	0xbe52a5be	-0.20571038
180	0xbcaf32af	-0.021386473
181	0x3eca3bc2	0.39498717
182	0x3e7c27ca	0.24624553
183	0x3d615f1c	0.055022344
184	0xbea06acd	-0.31331483
185	0x3d9aa767	0.07551461
186	0xbdc674ec	-0.0969027
187	0x3e84c809	0.25933865
188	0x3def5ca3	0.11687591
189	0xbe600735	-0.2187775
190	0xbd3edde3	-0.046598326
191	0x3eb3b6d6	0.3510043
192	0x3c43a152	0.011940317
193	0xbd81c011	-0.06335462
194	0xbda9a984	-0.08284286
195	0xbeb772a4	-0.3582965
196	0x3e961010	0.2930913
197	0x3ebd7d02	0.37009436
198	0x3bac384e	0.0052557355
199	0x3d857684	0.06516746
200	0xbe40be4a	-0.1882259
201	0x3d30b454	0.043140724
202	0x3e75dee6	0.2401081
203	0x3e186d70	0.14885497
204	0x3e9dd7c2	0.30828673
205	0x3ee23390	0.44179964
206	0xbe3b693b	-0.18301861
207	0x3ec3b4b7	0.38223812
208	0x3e96f58d	0.29484215
209	0xbe6fc295	-0.23414071
210	0xbe8cfa56	-0.2753474
211	0x3ebf0daa	0.37315112
212	0x3e9763ca	0.2956832
213	0xbd935362	-0.071936384
214	0x3e0d5140	0.13800526
215	0x3e89a22f	0.2688155
216	0xbe30444e	-0.17213556
217	0x3e919ea2	0.2844134
218	0xbe417eb0	-0.18895984
219	0xbe5e6c7d	-0.21721072
220	0x3e46a00f	0.19396995
221	0x3edd2cf3	0.43198356
222	0xbd913c02	-0.07091524
223	0x3db41bff	0.08794402
224	0xbe9c1547	-0.30484983
225	0xbec9df01	-0.3942795
226	0x3bd21e5a	0.0064123096
227	0x3dd52e9e	0.10409282
228	0x3d8eadd6	0.0696675
229	0xbeb6e37d	-0.35720435
230	0x3d8bb3c0	0.06821394
231	0xbe5ad89b	-0.21371691
232	0xbb0ff722	-0.002196737
233	0x3d5b4a6a	0.053537764
234	0xbea9d2bf	-0.331686
235	0x3c7f6fc9	0.0155906165
236	0x3eddee96	0.4334609
237	0xbe4f8580	-0.2026577
238	0x3d5f384f	0.05449706
239	0x3e2cd39d	0.16877599
240	0xbe9cc6ff	-0.30620572
241	0x3ecce7c9	0.40020588
242	0x3d3005da	0.04297433
243	0xbe05cc9d	-0.13066335
244	0x3e88e0b5	0.26733938
245	0x3ee2e29e	0.4431352
246	0xbe97efda	-0.2967518
247	0xbecd290c	-0.4007038
248	0xbcf579f5	-0.02996538
249	0xbc6cbe56	-0.0144496765
250	0xbeaa91c6	-0.3331434
251	0x3c278106	0.010223633
252	0xbeb31780	-0.34978867
253	0xbe629e30	-0.22130656
254	0x3e2dabda	0.16960087
255	0x3ebf26f7	0.37334415

bias f4 [64]
0	0xbe14db5c	-0.14536804
1	0x3ec54e58	0.38536334
2	0xbd34e143	-0.04416014
3	0x3e0ef64d	0.13961144
4	0x3ecab013	0.3958746
5	0xbdecf060	-0.115692854
6	0x3e1f1989	0.15537085
7	0x3e138acf	0.1440842
8	0x3ed71fcf	0.42016456
9	0xbe7ac0d3	-0.24487619
10	0xbec683fc	-0.3877257
11	0xbe423001	-0.18963625
12	0x3e67d311	0.22639109
13	0xbc022635	-0.00794368
14	0x3eaa6049	0.33276585
15	0xbec1f7e1	-0.3788443
16	0xbde5452c	-0.11194834
17	0xbe5778c9	-0.2104217
18	0x3eda6f66	0.42663115
19	0x3e7aa4ff	0.24477004
20	0x3dcb70da	0.09933634
21	0x3e4b50ea	0.19855085
22	0xbd54d7e1	-0.05196369
23	0xbd607f47	-0.05480888
24	0xbeceb9ef	-0.4037623
25	0xbee4c0d5	-0.4467837
26	0x3ecc8b18	0.3994987
27	0xbe487928	-0.19577467
28	0x3ea4b9bf	0.32172963
29	0x3e0a58ec	0.13510484
30	0x3ea320c8	0.31860948
31	0x3ed6f4f4	0.4198376
32	0x3ea62833	0.32452545
33	0x3e976633	0.2957016
34	0x3e77d188	0.24201024
35	0x3ea1db19	0.3161247
36	0xbed7a429	-0.42117432
37	0xbec3a201	-0.38209537
38	0xbe23b832	-0.15988234
39	0x3df5cd79	0.120020814
40	0x3caea419	0.021318482
41	0x3eb24124	0.34815323
42	0xbed56daa	-0.4168523
43	0xbed49dd3	-0.4152666
44	0xbc391604	-0.011296753
45	0xbe7276d2	-0.23678139
46	0xbecbf107	-0.39832327
47	0x3ed06d78	0.40708518
48	0xbe470ad9	-0.19437732
49	0xbeaf42ef	-0.34230754
50	0xbe8768e4	-0.26447213
51	0xbe8108be	-0.25201982
52	0x3d9cbf29	0.076536484
53	0xbebfd82d	-0.37469617
54	0x3e767a51	0.24070098
55	0xbd0614b3	-0.032734584
56	0xbd05aadf	-0.03263366
57	0x3edcb91a	0.4310997
58	0x3df0c7bb	0.117568456
59	0xbe3aa8b5	-0.18228419
60	0xbe4bd04f	-0.19903682
61	0xbda1c4b0	-0.07898843
62	0xbe014ce7	-0.12626992
63	0x3e86bcf1	0.26316026

weight f4 [64]
0	0x3f77ab35	0.96745616
1	0x3f80b798	1.0056028
2	0x3f80a0d0	1.0049076
3	0x3f7ac05c	0.9794977
4	0x3f821abd	1.016441
5	0x3f73bb08	0.9520726
6	0x3f843668	1.0329103
7	0x3f812294	1.0088677
8	0x3f80701b	1.0034212
9	0x3f7a3b70	0.97746944
10	0x3f848882	1.0354159
11	0x3f793489	0.9734579
12	0x3f7ec2b7	0.9951586
13	0x3f838802	1.0275881
14	0x3f7936b3	0.9734909
15	0x3f82fe95	1.0233942
16	0x3f812150	1.0088291
17	0x3f7cd73d	0.9876593
18	0x3f81256b	1.0089544
19	0x3f8342fa	1.0254815
20	0x3f7c7af6	0.98625124
21	0x3f7d0522	0.9883596
22	0x3f805fcc	1.0029235
23	0x3f812a0e	1.0090959
24	0x3f7e1bab	0.9926097
25	0x3f829c5a	1.0203965
26	0x3f79037b	0.97270936
27	0x3f814146	1.0098045
28	0x3f808324	1.0040021
29	0x3f7bef8f	0.9841241
30	0x3f7c1dc5	0.98482925
31	0x3f817911	1.0115072
32	0x3f7d349c	0.989084
33	0x3f8418e6	1.0320098
34	0x3f756201	0.9585267
35	0x3f7ce978	0.98793745
36	0x3f81393a	1.0095589
37	0x3f7cf54b	0.9881179
38	0x3f80e04f	1.0068454
39	0x3f81cbeb	1.0140356
40	0x3f80b229	1.005437
41	0x3f78fb15	0.9725812
42	0x3f7e7b37	0.9940676
43	0x3f807a23	1.0037273
44	0x3f7897db	0.97106713
45	0x3f815f00	1.0107117
46	0x3f835b34	1.0262208
47	0x3f7ec42e	0.99518096
48	0x3f80b13c	1.0054088
49	0x3f800049	1.0000087
50	0x3f802a16	1.0012844
51	0x3f855e56	1.0419414
52	0x3f7e0445	0.99225265
53	0x3f811f48	1.0087671
54	0x3f76c14d	0.96388704
55	0x3f77dac3	0.9681818
56	0x3f8081b4	1.0039582
57	0x3f8003b6	1.0001132
58	0x3f845d98	1.0341063
59	0x3f80c1f5	1.0059191
60	0x3f80a2f8	1.0049734
61	0x3f804acc	1.0022826
62	0x3f7abf21	0.9794789
63	0x3f81d126	1.0141952

bias f4 [64]
0	0xbc8a2780	-0.016864538
1	0x3c672600	0.014108181
2	0xbbf261ea	-0.007396926
3	0xbca3e686	-0.020007383
4	0x3cdcb386	0.026941072
5	0xbd3ab38a	-0.045581378
6	0x3c8d7518	0.017267749
7	0x3c0fb0c3	0.008770171
8	0xbcb9b089	-0.022667186
9	0xbcb1b3be	-0.021692153
10	0xba4df8b0	-0.0007857187
11	0xbce2aef7	-0.02767132
12	0xbc4f5521	-0.012654574
13	0x3ca4d8e1	0.020122947
14	0xbc3fc184	-0.011703853
15	0x3bc977aa	0.0061482983
16	0x3c2e3d44	0.010634724
17	0xbca4db01	-0.02012396
18	0xbbd7771c	-0.0065754782
19	0x3c2b538e	0.010456933
20	0xbd0b9e64	-0.0340866
21	0xbc7a88e6	-0.015291428
22	0xbcf76b45	-0.030202517
23	0x3bb43825	0.005499857
24	0xbb6500ef	-0.0034943183
25	0x3be9fe22	0.0071408907
26	0xbcd1ce23	-0.025610989
27	0xbc4c167a	-0.012456531
28	0x3ac281ed	0.0014839746
29	0xbcc59c55	-0.024122396
30	0xbcc02b2e	-0.02345809
31	0xbba10d31	-0.0049149026
32	0xbd30635d	-0.04306351
33	0xbbb004e0	-0.005371675
34	0xbd345b4f	-0.04403239
35	0xbace45c3	-0.0015737343
36	0x3b0a8c33	0.0021140694
37	0xbc4485b1	-0.011994765
38	0x3bd48ea3	0.00648673
39	0x3c015a97	0.007895133
40	0xbb1c6a8e	-0.0023867222
41	0xbc4cb440	-0.012494147
42	0xbc040376	-0.008057466
43	0xbba2a23c	-0.0049631875
44	0xbc975f5a	-0.018478084
45	0xbc3153bd	-0.010823187
46	0xbc24a2c4	-0.010048572
47	0xbca9db7e	-0.020734545
48	0xbc2beae3	-0.010493013
49	0x3b51f422	0.0032036384
50	0xbc438035	-0.011932422
51	0xbc44b1be	-0.012005268
52	0xbcfc2487	-0.030779136
53	0xba6095a9	-0.0008567223
54	0xbd011f0d	-0.031523753
55	0xbc4d6d26	-0.01253823
56	0xbc17a8ed	-0.009256584
57	0xbb650149	-0.0034943393
58	0xb998d72b	-0.00029152012
59	0xbc2c9dce	-0.01053567
60	0xbbabbcfd	-0.005241035
61	0xbc710eb1	-0.014712975
62	0xbd23fc5b	-0.040035587
63	0xbc5c4202	-0.013443472

running_mean f4 [64]
0	0xbe1fb8eb	-0.15597884
1	0x3eb8d4bc	0.36099803
2	0x3d91bd2f	0.07116162
3	0x3d2d91f9	0.04237554
4	0x3ea89c8c	0.32931936
5	0xbdc3db27	-0.09563284
6	0x3d0dd09d	0.034622777
7	0x3cec85f8	0.028872475
8	0x3eeaf18f	0.4588742
9	0xbe875caf	-0.264379
10	0xbebaf526	-0.36515158
11	0xbe17bcf3	-0.14818172
12	0x3e601139	0.2188157
13	0xbda30e56	-0.07961719
14	0x3ec99030	0.3936782
15	0xbeeeecec	-0.46665132
16	0xbdde76d1	-0.10862506
17	0xbe20f275	-0.1571749
18	0x3f00c891	0.5030604
19	0x3e73fef4	0.23827726
20	0x3e439ac2	0.19102004
21	0x3e76ddc5	0.24108036
22	0xbd925f86	-0.07147126
23	0xbd36f718	-0.04466924
24	0xbefa98a1	-0.48944572
25	0xbef18206	-0.47169513
26	0x3ed38e39	0.41319445
27	0xbe23a3b3	-0.15980415
28	0x3eb41563	0.35172567
29	0x3dbd0351	0.09229148
30	0x3ea4be80	0.3217659
31	0x3ea69089	0.32532147
32	0x3e8df3b2	0.27724987
33	0x3e872553	0.26395664
34	0x3e830195	0.25587144
35	0x3e8f48df	0.27985284
36	0xbef3ea1d	-0.47639552
37	0xbec5d12b	-0.38636145
38	0xbe4e5998	-0.20151365
39	0x3e1dd8f1	0.15414788
40	0x3d9bad80	0.07601452
41	0x3e9ae80a	0.30255157
42	0xbed0432c	-0.40676248
43	0xbeea4bf6	-0.4576108
44	0xbddf7564	-0.10911062
45	0xbe3fd818	-0.18734777
46	0xbecd3129	-0.4007657
47	0x3eb9a4a1	0.36258414
48	0xbe39a655	-0.18129857
49	0xbec71c94	-0.3888899
50	0xbe5d4c39	-0.21611108
51	0xbe961ab7	-0.29317257
52	0x3cd614c2	0.026132945
53	0xbed02c00	-0.4065857
54	0x3e32b1b6	0.17450604
55	0x3abbe288	0.0014334479
56	0x3c007c74	0.007842172
57	0x3eeb544b	0.45962748
58	0x3c38ddf3	0.011283386
59	0xbe8fe481	-0.28104022
60	0xbe4f2cc1	-0.20231916
61	0xbe115ca9	-0.14195503
62	0xbdf1fe68	-0.11816102
63	0x3eaa70aa	0.3328908

running_var f4 [64]
0	0x3e096cb0	0.13420367
1	0x3da20773	0.07911577
2	0x3e473869	0.19455113
3	0x3e4dc95a	0.20096341
4	0x3e365854	0.17807132
5	0x3e067a66	0.13132629
6	0x3e39cdb8	0.18144882
7	0x3e1bf2c3	0.15229325
8	0x3dd19c7a	0.10234924
9	0x3e6d5f69	0.23180927
10	0x3de4e740	0.1117692
11	0x3d40cc0b	0.04706959
12	0x3e6a60a8	0.22888434
13	0x3e5342a2	0.20630887
14	0x3dace6a9	0.084424324
15	0x3dc916c2	0.09818794
16	0x3d9e061d	0.0771601
17	0x3da3d760	0.08000064
18	0x3e07c6db	0.13259451
19	0x3e2b1612	0.16707638
20	0x3de8554d	0.11344395
21	0x3ddb750b	0.107156835
22	0x3e07c556	0.13258871
23	0x3e0bafac	0.13641232
24	0x3e04a0a2	0.12951902
25	0x3dad0cb4	0.084496886
26	0x3e2acbb8	0.16679275
27	0x3dc5ec5c	0.096642226
28	0x3d96a598	0.07355803
29	0x3dddd135	0.10830919
30	0x3e1f0c3c	0.15532011
31	0x3e1ef359	0.15522517
32	0x3e2e7e30	0.17040324
33	0x3e4ab943	0.19797234
34	0x3dfbd172	0.12295808
35	0x3d2add65	0.041715045
36	0x3df22872	0.118241206
37	0x3d3f4e78	0.046705693
38	0x3d4ef466	0.050526045
39	0x3dfcab7b	0.12337395
40	0x3d9ff678	0.07810682
41	0x3e34df4d	0.17663307
42	0x3deda436	0.116035864
43	0x3db86e70	0.09005439
44	0x3e030502	0.12794879
45	0x3dc791cc	0.097446054
46	0x3d6d6571	0.05795807
47	0x3db96878	0.09053129
48	0x3dfc1b8a	0.1230994
49	0x3e1cf0ce	0.15326235
50	0x3dde3417	0.10849779
51	0x3d84e7a5	0.06489495
52	0x3e01bc6b	0.12669532
53	0x3db0303b	0.08602949
54	0x3e18d104	0.14923483
55	0x3e042405	0.12904365
56	0x3d354a26	0.044260167
57	0x3dc47bc9	0.09593923
58	0x3e21e3b4	0.15809518
59	0x3dbd7ebc	0.09252688
60	0x3d90e516	0.07074945
61	0x3e1e8151	0.15479018
62	0x3dac4057	0.08410709
63	0x3d9bf4a9	0.076150246

weight f4 [64, 64]
0	0x3af6342d	0.001878386
1	0x3d303bc1	0.043025736
2	0x3defc605	0.11707691
3	0xbd236c9a	-0.039898492
4	0xbbcb7b41	-0.0062097614
5	0xbdb44155	-0.088015236
6	0xbd13e8f4	-0.036110833
7	0xbccb278c	-0.02479913
8	0xbe0f3dd8	-0.13988435
9	0x3b13a8e6	0.0022531091
10	0xbd9d5e20	-0.076839685
11	0x3d1edc8e	0.038784556
12	0x3cba523c	0.02274429
13	0x3d053cf5	0.032528836
14	0xbdc44207	-0.09582906
15	0x3d91ad9b	0.07113191
16	0x3cee65a4	0.0291012
17	0xbdcd0e88	-0.10012537
18	0xbdbb5c5c	-0.091484755
19	0x3dc2a215	0.09503571
20	0x3d2b8556	0.041875206
21	0x3d54ade6	0.051923655
22	0x3d1741d3	0.03692801
23	0xbd1ae058	-0.037811607
24	0x3b5bb41d	0.0033524104
25	0xbe2e991e	-0.17050597
26	0xbd573c7c	-0.052547917
27	0x3b3df898	0.0028987285
28	0x3d51448d	0.051090766
29	0xbceaa296	-0.02864198
30	0x3dc9e30b	0.09857758
31	0x3d64b336	0.05583497
32	0xbdb4ccc6	-0.0882812
33	0x3db9d83f	0.09074449
34	0x3dc26691	0.09492219
35	0xbdb8fc5c	-0.09032509
36	0x3d5442d3	0.05182154
37	0x3cc51e22	0.02406222
38	0x3cabe66a	0.020983893
39	0xbd6ad62b	-0.057333153
40	0xbd560f56	-0.05226072
41	0x3d8fb3df	0.070167296
42	0xbd29eaa8	-0.04148355
43	0x3d84fb6f	0.0649327
44	0x3c04d0de	0.008106438
45	0x3dc6cc61	0.09706951
46	0x3ce19467	0.027536584
47	0xbe121aff	-0.1426811
48	0xbd5bc984	-0.053658977
49	0xbbbd760e	-0.0057818955
50	0xbdaece84	-0.085354835
51	0x3de9c81c	0.11415121
52	0xbdee9330	-0.116491675
53	0x3d4df160	0.05027902
54	0x3d37309b	0.04472409
55	0xbdc46bdb	-0.09590884
56	0xbd848814	-0.06471267
57	0x3d36611c	0.044526204
58	0x3e019f62	0.12658456
59	0x3d186c0d	0.03721242
60	0x3d8b5632	0.0680355
61	0x3d83a741	0.064283855
62	0xbc3390b1	-0.01095979
63	0x3dc5bd02	0.09655191
64	0x3d46a4a5	0.04849686
65	0xb9e6f20e	-0.00044049363
66	0x3d99945e	0.07499002
67	0xbcb21fc1	-0.021743657
68	0x3db2ed66	0.087366864
69	0xbda6586f	-0.08122336
70	0xbe1599fc	-0.14609522
71	0xbcfa2061	-0.030533018
72	0x3daa6563	0.08320119
73	0x3dc9e44f	0.098579995
74	0xbd82600c	-0.06365976
75	0x3d60b0f6	0.054856263
76	0x3d5cd600	0.053915024
77	0x3dd139d3	0.10216107
78	0xbc88b24b	-0.01668658
79	0xbd257292	-0.040392466
80	0xbdd499cd	-0.10380898
81	0x3d550501	0.052006725
82	0x3d4c0a99	0.049814794
83	0xbd99cd8f	-0.0750991
84	0x3ce5646b	0.028001985
85	0xbd6d5f52	-0.057952233
86	0xbd1d5138	-0.038407534
87	0x3da9c13f	0.08288812
88	0xbd60ae38	-0.054853648
89	0x3d92db40	0.07170725
90	0x3d887ac7	0.06664043
91	0x3cb937cd	0.022609616
92	0x3d9202a1	0.07129408
93	0xbc363400	-0.011120796
94	0xbcb56c67	-0.022146417
95	0x3d5370dc	0.051621303
96	0x3db05d45	0.0861154
97	0x3dd637c1	0.10459853
98	0x39b22182	0.0003397577
99	0x3c8b96e0	0.017039716
100	0x3cd95b66	0.02653284
101	0xbda1030d	-0.0786191
102	0x3d8bb7a4	0.06822136
103	0xbc2de1d5	-0.010612925
104	0xbe01c8a3	-0.12674193
105	0x3d474819	0.048652742
106	0x3d86f4fc	0.06589696
107	0xbc174fbe	-0.009235321
108	0x3dc6d00f	0.09707653
109	0x3da7f43c	0.08200881
110	0xbb4a8209	-0.003090026
111	0xbd85f943	-0.065416835
112	0xba7b29c4	-0.00095811137
113	0x3d5eee2f	0.05442637
114	0x3dc134cb	0.094338976
115	0x3e0773d7	0.13227783
116	0xbdca4da5	-0.09878091
117	0x3a6ea429	0.0009103441
118	0xbc3b38be	-0.011427103
119	0xbd871bfa	-0.06597133
120	0xbdda642d	-0.10663638
121	0xbd731e2d	-0.05935495
122	0xbe07be9a	-0.13256302
123	0x3dbbf993	0.09178462
124	0xbd79d620	-0.06099522
125	0x3d33c06c	0.04388468
126	0x3d4c8edb	0.049940925
127	0x3df64660	0.12025142
128	0x3cbec32f	0.02328643
129	0xbd2a9a55	-0.04165109
130	0xbda96ef4	-0.08273116
131	0xbcc4b5d3	-0.024012482
132	0xbc6a4953	-0.014299708
133	0xbc212dae	-0.009837551
134	0x3de23624	0.11045483
135	0x3cd82dfd	0.026389116
136	0x3de44e7b	0.111477815
137	0xbb0aa067	-0.0021152736
138	0x3d213e6e	0.03936618
139	0xbdd2b8fa	-0.10289188
140	0x3ae2a644	0.0017291983
141	0xbce244c8	-0.027620688
142	0x3db4558f	0.088053815
143	0x3ce1153a	0.027475942
144	0xbe03af8b	-0.12859933
145	0xbcc1c29e	-0.023652371
146	0xbd1c71f9	-0.03819463
147	0x3c8e5313	0.017373597
148	0x3d98063c	0.07423064
149	0xbc665028	-0.014057197
150	0xbce5baf8	-0.028043255
151	0x3e149986	0.1451169
152	0x3da2c3e4	0.079475194
153	0xbdcb1423	-0.0991595
154	0x3dab2deb	0.083583675
155	0xbdb9b711	-0.0906812
156	0xbc84aaa0	-0.016194642
157	0x3d022330	0.03177184
158	0x3d37160a	0.044698752
159	0x3dea1e79	0.114315934
160	0x3b751875	0.003739861
161	0xbd99ba98	-0.07506293
162	0x3da6fbfb	0.0815353
163	0x3af38c5f	0.0018581263
164	0x3db9794d	0.090563394
165	0xbcb0ca6a	-0.021580894
166	0xbd4cacb9	-0.04996941
167	0x3bcedc7f	0.0063129063
168	0x3b2a5324	0.0025989497
169	0x3da048ed	0.078264095
170	0x3dc32efd	0.09530447
171	0x3dea7527	0.11448126
172	0xbbc81afe	-0.0061067333
173	0x3de6318c	0.11239919
174	0x3ce25826	0.027629923
175	0xbd02b6a1	-0.03191245
176	0xbe01e059	-0.12683238
177	0x3d8a9d14	0.067682415
178	0xbd502a3a	-0.05082152
179	0xbdebe5e1	-0.11518455
180	0x3c4314fb	0.011906858
181	0x3c19fc27	0.009398497
182	0x3d30c851	0.043159787
183	0xbd83845d	-0.06421731
184	0x3d2213f3	0.039569806
185	0xbe070388	-0.13184941
186	0x3dbb2e33	0.09139671
187	0xbce3f7cd	-0.027828122
188	0x3cd24798	0.025668904
189	0x3d6296bb	0.05531953
190	0x3e07b690	0.13253236
191	0xbb4e1d18	-0.0031450447
192	0xbd1c1737	-0.038108077
193	0xbbeb4e4a	-0.0071809636
194	0x3db084ea	0.08619101
195	0x3db9c699	0.090710826
196	0x3de63387	0.11240297
197	0xbd17534a	-0.036944665
198	0xbdc07b27	-0.093984894
199	0x3c982166	0.018570613
200	0xbdc96b23	-0.09834888
201	0xbb428342	-0.0029680287
202	0xbc064e79	-0.00819742
203	0xbdad95d8	-0.08475846
204	0xbd9b2fd6	-0.07577483
205	0x3c903d50	0.017607361
206	0x3da15f19	0.078794666
207	0xbe138607	-0.14406596
208	0x3d85cb47	0.06532913
209	0x3c093df2	0.008376585
210	0xbdd7f81d	-0.10545371
211	0xbdb25b56	-0.08708827
212	0x3df369f4	0.11885443
213	0xbce97eb4	-0.0285028
214	0x3c9e1a1f	0.019299565
215	0xbd069995	-0.03286131
216	0xbe045654	-0.12923557
217	0x3c97b78b	0.018520137
218	0xbc77df12	-0.015128868
219	0xbd9f21a9	-0.07770092
220	0x3bbfc084	0.005851807
221	0xbdcbf04b	-0.099579416
222	0x39d53c34	0.0004067138
223	0xbd60c29a	-0.054873087
224	0x3db0d2cb	0.086339556
225	0xbdbba116	-0.09161584
226	0x3ce3d6ce	0.027812388
227	0xbce08ccd	-0.027410889
228	0xbda380d9	-0.0798356
229	0xbd863ec7	-0.065549426
230	0x3dd363e7	0.10321789
231	0xbd81d0c1	-0.06338645
232	0xbda7211b	-0.08160611
233	0x3ac3d776	0.0014941532
234	0xbcdeaa97	-0.027180953
235	0x3ad68fff	0.0016369818
236	0xbd5b4683	-0.053534042
237	0x3d83a206	0.06427388
238	0xbdf7a0c2	-0.12091209
239	0x3ddbc010	0.107299924
240	0xbdd56d62	-0.10421254
241	0x3dac20d1	0.08404697
242	0xbd85193a	-0.06498952
243	0xbe18f297	-0.1493629
244	0xbdd27bcf	-0.10277521
245	0xbdfeb621	-0.12437082
246	0xbd90ca37	-0.070698194
247	0x3d30c144	0.043153062
248	0xbdb18ade	-0.08669065
249	0xbd86dfb9	-0.065856405
250	0xbda56aec	-0.08077034
251	0x3ce09cfd	0.027418608
252	0xbe02e2df	-0.12781857
253	0xbc8a9c8b	-0.016920349
254	0xbe007dcc	-0.12547988
255	0xbcb17959	-0.021664308

bias f4 [64]
0	0xbdfe87fc	-0.12428281
1	0xbdbc8d30	-0.09206617
2	0x3d9f0167	0.07763939
3	0xbd6398e2	-0.055565722
4	0x3d7da018	0.061920255
5	0x3d527f09	0.05139068
6	0x3d51fcbe	0.051266424
7	0x3d968565	0.07349662
8	0xbd470684	-0.0485902
9	0xbd9d4ebc	-0.07681033
10	0x3dd25181	0.10269452
11	0x3dc5241e	0.096260294
12	0x3d7fe5d4	0.06247504
13	0xbd529124	-0.051407948
14	0x3deea362	0.116522565
15	0xbd85f75d	-0.065413214
16	0xbd45462d	-0.048162628
17	0xbd5cea40	-0.053934336
18	0x3dd4948e	0.10379897
19	0xbd133ea4	-0.03594841
20	0x3c13240d	0.008980763
21	0x3c6c987f	0.014440655
22	0x3be56f42	0.0070017884
23	0x3bcd3300	0.006262183
24	0x3dba884e	0.09108029
25	0x3dc202a2	0.094731584
26	0x3de2d2d2	0.11075367
27	0xbde386a8	-0.11109668
28	0x3df75019	0.12075824
29	0xbd5e6c4a	-0.05430249
30	0x3d94f2f4	0.07272902
31	0xbd83f5db	-0.064433776
32	0x3ab2a903	0.0013630692
33	0x3dcb3cee	0.09923731
34	0xbdd1612f	-0.102236144
35	0xbdb2d1ed	-0.087314464
36	0x3deef047	0.11666923
37	0x3dfe9769	0.12431223
38	0x3c6adcbb	0.014334853
39	0x3d04f753	0.03246243
40	0x3de4e85d	0.11177132
41	0xbda1c313	-0.078985356
42	0xbdde5443	-0.108559154
43	0xbde0da8b	-0.10979184
44	0x3bb218d0	0.005435087
45	0xbd57ac5d	-0.052654613
46	0xbd0981cf	-0.03357106
47	0xbde22397	-0.110419445
48	0xbd308486	-0.043095134
49	0x3b946a2a	0.0045292573
50	0xbcee9775	-0.029124955
51	0x3d3e897f	0.046517845
52	0xbda88ab3	-0.0822958
53	0x3dcc62f9	0.09979815
54	0x3d8b9db9	0.068171926
55	0xbd09d162	-0.03364695
56	0x3dfc59d1	0.123218186
57	0x3de40770	0.11134231
58	0x3dd5335f	0.10410189
59	0x3dff2f83	0.12460234
60	0xbdf25d23	-0.11834171
61	0xbb44af84	-0.0030011842
62	0x3cde4d1e	0.027136382
63	0xbc997508	-0.018732563

weight f4 [64]
0	0x3f6cbec5	0.9247859
1	0x3f76b968	0.9637666
2	0x3f7ac7a5	0.97960883
3	0x3f80d575	1.0065142
4	0x3f70d4e9	0.94074875
5	0x3f80532e	1.0025384
6	0x3f6b5e97	0.9194121
7	0x3f7384d5	0.9512456
8	0x3f7fd786	0.9993824
9	0x3f7630fe	0.96168506
10	0x3f674f7a	0.90355647
11	0x3f78e089	0.97217613
12	0x3f6c218b	0.9223868
13	0x3f68e506	0.9097446
14	0x3f68d7fc	0.90954566
15	0x3f7ddca1	0.9916478
16	0x3f6f5f3b	0.93504685
17	0x3f759425	0.95929176
18	0x3f66cb25	0.90153724
19	0x3f760e26	0.9611534
20	0x3f80569b	1.002643
21	0x3f80dc91	1.0067312
22	0x3f6c7862	0.9237119
23	0x3f7687ef	0.9630117
24	0x3f74b841	0.9559365
25	0x3f730650	0.9493151
26	0x3f7b9c3c	0.9828527
27	0x3f6c8b86	0.92400396
28	0x3f7ba97e	0.983055
29	0x3f7b1586	0.9807972
30	0x3f7b9e1a	0.9828812
31	0x3f6c530d	0.92314225
32	0x3f7a74f4	0.97834706
33	0x3f76706c	0.9626529
34	0x3f7dcbc0	0.9913902
35	0x3f6faafc	0.93620276
36	0x3f8234f7	1.0172414
37	0x3f6a723a	0.91580546
38	0x3f708d0d	0.93965226
39	0x3f79add9	0.97530895
40	0x3f6e0bda	0.92986834
41	0x3f783987	0.9696278
42	0x3f7bcdc5	0.98360854
43	0x3f6c9f35	0.9243043
44	0x3f76577b	0.96227235
45	0x3f6eb350	0.9324236
46	0x3f7d1c28	0.9887109
47	0x3f6b3834	0.91882634
48	0x3f6c629c	0.92337966
49	0x3f75b637	0.9598116
50	0x3f8090a6	1.0044143
51	0x3f67e39f	0.905817
52	0x3f749761	0.95543486
53	0x3f6ea40e	0.9321908
54	0x3f7dce99	0.9914337
55	0x3f6be8ea	0.92152274
56	0x3f7f8741	0.99815756
57	0x3f6db0ff	0.928482
58	0x3f70b825	0.9403098
59	0x3f81d50e	1.0143144
60	0x3f67df8f	0.905755
61	0x3f6a1cde	0.914503
62	0x3f71aca8	0.9440408
63	0x3f727ba5	0.94719917

bias f4 [64]
0	0xbd34bb96	-0.04412421
1	0xbd87c819	-0.066299625
2	0xba78171a	-0.00094638916
3	0x3c52a5a6	0.0128568765
4	0xbdcdf86b	-0.100571476
5	0x3c5e38db	0.01356336
6	0xbd920d5b	-0.071314536
7	0xbc9573e4	-0.018243738
8	0x3c811db2	0.01576123
9	0xbc737451	-0.014859275
10	0xbdac88b5	-0.08424512
11	0xbd0edbfd	-0.034877766
12	0xbd8a17ea	-0.067428425
13	0xbcc7df1b	-0.024398377
14	0xbd94c6c4	-0.07264474
15	0x3d396c50	0.04526931
16	0xbc194fa7	-0.0093573695
17	0xbb99ea63	-0.0046971305
18	0xbdec00fd	-0.11523626
19	0x3b5fdc39	0.0034158363
20	0x3c201aa1	0.009771974
21	0xbb69919b	-0.0035639766
22	0xbdded794	-0.10880962
23	0xbd9a38f2	-0.07530393
24	0xbd26624c	-0.040621087
25	0xbd3e52d8	-0.046465725
26	0x3cac7e56	0.021056335
27	0xbd21d31b	-0.039507966
28	0xbb0dda39	-0.0021644963
29	0xbb21747a	-0.0024636076
30	0xbcb06e86	-0.021537077
31	0xbd49efc9	-0.049300943
32	0xbd5ac613	-0.053411555
33	0xbd96c050	-0.073608994
34	0xbcdf31d4	-0.02724544
35	0xbd80f69d	-0.06297038
36	0xb9ff2a68	-0.00048668985
37	0xbdb29281	-0.0871935
38	0xbd3bbe13	-0.045835566
39	0xbcf88793	-0.030338084
40	0xbc6e28df	-0.014536112
41	0xbd04dd3a	-0.03243754
42	0xbc935e5f	-0.017989336
43	0xbd944100	-0.0723896
44	0xbcd9a1ec	-0.026566468
45	0xbc2e82c6	-0.010651296
46	0xbd5d1528	-0.053975254
47	0xbd44bb47	-0.048030164
48	0xbcf18ef0	-0.029487103
49	0xbbc42fd9	-0.005987149
50	0x3c243677	0.010022751
51	0xbd595be8	-0.053066164
52	0xbc8f1ea1	-0.01747066
53	0xbd55a5af	-0.05215996
54	0x3c24b675	0.010053267
55	0xbd6b10eb	-0.05738918
56	0x3d116486	0.035496257
57	0xbd3f38b7	-0.046684947
58	0xbc22746a	-0.009915451
59	0x3c0807e8	0.008302666
60	0xbd7b4082	-0.061340816
61	0xbcf226a6	-0.029559445
62	0x38c9d4d4	9.624069e-05
63	0xbd16acf2	-0.036786027

running_mean f4 [64]
0	0xbdab1f57	-0.08355587
1	0x3e38cdb5	0.18047221
2	0x3ea6123c	0.32435787
3	0xbf44fa33	-0.76944274
4	0x3dea9029	0.114532776
5	0x3ec87323	0.39150342
6	0xbe4f35e6	-0.20235404
7	0x3e136dec	0.143974
8	0x3dc7179a	0.097212985
9	0xbed9472f	-0.4243712
10	0xbe38d605	-0.18050392
11	0xbd2cf74b	-0.042228024
12	0x3d108d65	0.035291094
13	0xbd0c38ca	-0.034233846
14	0x3e422de8	0.18962824
15	0xbde257bc	-0.1105189
16	0xbe878ada	-0.26473123
17	0x3dbf6990	0.09346306
18	0x3e764946	0.24051389
19	0x3cc08cd0	0.023504645
20	0xbf17d198	-0.5930419
21	0xbd943bfa	-0.07238002
22	0xbea07421	-0.313386
23	0xbe8c39ac	-0.2738775
24	0xbf14a40e	-0.5806283
25	0xbd129bba	-0.035793044
26	0x3db7fef9	0.08984179
27	0xbd8e961e	-0.06962226
28	0x3ed21a41	0.41035655
29	0xbd0f2379	-0.03494594
30	0xbe41c442	-0.18922523
31	0xbe2d231f	-0.16907929
32	0x3ecee1fb	0.40406784
33	0xbe380474	-0.17970449
34	0x3ea11430	0.31460714
35	0xbe44098a	-0.19144264
36	0x3e1af717	0.1513332
37	0xbe41d6c4	-0.18929583
38	0x3e01a181	0.12659265
39	0x3d8178d3	0.063218735
40	0x3ec67cf7	0.38767216
41	0xbe953e8d	-0.29149285
42	0xbeacf650	-0.33781672
43	0xbe77d498	-0.24202192
44	0xbe598e60	-0.21245718
45	0xbda71032	-0.08157386
46	0xbdbb136a	-0.09134562
47	0x3d98e451	0.07465423
48	0xbd93833d	-0.07202766
49	0x3e6e9807	0.23300181
50	0xbdcbe31c	-0.09955427
51	0xbea220c4	-0.31665623
52	0x3d907ce8	0.07055074
53	0x3e2fc046	0.1716319
54	0xbe4b0b3a	-0.19828501
55	0xbeeb5951	-0.4596658
56	0x3eaed9fe	0.3415069
57	0xbde83937	-0.11339038
58	0xbc86a1da	-0.016434599
59	0x3ef3cff1	0.47619584
60	0x3d780608	0.060552627
61	0x3ba01598	0.0048853867
62	0xbdccb760	-0.099959135
63	0xbe851ec0	-0.26000023

running_var f4 [64]
0	0x3e9f21ec	0.31080568
1	0x3e16f572	0.14742067
2	0x3e546d8b	0.20744912
3	0x3ea0a4a8	0.31375623
4	0x3e8f34c5	0.27969947
5	0x3e22f14c	0.1591236
6	0x3e6ecebc	0.2332105
7	0x3e6bee9c	0.23040241
8	0x3e449d28	0.19200575
9	0x3e69316b	0.22772758
10	0x3e7975cc	0.24361342
11	0x3e10e4d9	0.14149798
12	0x3e5c7916	0.21530566
13	0x3e258702	0.16164783
14	0x3e6a5dad	0.22887297
15	0x3e47dd24	0.19517952
16	0x3eb3bedf	0.3510656
17	0x3e99df31	0.30053094
18	0x3eae2193	0.3400999
19	0x3ea6fc23	0.3261424
20	0x3e76f4e3	0.24116854
21	0x3e14f1f7	0.14545427
22	0x3f113e36	0.5673555
23	0x3e69f416	0.22847018
24	0x3ead1c6e	0.33810753
25	0x3e8a63c9	0.27029255
26	0x3e39470b	0.18093507
27	0x3e3bb998	0.18332517
28	0x3e83e71c	0.2576226
29	0x3e556596	0.20839533
30	0x3e0e91ae	0.1392276
31	0x3e06d570	0.13167357
32	0x3eab9350	0.33510828
33	0x3ead82d4	0.33888876
34	0x3e70dead	0.23522444
35	0x3e62e476	0.22157463
36	0x3ea7707c	0.32703006
37	0x3e59c1e5	0.21265371
38	0x3e44b8d7	0.19211136
39	0x3e1d681b	0.15371744
40	0x3e32738f	0.17426895
41	0x3e2a10af	0.16607927
42	0x3e914989	0.28376415
43	0x3e77656a	0.2415978
44	0x3e2e706b	0.17035072
45	0x3e32a8a1	0.1744714
46	0x3e92e3f4	0.2868954
47	0x3e2ad176	0.16681466
48	0x3e232f68	0.15936053
49	0x3ec7f54c	0.39054334
50	0x3e5cd5fb	0.21566002
51	0x3e24afa2	0.16082624
52	0x3eb66fb2	0.35632092
53	0x3e87d083	0.2652627
54	0x3e6822cb	0.22669522
55	0x3ee8ff60	0.45507336
56	0x3e689de0	0.22716475
57	0x3eb94b94	0.36190474
58	0x3e7696b3	0.24080925
59	0x3eec0670	0.4609866
60	0x3e423908	0.18967068
61	0x3e90190b	0.28144106
62	0x3e3d9e73	0.18517475
63	0x3e65b890	0.22433686

weight f4 [1, 64]
0	0xbc49354c	-0.012280773
1	0xbc457045	-0.012050693
2	0xbc0b46ef	-0.008500799
3	0x3a754e4a	0.0009357674
4	0xbcce32c4	-0.025170691
5	0xbbcf9040	-0.0063343346
6	0xbc40863a	-0.011750752
7	0x3c112030	0.008857772
8	0x3bf1d06c	0.007379582
9	0xb8a1f24d	-7.72221e-05
10	0xbc5f1c10	-0.01361753
11	0xbb90b39c	-0.0044159424
12	0xbc43ba96	-0.011946341
13	0x3c373147	0.011181182
14	0xbbde0e15	-0.006776581
15	0x3bef2b2d	0.007298848
16	0x3c8d49ef	0.017247168
17	0x3c87d50f	0.016581086
18	0xbc84fc36	-0.016233545
19	0x3c9df72a	0.019282896
20	0xbc65d789	-0.014028438
21	0x3c23ee2d	0.010005516
22	0xbc53c15e	-0.01292452
23	0x3b5a4549	0.0033305457
24	0xbb125f31	-0.002233457
25	0xbc6fd428	-0.014637984
26	0x3c3d53e8	0.011555649
27	0x3b07b76f	0.00207087
28	0x39e49967	0.00043601842
29	0x3c1b6784	0.009485129
30	0x3bc95787	0.0061444673
31	0xbb38f070	-0.0028219484
32	0xbb21c234	-0.0024682404
33	0xbcbf9d75	-0.023390511
34	0xbbc34cbd	-0.0059600757
35	0x3ca9d957	0.020733519
36	0x3c895918	0.016766116
37	0xbc5ee591	-0.013604538
38	0xbbc25f20	-0.00593175
39	0xbb40acda	-0.0029399903
40	0x3c67166d	0.014104468
41	0x3bb1f49f	0.0054307724
42	0x3c04344d	0.00806911
43	0x3c8ba7ac	0.017047726
44	0xbb0192eb	-0.0019771408
45	0x3b4393db	0.0029842767
46	0x3c22d75c	0.009939041
47	0x3a48d6b0	0.00076613855
48	0x3cc39035	0.023872474
49	0x3c048323	0.008087906
50	0x3c3a34ca	0.011365125
51	0x3c1fbdcc	0.009749841
52	0xbc51891b	-0.012789036
53	0xbb0e4f9b	-0.002171493
54	0x3c1d269f	0.0095917275
55	0xbc988349	-0.01861729
56	0x3c1e199a	0.009649659
57	0xbc27f216	-0.010250589
58	0x3b468d04	0.0030296454
59	0xbc852340	-0.01625216
60	0xbc244951	-0.010027246
61	0xbc4e04af	-0.012574359
62	0x3a341eb0	0.0006871028
63	0x3cb84e33	0.022498226
