Industrial Equipment/mlruns/0/5fdfa1bfec6b4cbab61341347ff3d10c/artifacts/generator_model/data/model.pth (torch, 55038 bytes, 14 tensors)

weight f4 [64, 100]
0	0x3d6814f5	0.05666061
1	0x3c28f707	0.010312802
2	0xbd6005b8	-0.054692954
3	0x3be5505d	0.0069981054
4	0x3c75acfa	0.014994854
5	0x3cbecfac	0.023292385
6	0xbd216570	-0.03940338
7	0xbb8a9eeb	-0.0042303703
8	0xbcba8a2e	-0.022770967
9	0x3bb3d6f8	0.0054882728
10	0x3d944a12	0.0724069
11	0x3dcafda2	0.09911658
12	0x3ced5000	0.028968811
13	0xbc2be77a	-0.0104922
14	0x3d8f5ae7	0.0699976
15	0x3d07ce3c	0.033155665
16	0xbdc6e3a7	-0.0971139
17	0xba94121e	-0.0011296903
18	0xbc286301	-0.010277511
19	0xbcd8808e	-0.026428487
20	0xbd34245a	-0.04397998
21	0xbd6652a0	-0.05623114
22	0x3d98368e	0.074322805
23	0xbd3875ad	-0.0450341
24	0xbc6df024	-0.014522586
25	0xbd23a591	-0.03995282
26	0xbd52c17e	-0.05145406
27	0x3d9d8fa5	0.07693414
28	0x3d816bef	0.06319415
29	0xbd0eb38e	-0.034839205
30	0xbd35c10a	-0.04437355
31	0x3d391c00	0.04519272
32	0x3d1d7f0d	0.038451243
33	0x3da6b649	0.08140237
34	0xbd83d421	-0.06436945
35	0xbd3dc8e4	-0.046334162
36	0x3d797995	0.060906965
37	0xbda18055	-0.078858055
38	0x3c636037	0.01387792
39	0xbbf62ab0	-0.007512413
40	0xbd2fde82	-0.04293681
41	0xbdaa5519	-0.08317012
42	0xbcc62fd1	-0.024192723
43	0x3db96a9a	0.09053536
44	0x3d3bd396	0.04585608
45	0x3c602cea	0.013682583
46	0x3dccb532	0.09995498
47	0xbc3987bc	-0.0113238655
48	0xbd90b483	-0.0706568
49	0xbb75b60c	-0.0037492542
50	0x3c21d2e1	0.009876938
51	0xbd92a8ea	-0.07161124
52	0xbd46a62d	-0.04849832
53	0xbd77a954	-0.06046422
54	0xbdb8d708	-0.09025389
55	0x3d9468b7	0.07246535
56	0x3dbb1ac1	0.09135962
57	0xbda47a79	-0.08031172
58	0x3d38725f	0.045030948
59	0xbdb56399	-0.08856887
60	0xbdb5a4b5	-0.08869306
61	0xbc385b0e	-0.011252178
62	0x3dab7fdd	0.08373997
63	0x3d9c0329	0.0761779
64	0x3db1672f	0.08662259
65	0xbd892c10	-0.066978574
66	0x3d083b3e	0.033259623
67	0xbd55dcd1	-0.05221254
68	0xbd807ca0	-0.0627377
69	0xbd76f46a	-0.060291685
70	0x3d928351	0.07153953
71	0xbdb5dd20	-0.08880067
72	0xbd9c9983	-0.076464675
73	0xbd92d832	-0.07170142
74	0xbd47473e	-0.048651926
75	0xbdc1f52d	-0.09470592
76	0xbdc58ce5	-0.09646014
77	0x3cab02ab	0.020875296
78	0xbc22bef5	-0.009933223
79	0x3d04c4c3	0.03241421
80	0xbdd5406b	-0.104126774
81	0x3d1a75f9	0.037710164
82	0x3da6cd53	0.08144631
83	0xbc890dfa	-0.016730297
84	0xbd687d53	-0.056760143
85	0xbdcae4c7	-0.09906917
86	0x3c6fc5e4	0.014634583
87	0x3cdf4478	0.027254328
88	0xbcc93431	-0.02456102
89	0xbd079c90	-0.033108294
90	0xbc5274be	-0.012845216
91	0xbba7499a	-0.0051052095
92	0xbdc1cb0f	-0.094625585
93	0xbd96db1d	-0.07366011
94	0x3d642918	0.055703253
95	0x3dc1e6d1	0.09467853
96	0x3cf328c2	0.02968252
97	0xbb4cd2a4	-0.0031253481
98	0xbcca29b9	-0.024678098
99	0x3dbefed6	0.0932595
100	0xbd5272e9	-0.051379118
101	0xbd2c2bcb	-0.04203395
102	0x3dbb7d85	0.091548
103	0xbc0e43e1	-0.008683176
104	0xbc8fdda0	-0.017561734
105	0x3d1482b8	0.036257476
106	0xbda43a41	-0.080189236
107	0x3db75e89	0.08953578
108	0xba52a574	-0.00080355187
109	0xbdb29726	-0.087202355
110	0xbcce822d	-0.025208557
111	0xbd2714ca	-0.04079131
112	0xbd811c62	-0.06304242
113	0x3c670841	0.014101089
114	0x3c5d311c	0.013500478
115	0x3dc6e918	0.09712428
116	0xbb346ef9	-0.0027531965
117	0xbc4831a8	-0.01221887
118	0xbcaddb29	-0.021222668
119	0xbccc358a	-0.024927873
120	0x3d45cfc5	0.048293848
121	0x3cf5bb21	0.029996457
122	0x3dd38663	0.103283666
123	0xbdc88cf6	-0.09792511
124	0xbd805512	-0.06266226
125	0x3dab07e6	0.08351116
126	0xbd11edf3	-0.035627317
127	0xbdabbada	-0.083852485
128	0x3c8441f9	0.01614474
129	0xbd5e5338	-0.054278582
130	0xbd0ae671	-0.033911172
131	0xbda4334a	-0.08017595
132	0x3dbab895	0.091172375
133	0x3d81ac40	0.06331682
134	0xbd28dc51	-0.041225735
135	0x3ceabc67	0.02865429
136	0x3dbe8551	0.09302772
137	0x3d3ee8dd	0.046608794
138	0xbd8a9284	-0.06766227
139	0x3c358026	0.011077916
140	0xbb4952a3	-0.0030719421
141	0x3cc4c510	0.024019748
142	0xbd684426	-0.056705616
143	0x3c7b238a	0.015328297
144	0xbd9e9d04	-0.07744792
145	0xbd55cfd2	-0.052200146
146	0xbd8066f7	-0.06269639
147	0xbdddb32c	-0.1082519
148	0xbceec51d	-0.029146725
149	0xbdcb8df2	-0.09939183
150	0xbdb62c55	-0.088951744
151	0xbafbe1e0	-0.0019217096
152	0xbbf5162f	-0.007479451
153	0xbd8476ca	-0.0646797
154	0x3dc12898	0.09431571
155	0x3d24594b	0.04012422
156	0xbcfe93e2	-0.031076375
157	0x3c70678e	0.014673127
158	0xbd44dcd0	-0.048062146
159	0x3d43c4d5	0.047795136
160	0xbdd01948	-0.10161072
161	0x3dd61236	0.10452692
162	0xbd83b17d	-0.064303376
163	0xbd99577d	-0.0748739
164	0x3d688608	0.056768447
165	0xbbc7ccd4	-0.0060974155
166	0xbd71c16d	-0.059022356
167	0x3bdc11ce	0.0067159897
168	0xbd9b6ec2	-0.07589485
169	0x3bc69928	0.006060738
170	0xbd62dbc4	-0.055385366
171	0x3d9be565	0.07612113
172	0xba64ad53	-0.0008723337
173	0x3c9e39d6	0.019314688
174	0x3d1ffa10	0.039056838
175	0x3d2a10f1	0.041520063
176	0xbdb3eb1e	-0.087850794
177	0x3d8e4b26	0.06947927
178	0x3da08b37	0.07839053
179	0xbcff822b	-0.031189999
180	0x3d4fb76c	0.050712034
181	0x3c6eb375	0.014569153
182	0xb9d6c368	-0.0004096285
183	0x3d943b32	0.07237853
184	0x3c832750	0.016009957
185	0xbdb90585	-0.09034256
186	0x3d4fa6f6	0.050696336
187	0x3cf05d7d	0.029341454
188	0x3cc4371c	0.02395206
189	0x3daf60ae	0.08563362
190	0x3d0632f0	0.03276342
191	0xbd686371	-0.05673546
192	0xbd36925d	-0.044573177
193	0xbc51d18f	-0.01280631
194	0x3d8b44c3	0.06800225
195	0x3d2572df	0.040392753
196	0xbcc7c43a	-0.02438556
197	0x3d405465	0.046955485
198	0xbd9ab4a9	-0.075539894
199	0xbd5f610a	-0.054535903
200	0x3dbbe846	0.09175162
201	0xbcf3346d	-0.029688084
202	0xbdb51071	-0.088410266
203	0xbcfbe96f	-0.030750958
204	0xbd576353	-0.052584957
205	0xbdb33123	-0.087496065
206	0x3d0debf8	0.034648865
207	0xbd95a655	-0.07307116
208	0x3d1785a5	0.036992688
209	0xbcb6636b	-0.022264203
210	0x3d423ee9	0.047423277
211	0xbce624e2	-0.028093759
212	0xba960d71	-0.0011448098
213	0xbd792ce1	-0.060833815
214	0x3d687019	0.05674753
215	0xbdab6618	-0.08369082
216	0xbcb02637	-0.021502597
217	0x3dd268f2	0.10273923
218	0x3d240cd7	0.040051308
219	0xbc45fb84	-0.012083892
220	0xbc5489a5	-0.01297227
221	0xbd9169bb	-0.071002446
222	0x3d4bd6ac	0.049765274
223	0x3dac2ef1	0.08407391
224	0x3c7b96d9	0.015355789
225	0x3d8495ab	0.064738594
226	0x3d5f8492	0.05456979
227	0x3b83bb8c	0.00402016
228	0xbda13749	-0.07871873
229	0x3d48558b	0.048909705
230	0x3d164c34	0.036693767
231	0xbb696509	-0.00356132
232	0x3d8fea1d	0.070270754
233	0x3da88988	0.08229357
234	0xba330409	-0.00068289094
235	0xbcfbddff	-0.030745504
236	0x3d185fc1	0.037200693
237	0xbd32a818	-0.043617338
238	0xbd62428e	-0.055239253
239	0xbd77d02b	-0.06050126
240	0x3d4f614a	0.05062989
241	0x3dacac9d	0.08431361
242	0xbc691645	-0.014226501
243	0xbdbb2787	-0.091383986
244	0xbd4622f5	-0.04837318
245	0x3d92e8d0	0.07173312
246	0xbd4e13d0	-0.050311863
247	0x3dbade04	0.09124377
248	0xbcc09856	-0.02351014
249	0x3d6045a4	0.054753914
250	0xbb0efc55	-0.0021817882
251	0xbd50700e	-0.050888114
252	0x3ca96068	0.020675853
253	0xbdc0938b	-0.094031416
254	0xbbcc99c8	-0.006243918
255	0x3d3f52c6	0.0467098

bias f4 [64]
0	0x3d661d44	0.056180254
1	0xbd97b90d	-0.074083425
2	0xbd939f29	-0.07208092
3	0x3da85ead	0.08221183
4	0x3dbd041d	0.092293
5	0xbda16129	-0.0787986
6	0xbd04b69b	-0.03240071
7	0xbdafc529	-0.08582527
8	0xbdb138bc	-0.08653399
9	0xbd4d3f1d	-0.050109018
10	0xbcabdc33	-0.020979023
11	0xbd910e9d	-0.070828654
12	0x3da7c6e5	0.08192233
13	0x3d6e9e7b	0.058256608
14	0xbd9537fa	-0.07286067
15	0xbd91bbad	-0.071158744
16	0x3ca46878	0.020069346
17	0x3d8cb510	0.068704724
18	0xbdaf32c6	-0.08554606
19	0xbd85b811	-0.065292485
20	0xbdc0500e	-0.09390269
21	0x3d53d60c	0.051717803
22	0xbc3b4e14	-0.0114321895
23	0xbc856812	-0.016284976
24	0x3b87db26	0.0041459976
25	0x3db3d276	0.087803766
26	0xbda4449a	-0.08020897
27	0x3d786d0f	0.06065088
28	0xbbe982ff	-0.0071262117
29	0xbd333987	-0.043756034
30	0xbdba0104	-0.09082225
31	0xbd9943e2	-0.07483651
32	0xbc92ee43	-0.017935878
33	0x3d101482	0.035175808
34	0xbca0e7ac	-0.01964172
35	0x3d93f1d5	0.0722386
36	0xbd73b74b	-0.059500974
37	0x3d454d75	0.048169572
38	0x3c0bc26e	0.008530242
39	0x3d8665ea	0.06562407
40	0x3d8d19b5	0.06889669
41	0x3d7db867	0.061943438
42	0x3da64037	0.08117717
43	0x3d8c5512	0.068521634
44	0xbca7a3ef	-0.020463912
45	0xbd5e7c59	-0.054317806
46	0x3cff5d77	0.031172497
47	0xbda2d402	-0.079505935
48	0x3d0569ef	0.03257173
49	0xbc9c45f3	-0.019076323
50	0x3ccfee69	0.025382238
51	0x3d714eb2	0.05891294
52	0xbcac51a1	-0.021035017
53	0xbdbe7ff4	-0.09301749
54	0xbd8a41f8	-0.06750864
55	0x3c979a7f	0.018506287
56	0x3cddcba7	0.027074648
57	0xbc2f556f	-0.010701521
58	0x3cdf2b4b	0.027242323
59	0xbd1199a1	-0.035546903
60	0x3d5ea905	0.05436041
61	0xbc824db8	-0.0159062
62	0x3c50191b	0.012701298
63	0x3d236751	0.039893452

weight f4 [64]
0	0x3f8296dd	1.020229
1	0x3f81ef2d	1.0151116
2	0x3f7fa362	0.9985868
3	0x3f80d366	1.0064514
4	0x3f7c3939	0.98524815
5	0x3f7ef593	0.99593467
6	0x3f7e8678	0.99423933
7	0x3f824dfc	1.0180049
8	0x3f810904	1.0080876
9	0x3f7f32ce	0.99686897
10	0x3f7eb30b	0.9949195
11	0x3f803732	1.0016844
12	0x3f85fcc7	1.0467767
13	0x3f807bdd	1.00378
14	0x3f819cd9	1.0125991
15	0x3f8144d8	1.0099134
16	0x3f7e8338	0.99418974
17	0x3f7d3d8e	0.9892205
18	0x3f8234d4	1.0172372
19	0x3f8056cb	1.0026487
20	0x3f7e3c32	0.993106
21	0x3f832fbf	1.0248946
22	0x3f7ab75a	0.9793602
23	0x3f803394	1.001574
24	0x3f7d3d1d	0.98921376
25	0x3f809466	1.0045288
26	0x3f809841	1.0046464
27	0x3f802782	1.0012057
28	0x3f8285fe	1.0197141
29	0x3f7be13c	0.98390555
30	0x3f7afbc1	0.98040396
31	0x3f7f646c	0.99762607
32	0x3f74bcc0	0.9560051
33	0x3f7dbc1b	0.9911515
34	0x3f80d363	1.006451
35	0x3f812af0	1.0091228
36	0x3f827de9	1.0194675
37	0x3f7cad5e	0.9870204
38	0x3f7bba57	0.9833121
39	0x3f7fd4c8	0.99934053
40	0x3f80fb22	1.007664
41	0x3f80f284	1.007401
42	0x3f793e32	0.9736053
43	0x3f7a702b	0.97827405
44	0x3f820c8c	1.0160079
45	0x3f80fb6b	1.0076727
46	0x3f807885	1.003678
47	0x3f81ea83	1.0149692
48	0x3f7da568	0.99080515
49	0x3f7ff7d9	0.9998756
50	0x3f8059ff	1.0027465
51	0x3f7aece9	0.98017746
52	0x3f7e72c8	0.9939389
53	0x3f7ec54c	0.995198
54	0x3f7f6c4e	0.99774635
55	0x3f7f78b8	0.9979358
56	0x3f8085e9	1.0040866
57	0x3f80407f	1.0019683
58	0x3f836180	1.026413
59	0x3f7c412d	0.9853695
60	0x3f78702e	0.9704617
61	0x3f81a1f7	1.0127553
62	0x3f7fd798	0.99938345
63	0x3f7bc7c5	0.983517

bias f4 [64]
0	0x3c9025b5	0.017596105
1	0x3c6282e7	0.013825155
2	0x3be255ab	0.006907185
3	0x3c59cca3	0.013293418
4	0xbb37ccb6	-0.0028045601
5	0xbb3fe36c	-0.002927984
6	0xbb5e585d	-0.003392718
7	0x3c816702	0.015796188
8	0xbb29381d	-0.00258208
9	0x37def213	2.6577187e-05
10	0x3b640c82	0.0034797494
11	0x3a86bbb0	0.0010279324
12	0x3d2e3622	0.042532094
13	0x3b009dc0	0.0019625276
14	0x3c8d0dae	0.017218437
15	0x3b51f957	0.0032039487
16	0x3bb680e6	0.005569565
17	0xbc8cf4a6	-0.017206501
18	0xbaa7b823	-0.0012795966
19	0x3ae0e3d6	0.0017157744
20	0x3b73ba41	0.0037189873
21	0x3cc403e2	0.023927633
22	0xbc1c591d	-0.009542731
23	0x3c020fcb	0.007938336
24	0xbb8f948c	-0.004381722
25	0xbbe1ffa9	-0.006896932
26	0x3ba674e7	0.005079854
27	0x3bc589e2	0.0060284
28	0xbbab183b	-0.0052213944
29	0xbba4d890	-0.005030699
30	0xbc5c0be1	-0.0134305665
31	0xbc0c05d9	-0.008546316
32	0xbd0fb3e1	-0.035083655
33	0xbb24ae74	-0.0025128396
34	0xbb8e88ec	-0.0043498185
35	0xb9926cb8	-0.00027928292
36	0x3c94e389	0.018174903
37	0xba4225e7	-0.00074061606
38	0xbcb7c5e9	-0.022433238
39	0x3bdf5343	0.0068153455
40	0x3b066896	0.0020509115
41	0xbb21a273	-0.0024663478
42	0xbc2c65f1	-0.010522352
43	0xbcb0becc	-0.021575354
44	0x3c3b3bc1	0.011427821
45	0x3c540012	0.01293947
46	0x3c3d69db	0.011560882
47	0x3c8ad3f5	0.016946772
48	0xbc5dac1a	-0.013529802
49	0xbb179040	-0.0023126751
50	0x3bbda8ce	0.0057879454
51	0xbc8464e1	-0.016161384
52	0xbc02a79f	-0.007974534
53	0xbc55a430	-0.013039634
54	0x3b293178	0.002581684
55	0x3b9ff776	0.0048817946
56	0x3b6c5cd3	0.003606607
57	0xbbdc7491	-0.006727763
58	0x3ca9d4a6	0.020731281
59	0xbc0457ec	-0.008077603
60	0xbcce767e	-0.025202986
61	0xbb9bd14f	-0.004755176
62	0xba10b1df	-0.0005519669
63	0xbc19e4a9	-0.009392896

running_mean f4 [64]
0	0x3da1a70e	0.07893191
1	0xbd84df61	-0.06487919
2	0xbd2d6358	-0.04233107
3	0x3daf7bec	0.08568558
4	0x3d82e3c0	0.06391096
5	0xbd9adf48	-0.07562119
6	0xbd3bbf14	-0.045836523
7	0xbdca83f3	-0.098884486
8	0xbd8f3243	-0.069920085
9	0xbd40be40	-0.047056437
10	0xbcabb9e3	-0.020962661
11	0xbdc2f4f7	-0.095193796
12	0x3d49df14	0.04928501
13	0x3d975d56	0.07390849
14	0xbdd82a32	-0.10554923
15	0xbd90e457	-0.07074802
16	0x3d2b652b	0.04184453
17	0x3d70d605	0.058797855
18	0xbd6658b1	-0.056236926
19	0xbd625d8c	-0.055264995
20	0xbdbbd818	-0.09172076
21	0x3d4c6878	0.049904317
22	0x3c8db83d	0.017299766
23	0xbc850ebb	-0.016242376
24	0x3c88c319	0.016694592
25	0x3df1f466	0.118141934
26	0xbdbce96d	-0.0922421
27	0x3ce63703	0.028102404
28	0xbc61f7b6	-0.013791969
29	0xbd1df6b6	-0.03856536
30	0xbdd85637	-0.10563319
31	0xbdbd758e	-0.092509374
32	0xbc3c0637	-0.011476091
33	0x3d60a85a	0.054848053
34	0xbc64c85b	-0.013963784
35	0x3d6acb72	0.057322927
36	0xbdb2dbe5	-0.08733348
37	0x3d01f49f	0.03172743
38	0x3abc9c4d	0.0014389843
39	0x3d828864	0.06373671
40	0x3dac26c5	0.08405832
41	0x3d224ee2	0.03962601
42	0x3d9bf5ea	0.07615264
43	0x3d770a63	0.06031264
44	0xbc39d0ae	-0.011341257
45	0xbd739460	-0.059467673
46	0x3d46bda4	0.0485207
47	0xbd976796	-0.07392804
48	0x3d203555	0.03911336
49	0xbc8fadee	-0.01753899
50	0x3d10f86c	0.035393164
51	0x3d626571	0.055272523
52	0xbd1321f9	-0.03592107
53	0xbdf5ca4c	-0.12001476
54	0xbd6c1279	-0.057634804
55	0x3ca7de4f	0.020491747
56	0x3d6d4294	0.057924822
57	0xbc5bf214	-0.013424415
58	0xbbc8761c	-0.0061175954
59	0xbc2c412e	-0.010513587
60	0x3d4a5cac	0.049404785
61	0xbb91c336	-0.00444832
62	0x3c3fb973	0.011701929
63	0x3bf12464	0.0073590744

running_var f4 [64]
0	0x3ec05867	0.37567446
1	0x3ea14a36	0.3150193
2	0x3e9df221	0.30848792
3	0x3ea725a5	0.32645908
4	0x3eb1234b	0.3459724
5	0x3ecc3b0b	0.39888796
6	0x3ee255f9	0.44206217
7	0x3e9c2ef8	0.30504584
8	0x3eb6b409	0.3568423
9	0x3eb45a13	0.3522497
10	0x3ec90962	0.3926497
11	0x3e9a39e4	0.30122292
12	0x3e99aae4	0.30013192
13	0x3eb1b186	0.34705752
14	0x3eaad171	0.33362916
15	0x3eb12c24	0.3460399
16	0x3eb89713	0.3605276
17	0x3ec28d2d	0.37998334
18	0x3eabe537	0.33573315
19	0x3eb41b89	0.35177258
20	0x3eab5d6e	0.3346972
21	0x3eb0a743	0.3450261
22	0x3ea0e698	0.3142593
23	0x3ea6d43f	0.32583806
24	0x3e937a89	0.28804424
25	0x3ea4e49c	0.32205665
26	0x3ecd7a77	0.40132496
27	0x3eae94c9	0.3409789
28	0x3ebeb586	0.37247866
29	0x3ea353b8	0.3189981
30	0x3e9806b1	0.29692605
31	0x3e95c521	0.2925196
32	0x3edf25be	0.43583483
33	0x3ea69937	0.3253877
34	0x3eb39b6a	0.3507951
35	0x3e89528c	0.2682079
36	0x3ec476f8	0.38372016
37	0x3ea1b77d	0.31585303
38	0x3e989a1f	0.29805085
39	0x3ec84a29	0.3911908
40	0x3eb73c3a	0.35788137
41	0x3e952f6f	0.2913775
42	0x3e93470d	0.28765145
43	0x3e9450a1	0.28967765
44	0x3eaa965d	0.33317843
45	0x3e93913d	0.28821746
46	0x3eab748e	0.33487362
47	0x3e8ff2e4	0.28114998
48	0x3ea8bd3a	0.32956868
49	0x3ea9da2d	0.33174267
50	0x3ecb87b6	0.39751977
51	0x3e9eb904	0.3100053
52	0x3e94cf4b	0.29064402
53	0x3e9d815e	0.30762762
54	0x3eb56ef4	0.35436213
55	0x3eb71bbb	0.35763344
56	0x3ea283a2	0.31741053
57	0x3ea7d62d	0.3278059
58	0x3e9b17c0	0.30291557
59	0x3ec8d9f1	0.39228776
60	0x3ed213f5	0.4103085
61	0x3eae6306	0.34059924
62	0x3eb64fc7	0.3560774
63	0x3ea57fbd	0.3232402

weight f4 [64, 64]
0	0x3d8d61d0	0.06903422
1	0xbcbefde9	-0.023314433
2	0xbd900a52	-0.070332184
3	0x3d19849e	0.03747999
4	0x3d757ef4	0.059935525
5	0x3aaf3da0	0.0013369806
6	0x3d8850d4	0.06656042
7	0x3d232e52	0.039839096
8	0x3dcb6e90	0.099331975
9	0xbb9cce88	-0.0047853626
10	0x3dc23345	0.09482435
11	0xbddc3fa7	-0.10754328
12	0x3ddf0d96	0.10891263
13	0x3da0479f	0.07826161
14	0x3d749774	0.05971475
15	0xbdbfb40c	-0.09360513
16	0xbdeb1ea4	-0.114804536
17	0xbd4b939a	-0.04970131
18	0xbde2c64a	-0.11072977
19	0xbd1dae2c	-0.03849618
20	0x3de11ace	0.10991441
21	0xbd1a38ab	-0.0376517
22	0xb8c179b5	-9.225627e-05
23	0x3cc52619	0.024066018
24	0x3d8ec91f	0.069719546
25	0xbd8f2ccc	-0.06990966
26	0x3c767005	0.015041356
27	0xbd9df1b3	-0.07712116
28	0x3d889fc2	0.066710964
29	0x3d3577e7	0.0443038
30	0xbcd738a3	-0.026272124
31	0xbdb952bc	-0.090489835
32	0xbd83f58d	-0.064433195
33	0xbbd6a98b	-0.006550973
34	0xbda11569	-0.07865412
35	0xbd97975e	-0.07401918
36	0xbcff1364	-0.031137176
37	0x3da4a4a6	0.08039217
38	0x3e03712a	0.12836137
39	0xbda92e85	-0.08260826
40	0x3de5f6a6	0.11228685
41	0x3cde0190	0.027100354
42	0xbdf17c1f	-0.11791252
43	0xbdf44f3a	-0.11929174
44	0xbdf003f0	-0.11719501
45	0x3d928ca4	0.07155731
46	0xbdb46fb7	-0.088103704
47	0xbc4df0fb	-0.012569661
48	0x3d95cf94	0.07314983
49	0xbcaf4541	-0.021395328
50	0xbdb2fa20	-0.08739114
51	0x3d94947c	0.07254884
52	0xbd78fb99	-0.060786817
53	0x3df9c073	0.1219491
54	0x3d637569	0.055531893
55	0x3a0c5421	0.00053531124
56	0xbca402a5	-0.020020792
57	0x3e0aab29	0.13541855
58	0xbda399f1	-0.07988346
59	0x3ca99484	0.0207007
60	0xbdce16dd	-0.100629546
61	0xbdd9e249	-0.106388636
62	0x3d6057f2	0.05477137
63	0x3d7b384c	0.061332986
64	0xbdd3538d	-0.103186704
65	0xbdcf8d97	-0.10134428
66	0x3d16b8ec	0.03679745
67	0xbdd90e50	-0.10598433
68	0x3dfb56fc	0.1227245
69	0x3ccd0dff	0.025031088
70	0xbd8a7f33	-0.067625426
71	0xbc9155d4	-0.017741121
72	0x3c4b28b7	0.012399844
73	0x3da591fe	0.080844864
74	0xbdf7efaa	-0.12106259
75	0x3de12279	0.10992903
76	0xbd1caa44	-0.038248315
77	0xbcd9c6c1	-0.026584031
78	0x3e04e919	0.12979545
79	0x3df0893d	0.11744926
80	0x3cf89c66	0.030348014
81	0x3db42a34	0.08797112
82	0xbbe8bb69	-0.007102419
83	0x3e02688b	0.12735192
84	0xbdd35210	-0.103183866
85	0xbd540716	-0.05176457
86	0xbd1892ab	-0.03724925
87	0x3cfeb8c0	0.031093955
88	0xbd0f0375	-0.034915406
89	0xbd516eea	-0.051131167
90	0x3d9aeafa	0.075643495
91	0xbd41cf70	-0.04731697
92	0xbdb90593	-0.09034266
93	0xbd1aa65d	-0.037756313
94	0x3cb08745	0.021548877
95	0x3db6d3d8	0.08927125
96	0xbdc8d059	-0.09805364
97	0xbdf54671	-0.11976326
98	0xbddeba91	-0.108754285
99	0xbd68eade	-0.05686461
100	0xbd79bfcd	-0.06097393
101	0x3d9874c7	0.074441485
102	0x3d8b55c1	0.06803466
103	0xbdd5e38f	-0.10443794
104	0xbddcb9d8	-0.107776344
105	0x3d1e085a	0.038582183
106	0x3bb764d4	0.0055967364
107	0xbcf65ce9	-0.0300736
108	0xbda763d7	-0.0817334
109	0x3de86d73	0.11349001
110	0x3d0f1f36	0.034941874
111	0xbcc6ca89	-0.024266498
112	0x3de4a491	0.11164201
113	0xbdcc1f97	-0.09966963
114	0xbc38e8c7	-0.011285967
115	0xbda20986	-0.07911973
116	0x3db3a423	0.08771541
117	0x3df6344d	0.12021694
118	0x3d96cdb9	0.07363457
119	0xbd65c455	-0.05609544
120	0xbd3e51f3	-0.04646487
121	0x3d436482	0.047703274
122	0xbde50759	-0.11183042
123	0xbdb16984	-0.08662704
124	0xbde890f5	-0.11355773
125	0xbddbb218	-0.10727328
126	0x3df5f446	0.12009482
127	0x3da4ae2b	0.080410324
128	0x3dd10781	0.102065094
129	0x3df730dd	0.12069867
130	0x3d74d9cd	0.059778024
131	0xbd5ef1b4	-0.054429725
132	0xbd931786	-0.07182221
133	0x3db4cb4a	0.08827837
134	0xbd229231	-0.0396902
135	0xb91ba1f4	-0.00014842284
136	0x3dfed430	0.12442815
137	0x3d9959ff	0.074878685
138	0x3c981a92	0.018567357
139	0xbd09b5f4	-0.03362079
140	0xbd715d7e	-0.05892705
141	0x3d62a68f	0.055334624
142	0xbcf2ab14	-0.029622592
143	0x3d847b36	0.06468813
144	0xbbbfee95	-0.0058572986
145	0x3dc53ba6	0.09630518
146	0x3d462d87	0.048383262
147	0x3d63b09e	0.055588357
148	0xbcd32d69	-0.02577849
149	0x3da2ea7d	0.07954881
150	0xbd28c6a1	-0.041205052
151	0xbcd6ce69	-0.02622147
152	0xbd3d3473	-0.046192598
153	0x3dc1d10f	0.09463703
154	0xbd17206e	-0.03689616
155	0x3d022d6b	0.031781595
156	0x3d1c7398	0.038196176
157	0x3d995ad7	0.074880295
158	0x3d865aff	0.06560325
159	0x3d9a8efc	0.07546803
160	0xbcf29dab	-0.029616198
161	0xbdd80edc	-0.10549709
162	0xbc8c50a3	-0.017128294
163	0x3c8075c2	0.015681151
164	0x3dbb3e44	0.091427356
165	0x3dc814f3	0.09769621
166	0x3da00a5b	0.07814475
167	0xba18a44e	-0.0005822823
168	0x3de1127b	0.10989853
169	0x3d054210	0.032533705
170	0x3dc54b6f	0.096335284
171	0x3bf00813	0.0073251813
172	0xbc66057a	-0.014039392
173	0xbd8f888d	-0.07008467
174	0x3d265d6b	0.040616434
175	0xbc70254b	-0.014657329
176	0x3c986689	0.01860358
177	0xbddd9bf8	-0.10820764
178	0x3c10bf51	0.008834676
179	0xbc811788	-0.01575829
180	0x3da71e50	0.081600785
181	0x3df60539	0.12012715
182	0x3d077d61	0.033078555
183	0x3b4b218c	0.0030995337
184	0xbdce61fa	-0.10077281
185	0xbd935a60	-0.07194972
186	0x3dcdc656	0.10047595
187	0x3dbc5452	0.0919577
188	0xbd9436a6	-0.07236986
189	0xbde0e48b	-0.10981091
190	0x3debb97e	0.11509989
191	0x3d36db8b	0.044642966
192	0xbdddc869	-0.10829241
193	0x3da41c56	0.08013217
194	0xbd823a4b	-0.06358775
195	0xbc349037	-0.011020712
196	0x3d74a54c	0.059727952
197	0xbd24df2a	-0.04025189
198	0xbd1bd6d0	-0.038046658
199	0x3c6accf1	0.014331088
200	0xbd9d4edf	-0.07681059
201	0x3dbc62d0	0.091985345
202	0x3de8180d	0.11332712
203	0xbb04fc16	-0.0020291856
204	0xbbc577c8	-0.006026242
205	0xbc6b92cb	-0.01437826
206	0x3dd800b5	0.1054701
207	0x3c2c61e7	0.010521389
208	0xbd9f610b	-0.07782181
209	0x3d787bb8	0.060664862
210	0x3d24d1b1	0.04023904
211	0x3d9da1eb	0.07696899
212	0x3d238312	0.03991992
213	0xbd662286	-0.056185268
214	0x3d1218a4	0.03566803
215	0xbd93862f	-0.07203328
216	0xbd12085c	-0.035652503
217	0x3d96c774	0.073622614
218	0x3dc70fc0	0.09719801
219	0xbdcb52dd	-0.09927914
220	0x3dc44bfd	0.09584806
221	0x3db8e214	0.09027496
222	0x3d0f746c	0.035023138
223	0xbd441e24	-0.047880307
224	0xbdab3faf	-0.08361756
225	0xbdd69662	-0.10477902
226	0x3d9ce594	0.07660976
227	0xbd205e3a	-0.03915236
228	0xbdd27325	-0.10275868
229	0x3d1dcc09	0.03852466
230	0x3dd44903	0.103654884
231	0xbcc73ec8	-0.024321929
232	0x3df2eee6	0.118619725
233	0xbdb07286	-0.086155936
234	0xbd6658f6	-0.056237184
235	0x3d8a23e0	0.06745124
236	0x3dce207a	0.10064788
237	0xbdbf4ddc	-0.09341022
238	0xbe0859a8	-0.13315451
239	0x3d1ce057	0.038299885
240	0xbd7408ae	-0.05957859
241	0xbdd57c20	-0.104240656
242	0xbd962b5d	-0.0733249
243	0xbd26c6ff	-0.04071712
244	0x3dc85b98	0.09783095
245	0xbdadf08c	-0.08493146
246	0xbccf2bc0	-0.025289416
247	0x3ce89459	0.02839105
248	0x3d8f5fa0	0.07000661
249	0xbdf02e1f	-0.11727547
250	0x3cc42cb4	0.023947097
251	0xbdddb1d4	-0.10824934
252	0xbdfc5309	-0.12320525
253	0x3df3f0d8	0.11911172
254	0xbd0fa5a1	-0.035070065
255	0xbd67e516	-0.056614958

bias f4 [64]
0	0x3ddf40ba	0.109010175
1	0x3d6fdca0	0.058560014
2	0x3ddd87b8	0.10816902
3	0x3cf6c8cf	0.03012505
4	0x3c520fd2	0.012821155
5	0xbd1443bd	-0.036197413
6	0xbd321444	-0.043476358
7	0xbd5d2e4d	-0.053999234
8	0xbd0b9313	-0.034075808
9	0x3d811439	0.06302685
10	0xbc33b3e2	-0.01096818
11	0x3da44208	0.08020407
12	0x3d20cb6b	0.039256494
13	0xbd90f856	-0.07078616
14	0xbd9d1584	-0.076701194
15	0x3d322222	0.043489583
16	0x3d58fbc7	0.05297449
17	0x3d90e306	0.07074551
18	0xbdb63b9c	-0.08898088
19	0x3cb5436c	0.022126876
20	0xbdc519ed	-0.096240856
21	0x3d013ec9	0.031554017
22	0x3da69cf1	0.08135403
23	0xbdfefa34	-0.12450066
24	0xbd1b02bb	-0.0378444
25	0x3dabfd66	0.08397941
26	0x3d9ac9ff	0.07558059
27	0x3d08ca53	0.033396076
28	0xbd8ab5cc	-0.06772956
29	0xbdd039db	-0.10167285
30	0xbda72cd0	-0.08162844
31	0xbc3c1931	-0.0114806155
32	0x3df24e76	0.118313715
33	0xbc07adcc	-0.0082811825
34	0xbd61f71e	-0.05516731
35	0xbdab8a77	-0.083760194
36	0x3de5d672	0.11222543
37	0x3ccdaf0a	0.02510788
38	0x3d9bb37d	0.07602594
39	0xbdbd42be	-0.09241246
40	0x3d9a3e6e	0.07531439
41	0x3d10f725	0.035391945
42	0xbd1981df	-0.03747737
43	0xbdd7070b	-0.1049939
44	0x3df5286c	0.119706005
45	0xbdb46f58	-0.088103
46	0x3db28157	0.08716076
47	0xbdcca842	-0.0999303
48	0xbd01383f	-0.03154778
49	0xbd6b10b3	-0.057388972
50	0xbcced4c4	-0.025247939
51	0xbd0a0b5c	-0.03370224
52	0xbd356ca1	-0.04429305
53	0xbd8ce23c	-0.06879088
54	0xbdec455a	-0.11536665
55	0x3dcbc75a	0.09950133
56	0xbcfff43d	-0.031244392
57	0xbdeef77c	-0.11668298
58	0x3c5f891b	0.013643528
59	0x3d03e720	0.03220284
60	0xbc786568	-0.015160896
61	0x3c1e1ce5	0.009650444
62	0x3cc325a1	0.023821654
63	0xbdc226d8	-0.09480065

weight f4 [64]
0	0x3f810fd1	1.0082952
1	0x3f81458d	1.009935
2	0x3f81a38d	1.0128037
3	0x3f809af0	1.0047283
4	0x3f7ca1a4	0.98684144
5	0x3f827c09	1.0194103
6	0x3f8065dd	1.0031086
7	0x3f7bef4e	0.98412025
8	0x3f7fff42	0.9999887
9	0x3f7e4d87	0.9933705
10	0x3f7fe3a4	0.9995673
11	0x3f801518	1.0006437
12	0x3f7eb025	0.99487525
13	0x3f822c55	1.0169779
14	0x3f7e6e5e	0.99387157
15	0x3f7da156	0.99074304
16	0x3f8085df	1.0040854
17	0x3f821166	1.016156
18	0x3f81866e	1.011915
19	0x3f7e2096	0.9926847
20	0x3f829b00	1.0203552
21	0x3f791ca5	0.97309333
22	0x3f806c9d	1.0033146
23	0x3f7d9c1c	0.9906633
24	0x3f7c8613	0.9864208
25	0x3f80af37	1.0053471
26	0x3f8259c4	1.0183644
27	0x3f80548f	1.0025805
28	0x3f7a3533	0.97737426
29	0x3f7f13bb	0.9963948
30	0x3f7cc727	0.9874138
31	0x3f80745c	1.003551
32	0x3f819bba	1.0125649
33	0x3f73c916	0.9522871
34	0x3f80bba8	1.0057268
35	0x3f79472f	0.9737424
36	0x3f8070fd	1.0034481
37	0x3f809b97	1.0047482
38	0x3f7a1938	0.9769473
39	0x3f7a82a9	0.9785562
40	0x3f7dee53	0.9919178
41	0x3f7af8a0	0.9803562
42	0x3f7ac772	0.9796058
43	0x3f8403d9	1.0313674
44	0x3f79b9eb	0.97549313
45	0x3f81642c	1.0108695
46	0x3f80ea9b	1.0071596
47	0x3f7d29a3	0.9889166
48	0x3f7b4777	0.9815592
49	0x3f7fe461	0.99957854
50	0x3f7bce2a	0.98361456
51	0x3f82ba5f	1.0213126
52	0x3f805876	1.0026996
53	0x3f819a85	1.0125281
54	0x3f7ea884	0.99475884
55	0x3f821c16	1.0164821
56	0x3f80a357	1.0049847
57	0x3f820ab9	1.0159522
58	0x3f830be7	1.0238007
59	0x3f7f9dd7	0.9985022
60	0x3f7d64f4	0.9898217
61	0x3f7db4fe	0.991043
62	0x3f80d7fd	1.0065914
63	0x3f8189d7	1.012019

bias f4 [64]
0	0x3945cd59	0.00018863882
1	0x3baad824	0.0052137543
2	0xbb87a619	-0.0041396734
3	0x3c6c2e9b	0.0144154085
4	0xbbfcc005	-0.00771332
5	0x3c6cdfb8	0.014457636
6	0x3cf9fdd8	0.03051655
7	0xbc89d5c6	-0.016825568
8	0xb95a9c94	-0.0002084843
9	0x3cfa190c	0.030529521
10	0x3b6079f2	0.0034252373
11	0xbc3a8164	-0.011383388
12	0x3bddce74	0.006768996
13	0x3c7a24c2	0.015267553
14	0x3c60d715	0.013723155
15	0x3cf15e00	0.029463768
16	0xbb80c426	-0.0039296327
17	0x3d11abf1	0.035564367
18	0x3bd2e288	0.006435696
19	0xbb5e4c1f	-0.0033919883
20	0x3cd67ad7	0.026181621
21	0xbc6f05b2	-0.01458876
22	0x3c5af5ca	0.013364265
23	0x3c1af1b2	0.009457039
24	0xbc4a46ad	-0.012345952
25	0x3c58a0a7	0.013221896
26	0x3c96f3e5	0.018426845
27	0xb8e3071d	-0.000108255284
28	0xbc2a992b	-0.010412495
29	0xbaf0c17e	-0.0018368212
30	0x3b3d80c8	0.002891587
31	0x3babd797	0.005244206
32	0xbb744e13	-0.0037277981
33	0xbd19e6b3	-0.037573528
34	0x3bca17ea	0.0061674016
35	0xbc869b64	-0.016431518
36	0x3ca858de	0.020550188
37	0xbb2f1596	-0.0026715747
38	0xbc7a3975	-0.015272488
39	0xbcb86f40	-0.022513986
40	0xbd2c3b33	-0.042048644
41	0xbc3f95e2	-0.01169345
42	0xbc03a15a	-0.008034075
43	0x3cfe4c02	0.031042103
44	0xbcca8d10	-0.024725467
45	0x3c24a437	0.0100489175
46	0x3cc30aa3	0.023808783
47	0xbb4b778e	-0.0031046602
48	0xbc45f9bf	-0.01208347
49	0x39829d70	0.00024912832
50	0x3aee2b25	0.0018170817
51	0x3cb7f677	0.02245639
52	0x3c76dd5e	0.0150674265
53	0x3b0e9a10	0.002175931
54	0x3c6762fb	0.01412272
55	0x3cad9771	0.021190377
56	0x3c1bd2c4	0.0095107
57	0x3ceabdf8	0.028655037
58	0x3cab0576	0.020876627
59	0x3b0fa1f4	0.00219166
60	0xbc08e5be	-0.008355556
61	0x3c8e1d3d	0.017347926
62	0xbcb29c64	-0.021803088
63	0xba91a1a1	-0.0011110791

running_mean f4 [64]
0	0x3d793dbe	0.060849898
1	0xbe0d3d0f	-0.13792823
2	0x3f25956d	0.6468113
3	0xbdaa758a	-0.083232
4	0x3dc31dce	0.09527169
5	0x3ea1a004	0.31567395
6	0x3df0606d	0.11737142
7	0xbbca0be9	-0.0061659706
8	0xbecd1183	-0.40052423
9	0x3e288597	0.1645721
10	0x3e695df9	0.22789754
11	0x3ed9841f	0.42483613
12	0x3d6eec30	0.058330715
13	0xbe1066a5	-0.14101656
14	0xbe0b3278	-0.13593471
15	0xbc65956a	-0.014012674
16	0x3eba1eca	0.36351615
17	0xbe9e6a03	-0.30940256
18	0xbe979d42	-0.29612166
19	0x3d995c8d	0.07488356
20	0xbd850360	-0.06494784
21	0x3be9f561	0.007139847
22	0x3c9c7067	0.019096566
23	0xbe801abc	-0.25020397
24	0xbe9581eb	-0.29200682
25	0x3dcc9fbf	0.09991407
26	0xbe87674a	-0.2644599
27	0x3c1cf08e	0.009578837
28	0x3ee1c61b	0.44096455
29	0xbdf94c2a	-0.1217273
30	0xbc964542	-0.018343572
31	0x3ebed7e5	0.3727409
32	0xbdac70f1	-0.08419979
33	0xbe5e8da9	-0.21733727
34	0x3ef57cc5	0.47946754
35	0xbe851de8	-0.2599938
36	0x3eab5e27	0.3347027
37	0x3e96376f	0.29339167
38	0xbda8b192	-0.08236994
39	0xbd8cc799	-0.06874008
40	0x3ebc2e19	0.3675392
41	0xbe846430	-0.25857687
42	0xbebca73d	-0.36846343
43	0xbe66b12c	-0.22528523
44	0x3e04dbb7	0.1297444
45	0xbe12328f	-0.14277099
46	0x3ec3c238	0.38234115
47	0xbf047d65	-0.51753837
48	0xbedba7eb	-0.4290155
49	0x3d003659	0.03130183
50	0xbde9b636	-0.11411707
51	0xbe6071c5	-0.219184
52	0xbea33bb2	-0.3188148
53	0x3eb8b8a1	0.3607836
54	0xbea1231c	-0.314721
55	0x3f2b3d14	0.6689007
56	0x3e8a706b	0.27038893
57	0xbe41c9a1	-0.18924572
58	0xbe8a3a3b	-0.2699755
59	0x3e234ef9	0.15948094
60	0xbe0a04fd	-0.13478465
61	0xbd3efb09	-0.046626125
62	0x3ec2b4d2	0.3802858
63	0x3ddb4bfa	0.10707851

running_var f4 [64]
0	0x3e024162	0.12720254
1	0x3e22ca9f	0.15897606
2	0x3de156b5	0.11002866
3	0x3e165135	0.14679416
4	0x3dd46aa0	0.103718996
5	0x3dbfdafd	0.093679406
6	0x3e16ba1e	0.14719436
7	0x3e00b4e4	0.12569004
8	0x3db84a57	0.08998554
9	0x3e0f2567	0.13979112
10	0x3e1f6c20	0.1556859
11	0x3dec3e7d	0.11535356
12	0x3dff3294	0.12460819
13	0x3e0cdb0d	0.13755436
14	0x3df900ca	0.121583536
15	0x3e0d93bc	0.13825887
16	0x3e3579de	0.1772227
17	0x3e119bad	0.14219542
18	0x3e06639d	0.13123937
19	0x3df12f62	0.11776616
20	0x3df1e9f3	0.118122004
21	0x3dde5757	0.108565025
22	0x3def5438	0.11685985
23	0x3dfd757f	0.12375926
24	0x3dea405f	0.11438059
25	0x3ddce64c	0.10786113
26	0x3dfb5b1b	0.12273236
27	0x3de6349e	0.11240505
28	0x3e00e9e5	0.12589224
29	0x3dededa1	0.1161759
30	0x3dba7219	0.09103794
31	0x3dff37ad	0.12461791
32	0x3df29396	0.11844556
33	0x3debfadb	0.11522456
34	0x3e06743e	0.1313028
35	0x3e046c49	0.12931933
36	0x3e18fa98	0.14939344
37	0x3debe87c	0.11518952
38	0x3e344364	0.17603832
39	0x3dff3a3f	0.124622814
40	0x3e322f31	0.17400815
41	0x3dd3875f	0.10328554
42	0x3de94a38	0.11391109
43	0x3df1a24e	0.11798535
44	0x3dca8102	0.098878875
45	0x3e09ac2e	0.13444588
46	0x3de7a53e	0.11310814
47	0x3dbd5a0c	0.09245691
48	0x3de783d2	0.113044396
49	0x3db23149	0.08700807
50	0x3df75a70	0.120777965
51	0x3df2ea31	0.11861075
52	0x3dd85504	0.105630904
53	0x3dd1649f	0.1022427
54	0x3df4939c	0.11942217
55	0x3e0d8f46	0.13824186
56	0x3dbcce55	0.09219042
57	0x3e00e38e	0.12586805
58	0x3deba544	0.11506131
59	0x3e0fd16f	0.14044736
60	0x3db0b665	0.08628539
61	0x3e08b22b	0.13349216
62	0x3e05d72c	0.13070363
63	0x3dfc13c8	0.123084605

weight f4 [5, 64]
0	0x3db8c8be	0.090226635
1	0xbbf2f444	-0.0074143726
2	0xbda0ff6c	-0.07861218
3	0x3d56f803	0.052482616
4	0x3c86b341	0.016442897
5	0xbdeb5db2	-0.1149248
6	0xbdaebc8e	-0.08532058
7	0x3d6507d3	0.055915665
8	0xbdc1e75b	-0.09467956
9	0xbcc80265	-0.024415204
10	0xbdb1831f	-0.086675875
11	0xbb9a02a2	-0.004700021
12	0xbd4c2a72	-0.049845167
13	0xbbf195a3	-0.0073725744
14	0xbd4fc317	-0.05072316
15	0xbc088b19	-0.008333945
16	0xbd989346	-0.07449965
17	0xbde71e15	-0.112850346
18	0xbd8731f1	-0.066013224
19	0xbddbdb8c	-0.107352346
20	0x3cf18d72	0.029486392
21	0xbccc9b34	-0.02497635
22	0x3dba3517	0.09092157
23	0x3c7d8120	0.01547268
24	0xbd6e503c	-0.058181986
25	0xbdaad431	-0.083412535
26	0x3dc3dd5f	0.095637076
27	0x3d34a76f	0.04410499
28	0x3d140ff7	0.036148038
29	0x3b317015	0.0027074863
30	0xbddce671	-0.10786141
31	0x3ccab803	0.024745947
32	0x3df46447	0.11933189
33	0x3d9ea57e	0.07746409
34	0xbdaca825	-0.084305085
35	0xbdfbd57b	-0.122965775
36	0x3d61cd40	0.055127382
37	0x3de04f7b	0.1095266
38	0xbd98a11b	-0.074526034
39	0xbd430e08	-0.047620803
40	0x3ca3d227	0.01999767
41	0xbaa2710e	-0.0012393312
42	0x3d75f701	0.060050014
43	0xbdcadc52	-0.09905304
44	0xbd34c3cb	-0.044132035
45	0x3dc4d93b	0.09611746
46	0x3b425fd4	0.0029659169
47	0x3d20a2cf	0.039217766
48	0x3d1f9f44	0.038970247
49	0xbd5db120	-0.054123998
50	0x3d9c8e85	0.07644371
51	0x3cc04d62	0.023474399
52	0x3bcccfa4	0.0062503386
53	0xbde9210b	-0.113832556
54	0xbdc02a05	-0.093830146
55	0xbc522c04	-0.012827877
56	0xbbea8da5	-0.0071579986
57	0xbd7b7486	-0.061390422
58	0x3ddf56c6	0.109052226
59	0xbd71ee01	-0.05906487
60	0x3c2bd58b	0.010487924
61	0x3da30835	0.0796055
62	0x3c501afc	0.012701746
63	0x3bf7f1a3	0.007566647
64	0x3dc6ffa2	0.09716727
65	0xbd837024	-0.064178735
66	0x3d82240a	0.0635453
67	0xbdb69411	-0.0891496
68	0x3d9553a3	0.07291343
69	0x3d636b22	0.05552209
70	0x3d6975f9	0.056997273
71	0xbdf79447	-0.120888285
72	0x3b20e10f	0.0024548208
73	0xbd404828	-0.046943814
74	0xbbece012	-0.0072288597
75	0xbdaeec5b	-0.08541175
76	0x3dcaa228	0.0989421
77	0x3d4d3e63	0.050108325
78	0xbd1a7525	-0.037709374
79	0xbd75b442	-0.05998636
80	0x3d76680b	0.060157817
81	0x3c0559e0	0.008139104
82	0xb9ab0de4	-0.0003262601
83	0xbd9bd010	-0.07608044
84	0xbd96928f	-0.073521726
85	0xbcef884a	-0.029239792
86	0xbcdd9240	-0.027047276
87	0x3d3d2a6d	0.04618304
88	0xbd0fc8a4	-0.035103455
89	0x3d99fe4a	0.07519205
90	0xbd9c1541	-0.07621241
91	0x3dd4c087	0.10388284
92	0x3d356774	0.044288114
93	0xbc28de2d	-0.010306877
94	0xbd7431b7	-0.059617724
95	0x3dba7467	0.09104233
96	0xbdee9c5e	-0.116509184
97	0xbdaab294	-0.08334842
98	0x3acadd7a	0.0015477382
99	0xbdb9e8ac	-0.09077582
100	0xbd7cf7fd	-0.061759938
101	0x3cbf51b5	0.02335439
102	0xbd1d7148	-0.03843811
103	0xbd857669	-0.065167256
104	0x3df206c1	0.118176945
105	0xbc3772e0	-0.011196822
106	0xbcbf4b75	-0.02335141
107	0xbba6b61e	-0.005087628
108	0xbdca1722	-0.098676935
109	0xbc288574	-0.010285724
110	0x3cf2aa26	0.029622149
111	0x3dbfbfb0	0.09362733
112	0xbd89b3ec	-0.067237705
113	0x3d11ae8d	0.035566855
114	0xbcb8fe51	-0.022582205
115	0xbd15f18c	-0.03660731
116	0xbd202383	-0.039096367
117	0xbd853a76	-0.06505291
118	0xbb20c5c4	-0.002453194
119	0x3def0417	0.11670702
120	0xbd1a4ddb	-0.037671905
121	0x3dcc603b	0.09979292
122	0x3d14dd91	0.036344115
123	0x3c9ee907	0.019398225
124	0xbd7c7425	-0.0616342
125	0x3c53567f	0.01289904
126	0xbdc4b75c	-0.096052855
127	0xbdec68d9	-0.115434356
128	0x3d98598d	0.074389555
129	0xbdcf55a2	-0.10123755
130	0xbc494395	-0.012284179
131	0xbd133d3a	-0.035947062
132	0xbd6cba20	-0.05779469
133	0xbdb7680e	-0.08955394
134	0x3dfde278	0.12396711
135	0x3d5feca8	0.054669052
136	0xbdaa29df	-0.083087675
137	0xbdb1e327	-0.08685904
138	0x3cb0b3dd	0.02157014
139	0x3d22b404	0.039722458
140	0xbcfb5c42	-0.03068364
141	0x3c0a3d5a	0.008437479
142	0x3df24002	0.11828615
143	0x3d9151bf	0.0709567
144	0xbd550448	-0.052006036
145	0xbbdb74ca	-0.006697272
146	0xbdb59523	-0.08866336
147	0xbde79aa4	-0.11308792
148	0xbd5ec325	-0.054385323
149	0xbd2faa0e	-0.042886786
150	0xbc32aa9a	-0.010904932
151	0xbc26eaeb	-0.010187845
152	0x3d30e162	0.04318369
153	0xbc312973	-0.010813105
154	0xbd0e9fa2	-0.034820206
155	0xbb22bde2	-0.0024832417
156	0xbdaac1b3	-0.083377264
157	0xbd9f583e	-0.07780503
158	0xbce6150a	-0.028086204
159	0x3cb03c5c	0.021513157
160	0xbdba1527	-0.09086066
161	0x3dae2ea5	0.085049905
162	0xbdde4df3	-0.108547114
163	0xbdd535a2	-0.1041062
164	0xbd75e762	-0.060035117
165	0x3c53e8d5	0.012933929
166	0x3dcf3f30	0.10119474
167	0x3c81a11e	0.015823897
168	0x3d880345	0.066412486
169	0xbc56b69b	-0.01310506
170	0x3ddccb33	0.10780945
171	0x3cf4ccae	0.029882755
172	0x3d15d66d	0.036581445
173	0x3dd3f671	0.10349739
174	0x3d1bb623	0.038015496
175	0x3c5c55fd	0.013448236
176	0x3d8efcf9	0.069818445
177	0xbd414dc8	-0.04719332
178	0x3dff2713	0.12458625
179	0xbca210ad	-0.019783342
180	0xbdcfa0b9	-0.10138077
181	0x3ce6631b	0.028123429
182	0xbd5fdb4e	-0.054652505
183	0xbc250adb	-0.010073389
184	0x3dd8bd5b	0.10582992
185	0xbd8597ad	-0.065230705
186	0xbda0a301	-0.078435905
187	0xbb4a6cfc	-0.0030887714
188	0x3d42493c	0.047433123
189	0x3d5e56a7	0.054281857
190	0x3d04c5b6	0.032415114
191	0xbd8134c3	-0.063088916
192	0xbc8a7bc9	-0.016904728
193	0x3d6bfc86	0.057613872
194	0x3d69c067	0.057068255
195	0xbd5eb595	-0.05437239
196	0xbdc93738	-0.09824985
197	0x3debd5f3	0.11515417
198	0xba2463b1	-0.00062709587
199	0xbd5748cd	-0.052559663
200	0xbdaaec57	-0.083458595
201	0xbd80d1ba	-0.06290002
202	0x3d89e97a	0.06733985
203	0x3d49b6db	0.04924665
204	0x3d35031b	0.044192415
205	0x3d40c99c	0.04706727
206	0xbd0803f5	-0.0332069
207	0x3d03f3d5	0.03221496
208	0x3dbc0279	0.09180159
209	0xbdacd950	-0.084398866
210	0xbd912ca1	-0.070885904
211	0xbd1fa114	-0.038971975
212	0x3e1ac235	0.15113147
213	0x3c17f4db	0.009274687
214	0xbde03d24	-0.10949162
215	0x3d9a51df	0.07535147
216	0x3d28c8f1	0.041207258
217	0x3db9ef66	0.09078865
218	0xbb82010d	-0.0039674104
219	0xbd7516ee	-0.05983632
220	0xbd8cecd5	-0.068811096
221	0xbddb759c	-0.107157916
222	0xbdbd8325	-0.092535295
223	0x3d0dafcb	0.034591477
224	0x3d7c2e1c	0.06156741
225	0xbd704682	-0.05866099
226	0x3dd3461f	0.10316109
227	0xbd44a1b2	-0.048005767
228	0xbd20f7fc	-0.039298996
229	0x3c90b441	0.017664077
230	0xbd965608	-0.07340628
231	0xbdb02f7b	-0.08602806
232	0xbd8b3927	-0.0679801
233	0xbdc8f037	-0.09811442
234	0xbc5cd9c1	-0.013479651
235	0x3dc7b28e	0.097508535
236	0xbc8b5058	-0.017006084
237	0x3b743842	0.0037264978
238	0x3b58c2b5	0.0033075039
239	0x3dfe1f9c	0.12408373
240	0xbd1bdde3	-0.038053405
241	0x3c9f897a	0.019474734
242	0xbd8ebe0b	-0.069698416
243	0xbd26af9f	-0.04069483
244	0x3c94bef6	0.018157464
245	0x3d8a1277	0.06741803
246	0xbc8ba4e7	-0.017046405
247	0x3daca62a	0.08430131
248	0x3d02ca43	0.031931173
249	0x3dd1b01e	0.1023867
250	0x3de3797f	0.11107158
251	0x3c8041d0	0.015656382
252	0x3df329eb	0.118732296
253	0x3d88a4c2	0.0667205
254	0x3d2f80f9	0.042847607
255	0x3dbc4284	0.09192374

bias f4 [5]
0	0x3c21c90e	0.009874595
1	0x3e1f14e1	0.15535308
2	0x3d767090	0.06016594
3	0x3c672e84	0.014110211
4	0x3c6009b7	0.013674191
