Industrial Equipment/mlruns/0/6460fd34efd549f6b3f7d2912e41fe9d/artifacts/generator_model/data/model.pth (torch, 55038 bytes, 14 tensors)

weight f4 [64, 100]
0.0688742 0.060156137 0.037473045 0.05590968 0.04918073 0.059755106 0.07084695 -0.07248565
0.034720507 0.05408965 0.09042378 -0.11541943 -0.032888353 -0.051608644 0.08055405 -0.1151144
0.05992751 -0.003924225 -0.039618284 -0.011172445 0.029604549 0.06940802 0.08050404 0.06748451
-0.02208925 -0.0516406 -0.009617845 -0.0124853 0.008708368 0.0019927947 -0.06294789 0.051589776
0.022962656 0.0406582 -0.10095274 0.08348727 0.069737606 0.0931409 0.016261538 -0.0909165
-0.042360168 -0.069381684 -0.07935654 0.11794553 0.081935324 -0.09126101 0.044888835 -0.012664936
0.09620246 -0.08357646 0.03183139 0.01662261 -0.09455336 0.043758176 -0.06819135 0.087179035
-0.041210014 0.016688263 -0.056127 0.0028388132 0.049697336 -0.079753645 -0.06653306 -0.022428708
-0.021567002 -0.058431976 0.015399621 0.009999572 0.019702911 -0.106764644 -0.014640552 -0.0052489033
-0.01998758 -0.003606876 0.07423411 -0.07005462 -0.063739605 -0.020677363 -0.04609651 0.055697203
0.056011137 0.04621432 0.07082075 -0.09228711 -0.035231188 -0.047556873 -0.10017486 0.016601192
0.055595458 0.041273497 0.094945356 -0.069986105 -0.08056598 0.016489333 0.05309165 0.074721016
-0.066570796 0.009665852 0.015359823 -0.0013624376 0.013015463 -0.031787492 -0.020430746 -0.030995918
0.10450152 0.07873832 -0.008296253 0.04911185 -0.00073144166 0.010122782 -0.060069457 0.0049473434
0.070537955 0.07572816 -0.016152397 0.07068939 -0.002148418 0.08765625 -0.08388219 0.08122129
-0.06013283 -0.06353935 0.10199741 0.09291657 -0.07027315 -0.055474218 -0.095891885 -0.03230988
0.04640666 0.05100734 0.08027093 -0.08071924 -0.056656092 0.05203611 -0.07577931 -0.0617235
-0.079460345 -0.034490798 -0.055706486 -0.01280786 -0.040113594 0.027880557 -0.06312411 -0.01072367
-0.031073561 0.0013132673 -0.010181529 0.03992236 -0.023578009 0.011753262 0.096211866 0.048037425
-0.015928673 0.031266272 0.08621074 0.049594495 0.11364067 -0.07736167 -0.006816677 0.004154483
0.031337537 -0.050686456 -0.052205462 -0.017806936 0.030572021 -0.07391551 0.09350245 0.07425323
0.0072656074 -0.04881685 -0.049682427 -0.084389366 0.03432387 -0.071528 0.026690409 0.081759885
-0.01694549 -0.054972913 0.008827851 0.06759892 -0.043014124 -0.080714166 0.042322297 -0.063929394
-0.053763516 0.052737992 -0.04175119 0.039001223 0.08897891 0.07580253 0.081716016 -0.05313101
0.07518292 -0.02048585 0.06918665 0.052113187 0.047078516 -0.011779378 -0.08150569 -0.041756492
0.05230711 0.09719291 0.010699045 0.085442714 0.056354992 -0.020687757 -0.026330905 -0.007657036
0.050778717 -0.027944133 -0.032176394 0.03881786 -0.046370614 0.017429695 0.041325957 -0.014955964
0.0020386507 0.0972898 -0.07900111 -0.009648812 -0.06231129 -0.07338834 -0.07301389 -0.066581346
0.01508706 0.10563333 -0.079465285 0.10520823 0.08679357 -0.096557386 0.06424423 0.09318836
0.02971497 -0.034905747 -0.054904677 -0.057119627 0.027461858 -0.016194636 -0.05183167 -0.02351221
-0.023956234 0.1123845 0.02521816 0.045629337 -0.011799593 0.061746 -0.08064155 -0.037180137
-0.03548593 -0.007528119 0.00042228846 -0.029023085 0.05832856 0.055909447 0.031660907 0.077870026
00000000: eb0d 8d3d 4866 763d 567d 193d 8c01 653d
00000010: bc71 493d c5c1 743d 3518 913d 5b73 94bd
00000020: 1737 0e3d 1c8d 5d3d 1a30 b93d 0661 ecbd
00000030: f0b5 06bd 9663 53bd 86f9 a43d 19c1 ebbd
00000040: 8c76 753d c996 80bb c846 22bd a10c 37bc
00000050: 3d85 f23c cb25 8e3d 4ddf a43d 5235 8a3d
00000060: 84f4 b4bc 1885 53bd 2a94 1dbc 258f 4cbc
00000070: 8bad 0e3c 8c99 023b d3ea 80bd cd4f 533d
00000080: 2e1c bc3c 3689 263d 4fc0 cebd 60fb aa3d
00000090: 97d2 8e3d a8c0 be3d eb36 853c 6e32 babd
000000a0: db81 2dbd fc17 8ebd af85 a2bd 6d8d f13d
000000b0: b5cd a73d 0de7 babd 5bdd 373d 9780 4fbc
000000c0: cc05 c53d 232a abbd a261 023d 242c 883c
000000d0: 31a5 c1bd c63b 333d e8a7 8bbd ec8a b23d
000000e0: d5cb 28bd d3b5 883c 6de5 65bd 620b 3a3b
000000f0: 6f8f 4b3d e155 a3bd 7c42 88bd 69bc b7bc
00000100: 48ad b0bc 5e56 6fbd b14e 7c3c 3fd5 233c
00000110: 0068 a13c 6ca7 dabd edde 6fbc fefe abbb
00000120: febc a3bc 5661 6cbb 0e08 983d cc78 8fbd
00000130: e989 82bd 9363 a9bc b2cf 3cbd c022 643d
00000140: ef6b 653d 3a4b 3d3d 780a 913d 0601 bdbd
00000150: 944e 10bd ffca 42bd 7a28 cdbd 39ff 873c
00000160: 10b8 633d 660e 293d b672 c23d e054 8fbd
00000170: c7ff a4bd a314 873c a176 593d 5507 993d
00000180: 4556 88bd 865d 1e3c c4a7 7b3c d293 b2ba
00000190: cf3e 553c 9a33 02bd 615e a7bc 27eb fdbc
000001a0: e504 d63d 8e41 a13d 02ed 07bc 8229 493d
000001b0: 38be 3fba 06da 253c 640b 76bd 531d a23b
000001c0: 3476 903d 5e17 9b3d 0852 84bc 99c5 903d
000001d0: 79cc 0cbb 1f85 b33d 6dca abbd 5957 a63d
000001e0: d84d 76bd eb20 82bd 05e4 d03d 0b4b be3d
000001f0: 5feb 8fbd ef38 63bd f762 c4bd 5d57 04bd
00000200: e914 3e3d 13ed 503d 1665 a43d 2150 a5bd
00000210: 3810 68bd d123 553d 2f32 9bbd c8d1 7cbd
00000220: 1bbc a2bd 3946 0dbd 7c2c 64bd 0fd8 51bc
00000230: 274e 24bd c465 e43c 3747 81bd 55b2 2fbc
00000240: fb8d febc f021 ac3a 6ed0 26bc a185 233d
00000250: ab26 c1bc c190 403c ba0a c53d e4c2 443d
00000260: d97c 82bc 1011 003d 428f b03d 9923 4b3d
00000270: 71bc e83d cc6f 9ebd 6e5e dfbb 5422 883b
00000280: ca5b 003d 9a9c 4fbd 65d5 55bd dadf 91bc
00000290: 2d72 fa3c 0461 97bd 367e bf3d 1412 983d
000002a0: 5514 ee3b 2df4 47bd cd7f 4bbd 55d4 acbd
000002b0: 3097 0c3d 467d 92bd d8a5 da3c ba71 a73d
000002c0: 45d1 8abc 472b 61bd b1a2 103c 4d71 8a3d
000002d0: 942f 30bd 784d a5bd 255a 2d3d 6aed 82bd
000002e0: 2237 5cbd cb03 583d 4c03 2bbd bfbf 1f3d
000002f0: 933a b63d 5b3e 9b3d ba5a a73d e79f 59bd
00000300: 81f9 993d f1d1 a7bc bbb1 8d3d a374 553d
00000310: 67d5 403d 4bfe 40bc 75ec a6bd db08 2bbd
00000320: fb3f 563d 140d c73d 0c4b 2f3c 97fc ae3d
00000330: 7ed4 663d 5f79 a9bc e9b3 d7bc e0e7 fabb
00000340: 58fd 4f3d 18eb e4bc 65cb 03bd 7aff 1e3d
00000350: 1def 3dbd b8c8 8e3c 6845 293d dc09 75bc
00000360: e29a 053b e03f c73d 55cb a1bd 0d16 1ebc
00000370: 203a 7fbd a04c 96bd 4e88 95bd cd5b 88bd
00000380: b72f 773c 4a56 d83d b2be a2bd 6a77 d73d
00000390: d4c0 b13d e1bf c5bd 7b92 833d 8ad9 be3d
000003a0: cf6c f33c 54f9 0ebd bae3 60bd 45f6 69bd
000003b0: b1f7 e03c 9daa 84bc 724d 54bd ae9c c0bc
000003c0: dd3f c4bc d829 e63d 5196 ce3c d4e5 3a3d
000003d0: 1553 41bc 60e9 7c3d 6627 a5bd 334a 18bd
000003e0: b259 11bd 70ae f6bb 9966 dd39 d2c1 edbc
000003f0: eee9 6e3d 4e01 653d deae 013d 527a 9f3d

bias f4 [64]
0.01956963 -0.048917573 -0.08314719 -0.05003615 -0.08582598 -0.06874074 -0.0055568577 -0.0710268
0.009674099 0.084269494 -0.09001882 -0.061584767 0.07922111 -0.07677338 -0.02788496 -0.053123996
0.02835502 0.04219899 -0.08470205 0.0018549236 -0.08019014 0.07281472 -0.05285957 0.022002874
-0.09469134 -0.04561495 0.0734015 -0.09196039 -0.09324048 -0.012375164 0.019445378 -0.00941653
0.09034582 0.008205143 -0.05940043 -0.0063202437 -0.06608035 -0.03026678 -0.031251695 0.09962694
-0.014095141 -0.07550275 0.016229086 0.012721705 -0.03771359 0.011096506 0.080201395 0.02618473
0.075982824 0.034570947 0.043249544 0.049719393 -0.059245173 0.00798653 0.0751812 -0.02504429
-0.034461346 0.07251194 -0.08892463 0.08127351 -0.037551552 -0.03445812 0.07404362 0.06550568
00000000: 7d50 a03c cb5d 48bd 1349 aabd b5f2 4cbd
00000010: 88c5 afbd f2c7 8cbd 4d16 b6bb 8076 91bd
00000020: 1d80 1e3c 7c95 ac3d c95b b8bd 4f40 7cbd
00000030: ad3e a23d 5d3b 9dbd 006f e4bc 8c98 59bd
00000040: c948 e83c d9d8 2c3d 4578 adbd e820 f33a
00000050: ba3a a4bd e21f 953d 4783 58bd 5f3f b43c
00000060: 89ed c1bd bed6 3abd 8753 963d bb55 bcbd
00000070: ddf4 bebd 33c1 4abc ea4b 9f3c ca47 1abc
00000080: 3b07 b93d dd6e 063c de4d 73bd 0c1a cfbb
00000090: 2255 87bd 0af2 f7bc c701 00bd 3609 cc3d
000000a0: 4eef 66bc 30a1 9abd dcf2 843c b36e 503c
000000b0: 9179 1abd 1fce 353c a140 a43d 5c81 d63c
000000c0: e29c 9b3d 449a 0d3d 6f26 313d 90a6 4b3d
000000d0: 11ab 72bd efd9 023c 9af8 993d af29 cdbc
000000e0: 5727 0dbd 2481 943d 1e1e b6bd ba72 a63d
000000f0: a8cf 19bd f523 0dbd 2ea4 973d d827 863d

weight f4 [64]
0.9984772 1.0065913 1.0236373 1.0028436 1.008503 1.0034225 0.9901874 0.9948543
0.99697363 0.97987753 1.036179 0.9849246 1.0051513 0.99369246 1.0120869 0.98691607
0.9833387 0.9963858 0.99489427 1.0108767 0.9988892 1.0022311 1.0136385 0.9955484
1.0295907 1.0017718 0.9974471 0.9840493 0.9868482 0.9901847 0.99566317 1.0188566
0.98264235 1.0009757 0.9979929 0.983748 1.0135686 0.99932563 0.9885925 1.0024105
0.98717314 0.9848862 1.0245874 1.0076312 0.98990166 1.0072334 0.9753941 0.9863892
1.0133256 1.0015311 0.9940433 1.0144243 1.0132002 1.011658 0.9822645 1.006334
1.0000137 1.0040958 1.0296696 1.0142112 1.0144217 0.9782061 0.9840515 0.9890501
00000000: 349c 7f3f fcd7 803f 8c06 833f 2e5d 803f
00000010: a016 813f 2670 803f ec7c 7d3f c5ae 7e3f
00000020: aa39 7f3f 41d9 7a3f 83a1 843f 0524 7c3f
00000030: cca8 803f a162 7e3f 108c 813f 88a6 7c3f
00000040: 16bc 7b3f 2413 7f3f 64b1 7e3f 6864 813f
00000050: 34b7 7f3f 1c49 803f e8be 813f 43dc 7e3f
00000060: a1c9 833f 0f3a 803f b158 7f3f a8ea 7b3f
00000070: 15a2 7c3f bf7c 7d3f c8e3 7e3f e569 823f
00000080: 738e 7b3f f91f 803f 767c 7f3f e9d6 7b3f
00000090: 9ebc 813f ced3 7f3f 6614 7d3f fd4e 803f
000000a0: 61b7 7c3f 8121 7c3f ae25 833f 0ffa 803f
000000b0: 326a 7d3f 06ed 803f 6eb3 793f 0184 7c3f
000000c0: a7b4 813f 2c32 803f 9f79 7e3f a8d8 813f
000000d0: 8bb0 813f 027e 813f b075 7b3f 8dcf 803f
000000e0: 7300 803f 3686 803f 37cc 833f acd1 813f
000000f0: 92d8 813f b76b 7a3f cdea 7b3f 6332 7d3f

bias f4 [64]
-0.0021514585 0.008317623 0.014376622 0.012087707 0.011125974 -0.0013015111 -0.022125924 -0.00015143902
0.008610612 -0.018885259 -0.0045407983 -0.0005130753 0.0067582573 -0.009053987 0.014410586 -0.0062344354
-0.017859755 -0.0059971744 0.0016972276 0.009499749 -0.0056431764 0.002152869 -0.002695053 0.008236671
0.011599731 0.001962505 -0.011473056 -0.009360789 -0.0027029107 -0.005220857 -0.009464599 0.0034582685
-0.0063158805 -0.021874337 0.0005732336 -0.014177385 0.0010582971 0.013274039 -0.006418474 0.011087289
7.501007e-05 0.009397883 0.013631388 -0.0078957835 -0.006558825 0.010332086 -0.01762095 -0.01301117
0.0004115962 0.0069354996 -0.0028356158 0.00053089624 0.008226031 0.012891517 -0.004870662 -0.0044775405
-0.0010480493 0.013859099 0.039291672 0.008681085 -0.0063658003 -0.023049617 -0.016963601 -0.0043686125
00000000: 7cff 0cbb a446 083c ec8b 6b3c 850b 463c
00000010: b849 363c 7797 aaba 6d41 b5bc 9acb 1eb9
00000020: 8613 0d3c 42b5 9abc faca 94bb e77f 06ba
00000030: 5f74 dd3b 2d57 14bc 611a 6c3c 3c4a ccbb
00000040: 9f4e 92bc f283 c4bb 8275 de3a d6a4 1b3c
00000050: 65ea b8bb 2617 0d3b 7c9f 30bb 1af3 063c
00000060: cc0c 3e3c 5f9d 003b 7cf9 3bbc ff5d 19bc
00000070: 5123 31bb b913 abbb 6811 1bbc 1ea4 623b
00000080: 72f5 cebb cf31 b3bc 0e45 163a 4348 68bc
00000090: 8fb6 8a3a 5b7b 593c 1052 d2bb 76a7 353c
000000a0: ba4e 9d38 94f9 193c 2f56 5f3c 515d 01bc
000000b0: 69eb d6bb e947 293c cf59 90bc cd2c 55bc
000000c0: 82cb d739 3043 e33b bdd5 39bb d82b 0b3a
000000d0: 7ac6 063c f136 533c 139a 9fbb 55b8 92bb
000000e0: b35e 89ba 4611 633c 4ef0 203d 1c3b 0e3c
000000f0: 3498 d0bb 8dd2 bcbc 40f7 8abc 9426 8fbb

running_mean f4 [64]
-0.008486603 -0.029726015 -0.085576475 -0.06340873 -0.103678286 -0.09901017 0.010428294 -0.065099746
-0.005857968 0.08721192 -0.10727818 -0.03924636 0.07710993 -0.067445986 -0.026110765 -0.0430204
0.037379134 0.045774296 -0.07286679 0.02947251 -0.08987928 0.05389399 -0.07519936 0.023837812
-0.10062351 -0.0693162 0.08444617 -0.076433405 -0.089034714 0.013316021 0.041864824 0.010850852
0.1049311 0.010171753 -0.061967775 -0.011301234 -0.056773063 -0.025194906 -0.031315014 0.09747696
-0.014124662 -0.088680305 0.017307125 0.009912676 -0.020586524 0.024605203 0.060668986 0.02899123
0.09310625 0.053543665 0.06249414 0.022551753 -0.09906501 0.03346339 0.06211446 -0.00079476205
-0.012650303 0.10395522 -0.079252675 0.0970453 0.015533457 -0.03959924 0.04848704 0.055000167
00000000: 650b 0bbc f983 f3bc b842 afbd 70dc 81bd
00000010: 4855 d4bd d8c5 cabd 6fdb 2a3c 0453 85bd
00000020: 32f4 bfbb 2a9c b23d aab4 dbbd cbc0 20bd
00000030: d0eb 9d3d 1f21 8abd 3ee6 d5bc 2936 30bd
00000040: dd1a 193d d47d 3b3d 2f3b 95bd 5570 f13c
00000050: a112 b8bd f2bf 5c3d 1f02 9abd 8447 c33c
00000060: b313 cebd a7f5 8dbd 1df2 ac3d 1e89 9cbd
00000070: d557 b6bd 712b 5a3c 737a 2b3d c6c7 313c
00000080: 1ee6 d63d 6da7 263c ecd1 7dbd d028 39bc
00000090: df8a 68bd 8c65 cebc 2c44 00bd 00a2 c73d
000000a0: 206b 67bc 059e b5bd acc7 8d3c c768 223c
000000b0: 12a5 a8bc da90 c93c 0b80 783d 047f ed3c
000000c0: 7dae be3d 9a50 5b3d dbf9 7f3d 74be b83c
000000d0: 99e2 cabd e810 093d bb6b 7e3d 9457 50ba
000000e0: 3743 4fbc 79e6 d43d 3a4f a2bd b0bf c63d
000000f0: 0a80 7e3c d032 22bd 599a 463d db47 613d

running_var f4 [64]
0.3635152 0.34744975 0.333231 0.41155592 0.33744076 0.32049823 0.4137883 0.34956062
0.38655385 0.31053686 0.28550822 0.40605 0.31168622 0.38815382 0.34253132 0.29316702
0.43294746 0.29234394 0.3557959 0.35477668 0.3781487 0.3029872 0.3123808 0.3865819
0.36402765 0.28543586 0.32802418 0.37206888 0.3431774 0.342121 0.4253204 0.33152646
0.35301146 0.3952675 0.29212025 0.3204647 0.35835305 0.30198917 0.36237818 0.32721472
0.2897843 0.29577282 0.38546455 0.35192066 0.34475365 0.34030512 0.2851949 0.29018804
0.3175394 0.3525038 0.29047623 0.28069896 0.3710784 0.38078097 0.30667534 0.34760904
0.36432782 0.33800885 0.30650017 0.29625857 0.38110325 0.37253273 0.3336296 0.34945735
00000000: aa1e ba3e efe4 b13e 419d aa3e 75b7 d23e
00000010: 09c5 ac3e 5818 a43e 0fdc d33e 9cf9 b23e
00000020: 63ea c53e b0fe 9e3e 222e 923e c9e5 cf3e
00000030: 5695 9f3e 19bc c63e 4460 af3e fd19 963e
00000040: 4aab dd3e 1bae 953e e12a b63e 4aa5 b53e
00000050: b59c c13e 2321 9b3e 60f0 9f3e 10ee c53e
00000060: d561 ba3e a624 923e c9f2 a73e d07f be3e
00000070: f3b4 af3e 7c2a af3e 98c3 d93e d6bd a93e
00000080: ebbd b43e 8060 ca3e c990 953e f313 a43e
00000090: 0d7a b73e 539e 9a3e a289 b93e b088 a73e
000000a0: 9c5e 943e 896f 973e 9c5b c53e f22e b43e
000000b0: 8d83 b03e 793c ae3e 1105 923e 8793 943e
000000c0: 8694 a23e 617b b43e 4db9 943e c6b7 8f3e
000000d0: fdfd bd3e b9f5 c23e 8d04 9d3e d0f9 b13e
000000e0: 2d89 ba3e 7f0f ad3e 97ed 9c3e 34af 973e
000000f0: f71f c33e 9cbc be3e 80d1 aa3e 13ec b23e

weight f4 [64, 64]
-0.101126604 0.12515752 -0.03278142 0.049568504 -0.072796956 -0.07341868 0.0978447 0.081925794
0.110525295 0.0515134 -0.086035036 -0.022192767 0.015937237 -0.0014149486 0.14072579 0.019157344
-0.063291445 0.005134555 -0.039775595 -0.12087165 0.040048137 -0.03644734 0.104758695 -0.07614796
0.015105248 -0.039076626 0.039164633 -0.07489738 -0.041574344 -0.007797331 -0.09478805 0.097643696
0.03889593 -0.04459608 -0.027479388 -0.019753518 -0.03303887 -0.083169006 -0.06726948 -0.101086386
0.02388381 0.105221465 -0.023355048 0.08422133 0.0032994547 0.0020957536 -0.06899805 0.024838885
-0.09973369 -0.038294736 0.053282358 0.07115242 0.053082537 -0.09891727 0.08741072 -0.05092138
0.11175076 -0.12320277 -0.008771694 0.08114088 0.0141259385 -0.10325707 0.012400114 0.06918385
-0.08957074 -0.09534521 -0.07787159 0.0944217 -0.05145995 -0.0073045213 0.119035676 -0.02814119
0.01648451 0.096178465 -0.07627507 0.038651478 -0.053404115 -0.027172577 -0.10744323 0.07025993
-0.08157606 -0.10955744 0.04060434 -0.011597899 -0.05026039 -0.09983918 -0.021603312 -0.046150602
-0.10407915 0.054694474 -0.066629715 0.11162073 0.028957909 -0.058043297 0.02097761 -0.07878553
0.090458214 0.041194975 -0.017362168 0.039978724 -0.053582758 0.032106347 -0.13039379 0.020466877
0.09810241 -0.026776096 -0.0269536 0.034236692 0.0370969 0.038456522 -0.07080772 0.07316456
-0.09802714 0.08066925 -0.023943394 0.051727574 0.060819797 -0.10808708 -0.011802208 -0.14963402
0.040065028 -0.02712929 -0.095230706 0.11755562 -0.06789422 0.03155371 0.05753884 0.100342095
-0.003935842 0.10169222 0.0021193293 -0.08091567 0.0704871 -0.056113772 0.016595509 -0.13385628
0.06945124 -0.01742786 -0.024298808 -0.045476303 0.10427117 0.11340362 0.101730354 -0.06071957
-0.06427043 0.04515505 0.07401837 0.11822042 -0.09799263 0.10117201 0.04871915 0.09102585
-0.06271775 -0.07041754 0.030416694 0.037918553 -0.07269831 -0.017814143 -0.046007268 0.09986591
-0.08562909 -0.10417113 0.034613468 -0.046247583 0.044179782 0.062351923 -0.08157118 -0.13065591
0.0020274287 -0.113937594 0.07548452 0.11958616 0.05743441 -0.12538414 0.004122612 0.035545394
-0.085727915 0.08223455 0.10008538 -0.05296257 0.074184716 -0.009178253 0.0818394 0.04446089
-0.11975751 0.012430528 -0.10516167 0.08150458 -0.020107962 0.011430814 0.07698616 0.034785114
-0.1325313 0.049807303 0.011442116 -0.10250049 -0.115515634 0.0064507215 0.08196208 -0.11512
0.10128185 0.08441076 -0.117198184 0.033385556 -0.07833884 -0.0040822313 -0.08048588 -0.047821723
-0.0024927973 0.0330684 0.007994039 0.08638959 0.08411662 0.034455772 -0.08150271 0.041087046
-0.08188099 0.023504635 0.12101866 0.104165025 0.010215392 -0.006347662 -0.03048422 0.090938814
-0.062627874 0.06281799 0.11123215 0.04896026 0.10306341 0.02674839 -0.11069167 0.05501867
0.101317465 0.046223637 -0.11532245 0.067129575 -0.014667885 0.04968894 0.020594254 0.027885364
-0.042884193 0.0802537 -0.013093204 -0.048736997 -0.083538644 -0.0665465 0.051037647 -0.12379592
0.0706979 -0.053060193 -0.12794225 0.02771796 0.07471648 0.0883111 -0.038597133 -0.033869606
00000000: 771b cfbd 4b29 003e cf45 06bd 5808 4b3d
00000010: 9216 95bd 885c 96bd cd62 c83d b6c8 a73d
00000020: 165b e23d b7ff 523d 2333 b0bd 9bcd b5bc
00000030: cf8e 823c cc75 b9ba 6c1a 103e ddef 9c3c
00000040: f29e 81bd c53f a83b bceb 22bd 8e8b f7bd
00000050: 8409 243d ce49 15bd ba8b d63d 76f3 9bbd
00000060: 017c 773c d00e 20bd 186b 203d cc63 99bd
00000070: dc49 2abd c180 ffbb 3d20 c2bd 6bf9 c73d
00000080: 5751 1f3d 61aa 36bd 741c e1bc 21d2 a1bc
00000090: c453 07bd 8354 aabd 95c4 89bd 6106 cfbd
000000a0: fba7 c33c 5a7e d73d 1653 bfbc 3c7c ac3d
000000b0: aa3b 583b e958 093b da4e 8dbd eb7a cb3c
000000c0: 2d41 ccbd f1da 1cbd 9a3e 5a3d 5cb8 913d
000000d0: 136d 593d 2395 cabd 6404 b33d f092 50bd
000000e0: 95dd e43d bc51 fcbd 27b7 0fbc 312d a63d
000000f0: 7b70 673c 7178 d3bd d929 4b3c 43b0 8d3d
00000100: dd70 b7bd 5944 c3bd 247b 9fbd 2a60 c13d
00000110: abc7 52bd c45a efbb fac8 f33d 5a88 e6bc
00000120: 860a 873c 37f9 c43d 1b36 9cbd 0351 1e3d
00000130: 46be 5abd 0699 debc 320b dcbd 70e4 8f3d
00000140: 5911 a7bd a75f e0bd bd50 263d 1d05 3ebc
00000150: d7dd 4dbd 7c78 ccbd 6ef9 b0bc 6a08 3dbd
00000160: 7327 d5bd 5007 603d 2975 88bd 6999 e43d
00000170: 2339 ed3c cfbe 6dbd 3dd9 ab3c 4f5a a1bd
00000180: 2842 b93d 10bc 283d 1b3b 8ebc bbc0 233d
00000190: 9879 5bbd f281 033d f385 05be 27aa a73c
000001a0: ebe9 c83d 8b59 dbbc cccd dcbc c63b 0c3d
000001b0: ebf2 173d 9684 1d3d a303 91bd 4dd7 953d
000001c0: 74c2 c8bd eb35 a53d f024 c4bc 4be0 533d
000001d0: 2e1e 793d c25c ddbd 0c5e 41bc a939 19be
000001e0: 3a1b 243d 3f3e debc 5108 c3bd 00c1 f03d
000001f0: 200c 8bbd 773e 013d d9ad 6b3d 2880 cd3d
00000200: 3cf8 80bb 0344 d03d 72e4 0a3b 1db7 a5bd
00000210: 8a5b 903d 8ed7 65bd 4ef3 873c 9f11 09be
00000220: 743c 8e3d dfc4 8ebc 4b0e c7bc 5c45 3abd
00000230: 208c d53d 2840 e83d 0158 d03d 15b5 78bd
00000240: 37a0 83bd 80f4 383d f196 973d 8c1d f23d
00000250: 5cb0 c8bd 4533 cf3d bb8d 473d c36b ba3d
00000260: 2a72 80bd 1237 90bd 6e2c f93c 7c50 1b3d
00000270: dae2 94bd f7ee 91bc 1e72 3cbd 8086 cc3d
00000280: 4e5e afbd ac57 d5bd dac6 0d3d 1b6e 3dbd
00000290: dcf5 343d bb64 7f3d ca0e a7bd aaca 05be
000002a0: 9cde 043b 1d58 e9bd a197 9a3d 97e9 f43d
000002b0: 5840 6b3d b364 00be fa16 873b 0c98 113d
000002c0: 1e92 afbd 966a a83d 90f9 cc3d 48ef 58bd
000002d0: 28ee 973d 6260 16bc 6a9b a73d 9f1c 363d
000002e0: 6d43 f5bd 6aa9 4b3c 005f d7bd e0eb a63d
000002f0: 74b9 a4bc 4f48 3b3c ebaa 9d3d d67a 0e3d
00000300: 49b6 07be be02 4c3d b777 3b3c c7eb d1bd
00000310: 7693 ecbd 9360 d33b bcdb a73d 09c4 ebbd
00000320: dc6c cf3d 8cdf ac3d 9a05 f0bd 4bbf 083d
00000330: 1d70 a0bd 3dc4 85bb c8d5 a4bd b6e0 43bd
00000340: 335e 23bb bb72 073d 6ef9 023c 06ed b03d
00000350: 5645 ac3d 7f21 0d3d e5ea a6bd e44a 283d
00000360: 38b1 a7bd cb8c c03c a2d8 f73d 7954 d53d
00000370: 765e 273c 0c00 d0bb 0bba f9bc 213e ba3d
00000380: 0b43 80bd b8a6 803d aecd e33d 8e8a 483d
00000390: e912 d33d 711f db3c 50b2 e2bd 425b 613d
000003a0: 887f cf3d ff54 3d3d 2d2e ecbd 3b7b 893d
000003b0: 9251 70bc a186 4b3d 48b5 a83c d96f e43c
000003c0: 56a7 2fbd 0d5c a43d e184 56bc 72a0 47bd
000003d0: 4f16 abbd 8849 88bd da0c 513d b788 fdbd
000003e0: 10ca 903d a555 59bd 4b03 03be c610 e33c
000003f0: f404 993d 73dc b43d 0718 1ebd dbba 0abd

bias f4 [64]
0.018798893 -0.049777552 -0.06970358 0.08218613 -0.07503376 0.08816327 -0.032060392 0.052872796
-0.016280245 0.055516146 0.11782533 -0.11834477 0.0690515 -0.120850034 0.030546023 -0.08073957
0.075621754 -0.06737988 -0.011266526 -0.021653421 0.10911986 0.029502135 0.06678922 0.05188352
0.02150185 0.085396476 0.06139011 -0.051167738 -0.049679827 -0.11080836 -0.09686622 0.09977541
-0.07994968 -0.03932916 0.058682945 -0.062469468 -0.047000114 -0.107706964 -0.04044321 0.10146898
0.01971254 0.08252628 0.08385085 -0.08855379 0.003570796 0.04285105 0.0059424285 0.026694527
0.077066384 0.06303073 0.10260358 0.04448069 -0.03692106 0.1229091 -0.09161807 -0.08895251
0.057699524 0.043592036 -0.05371537 -0.10864691 0.090015166 -0.1052755 0.01799629 0.033435814
00000000: 2300 9a3c 8ce3 4bbd c0c0 8ebd 3451 a83d
00000010: 4dab 99bd f28e b43d c251 03bd 2591 583d
00000020: 265e 85bc e664 633d 684e f13d be5e f2bd
00000030: df6a 8d3d 3980 f7bd a73b fa3c ca5a a5bd
00000040: 94df 9a3d 76fe 89bd 3c97 38bc 8462 b1bc
00000050: 3c7a df3d 76ae f13c c9c8 883d d083 543d
00000060: a624 b03c 59e4 ae3d 3274 7b3d 4395 51bd
00000070: 137d 4bbd 7eef e2bd cc61 c6bd 0d57 cc3d
00000080: a8bc a3bd 9d17 21bd 875d 703d fcdf 7fbd
00000090: 3183 40bd 7895 dcbd c8a7 25bd f8ce cf3d
000000a0: 317c a13c 8a03 a93d ffb9 ab3d b05b b5bd
000000b0: 0404 6a3b 9584 2f3d b4b8 c23b 7bae da3c
000000c0: fbd4 9d3d 4116 813d d321 d23d 6231 363d
000000d0: 8a3a 17bd c4b7 fb3d 41a2 bbbd bc2c b6bd
000000e0: 5656 6c3d 908d 323d a604 5cbd 4582 debd
000000f0: df59 b83d ae9a d7bd f56c 933c fef3 083d

weight f4 [64]
0.9964146 0.98892236 1.004386 1.0002341 0.9998387 0.97255224 1.0038527 0.99869317
0.9916424 1.0061945 0.98447865 1.0096548 0.9780642 0.9829047 0.9722464 1.0009472
0.97725207 0.9993806 1.0023692 0.9822418 0.9865991 0.977916 0.97376657 1.0070537
0.992725 0.99517983 0.9747977 0.9854351 1.0005542 0.99800634 0.98574704 0.98620236
0.98355603 0.98009694 0.9930987 1.0042307 0.9649949 0.99078757 1.009437 0.97325146
0.99885094 1.0016582 0.9909654 0.9739953 0.99107933 0.99074477 1.0169599 0.99653983
0.9799828 0.9786516 0.9685537 0.9628731 0.9928146 0.9858418 0.99978757 0.96902096
0.96841073 0.9622272 0.9869471 0.99042827 0.9801819 1.0073832 0.9787521 1.0098009
00000000: 0715 7f3f 042a 7d3f b88f 803f ac07 803f
00000010: 6ef5 7f3f 2ff9 783f 3f7e 803f 5baa 7f3f
00000020: 47dc 7d3f fbca 803f cb06 7c3f 5e3c 813f
00000030: 6a62 7a3f a49f 7b3f 24e5 783f 0a1f 803f
00000040: 312d 7a3f 68d7 7f3f a24d 803f 3374 7b3f
00000050: c291 7c3f b458 7a3f c448 793f 23e7 803f
00000060: 3a23 7e3f 1bc4 7e3f 588c 793f 7a45 7c3f
00000070: 2912 803f 587d 7f3f eb59 7c3f c277 7c3f
00000080: 54ca 7b3f a2e7 7a3f b73b 7e3f a28a 803f
00000090: e809 773f 41a4 7d3f 3b35 813f 0227 793f
000000a0: b2b4 7f3f 5636 803f e9af 7d3f c257 793f
000000b0: 60b7 7d3f 73a1 7d3f be2b 823f 3c1d 7f3f
000000c0: 27e0 7a3f e988 7a3f 23f3 773f da7e 763f
000000d0: 1929 7e3f 2160 7c3f 14f2 7f3f c211 783f
000000e0: c4e9 773f 8654 763f 91a8 7c3f b58c 7d3f
000000f0: 33ed 7a3f eff1 803f 7f8f 7a3f 2841 813f

bias f4 [64]
-0.009181952 -0.020016003 0.015901642 0.0080962 -0.047847837 -0.031845305 -0.0058939974 -0.015851727
0.006727841 -0.0011325044 -0.025938384 0.0074647143 -0.0075598825 -0.011938346 -0.0072607733 0.0019143011
-0.008696665 0.0046295333 0.02550037 -0.03094818 -0.0096211275 -0.008299568 -0.015404002 0.0034706995
-0.0018787875 -0.0042959647 -0.049842786 0.008654581 0.012597556 -0.0066187615 -0.009366355 -0.017509082
0.00207721 -0.010424648 -0.009689915 0.013644609 -0.030099733 -0.002807135 -0.028133908 -0.020979391
-0.031460207 0.0073284614 0.005819052 -0.020141097 0.017619522 -0.014076595 0.029716445 0.0062549724
-0.05024798 -0.021242201 -0.056265566 -0.04460111 -0.0074038906 -0.016168509 0.0057283742 -0.03358555
0.019483468 -0.0167566 -0.0017506753 0.034394976 -0.027275395 0.03182748 -0.02635913 -0.028366856
00000000: e66f 16bc 9af8 a3bc 2944 823c eda5 043c
00000010: 18fc 43bd 3970 02bd 6f22 c1bb 7bdb 81bc
00000020: 3975 dc3b 8b70 94ba bc7c d4bc 909a f43b
00000030: e4b8 f7bb 0d99 43bc c8eb edbb 49e9 fa3a
00000040: 757c 0ebc 57b3 973b 27e6 d03c 0a87 fdbc
00000050: efa1 1dbc e9fa 07bc 1161 7cbc ad74 633b
00000060: a641 f6ba 2ac5 8cbb f327 4cbd f2cb 0d3c
00000070: fb65 4e3c 32e2 d8bb 5775 19bc 356f 8fbc
00000080: cd21 083b 25cc 2abc 73c2 1ebc a38d 5f3c
00000090: b793 f6bc e9f7 37bb 1579 e6bc f9dc abbc
000000a0: 6bdc 00bd 9723 f03b bfad be3b f1fe a4bc
000000b0: d156 903c 85a1 66bc e76f f33c 83f6 cc3b
000000c0: d3d0 4dbd 2004 aebc b976 66bd a7af 36bd
000000d0: 569c f2bb d273 84bc 16b5 bb3b 0091 09bd
000000e0: cb9b 9f3c 2345 89bc ea76 e5ba bfe1 0c3d
000000f0: a670 dfbc 885d 023d 1aef d7bc 9c61 e8bc

running_mean f4 [64]
-0.036996532 -0.26826143 0.065311 0.14069189 0.14746699 0.08963977 0.13735361 0.030352812
0.30740058 -0.15745763 0.13201666 -0.18731128 -0.21729541 0.029544385 0.0059822877 -0.38743612
-0.22037743 -0.3474709 0.41393697 0.10467011 0.16878073 -0.22343573 0.19850644 0.110423096
-0.012462186 -0.04453075 0.03446317 -0.27871644 -0.071775466 -0.39321554 -0.24072768 -0.3876821
0.023330327 0.03428044 0.27942544 -0.022429058 -0.3193965 -0.3622304 0.01255273 -0.0536907
0.111283705 0.54715115 0.36378014 0.20776118 0.11033604 0.3230262 -0.18519662 -0.03775808
0.18829142 0.3223559 -0.089740865 0.19413488 0.090181455 -0.19917904 0.1612019 -0.20509174
0.07994974 -0.14376545 -0.14653783 -0.18082342 0.52045697 0.050838858 -0.106919736 0.12034051
00000000: ad89 17bd 9059 89be c6c1 853d 8911 103e
00000010: 9601 173e 0e95 b73d 6da6 0c3e 76a6 f83c
00000020: 9c63 9d3e 933c 21be 602f 073e 87ce 3fbe
00000030: b082 5ebe 1107 f23c 1107 c43b 075e c6be
00000040: 9faa 61be b5e7 b1be 8cef d33e 485d d63d
00000050: dbd4 2c3e 56cc 64be 4645 4b3e 8125 e23d
00000060: 322e 4cbc e065 36bd 4129 0d3d ecb3 8ebe
00000070: 04ff 92bd 8c53 c9be 5181 76be 457e c6be
00000080: 3e1f bf3c a669 0c3d da10 8f3e 25bd b7bc
00000090: f087 a3be 4376 b9be f7a9 4d3c c8ea 5bbd
000000a0: b6e8 e33d 1912 0c3f 6441 ba3e 59bf 543e
000000b0: ddf7 e13d b163 a53e 2fa4 3dbe 37a8 1abd
000000c0: 77cf 403e d50b a53e 0fca b7bd 4bcb 463e
000000d0: 0eb1 b83d 97f5 4bbe 1c12 253e 9203 52be
000000e0: b0bc a33d 4037 13be 030e 16be c629 39be
000000f0: ab3c 053f 683c 503d bcf8 dabd 1675 f63d

running_var f4 [64]
0.10215219 0.09165426 0.13980462 0.1250783 0.13687555 0.1360979 0.11135591 0.13789672
0.13000327 0.11267682 0.08705944 0.11965178 0.106166065 0.11962974 0.10157539 0.114611216
0.13986334 0.123198956 0.14338383 0.11641056 0.13011187 0.09905184 0.11617409 0.1095141
0.18025179 0.110551335 0.10848865 0.14709395 0.12407052 0.11767211 0.09836588 0.07553416
0.13763545 0.1318101 0.10567104 0.088395245 0.11117935 0.11510638 0.17344092 0.09269634
0.13382086 0.09897953 0.12480918 0.11727748 0.12048183 0.12060663 0.1327676 0.14136277
0.10205792 0.11353555 0.11218491 0.12431567 0.13045259 0.10604959 0.10816335 0.09954238
0.12774493 0.12345246 0.11315051 0.13816065 0.13394007 0.12575425 0.09716477 0.108273946
00000000: 2b35 d13d 3bb5 bb3d f128 0f3e 8714 003e
00000010: 1b29 0c3e 3f5d 0b3e 910e e43d cc34 0d3e
00000020: 941f 053e 1bc3 e63d 384c b23d fe0b f53d
00000030: 986d d93d 7000 f53d c206 d03d 49b9 ea3d
00000040: 5638 0f3e bc4f fc3d 36d3 123e a968 ee3d
00000050: 0c3c 053e b1db ca3d aeec ed3d ee48 e03d
00000060: ed93 383e bd68 e23d 4c2f de3d cc9f 163e
00000070: af18 fe3d 13fe f03d 0d74 c93d a7b1 9a3d
00000080: 4ff0 0c3e 3af9 063e 0f6a d83d 9108 b53d
00000090: 00b2 e33d e5bc eb3d 7f9a 313e 94d7 bd3d
000000a0: 5608 093e c8b5 ca3d f59b ff3d 2d2f f03d
000000b0: 2dbf f63d 9c00 f73d 3bf4 073e 67c1 103e
000000c0: be03 d13d 5485 e83d 34c1 e53d 3799 fe3d
000000d0: 5d95 053e 8730 d93d bf84 dd3d e0dc cb3d
000000e0: 91cf 023e a5d4 fc3d 74bb e73d fc79 0d3e
000000f0: 9627 093e b9c5 003e 53fe c63d bbbe dd3d

weight f4 [5, 64]
0.085557625 0.04567637 0.036570746 0.045131225 -0.014313279 0.07500082 0.057041336 0.028742205
0.054736223 -0.108635314 -0.019038092 -0.14575613 -0.0003658564 -0.12260293 -0.094837226 -0.12202023
-0.057398204 0.041156616 -0.1018475 0.1023422 -0.06594267 0.036745936 0.0028723942 0.102814704
-0.046647124 0.1138191 0.03887923 -0.09111157 -0.087180935 0.0773396 0.012379494 -0.0028399252
-0.0077883964 -0.018744564 -0.11004913 0.028351922 0.03301441 0.05523703 -0.11501513 0.107018456
0.046677414 -0.04079893 -0.12048226 0.08459637 -0.053070426 -0.074163854 0.09436674 -0.061722845
0.101093784 0.08447605 0.021884464 0.06652979 0.1062901 0.03917608 -0.030918395 -0.026772175
-0.06449065 0.0869739 0.06315015 -0.0531154 0.025227886 -0.0592287 -0.027121497 0.00066297816
-0.07754869 0.08303339 -0.015126333 0.06662021 0.042856842 0.0140429335 -0.04350848 -0.12411966
-0.023530612 0.10456914 -0.06398767 -0.0213028 -0.061754093 -0.0643035 -0.045886826 -0.09283928
0.0771146 0.070089 -0.005694527 0.064291775 -0.002027865 -0.059266813 0.081640415 0.01907531
0.006025343 0.09926976 -0.04041251 0.05694873 0.057919566 0.010831835 0.0679035 0.037578683
0.09962778 0.08152664 0.020830985 -0.07270573 -0.034170844 -0.00076091854 -0.0012656694 -0.031758092
0.027825173 -0.007755623 0.11663323 0.109528095 -0.0608728 0.0655183 -0.13132688 -0.06966694
-0.09420917 -0.025848636 0.013991925 -0.047697477 0.08082254 0.020014597 0.032859787 0.0714873
-0.07819151 0.01824966 0.08639722 -0.10222183 0.055137854 -0.02003229 -0.032054003 0.04239435
-0.050592426 0.002767962 0.029747732 0.015716672 0.07904641 0.038266074 0.10435911 -0.0014704893
0.0021715316 0.01896513 -0.05895187 -0.010034325 0.11425566 0.055097908 0.107263826 0.07481218
-0.08182654 -0.08008134 -0.08129847 -0.060680524 0.054069623 0.10025476 0.031530365 -0.08627757
-0.04994048 -0.08834718 -0.03803881 -0.10734644 -0.11235866 -0.13338321 0.09859888 -0.07864488
0.0019921232 -0.028541317 -0.07999016 0.10291799 0.02943497 0.09437411 -0.114984125 -0.08367142
0.04715638 0.08797065 -0.08327636 -0.008436049 0.010034366 0.018494535 0.02434211 -0.041807227
-0.018297026 -0.079135455 -0.036629952 0.033273537 -0.005970931 0.050961047 0.08368762 -0.09170366
0.041381758 0.040899135 0.04190598 -0.024268962 -0.074257545 -0.10617023 -0.0073459325 -0.06849385
0.12018803 -0.03307663 -0.09263154 -0.011075801 0.07811219 0.0006633002 0.057158552 -0.050094686
0.043035742 0.0061786054 0.06607434 0.09195153 -0.091481775 -0.031949013 -0.09211934 0.0163977
-0.07217881 0.035785694 -0.076567106 -0.07296524 -0.022245852 -0.08533289 0.05236017 0.10610744
-0.06897766 -0.074516006 0.018217698 0.027844582 -0.052616492 0.01283277 -0.10857722 0.09033194
-0.091623396 0.054720033 0.048229627 -0.019626463 0.0905117 -0.111305244 -0.01615883 -0.06423498
0.055138595 -0.0058848555 0.015239081 -0.04195584 0.0069944058 -0.039566647 -0.026735228 0.072809435
-0.02745605 0.020238237 0.0930248 0.05639047 -0.031187061 0.019314526 0.0039804694 0.06859777
-0.016911902 0.071471125 -0.10147905 -0.0014379679 0.109728135 -0.07886454 0.10649289 -0.10630276
00000000: d638 af3d 2517 3b3d 35cb 153d 85db 383d
00000010: 3e82 6abc 089a 993d 2da4 693d c674 eb3c
00000020: 1733 603d 317c debd c6f5 9bbc 1841 15be
00000030: 6ad0 bfb9 3f17 fbbd 053a c2bd bee5 f9bd
00000040: 611a 6bbd d793 283d 6c95 d0bd ca98 d13d
00000050: f30c 87bd e882 163d c73e 3c3b 8490 d23d
00000060: 0e11 3fbd fd19 e93d d43f 1f3d b498 babd
00000070: eb8b b2bd 3964 9e3d 5cd3 4a3c 0a1e 3abb
00000080: ce35 ffbb 338e 99bc 7061 e1bd 4a42 e83c
00000090: 1e3a 073d 3940 623d 0d8d ebbd 7e2c db3d
000000a0: d130 3f3d c71c 27bd 67bf f6bd dd40 ad3d
000000b0: 6060 59bd 38e3 97bd 5943 c13d 18d1 7cbd
000000c0: 420a cf3d c801 ad3d 0c47 b33c c540 883d
000000d0: a0ae d93d 1977 203d 9348 fdbc 5251 dbbc
000000e0: ad13 84bd 5f1f b23d de54 813d 898f 59bd
000000f0: b6aa ce3c cb99 72bd e72d debc b6cb 2d3a
00000100: d9d1 9ebd 690d aa3d 70d4 77bc 2d70 883d
00000110: a88a 2f3d 5514 663c f335 32bd 7332 febd
00000120: 45c3 c0bc 5828 d63d f80b 83bd 3683 aebc
00000130: dcf1 7cbd 8eb1 83bd d3f3 3bbd 8522 bebd
00000140: 42ee 9d3d d28a 8f3d 2899 babb 68ab 833d
00000150: eee5 04bb c2c1 72bd 1733 a73d d343 9c3c
00000160: 3e70 c53b f24d cb3d 9787 25bd 1243 693d
00000170: 113d 6d3d 0278 313c fd10 8b3d 1bec 193d
00000180: a609 cc3d 70f7 a63d bea5 aa3c bee6 94bd
00000190: baf6 0bbd 6178 47ba d1e4 a5ba c614 02bd
000001a0: 9ef1 e33c e222 febb 67dd ee3d 4450 e03d
000001b0: c255 79bd 752e 863d 8e7a 06be 8aad 8ebd
000001c0: bdf0 c0bd 85c0 d3bc 633e 653c 6e5e 43bd
000001d0: 4a86 a53d a7f5 a33c fc97 063d ef67 923d
000001e0: df22 a0bd 5080 953c 07f1 b03d ae59 d1bd
000001f0: 3bd8 613d c21a a4bc 0f4b 03bd b3a5 2d3d
00000200: 013a 4fbd b266 353b 84b1 f33c 40c0 803c
00000210: 16e3 a13d e3bc 1c3d 3bba d53d 6fbd c0ba
00000220: 4150 0e3b c35c 9b3c 8477 71bd 0267 24bc
00000230: dffe e93d 58ae 613d 23ad db3d 2137 993d
00000240: ac94 a7bd b001 a4bd d07f a6bd 248c 78bd
00000250: 1c78 5d3d 5e52 cd3d fc25 013d 4bb2 b0bd
00000260: 648e 4cbd 5eef b4bd 95ce 1bbd 73d8 dbbd
00000270: 4c1c e6bd 9c95 08be 36ee c93d 9110 a1bd
00000280: 488e 023b 7bcf e9bc e2d1 a3bd abc6 d23d
00000290: 9b21 f13c 3747 c13d cc7c ebbd ec5b abbd
000002a0: 0c27 413d f529 b43d cc8c aabd 5b37 0abc
000002b0: 2e67 243c da81 973c 1b69 c73c 0e3e 2bbd
000002c0: a5e3 95bc c511 a2bd 4a09 16bd d549 083d
000002d0: cda7 c3bb 88bc 503d 6a64 ab3d 21cf bbbd
000002e0: eb7f 293d da85 273d 9ba5 2b3d b4cf c6bc
000002f0: 5714 98bd c76f d9bd 26b6 f0bb 8146 8cbd
00000300: 2425 f63d 5c7b 07bd 9bb5 bdbd 4777 35bc
00000310: 49f9 9f3d 53e1 2d3a 161f 6a3d 1630 4dbd
00000320: 3f46 303d e675 ca3b fc51 873d 1551 bc3d
00000330: cc5a bbbd f8dc 02bd 11a9 bcbd 7854 863c
00000340: 7cd2 93bd 0594 123d 37cf 9cbd cd6e 95bd
00000350: ef3c b6bc 03c3 aebd 9e77 563d dc4e d93d
00000360: 2944 8dbd d99b 98bd 483d 953c 521a e43c
00000370: 6484 57bd 8a40 523c bc5d debd f4ff b83d
00000380: 0ca5 bbbd 1d22 603d 6e8c 453d adc7 a0bc
00000390: 335e b93d 01f4 e3bd 865f 84bc a18d 83bd
000003a0: 02d9 613d bfd5 c0bb 57ad 793c e3d9 2bbd
000003b0: 5431 e53b a310 22bd d603 dbbc 1d1d 953d
000003c0: 83eb e0bc a9ca a53c c983 be3d b2f9 663d
000003d0: 027c ffbc 7f39 9e3c 996e 823b fd7c 8c3d
000003e0: d48a 8abc 745f 923d 40d4 cfbd 327a bcba
000003f0: 25b9 e03d bb83 a1bd f218 da3d 43b5 d9bd

bias f4 [5]
0.0014570194 -0.21235119 0.026038835 -0.008024486 -0.0046463283
00000000: 75f9 be3a 9772 59be 654f d53c 2279 03bc
00000010: 3a40 98bb
